DataShared/results/Hopper-v2_buffer_mod_p_mixed_0.6_final/bcq_actor_target_tmp.pt (torch_old, 509852 bytes, 6 tensors)

l1.weight f4 [400, 14]
00000000: 0d95 e3be 837d b840 1797 aabe d958 33c0
00000010: 0e07 10bf 81dd bf3d 832b ec3d dad0 1c3f
00000020: 8ab9 42bd ab0f bdbe c31c 403e 494e 393f
00000030: 6d5d cbbd 06cf dd3d 0d72 3fbe 757a 7d3f
00000040: ca51 80be 5083 2c40 a428 d8be 203e bdbe
00000050: c1a8 be3e 6a53 913f 75da 963e dc3d af3e
00000060: 789e 043e 79c7 bd3f bf18 bc3f 4231 6b3e
00000070: 26e9 d1be f0ee adbf f016 893d 5d4a 9c3f
00000080: 34b4 71be 2c7e d5bf c374 093f 1830 10bf
00000090: 84e3 98bd 188d 5fbe 6739 0d3f 1d02 98be
000000a0: 88d6 b03f 6e73 b33e 7a95 bb3d b58e 3b3f
000000b0: df81 b33e b3c2 a53f e017 163f 4c73 babe
000000c0: 5521 bb3e 08e5 39bf 1683 05be 4007 0b3f
000000d0: 3308 873e b1c2 39bf d652 c53f df69 5ebe
000000e0: b2be 0abf 35da c6be e41f 313e 4625 043f
000000f0: bac7 b0bd 31dc 4abf 38e7 cb3d 4211 98bd
00000100: 3447 173e 4ac1 0abb d77f 5c3e f178 5e3f
00000110: c521 5fbf cc9b b73f 7fbe 57be 5855 aebf
00000120: d283 973f 41ad eb3f a673 253f ced1 02be
00000130: 7071 473f ff13 30bf 4c79 f0be 3e35 983d
00000140: 6b14 5dbe fcd3 87bf be1f 883e 0341 88bf
00000150: 8f22 223d b906 9e3f 3683 2e3e d79a cebf
00000160: b4b1 a33e acf9 26bf 8d1e 2440 cf92 3ebe
00000170: 4061 06be 2890 563e 55aa 14bf 373c babe
00000180: 80d4 8e3f 4956 293f d67f a5bf 7b8e f93a
00000190: d8d3 9b3f 76f9 1ebf 59f8 b3be 6b94 39bf
000001a0: fdf7 18bf ad6e 8abd a5df 903b a0a4 f7bd
000001b0: b6f3 af3e 612b 76bf adb1 e9be 81f3 a83d
000001c0: 20c6 e2be 2d3f 8a40 830d fd3e f005 56c0
000001d0: c4a7 89bd 626d b2be 5fc4 723e 4246 db3e
000001e0: 41c5 85bd ee06 2a3d 7295 8d3c 698f 2b3f
000001f0: 4523 75be 18f3 493e 7950 3dbf be8a 1840
00000200: 2f33 b53e a6c2 24c0 e932 b8bf e0ae 5c3e
00000210: 738c 4ebe a643 9b3e 6995 68be 1f5c abbe
00000220: bbd5 d4bd 3b8f 10be 6b06 763f 19f9 d5bd
00000230: ee80 bb3e e510 7cbf c3b8 4f3e 9b57 af3f
00000240: c6b7 bb3e 0277 29be b2e3 673f 9a2b a8bf
00000250: ad01 14bf a18d cebd 8944 f8be 2979 a8bf
00000260: c020 8dbe 34a1 b2bf 111e 17be edad a6bf
00000270: c38f a43f 8514 8dbf eacf 41bf 3b53 32bf
00000280: 32ac 413d 25de 33be 9fdc 103f 29de 1dbe
00000290: e210 c7be 876d 52be 480b 8ebf 3cb3 ce3e
000002a0: 2e43 7abf 64d1 0a40 b0d3 023f bb13 aebf
000002b0: 3916 8abf 85d4 11be bf0d 4dbf 1f79 f33e
000002c0: 8247 2b3e bcc9 edbe 84c1 283c ce49 1dbe
000002d0: fbb5 e1be 4130 babe 7af2 40be 725b a7bf
000002e0: 7f7f 843f 52c6 bc3e 344a 15bf 51f1 d3be
000002f0: 44d8 63be 6cd5 2e3f 6ca9 be3e eb0b 803f
00000300: bc01 debe 6015 6fbf f093 92bf e5d0 823f
00000310: de1e 07bf 0791 a03f 28bc 023f c201 ad3f
00000320: 20e0 57bd d561 b0be 00ed d0b6 15f1 fe3e
00000330: 3404 9b3c 3591 073f b6df 493e 3490 af3f
00000340: 9376 073f 62ed 2c3f 94e2 97be 13ed 7cc0
00000350: 6742 713e 00ba b4bf ca64 abbe a5c6 c3be
00000360: f93b 94bf f607 bdbe 1c53 1b3f 9ec9 923d
00000370: cadb 1a3d 9365 363f e9ca 68be a7ef 9bbd
00000380: 389d 5ebf b931 cd3f b21b 2a3f 3815 aabe
00000390: 890f 48bf ece8 d6be c361 bebe 330c 913e
000003a0: 4e49 73be bf5b 033f 66ba 64be 5965 d9bf
000003b0: 01e1 73bf f441 4fbf d324 4cbe 0438 aebe
000003c0: 14a5 693f c1df 8c3f 9809 46bc 4857 3fbf
000003d0: 6481 893f ac23 4bbf 516c ac3d 9cff fdbe
000003e0: 598e 253e a094 fbbf e4c8 bbbf 519a 0cbc
000003f0: bb0c 3abe b5d6 4340 2257 f5be 0073 0840
-0.44449654 5.7653213 -0.33318397 -2.8022978 -0.56260765 0.093684204 0.11531737 0.6125618
-0.047540225 -0.36926016 0.18760972 0.7238508 -0.09929929 0.10830502 -0.1869585 0.9901498
-0.250624 2.6955147 -0.42218506 -0.3696146 0.37238124 1.1353581 0.29463544 0.34226882
0.12951076 1.4826499 1.4695052 0.22968009 -0.4099819 -1.3588543 0.06693828 1.2210194
-0.23603898 -1.667913 0.5369379 -0.56323385 -0.0746527 -0.21831167 0.55165714 -0.29689112
1.381547 0.35049003 0.0915937 0.7326463 0.3506002 1.2950042 0.5863018 -0.3641609
0.36548868 -0.726151 -0.13038287 0.5430794 0.26373443 -0.725627 1.5415905 -0.21720074
-0.5419723 -0.38838354 0.17297322 0.51619375 -0.08631845 -0.79242235 0.09956211 -0.07425167
0.14773256 -0.0021172338 0.21533142 0.8690329 -0.87160903 1.434442 -0.21068762 -1.3619795
1.1837103 1.8412248 0.6462959 -0.12775347 0.77907467 -0.6878051 -0.46967542 0.0743203
-0.2158982 -1.0611567 0.26586717 -1.064484 0.03958374 1.2345802 0.1704224 -1.6141003
0.31971514 -0.6522472 2.5643647 -0.1861069 -0.13123035 0.20953429 -0.58072406 -0.36374065
1.11586 0.66147286 -1.2929637 0.0019039655 1.2174025 -0.620994 -0.35150412 -0.7249209
-0.597534 -0.06759391 0.0044211918 -0.120919466 0.34365624 -0.9615994 -0.45643368 0.0824957
-0.44291782 4.320212 0.4942437 -3.3441124 -0.06721452 -0.34849077 0.23707722 0.4282704
-0.06531764 0.041510515 0.017283175 0.670157 -0.23939236 0.19721639 -0.73950917 2.3834682
0.35390612 -2.5743804 -1.4390537 0.21551085 -0.20170765 0.3032505 -0.22713245 -0.3346872
-0.10392328 -0.14117138 0.96103543 -0.10447902 0.36621803 -0.9846328 0.20285325 1.369861
0.36663646 -0.16549304 0.9058181 -1.3138306 -0.5781506 -0.10085607 -0.48489788 -1.3161975
-0.2756405 -1.3955445 -0.14757563 -1.3021828 1.2856373 -1.1021887 -0.75707877 -0.6965825
0.04728336 -0.1756521 0.5658664 -0.15416779 -0.38880068 -0.20549594 -1.1097193 0.4037112
-0.9775876 2.1690302 0.5110426 -1.3599771 -1.0788032 -0.14241226 -0.800991 0.47553346
0.16726497 -0.46442974 0.010300044 -0.15360186 -0.44084153 -0.3636494 -0.18842497 -1.3074782
1.0351409 0.36870056 -0.5831635 -0.41395047 -0.22250468 0.68294406 0.37238634 1.0003637
-0.43360698 -0.9339199 -1.1451397 1.022 -0.52781475 1.2544259 0.51068354 1.3516161
-0.052703977 -0.3444964 -6.2264735e-06 0.49793306 0.018922903 0.52955943 0.19714245 1.3715882
0.52915305 0.6754972 -0.29665053 -3.9519699 0.23560487 -1.4119263 -0.33475333 -0.3823749
-1.1580802 -0.36920136 0.6067369 0.07167362 0.037807263 0.7124874 -0.22733654 -0.076140694
-0.86958647 1.6030799 0.6644851 -0.33219314 -0.78148705 -0.4197458 -0.3718396 0.2832962
-0.23758432 0.5131187 -0.2233673 -1.6984054 -0.95265204 -0.8096001 -0.19935922 -0.34027112
0.91267514 1.1005784 -0.012087248 -0.74742556 1.0742612 -0.79351306 0.08419097 -0.49609077
0.16167583 -1.9654732 -1.4670682 -0.008581714 -0.18168919 3.0599797 -0.4791804 2.132019

l1.bias f4 [400]
00000000: a1a2 07be f833 61be 67df 60be 4756 2abe
00000010: 1874 28bf 0c51 bcbd 5067 383e 591a 64bf
00000020: 8e06 833e ae76 dabe 0bfa 86be a4b6 16bf
00000030: e195 10bf 761f 20bf e2bc d2be 359c efbe
00000040: f840 30bf 4c84 38bd 3c6b c9be b92b 43bf
00000050: 56b7 87be 01ab 043d 6cda aa3d aa22 21bf
00000060: 9152 1b3e a488 3bbf 22f3 68be 487f db3e
00000070: bd50 f2be 8c3e a23d 89ab 02be 20a3 d7be
00000080: feef 153f c13c 3abe 51de 02bf a38c 163e
00000090: ddbd 9d3e f1f3 a43d f221 c0bd 8d66 e4be
000000a0: ed25 e2be 067b d0be 106d 76be 6647 29bf
000000b0: e93f 48bf a8df 42bd 8537 88be 1743 75be
000000c0: 2244 9bbe b872 4ebf 0494 153e e0e0 09bd
000000d0: c04a 11bf d379 27be d316 06be 4e7d fc3d
000000e0: 116b babe b1b0 cebc 3937 fdbe 7404 12bf
000000f0: 04ea a0be 8bc9 8fbe a25a f5bd 953b d43e
00000100: 17af 2cbf 9df2 3ebf 73d1 1a3e 5341 1ebf
00000110: 2410 13bd d8a9 4cbe dd69 88be 98b7 36be
00000120: 62b5 ab3e 79e1 c13d b2e9 72bf 7aed 59bf
00000130: 9df8 42bf ae4a 89be 1cfa 5cbe 210f 393d
00000140: 349d 87bf 3910 173e 99e3 cf3e 4129 9ebe
00000150: c089 e1bc 4ede ad3e af8f abbe 6e5b f7be
00000160: 46c4 44be 3030 623e 7b79 113e 4aba eebe
00000170: 61c7 b4be be7b 083e 42d1 f5be 599e ca3e
00000180: 1213 46bd 1ffa 4d3d 40a8 f5be a0ca 143e
00000190: d3e8 8bbd af35 ccbe f154 a5be 4f63 003f
000001a0: 4607 8abe 5545 4abe 6c3e 0e3e 2622 b0be
000001b0: 22c6 07bf 3b06 543e 55ef 193d e625 4fbe
000001c0: 2d61 1fbe fc2a e03d f33b bcbe efde 56be
000001d0: e0de f3be b079 183f 0f0a f8be 81b8 90be
000001e0: 2c53 54be 6be7 bd3e 7a02 3cbb aa68 4e3d
000001f0: 60db 58bf 4d14 a7be 8447 3dbe eba1 e0be
00000200: 111f babe 1847 cfbe 7112 1cbd 6680 2fbf
00000210: eab8 20bf 94ee d2be 8209 e7b9 1945 133f
00000220: e59a bcbd 173c b93d bb2a fbbe 260c 2cbf
00000230: 52dd bbbb dfa3 87be 2934 d6be 6cda 1bbe
00000240: 9280 14be 2fe3 debd 5cd9 983e dd20 123c
00000250: ff94 70be fbd4 093e 03d3 0fbf b083 02bf
00000260: df9a 09bf 8211 22bd 6c39 19be 82b5 0dbf
00000270: c5fb 09bf aec6 38bf 7e4f e53d 8cd5 07be
00000280: 4e3c 00bf 5107 43bd 52bf d1be 5c0c 5cbe
00000290: 875d d1bd 40e3 37bf 2ca4 d3be 4399 07bf
000002a0: 081e 143e 0612 833d 8901 b6be 601e 7d3e
000002b0: dcda 15bf c987 913e fda6 58bf 0fc2 aabe
000002c0: f796 f6be d297 f4be 7d4a 813e 956b 0ebf
000002d0: 9863 283e bf60 c5be ba4f b7be 59cc 703d
000002e0: 1dcd fbbd 3422 c3bd c4ae 95be 053f 2dbf
000002f0: 4f79 10bf fd50 0dbf 00d8 243e 6fce d8be
00000300: cbb0 18bf 01d9 c7bc 228d 1ebf 73c8 903e
00000310: c88b 11bf 9a19 2f3e c1ad 85be 4e1e 1dbf
00000320: c44a ecbe 5f08 0cbf 1092 d7be 54b1 43bf
00000330: 1759 26bf 1721 babe 6814 1bbf 4b02 36bf
00000340: 033c 22bf 2579 05be 1d62 21be 953d 8d3e
00000350: dd87 76be d82d 813e 8a51 dcbe aaa1 fa3d
00000360: ea61 f5be bbcd 673e 154e 07bf 6b22 b73d
00000370: 8e23 98be 7828 89be 9073 aebe e5fb c5bd
00000380: bf45 f2be 2ec4 00be dae4 f7bd 6989 c83d
00000390: 7fc7 b0be 4067 34bf 72a5 d0be c14f 393c
000003a0: 517c 39be 7f0b ffbd 5df7 23bf 16e2 87be
000003b0: bf61 b7bc 9624 83be d43b 5abc 56af 943d
000003c0: f655 f5be e6d1 05be 31ad 2bbe 62e0 8ebd
000003d0: b90f 433f 7a6b 83bf c715 c2be 4932 71be
000003e0: dd9e b43d c241 73be 370b d0be 5477 6ebe
000003f0: 0804 20bf 0983 81be 1a87 a5be d66c f5be
-0.13245632 -0.21992481 -0.21960221 -0.16634475 -0.65802145 -0.09195146 0.1800816 -0.89102703
0.25590938 -0.4266867 -0.26362643 -0.5887244 -0.564787 -0.62548006 -0.4115973 -0.46798864
-0.68849134 -0.045048043 -0.39339626 -0.7623859 -0.26507062 0.032389645 0.08342442 -0.6294352
0.15168215 -0.7325537 -0.22748998 0.42870545 -0.47327223 0.07922086 -0.12760748 -0.42116642
0.58569324 -0.18187238 -0.5112048 0.14702086 0.30808917 0.08054341 -0.093814746 -0.4460949
-0.4416956 -0.4071886 -0.24065042 -0.6612457 -0.7822252 -0.047576576 -0.26604858 -0.23951374
-0.3032542 -0.80643797 0.14607245 -0.033661723 -0.56754684 -0.16355066 -0.13094644 0.123285875
-0.3640981 -0.025230737 -0.49456194 -0.57038045 -0.3142854 -0.28083453 -0.119801775 0.41451707
-0.67454666 -0.7458895 0.15118961 -0.61818427 -0.035904065 -0.19986665 -0.26643267 -0.17843473
0.33536822 0.094668336 -0.9488784 -0.85127985 -0.76160604 -0.2681479 -0.21579784 0.045180444
-1.059485 0.14752282 0.4060333 -0.3089085 -0.027531505 0.33958668 -0.3350806 -0.48311943
-0.19215497 0.22088695 0.14206497 -0.46626502 -0.35308364 0.13328454 -0.48011214 0.39573935
-0.04835803 0.050287362 -0.47979927 0.1453042 -0.06831517 -0.39884707 -0.32291368 0.5015153
-0.26958674 -0.1975301 0.13891 -0.34401053 -0.530367 0.20705502 0.03758176 -0.20229301
-0.15564413 0.109456986 -0.36764488 -0.2098348 -0.47630978 0.5956068 -0.48445174 -0.28265765
-0.20734853 0.3709062 -0.0028688 0.050392784 -0.8470974 -0.32632676 -0.18484312 -0.43873534
-0.36351827 -0.40483928 -0.038103525 -0.68555295 -0.62782156 -0.41197646 -0.00044066837 0.5752731
-0.09209231 0.09044664 -0.49056038 -0.6720604 -0.0057331705 -0.2649221 -0.4183667 -0.1522004
-0.1450217 -0.108831756 0.29853332 0.008918968 -0.23494337 0.13460152 -0.56181353 -0.5098219
-0.5375194 -0.039567478 -0.14963311 -0.55355084 -0.53899795 -0.7217816 0.111968026 -0.13265055
-0.5009202 -0.0476144 -0.40966278 -0.2148909 -0.10222917 -0.7183113 -0.4133619 -0.52968234
0.14464581 0.06399922 -0.35548046 0.24718618 -0.5853708 0.28423908 -0.84629804 -0.3335118
-0.48162052 -0.4777208 0.25252143 -0.5563291 0.16444242 -0.38550374 -0.35803014 0.05878863
-0.12294982 -0.09528008 -0.29234898 -0.67674285 -0.564351 -0.55201703 0.16098022 -0.42344996
-0.59644765 -0.024395468 -0.619341 0.2827793 -0.56853914 0.1709961 -0.26109126 -0.61374366
-0.46150792 -0.54700273 -0.42103624 -0.76442456 -0.6497969 -0.3635337 -0.6057801 -0.7109725
-0.6337282 -0.13034494 -0.15760083 0.27586046 -0.24075265 0.25230289 -0.4303096 0.12237866
-0.47926265 0.22637074 -0.5285352 0.089421116 -0.29714626 -0.26788688 -0.34072542 -0.09667186
-0.47318837 -0.12574837 -0.12104197 0.09791834 -0.34527203 -0.70470047 -0.40751225 0.011310519
-0.18113829 -0.124533646 -0.6404932 -0.26539677 -0.022385476 -0.2561385 -0.013319928 0.07260005
-0.47917145 -0.13068351 -0.16765286 -0.069763914 0.76195866 -1.0267174 -0.3790724 -0.23554339
0.08819363 -0.23755553 -0.40633556 -0.23287708 -0.6250615 -0.25295284 -0.32329637 -0.47934598

l2.weight f4 [300, 400]
00000000: 7cd6 22c0 3866 9bbe 2a66 01bf 2ac2 f6be
00000010: bce0 933e 0e12 2dbf 9fe8 1e3e 1f3b 26bf
00000020: 6ea2 aebf 576a b4bc f54e 20be 01c6 a1be
00000030: 06bb 48bf c321 213f 704c b8be d115 1c3f
00000040: 8dba 683e 37f0 4cbe a99c 263e 70cd c3bf
00000050: 1961 8a3e 1818 b3bf 3973 6f3e 5dcd 97bf
00000060: 0fae 373f bf6b 7b3f ae19 58be 04ef 3ebe
00000070: 83ed a1bf 4ac8 ca3e bbfd a6be c451 b3bf
00000080: bd54 38be f36f 193e 8ebc 68be 06de a53d
00000090: 8377 a43e f9b6 7bbc d699 733d 8ebb 21bf
000000a0: 8997 3f3d aa85 97bd bab0 59bd 0980 d83e
000000b0: 3d93 83bf 17f7 01be 16b3 153d a248 5dbf
000000c0: 7ce6 a13d e93b e33e a07b 9abf 072b 7abe
000000d0: 14c9 553e f089 be3e 0770 89be 12a2 31bd
000000e0: 9d1c dcbc e77d 9f3e 2a97 44bd de6e 94be
000000f0: 522e f1bf 574a 1abf c1d9 433f 87cc 7c3e
00000100: d2db 093f 315b cdbd f478 163d a186 d2be
00000110: 32cd a6bf 26db 22bd f524 a2bf 555e 62be
00000120: 7fa4 edbf 6e9c 5ebf 60ed 70bf 68c1 84be
00000130: f84f a0bf b2c4 2fbf 2c8f 073f 0f6a 87be
00000140: fbd7 05c0 3874 563e c6ee b23f c538 aebc
00000150: 874a 103f 5057 363f 4dd2 923f aeb3 b8be
00000160: 3ce0 533e 087f e6be e50e 9a3e 7424 553e
00000170: 343b bcbf 6ff0 8bbf 49b5 063f 3350 9b3e
00000180: dcbb 94bf d808 d3bf cd6b b7be 42f7 51be
00000190: f9d3 623f 009a 52bf 5a2c 113f 8cdb 02be
000001a0: 16f2 283f c6df 9a3e bd4e 143e 6d93 853e
000001b0: c115 b03e d0ef afbf d325 0d3f aedc cfbf
000001c0: 25ee 4d3f 632a b6b9 ec87 b9bf 5d0a e13e
000001d0: 5180 983e 0c99 88bf bd76 0fbf 78d4 95be
000001e0: 8853 a6be da57 11bf d9e0 2abf 7ef6 25bf
000001f0: 37ba 653f f1d4 40bf 9625 a13e 059f 163e
00000200: a4dd 193e e87a 8c3f 6602 38c0 80c7 debd
00000210: 62bd d43e 0a4f 9b3c c8fb 433f e20c 2f3e
00000220: 5edb 803e 4985 15bf 6a43 28bd 2d81 3fbf
00000230: 72ac d63c 2a94 d3be 0614 a2bd 8180 cebd
00000240: 8fc9 99be 1aa8 173f 932c ccbd fc6b 87be
00000250: dc15 fc3e aa62 3abe 7661 803e 1c50 b43e
00000260: c916 833f 4f2c 003f ca1a de3d 8d53 1a3f
00000270: fbf9 8cbf fba8 1ebf 14ef fb3e 59bb a6bf
00000280: 412f efbe 58d9 2cbe 6df0 b1be a028 52bf
00000290: 4a32 493e 2461 8cbf 5f49 e33e e988 253f
000002a0: 2122 343e 1950 b3bf ca44 acbf 0395 983d
000002b0: 836b 03bf e46e c9be df5c 30bf e2f6 e73e
000002c0: 8f31 363e 0aa8 463e 3e4d 34be 325e 01bf
000002d0: e65d 44bf dfe6 b43c b34b cebe d1e1 a93f
000002e0: 7fc4 b0bf 9dfb 4e3e c2b6 58bf 7332 a23f
000002f0: 6ab7 65be 33af 603e e7fa bbbf 65e8 4e3f
00000300: a930 9a3f fd3e bfbd 5cc7 dcbe 0692 60bf
00000310: 8592 b53e cf5a 59bf 87ee f3bf 73eb 703e
00000320: 05ce 583f 8b07 0abd 5bdb 093d e90e 023f
00000330: 0db5 bc3e d043 4fbf ed84 7d3d f90b dabe
00000340: 2720 c33e 00a7 d53d ef3d 56bf eabc a63e
00000350: fcb3 913f 8ee6 8fbf 27f6 b0bf a20b 71be
00000360: 8f5e a4bf 122b 4c3b 6d6b e6bf ecbf 5ebd
00000370: 008d 1e3e 93ff debf d53e c73e 1278 9a3e
00000380: 7166 8f3e d760 b4be c05e c0be 8b0f b83d
00000390: 1d04 873d 36e7 11bf c36b 78bc 3b0a b6be
000003a0: 0f2f e1be 75dd 82be f983 293f b67d 68bf
000003b0: b952 3bbf ea00 9cbc bdee c83e 5605 3c3d
000003c0: a6b6 71be dcde 1dbf e382 8b3f 1e27 f73e
000003d0: e68f d2bc b9f4 c7be 9066 3bbf 33f2 4dbf
000003e0: 68a6 903a 751c 1bbf 0cb7 8f3d d624 283e
000003f0: c77c 16c0 66b0 b83e 6678 05bf f026 b3bf
-2.544341 -0.30351424 -0.50546515 -0.4819501 0.28882396 -0.67605674 0.15518425 -0.6493396
-1.364332 -0.022023363 -0.1565512 -0.31596377 -0.78410375 0.6294214 -0.35995817 0.6097079
0.22727413 -0.2001351 0.16270699 -1.529707 0.27027205 -1.3991728 0.23383798 -1.1859547
0.7174997 0.9821128 -0.21103546 -0.18645865 -1.2650608 0.39605933 -0.32615456 -1.4009328
-0.18001075 0.14984111 -0.22728178 0.08098988 0.3212243 -0.015363448 0.05947288 -0.6317681
0.046775375 -0.07398541 -0.053147055 0.42285183 -1.0279309 -0.12691914 0.036547743 -0.86438954
0.079052895 0.44381645 -1.2068977 -0.24430476 0.20877486 0.37214613 -0.26843283 -0.043367453
-0.026869113 0.31150743 -0.047995724 -0.28990835 -1.8842261 -0.60269684 0.7650414 0.24687396
0.53851044 -0.10027159 0.036736444 -0.4111834 -1.3031371 -0.039759777 -1.2667528 -0.22106297
-1.8565825 -0.8695744 -0.94112206 -0.25928807 -1.2524405 -0.6865951 0.5295284 -0.26448104
-2.0913074 0.20942771 1.3979118 -0.021267304 0.5636372 0.7122698 1.1470429 -0.36074585
0.20691007 -0.45018792 0.3008949 0.20814687 -1.4705567 -1.093275 0.5262037 0.30334625
-1.161983 -1.6487074 -0.35824433 -0.20504478 0.88604695 -0.82266235 0.567083 -0.12779063
0.65994394 0.3024885 0.14483161 0.2608904 0.34391597 -1.374506 0.5513584 -1.6239221
0.80441505 -0.00034745326 -1.4494605 0.4395322 0.29785398 -1.0671706 -0.56040555 -0.29263663
-0.32485604 -0.56774676 -0.6674934 -0.6482924 0.89737266 -0.7532492 0.31473988 0.14709099
0.15025955 1.0975008 -2.8751464 -0.10877895 0.41550738 0.018958587 0.7655606 0.17094758
0.25167364 -0.584065 -0.041079916 -0.7480648 0.026205275 -0.41323978 -0.079139754 -0.10083104
-0.3003659 0.5924088 -0.09969439 -0.26449573 0.49235427 -0.182017 0.25074357 0.3521737
1.0241328 0.5006761 0.10844953 0.6028374 -1.1013788 -0.61976594 0.4920584 -1.3025924
-0.4671574 -0.16879785 -0.34753743 -0.8209324 0.1964809 -1.0967145 0.44391915 0.64662033
0.17591144 -1.4008819 -1.3458493 0.07450297 -0.51335925 -0.39342415 -0.6889171 0.45305544
0.17792343 0.1940004 -0.1760759 -0.50534356 -0.7670578 0.022082744 -0.4029213 1.3272039
-1.3809966 0.2021317 -0.84653866 1.2671646 -0.22433248 0.21941833 -1.4685944 0.80823356
1.20461 -0.09338186 -0.4312085 -0.87722814 0.35463348 -0.8490419 -1.9057168 0.23527317
0.8468936 -0.0336986 0.03365646 0.50804 0.3685688 -0.8096285 0.061894346 -0.4258726
0.38110468 0.10432243 -0.83688253 0.32566005 1.1383052 -1.1242235 -1.382512 -0.23539594
-1.2841357 0.0031153602 -1.8001534 -0.05438225 0.15483475 -1.7421745 0.38915125 0.3016973
0.28007844 -0.35230133 -0.3757229 0.089873396 0.065925814 -0.56993425 -0.015162411 -0.3555468
-0.43981215 -0.25559583 0.66217 -0.9081682 -0.731731 -0.019043405 0.39244643 0.045903526
-0.23604831 -0.6166818 1.0899318 0.48272032 -0.025703382 -0.39053896 -0.7320337 -0.8044769
0.0011035921 -0.60590297 0.07017335 0.16420302 -2.3513658 0.3607208 -0.5213684 -1.3996258

l2.bias f4 [300]
00000000: 993c ff3e 9f9f 16bf 01b0 e63d 9a09 5dbd
00000010: a0e8 2dbf ac57 7cbc f2b7 51bd 8818 6ebf
00000020: e41d 3f3e 88da 23bf 2d8d 8abd 0ce3 f7bc
00000030: dcf1 fabe e2ac ddbd a986 dcbc d21a 5abd
00000040: 8a4a 0abf 7dbb 8ebd 994e c5bc 3f50 da3e
00000050: ab6d ee3e 0e93 003f 4996 283e 44a2 71bd
00000060: 8d09 153d b769 a8bc 0b8e 103e ed52 373f
00000070: 7c66 aebe abb3 3dbf 5bae e6bd 8179 7dbf
00000080: 4d11 1b3c f2ba 4ebf 7456 60be 6426 6a3e
00000090: 7318 513e 6604 10bd 7e74 ea3d 5d7b 943c
000000a0: 29f0 71be 51df 4cbd 6df3 0cbd 6bb0 67be
000000b0: 4f91 a7bc d719 a1bd e4ee 0abf b3f5 1cbf
000000c0: 4705 893e c80a febd fd82 8dbd 55ca 0ebd
000000d0: 2c40 c83e 9a25 7c3e a20f 59bc cbf7 66bd
000000e0: 3483 78bd 819d c5be 0aaa 963e f4a2 b1be
000000f0: 1d16 0fbd 5b81 19bf 8c67 d33e 138d e1bc
00000100: 1477 10bf 212a c6bc e561 8fbd 8a59 163f
00000110: 9207 0ebf 794b 45bd d7c4 55be 6df4 173a
00000120: c17d 43bf d02e 823d 11b2 96bf f293 d7bc
00000130: a914 1cbf b860 36bd ccf6 0bbf 4422 0b3f
00000140: a093 c3bc a718 2fbd 4d31 3dbf 751d 8abc
00000150: eb52 69bd 6eae 12be 236f 00bd e2f3 c2bd
00000160: affe 27bd 36d4 a93c 7f41 3339 2d94 0dbd
00000170: d5ad 80bd cb5d 6fbd 04e8 e9bd 9589 85bc
00000180: d330 e7bc b0f9 de3e 30d3 9dbe 559b 3abe
00000190: 5e0d 1ebe 4956 d13a c308 65bf 1ebc 9dbd
000001a0: 224d 55bd 3fdb 0d3f 4728 89be 9227 5abe
000001b0: 7df8 08bd 2f18 aabb 3c47 c73d fd95 26bf
000001c0: f541 bbbd 8626 a839 5777 f83e 4ddf 81bd
000001d0: 8237 56bd 168d 443d 685b 923d 509b b6bc
000001e0: 19c4 c0bd 981f dbbe 6983 e8be 0e75 db3a
000001f0: 7ad9 57bd 73dd eabc 6036 81bf 0630 1cbd
00000200: 579e 26bd c6a2 a53c c17e 61be 39e7 43bc
00000210: 1168 893e 7200 a93d 057c 07bd adce 08bf
00000220: 3c17 073c b18b 4fb9 0a3d 0abf 7889 823e
00000230: 63d8 2abf 5066 c33c 85b5 79be eaea d8bc
00000240: 55e7 05bd 87b6 8bbe 7592 83bd e559 3f3e
00000250: 3962 553b 79d1 1bbf 38ee c63c 3a2a 45bf
00000260: 91e2 40bd 6b25 29bf c816 b4bd 061e 9fbc
00000270: cf26 03bf 82a5 483f 7ce5 873b 8d3c 0f3f
00000280: e22d 55bd b090 ab3c 6063 b1bc b541 19bf
00000290: fee1 92b9 5ef1 91bc 52cb 35bf 3333 64bd
000002a0: 7be3 b83e 4784 28bb 8c04 013c 738a e3bc
000002b0: c246 08bf f939 4abc 006f babd edd9 9d3e
000002c0: d4d0 f6bc 754c 4abf 41d8 cfbe a19f a13b
000002d0: 5791 24bc 5b62 62bd 8c16 7ebd 174c 22bd
000002e0: ef3b 23bd bedd febe b486 0abf c4c3 fabb
000002f0: 4dc7 85bc 9332 8c3e f3d5 e5bc 33e9 67bb
00000300: 9220 4a3e 3184 643e 3728 1f3e fdac f7be
00000310: c709 323b 46b6 8ebf 70df eb3c 978d aebc
00000320: 54b7 e3be e959 c83e f4a5 063d 2644 95bd
00000330: a691 1fbe 3533 40bf 4831 3abd 3612 36bf
00000340: 202e 3dbd 1b80 53bf 4d3b 11bd b616 7fbf
00000350: ceff 1fbf e91e 48ba fcbb f7bc 4a43 d0bd
00000360: e154 c2bc 47d4 93bf 77a3 2ebd 4f00 ca3e
00000370: 25c3 84bc d6f6 b1be e957 4bbd 23f6 6fbd
00000380: c6d3 4dbc d52a 7c3e fcf0 bcbe 55e6 81bc
00000390: 2a69 debc 25e3 87bd 9881 053f 007a 34bd
000003a0: bc58 7abc dbfd 33be 7cdd 03bc b833 31bd
000003b0: 47b5 a4bc de76 9bbc bbd2 eebb 1ecc 92bd
000003c0: 8778 2bbc cfce a3bc fe58 94bc 6b07 a23e
000003d0: 1a8a 78be 8b0f 98be 0cd8 fdbb 9055 efbe
000003e0: c8ed 3ebd 0ef6 f4be af9c 2fbd 7d4f 07be
000003f0: 8978 2c3f 6c42 f2bc 7437 8e3c a8e3 bbbd
0.4985092 -0.5883731 0.11264039 -0.053964235 -0.6793308 -0.015401762 -0.051200815 -0.9300618
0.18663746 -0.6400533 -0.067652084 -0.030259632 -0.4901265 -0.108239904 -0.02691968 -0.053248234
-0.5401999 -0.06969354 -0.02408533 0.42639348 0.46568045 0.5022439 0.16463579 -0.05899264
0.03638606 -0.020558221 0.14116685 0.7161091 -0.34062564 -0.74102277 -0.112637244 -0.99013525
0.009464574 -0.80754006 -0.21907979 0.22866207 0.20419483 -0.035160445 0.11448 0.01812523
-0.2362677 -0.05001766 -0.034411836 -0.22625892 -0.02045503 -0.07866257 -0.5427077 -0.6131241
0.2676184 -0.124044 -0.0690975 -0.034860928 0.3911146 0.24623719 -0.013248356 -0.056388658
-0.060672 -0.38596728 0.29426605 -0.34694636 -0.0349332 -0.59963006 0.41289937 -0.02753309
-0.564317 -0.02419001 -0.07001094 0.58730376 -0.554803 -0.04816768 -0.2087587 0.0005796615
-0.7636376 0.06356585 -1.1773092 -0.026315663 -0.60969025 -0.044525832 -0.5467346 0.5434916
-0.023874104 -0.04274812 -0.7390335 -0.01685975 -0.056963842 -0.14324352 -0.03135599 -0.09519173
-0.04101437 0.020731073 0.0001709517 -0.03456514 -0.06283156 -0.058439057 -0.114212066 -0.016300956
-0.028221523 0.4354987 -0.30825186 -0.18223317 -0.15434787 0.001597115 -0.89466494 -0.07701896
-0.052075513 0.5541267 -0.26788542 -0.21304157 -0.033440102 -0.005190871 0.09730384 -0.65072614
-0.0914344 0.0003207216 0.4852855 -0.06341419 -0.05229903 0.047986113 0.071463406 -0.022290856
-0.09412403 -0.42797542 -0.45412758 0.0016743259 -0.052697636 -0.028670048 -1.0094719 -0.038131736
-0.04067835 0.020219218 -0.22021009 -0.011956983 0.2683721 0.08252038 -0.03307726 -0.5344036
0.008245286 -0.00019793097 -0.5399939 0.25495505 -0.6673643 0.023852497 -0.2438565 -0.026479203
-0.03269132 -0.27287695 -0.06424419 0.18686636 0.0032559766 -0.60866505 0.024283513 -0.7701756
-0.04709107 -0.6607272 -0.08793408 -0.019423496 -0.5123109 0.78377545 0.0041472297 0.5595177
-0.05204571 0.020943016 -0.021653831 -0.59865886 -0.00028015667 -0.017815288 -0.7101337 -0.05571289
0.36111054 -0.002571361 0.007874619 -0.027775979 -0.5323297 -0.012342923 -0.09103203 0.30830327
-0.030128874 -0.79022914 -0.40594676 0.0049323593 -0.010044417 -0.05526958 -0.06203322 -0.039623346
-0.03985208 -0.4977855 -0.5411179 -0.0076527316 -0.016330386 0.27382335 -0.02805612 -0.00353868
0.19738987 0.22316052 0.15542684 -0.48374167 0.0027166472 -1.1149375 0.028793067 -0.02130775
-0.44475806 0.39131096 0.03287311 -0.07288389 -0.15582904 -0.75078136 -0.045457155 -0.7112154
-0.046186566 -0.8261735 -0.035456944 -0.9964403 -0.624997 -0.00076340005 -0.030241005 -0.10169084
-0.023722114 -1.1549157 -0.04263636 0.3945336 -0.016206333 -0.34758633 -0.049644385 -0.058584344
-0.012562698 0.24625714 -0.36902606 -0.015856901 -0.027149756 -0.06635121 0.5215087 -0.04406166
-0.015279945 -0.17577307 -0.008048411 -0.043262213 -0.020105971 -0.018977579 -0.0072883046 -0.071678385
-0.010465748 -0.019996075 -0.018108841 0.31646284 -0.24271432 -0.29699358 -0.007746702 -0.46744967
-0.046613485 -0.47843975 -0.042874034 -0.13213916 0.6737142 -0.029572688 0.017360426 -0.09174281

l3.weight f4 [3, 300]
00000000: 8158 af3f 209d 55be 6ea3 1fbf eef6 213b
00000010: cdfb 04bf a2cb db3c 31e1 c73b dd7b 423e
00000020: d4a2 c93e cf9a a7bf 30f1 bcbc 8258 5d3d
00000030: 7103 54bf f7eb a4bb bccb 913f da83 523c
00000040: d1fe 023f 182f 44bd 3bb3 edbb 04d7 3bbf
00000050: 9123 5c3f 8fab 0c3d 2ac9 48bf 5ed7 263d
00000060: f357 7abc aca0 0d3d 827a 6a3f 8203 063f
00000070: a96f 3dbd 59b0 81bf f298 6b3d 5d51 d43f
00000080: 189a 473d 9b07 57bf 3143 eb3f e456 b7bf
00000090: 77cd ca3f bea8 a7bc 6a25 62bf 5537 013d
000000a0: 40c1 7dbd 1c9e 09bd 9c3c 2d3e fa7d 783e
000000b0: f26d d53c 4f0c 00bc 63f1 cc3f bc10 173e
000000c0: 74ae 09c0 4894 6fbf 1502 0dbb 55cd 1abc
000000d0: 0f66 8c3e 108e 3f3e 5de2 87bb 664e 25bc
000000e0: 72ae 5dbd 1e09 263d e2f2 84bf b776 3e3f
000000f0: 0392 7bbb f321 dd3e 2a4f f43f 7974 53bc
00000100: 8c3f 5dbf bfb5 29bd 06ac 183d 0925 b53e
00000110: 88c5 603f 2f4f a5bb 0b0d f93c b5b0 183c
00000120: aa4c e93e 35b3 e03e b8d0 f5be de81 aebc
00000130: d778 b23f 921d 653a 8b38 9cbf 849b cf3e
00000140: 3502 013d de7b 96bc 8104 d83f 79b5 c4bc
00000150: f25f 683c b1c3 4e3b c0f1 383d 6c52 243e
00000160: 3e78 2d3c f0b0 4e3b 6f56 293c 1d1b 8a3c
00000170: 7d29 1e3d 7ac3 63bc 6464 23bf bedb ab3c
00000180: ae38 2fbd c353 a13e 550e a8bf 4a94 a73f
00000190: 4f8a a4bd 753f 953c c74f 1f3f 6b51 7c3b
000001a0: b9a8 dcbc f3df 0bbf a4a5 993f c6fe 933e
000001b0: 366b 153d a7f3 303d fb70 8ebf 5786 ecbe
000001c0: af3e 5bbf d75f a6bc 75f7 d73d 6bd6 6abc
000001d0: 5ef2 2ebc 8527 833f 0014 c2bf fcdb fabc
000001e0: db12 693c 8ba6 8e3d 69b7 09bf 1987 d3bf
000001f0: e6d3 9539 8809 4a3c a225 92bf 4cef f6bc
00000200: f132 4a3b e47a 0f3d 4724 d1bc ce9e 923c
00000210: d52a 9b3e c68c 95be d229 e43c 94db 973f
00000220: 929f 80bd 6db0 813c 29d4 a43e 0f59 683f
00000230: 5ed8 14bf f08f 47bc 3025 a4bf 1fbd babc
00000240: d5ce 87ba ad00 adbf 3dd7 193c bec3 3a3f
00000250: ea01 eabc 26ad 74bf d653 a83d aa27 33bf
00000260: fd83 913c df23 ddbf f024 44bd 96a0 afbc
00000270: adb5 7fbf ee99 81bf cbf1 673d 775c 9fbf
00000280: ce90 253d 1989 c8bf 2869 45bd f229 9cbe
00000290: 44b2 7f3d d6d1 acbc b9de d3be c16e 52bc
000002a0: 6125 753f 9f40 3cbd c971 423d 7cb4 f23c
000002b0: 3424 8ebf 7c29 05bd dbde f93b 435e 27bf
000002c0: 565b 14bc eb73 3a3e e6cf 2e3f b6d9 9b3f
000002d0: 7d24 8a3d a069 1a3d bb3f 61bc 05b6 0ebd
000002e0: 9796 39bc ce64 ee3e edd3 65bf e55e 9cbc
000002f0: 288b b7bc c146 22bf cee3 133c 3475 0bbd
00000300: 683f 01c0 c25d 013f bcfb 69bb 1ecb 7ebf
00000310: 94af 07bc dbae 8f3f 55ae 2abf 2f0f b8b9
00000320: 8da0 8dbe 6e7b 9a3e 77c2 2d3c 8348 68bc
00000330: c77a 34be 99ac 403f b56a 13bd 8259 b6bf
00000340: 2718 adbc a3a0 f93e 3a65 09be fc07 b3bd
00000350: 12ea 5ebf 35e3 9abc f18c 543a 44ad 04bc
00000360: 9ec3 223a 0eb0 c0bf 235d fcbc 5bee 953e
00000370: 7d35 1cbd 140f cbbf c599 013d 6901 cfbb
00000380: d0fb dc3e de8c 6e3e 70b2 05bf 8de6 85bd
00000390: 583e 4fbc aed0 1e3a 7b81 613f 8fbd 29bd
000003a0: 6aca 533c fc93 603d b61f 1e3f cf4a 39bc
000003b0: 296f 5dbc 6fb5 aebb 7ee9 973c f1b7 51bc
000003c0: 9dcc 143d bf63 263c 745d 773c 3036 17bf
000003d0: e024 3fbe a0e9 1dbe 6f2c b0bc d67e 7d3e
000003e0: 2ab6 66bb 56d9 3dbf a7a3 b53c 9e78 a2bd
000003f0: 042c 81bf b0f8 413c be69 a5bc 3515 1b3d
1.3698884 -0.2086072 -0.6235875 0.0024713832 -0.5194672 0.026830498 0.006099843 0.18992563
0.3938204 -1.3094119 -0.023064226 0.054039486 -0.8281775 -0.005033012 1.13903 0.012848819
0.5117007 -0.047896475 -0.007254032 -0.7337496 0.8599177 0.0343433 -0.7843195 0.040732734
-0.015279758 0.034577057 0.9159318 0.523491 -0.046249066 -1.0131942 0.057518907 1.658733
0.04873094 -0.8399598 1.837988 -1.4323392 1.5843953 -0.020466205 -0.8833834 0.03154691
-0.061951876 -0.03359805 0.16917652 0.24266806 0.026053403 -0.007815435 1.6011165 0.14752477
-2.1512728 -0.93585634 -0.0021516134 -0.009448369 0.27421615 0.18706536 -0.0041468577 -0.010089492
-0.054121442 0.04053604 -1.0386622 0.74399894 -0.003838659 0.43189964 1.9086659 -0.012906187
-0.8642509 -0.041433092 0.03727343 0.35379818 0.8780141 -0.00504484 0.030401727 0.009319474
0.45566303 0.43886724 -0.48010802 -0.02130216 1.3943127 0.0008740063 -1.2204756 0.40548337
0.031496245 -0.018369611 1.6876374 -0.024012314 0.014183031 0.0031549747 0.045152426 0.16047066
0.01058775 0.0031538568 0.010335549 0.016858632 0.038613785 -0.013901586 -0.6382506 0.020978805
-0.042778663 0.31509218 -1.3129374 1.3092129 -0.08034193 0.018218735 0.62231106 0.0038500677
-0.026935922 -0.54638594 1.2003675 0.28905314 0.036479197 0.043201115 -1.1128229 -0.46196243
-0.8564252 -0.020309372 0.105452456 -0.014333348 -0.010677902 1.0246435 -1.5162354 -0.030622475
0.014225687 0.06965359 -0.53795487 -1.6525604 0.0002857737 0.012331374 -1.1417735 -0.030143403
0.0030853117 0.035029307 -0.025529994 0.01789799 0.30306116 -0.29208964 0.027851973 1.1863885
-0.062804356 0.015831197 0.32193115 0.9076089 -0.5814265 -0.0121803135 -1.2823849 -0.022795258
-0.0010361323 -1.3515831 0.009389696 0.7295493 -0.028565366 -0.95576704 0.082191154 -0.699824
0.017763132 -1.7276572 -0.04788679 -0.021438878 -0.9988659 -1.0125101 0.056627076 -1.2450093
0.0404213 -1.5666839 -0.048195988 -0.30500752 0.062425867 -0.021096151 -0.4138086 -0.012843789
0.9576016 -0.045960065 0.047471795 0.029627077 -1.1104798 -0.032510266 0.0076254434 -0.65378207
-0.009054979 0.18208282 0.6828598 1.2175815 0.06745241 0.037698388 -0.013748105 -0.034841556
-0.011327407 0.46561283 -0.897765 -0.019088218 -0.022405222 -0.6338921 0.009026481 -0.03404732
-2.019495 0.5053369 -0.0035703024 -0.9952868 -0.008281607 1.1225237 -0.6667226 -0.00035106528
-0.27661553 0.30172294 0.010605446 -0.014177444 -0.17624961 0.75263363 -0.035990436 -1.4246066
-0.02112968 0.4875537 -0.13417521 -0.08741757 -0.8707591 -0.018907169 0.000810816 -0.00809795
0.0006208959 -1.5053728 -0.03080613 0.29283413 -0.038136948 -1.5863976 0.031640787 -0.006317307
0.43160868 0.23295924 -0.522254 -0.06538115 -0.012649141 0.00060583174 0.88088197 -0.041440543
0.012926677 0.05482863 0.6176714 -0.01130934 -0.013515272 -0.005331687 0.018543955 -0.012800203
0.036327947 0.010155617 0.015097965 -0.5906706 -0.1866641 -0.15421152 -0.021505563 0.24755415
-0.0035203793 -0.74159753 0.022172762 -0.07933162 -1.0091558 0.011839077 -0.020192023 0.03786202

l3.bias f4 [3]
00000000: 94db 4c3f 2f4c 51be ccad 8cbe
0.8002255 -0.20439218 -0.27476346
