actor_ddpgReacherPyBulletEnv-v0.pt (torch_old, 500633 bytes, 6 tensors)

fc1.weight f4 [400, 9]
00000000: 7e41 893e 4da0 6b3e 8e8f 13bd b361 c8be
00000010: b374 7bbe 8b51 b6be 8b93 c13e 802f 9bbe
00000020: 5b7b c8bd 209b dfbb 156c 6a3e f650 68bc
00000030: 50cf 373e 043b 87be 8ae4 56bc 1b16 143e
00000040: 41fd 32be cfab f03d d174 753e aade f43e
00000050: 8bb9 e5be 681e 7fbe 7fbe 1a3d f87c 603d
00000060: 4028 9dbd 720d d43e a51e 1bbe 0b2a d73d
00000070: cfbd 103d ed24 b93d ee3e 6a3d 7cb0 fabd
00000080: 2360 be3e f0f6 e03c 3a3d a7be 3506 d6bd
00000090: d056 683e fefb 22be 4148 b53d 9212 1c3d
000000a0: 0e06 713e 9e81 b3be c9e6 6b3d 3ed7 3c3e
000000b0: caed b8be 1dac 0dbe eada 56be 8f3e 5d3e
000000c0: d3ba ad3b de07 a23e be67 95be 75a0 403c
000000d0: 2140 0cbe acc6 44be 074d 85be 19c6 dabd
000000e0: a706 0b3e 7f91 96be 13a6 513e a835 c43d
000000f0: 8bc2 96be e87c e23c 7fc3 c13e a285 f83e
00000100: 9a8c 663e e1f5 903d fcf3 6bbd f5cf b0bd
00000110: 2ad6 e2bd e670 30be 005c af3e 7e33 373e
00000120: 5c69 b13e 2497 2a3e 7158 3ebe 349a 0ebe
00000130: 9f1e 7fbe 8cbd 12be 9860 013e b5af b83e
00000140: 058b 9a3d 413b 57be 72f5 92be ba49 c23e
00000150: 6212 463e 6144 82bd 8968 65be 2b59 0e3e
00000160: 624f 8cbe f93a 923e 0661 953e 3d27 1dbe
00000170: 149b 5c3e 9349 dabc fc3b a5be 0632 813e
00000180: 7987 2bbb 2f17 a5bd 5f9a 08be 5cbf 703c
00000190: 6ec2 2e3b 331a b8be 894a 9fbd de30 85be
000001a0: 3083 383e 43c5 203d 4764 5e3e 09c4 1fbe
000001b0: e10b 913d ff1c 433e 0557 3bbe 6cbf 88be
000001c0: 3ab9 c1bc c050 963e bdce 463e 4d1c fc3d
000001d0: 7d80 8fbe 348c 723d 7d50 8a3d 96d3 b43d
000001e0: bd9d 6bbe a603 24be 2114 d5bc ad86 84be
000001f0: e38f 4f3d e055 c13d 1525 b9be 1c60 56be
00000200: 0c0f 813d 8378 97be f9db 973e 1fbf b2be
00000210: ae3a 6cbd 8957 6f3e d4b1 153e 705b 92bd
00000220: b27c 37be 52cb 603e 965c e1bd 868b 7cbc
00000230: bc34 df3e 669d 9dbc 8ec4 7fbc f0a5 9ebc
00000240: fa95 c83d be02 13bb 935e e1bc 8335 403e
00000250: c91b 473d 402e 893c 1f96 c03e e550 6c3e
00000260: 3d2e 273e de00 303d a6d6 03be 301d 85bc
00000270: 2b8c 99bd 59e4 2cbe 478d c03e acde 62be
00000280: eced b53e be9e 73be 5585 ea3c 8486 2cbe
00000290: b4cc 33be afac 1bbc cb5e b8be 3384 edbc
000002a0: dae8 4ebe bbf1 0b3e 8eba b3be 2b46 a63e
000002b0: 63f7 6dbe 0d8e ddbc 54b7 513e 81a4 bdbd
000002c0: 460d 973e c4fe 173e eed8 c0be db7c 8c3e
000002d0: dd95 aabc 1555 873e acfd 08be 06d3 033e
000002e0: a5cf c53e 7a01 6d3e 0e73 1cbe d408 4bbe
000002f0: 3bb5 89be 636f 85be c728 093e f4c7 143e
00000300: 057b 59be a3fb 113e a035 903d 0116 91be
00000310: bdd6 713e a7ca 91be 6247 33be 0e46 cbbc
00000320: a7f3 633d c305 91be e431 8abe 1bc2 a4be
00000330: 0a14 56be a5bf 363d a9a1 96bd 9ee9 97be
00000340: 675e 7dbe c3bc 22bd fb5d 033e dd3d 56be
00000350: cadd c33e e37b ccbd 50b3 273c a910 933e
00000360: 62f9 493e f8b7 92be 74bc d6be e851 27be
00000370: d805 83be a888 a93d a657 80bd 3632 aa3d
00000380: c746 babd fe67 293e 0be7 c53e 47a1 ddbe
00000390: c924 bebd e8e5 7fbe f4a9 30be 4a34 56be
000003a0: 8ddc 6e3e fa49 583e de35 3bbd 07b5 0bbe
000003b0: 7acf 8f3e 0849 ebbe 89d2 233e 026f 10be
000003c0: ef3a bf3e e437 933e 2f6f 9abd 732d 833d
000003d0: ddb9 0c3d c215 6cbc c745 8bbe 9173 843e
000003e0: 2471 3a3d c885 c7bd 6ad9 1d3e 58b3 72bd
000003f0: c553 b13d d859 b13e 6eb1 02be 1d50 dfbe
0.2680778 0.23010369 -0.036025576 -0.3913704 -0.24556236 -0.35609087 0.3780788 -0.30309677
-0.09789153 -0.0068239123 0.22892793 -0.014179459 0.17950177 -0.26412213 -0.013116011 0.14461558
-0.17479421 0.1175152 0.23970343 0.4782613 -0.4486812 -0.24913943 0.037779327 0.05480668
-0.07673693 0.41416508 -0.15148409 0.10506066 0.035337266 0.09040246 0.05718892 -0.12240693
0.37182721 0.027461499 -0.326639 -0.10450403 0.22689366 -0.1591644 0.08851672 0.038103648
0.23537466 -0.35059828 0.05759314 0.18441483 -0.3611892 -0.13835187 -0.20981947 0.21605895
0.005301812 0.31646627 -0.29180712 0.011757006 -0.13696338 -0.19216412 -0.2603533 -0.106823154
0.13576756 -0.2940788 0.20473509 0.095805466 -0.294453 0.02764745 0.37844464 0.48539454
0.22514573 0.07078148 -0.05760573 -0.08633415 -0.11076005 -0.17230567 0.34249878 0.17890736
0.34650695 0.16659218 -0.18588425 -0.13926011 -0.24914025 -0.14330119 0.12634504 0.36071554
0.07546047 -0.21018697 -0.28702885 0.37946874 0.1934295 -0.063606985 -0.22403158 0.13901202
-0.27404314 0.28560618 0.29175586 -0.15347 0.21543533 -0.026646411 -0.32272327 0.25233477
-0.0026173277 -0.080610625 -0.13340138 0.014694061 0.0026666182 -0.35957488 -0.07777888 -0.26013845
0.18018794 0.039250623 0.2171794 -0.15602125 0.07082344 0.1905403 -0.18294914 -0.26708543
-0.023647893 0.29358482 0.19414802 0.123100854 -0.28027716 0.05921574 0.06753633 0.08829419
-0.23009391 -0.16017017 -0.026010575 -0.25884 0.05067433 0.094402075 -0.36161104 -0.209351
0.06301698 -0.2958413 0.29660013 -0.3491144 -0.05767315 0.23373236 0.14618617 -0.071463466
-0.17918661 0.2195256 -0.110039875 -0.015414124 0.4359492 -0.019240092 -0.015610827 -0.019366235
0.09794231 -0.0022432054 -0.027510917 0.18770413 0.048610482 0.016745687 0.37614533 0.23077734
0.16326232 0.042969577 -0.1287485 -0.01624927 -0.07497438 -0.16883983 0.37607786 -0.22155255
0.35533082 -0.23791024 0.02862803 -0.16848189 -0.17558557 -0.00950162 -0.3600982 -0.028993702
-0.20206013 0.13666432 -0.35103267 0.3247541 -0.23238902 -0.027045274 0.2048009 -0.09259892
0.29502314 0.14843279 -0.37665504 0.27439007 -0.020823414 0.264321 -0.13378018 0.12873468
0.38634983 0.23145095 -0.15278265 -0.19827586 -0.2689608 -0.26061544 0.13394462 0.14529401
-0.21238334 0.14256148 0.07041478 -0.283371 0.23617072 -0.28474924 -0.17507699 -0.024813678
0.055652287 -0.28324708 -0.2699119 -0.3217934 -0.20906082 0.04461636 -0.07355053 -0.29670423
-0.24743043 -0.0397308 0.1282882 -0.20922036 0.3825515 -0.09984567 0.0102356225 0.28723648
0.19724038 -0.28655982 -0.41940653 -0.16339839 -0.25590396 0.08278018 -0.062667176 0.08310358
-0.09095531 0.16543576 0.38652834 -0.43287107 -0.0928436 -0.24990046 -0.17252332 -0.20918384
0.23326321 0.2112197 -0.04570567 -0.13643275 0.2808798 -0.45954156 0.15998282 -0.14104846
0.3734965 0.2875358 -0.07540738 0.06405153 0.03435694 -0.014409484 -0.27201673 0.2586942
0.045518056 -0.097423136 0.15414968 -0.059253067 0.08658556 0.34638858 -0.12762997 -0.4361581

fc1.bias f4 [400]
00000000: bd71 81be da52 76bd 7535 89bd 025d 843e
00000010: c064 913e cf33 cc3d b351 a33e 7cb2 2c3e
00000020: 3f35 80be b068 9c3c 4d80 a4bc 7497 6bbe
00000030: 223e ca3c 4a0f cabd ce3c 60bd 3764 603c
00000040: fe83 2fbd 361e 863e 83ca 5f3e 7b0b c03e
00000050: 060a 9a3a c3e7 783d 6412 0f3b dd17 87be
00000060: 687a 3f3e a341 3bbe 9276 c3b9 4262 22be
00000070: 1946 81be aca0 8e3d c40b c73d 8f83 20bc
00000080: 545a a33e 2236 793d 5992 063d 445f 66be
00000090: 5f01 c7bd 5149 60bd 60b7 efbd 2c8b 5abe
000000a0: bf42 33bd 398a bebc 5e50 21bd ac19 493e
000000b0: 3b7d 903e 9c40 9fbe b174 153e 5a2d 91bd
000000c0: bdd8 0f3d 5988 a43e 615e 4f3d 4f8b 8bbe
000000d0: 1523 ae3e fdd2 173d 84a6 85bd 250b e63c
000000e0: 7b8a a83e f86d 6d3d 54dc 763e b37f 733e
000000f0: f830 c2bd 6ce9 b33c 3432 58be 39e2 bb3e
00000100: 70a9 84bd 777c 953e 78cd 753c 0ecd 6f3e
00000110: 1a68 2abe 1674 973b c510 343e 142a 4cbc
00000120: eabe 573c cefd 3b3e c19a 20be d61e 4cbd
00000130: f629 4c3e b1d7 593e 88ff b13e 1b98 5fbd
00000140: 4ade 6e3c a631 c4bd d09f 483d 408e 00be
00000150: 755c 873e c2f2 563b 2bb5 613e 827c 383e
00000160: 3261 913d 8571 cf3d 364a 6c3d 2bec 69be
00000170: 9f3c 203e 4882 02bd 1b35 3ebe 57fd bc3e
00000180: 8ffe 423d 11d2 a9bd 1301 9dbe 8d0c bebe
00000190: a2bf 263e 753b 1dbe 6951 c1bd d4cb 9dbc
000001a0: 9027 993e 73df 4a3d 9fe3 9f3e 61de 8c3e
000001b0: dd2d 47be 6950 873e e818 61bc 8b34 b63e
000001c0: 260f 3a3e bb74 a0be b923 423e 6e46 1f3e
000001d0: 60ec 23be 1daa 973e c038 53be 8d3e c2bc
000001e0: 67ad ad3e cf3e 993e 9c21 603e e5b6 07be
000001f0: fae7 71be 3235 2fbe d15b a93c 170d 973e
00000200: 161a 253e 97dc 043d 1848 963e f7e4 9e3e
00000210: 8557 c3bd 879d 17be 2fb5 193d 1817 143e
00000220: e0fe c53d da5a 043e 2157 533e 9fc1 f4bc
00000230: 7a54 543e 56d1 8b3d 047b 383e d9c7 353e
00000240: 5140 96bd c84a 55be 3e57 533e 7cce 15be
00000250: cc19 3f3e a8c9 6dbe ed9e 6a3e 31bf 1e3e
00000260: f137 7bbc eb7d 4e3e f58b e9bd 398e 923c
00000270: 9537 4e3e a434 1d3e fb56 063e 4891 c73c
00000280: 3fa9 973d f617 773e 1a4e 513e 04a3 1a3e
00000290: 87ab 7e3e 1cd2 59bd 0b68 acbc 65d7 09bd
000002a0: b211 8c3e ad8a 52be e2a5 11be 173c 1bbd
000002b0: 5d76 60be 8308 09be c63a 5c3e 6799 85bb
000002c0: a364 10be b73f 1d3b 5ba5 933b 1303 a1bc
000002d0: 159e 82be dcd8 383e 2a88 51bd ba48 bb3e
000002e0: d392 20be 7640 6abe 71bb df3d 48bc 2cbe
000002f0: 519a 673e 9a84 ac3e 46b5 be3e 59ff b9bd
00000300: f495 7b3e 064f 983e 75cc 03bd 96d3 e93d
00000310: b76e 5b3e 38ca 863e c5c1 80be 905e db3e
00000320: 9f63 78bd fb17 1c3e 8fbc 03be 4d62 b3be
00000330: f9c0 22be 1aa3 5c3e 5ead e2bd 6bb9 713e
00000340: ee4e e83d ec71 ce3d a36f f4bc e6c7 1ebd
00000350: 4e6f 3fbe dea2 30be c7c0 ad3e dafc 8f3d
00000360: 5b49 b3bd 9275 20be 0656 d63d f269 2ebe
00000370: 7b87 1b3d 61e9 7f3e f467 62be a4ae 483e
00000380: 3acb fcbd 93a7 2bbe d2ee a5be 25fe 893e
00000390: 3dd5 5ebe ba10 5c3e 6354 823d d0ea 613e
000003a0: 0c0f 4cbe 5d68 b73e a64d a5be 9e83 87be
000003b0: 65ff 583e 9c6e d13d c4ed 4dbe d130 a6bc
000003c0: ae30 b9be 4cd6 b9be 032e d5bc 9962 913e
000003d0: 7c92 433e 6482 103e aeb8 ffbd 2d9d aa3e
000003e0: e8e0 9dbc fdb9 6f3e 8274 3d3b 37f0 233e
000003f0: 8b2b ca3d d1d9 933e b7c0 803e b7a3 143e
-0.25282088 -0.060137607 -0.06699649 0.2585221 0.2839718 0.09970819 0.3189827 0.16864961
-0.25040624 0.019092888 -0.02008071 -0.23006994 0.02468783 -0.098661974 -0.054745488 0.013695768
-0.042850487 0.26194924 0.21854596 0.3750876 0.0011752255 0.0607679 0.002183103 -0.26385394
0.18699038 -0.18286757 -0.0003728164 -0.15857795 -0.25248793 0.069642395 0.09719041 -0.009796991
0.31904852 0.06084264 0.03285441 -0.22497278 -0.097170584 -0.05475742 -0.11704898 -0.21342152
-0.043764826 -0.02325927 -0.039383285 0.196387 0.28220543 -0.3110398 0.14595295 -0.07088728
0.035118807 0.32135275 0.050627116 -0.27254722 0.3401114 0.03706645 -0.06525901 0.028081486
0.32918152 0.057966202 0.24107486 0.23779182 -0.09481996 0.02196189 -0.21112901 0.36696032
-0.0647763 0.29196522 0.015002601 0.23418066 -0.16641274 0.004621993 0.17584522 -0.012461204
0.013168076 0.18358538 -0.15684034 -0.049834095 0.19937882 0.21273686 0.34765267 -0.05458842
0.014579365 -0.09579782 0.048980534 -0.12554264 0.26437727 0.0032798504 0.22041766 0.18016246
0.07098617 0.10129074 0.05768796 -0.22843997 0.15648125 -0.031862527 -0.18574946 0.36912033
0.047606047 -0.0829202 -0.30664882 -0.3711895 0.1628404 -0.15354712 -0.09439356 -0.019262232
0.29912996 0.049529504 0.3122835 0.27513412 -0.19451089 0.26428536 -0.013738848 0.35586962
0.18169841 -0.31339058 0.1895894 0.1555421 -0.16008139 0.29621974 -0.20627117 -0.023711467
0.33921358 0.29930732 0.21887821 -0.13253362 -0.23623648 -0.17110136 0.020673664 0.29502174
0.16123232 0.032436933 0.29351878 0.3103406 -0.095381774 -0.14806186 0.037526306 0.14461935
0.09667754 0.12925282 0.20638706 -0.029877482 0.2073535 0.06827037 0.18015677 0.17752017
-0.07336486 -0.20829308 0.20638749 -0.14629549 0.18662184 -0.23221457 0.22912188 0.15502621
-0.015333162 0.20165221 -0.11403648 0.017890083 0.2013839 0.15352112 0.13119118 0.024361268
0.07405328 0.24130234 0.2043995 0.15101248 0.2487012 -0.05317889 -0.021045705 -0.03365268
0.2735725 -0.20560713 -0.14223436 -0.037899103 -0.21920152 -0.13382153 0.21506795 -0.004077125
-0.1410089 0.0023994276 0.004505796 -0.019654786 -0.25511232 0.18051475 -0.051155247 0.36578923
-0.15681009 -0.22876152 0.109244235 -0.16868699 0.22617461 0.33694917 0.37247676 -0.09081907
0.24568921 0.2974779 -0.032177407 0.1141731 0.21428953 0.26326156 -0.25147834 0.42845583
-0.06064188 0.15243523 -0.12864898 -0.35035935 -0.15893926 0.21546593 -0.110682234 0.23605888
0.1134318 0.100803226 -0.029838389 -0.038764857 -0.18694803 -0.17249629 0.3393614 0.070306495
-0.08754226 -0.1566985 0.104656264 -0.17032602 0.037971 0.2499137 -0.22109967 0.1959787
-0.1234345 -0.16763143 -0.32408768 0.2695171 -0.21761031 0.21490756 0.06363752 0.2206223
-0.19927615 0.3582181 -0.32285804 -0.26467603 0.21191175 0.10226175 -0.20110232 -0.02028695
-0.36169952 -0.36296308 -0.026022917 0.28395537 0.19098848 0.1411224 -0.12486397 0.3332304
-0.019272283 0.23410793 0.0028908555 0.16009603 0.098715864 0.28877118 0.2514703 0.14515577

fc2.weight f4 [300, 400]
00000000: 80af 3abc 4de3 a43c 698b f4bc a017 c0bc
00000010: 4d7e 9bbd c36f e4bd 64d3 133d 5356 f43c
00000020: 4ca0 d7bd 0d37 15be 1ae6 1ebc 9433 153d
00000030: 83ee a13c e91a b7bc 2fee 45be d465 dd3d
00000040: e121 bb3d c527 1a3d cf10 473d 3ade a5bd
00000050: c398 67bd 050e 52bc f5bb d83c 4502 37bd
00000060: d22a 513d 4b9f debc e8c1 5e3d 76e5 09bd
00000070: aa12 8e3d 3172 efbd 4e24 cfbd e68e 743d
00000080: 5c9b 8d3c 0666 4abc 9381 6bbd 1646 543d
00000090: be78 c33d 3952 993d 063e a6bc 8b98 38be
000000a0: 2e32 1b3e cc68 15be 5c20 a5bd faaf b63d
000000b0: 8f68 2fbd f830 263c 0fcf f8bd 995a 353e
000000c0: c6b0 e43d da3a 2b3d b4c5 a03d 7c57 e63c
000000d0: 96cb e93d 063f 89bd a463 0d3e cd67 a03d
000000e0: 84e0 22bd a158 b83d 043c 08bd 2f06 963d
000000f0: 913d 5abc 8c97 b9bd 7408 b93b 4d86 8dbc
00000100: 9d21 b53d 402e 913d bb9d 603d f575 3fbd
00000110: 4b37 8bbd 89ed 863d 86f9 60bd 7ca8 863d
00000120: fbd0 303d 560a 913c 57ec 0fbe a2b8 34bd
00000130: 061f 373d 35e5 1bbe 9f28 823d b46a f03c
00000140: b45f 98bc ef29 13be 91a5 a93d 17a1 13be
00000150: e8a4 c2bc 1181 183e 1977 553d 21ff c83d
00000160: 4f08 703d 311c fa3c da17 54bc 703c 063e
00000170: 865a 2c3c 04f8 b83d 050e f13b e88b 62be
00000180: 3488 703c 29f8 eb3c a875 a3bd 9757 dfbc
00000190: eb98 a63b 4d6d 13bd 8cb3 ce3d 27a2 afbb
000001a0: 2034 dcbd 1c5d 883d b1b6 803d e4dd 3cbb
000001b0: 1b4b 9bbd 0819 0f3d ebe5 15bd 19e3 06be
000001c0: 02f8 8e3d 5f51 7dbc d1f3 27be 746f a93d
000001d0: 500e 7bbd 018f 2cbe 80e9 6f3d 8531 d1bc
000001e0: 2c2f 383d e860 bdba ffbd af3d 3de1 5b3c
000001f0: 06c0 0bbd 625b f5bd 4dd3 74bd 969f e0bd
00000200: 5126 fabd dc74 873c 93ce 72bd 4aec 52bd
00000210: e173 9d3d d966 84bd d822 d4bd 408f f8bd
00000220: db6e 8dbd c5f4 a0bd 0f63 3ebc b6fd 48be
00000230: 8d0d b2bc 1d07 013c d690 b63d 0e25 dbbc
00000240: 2608 a2bd 471a 66bd 8a6e 5dbd 2831 7c3d
00000250: 80fe 60be f94e bb3c d436 963d a6ca 893d
00000260: 4073 f93d 1252 9dbd e4de 9b3d 4036 3bbd
00000270: d3f2 0b3d 3862 00be 441f 03bd 4746 8a3c
00000280: 5933 99bd 507a 6b3c da6d ca3d c794 bbbd
00000290: 78b1 6fbe 08f5 c6bd 4a94 3abe f62f 54bd
000002a0: c15e ad3d d152 febc 02c7 0f3d 69b1 83bd
000002b0: 208d 3ebe 5838 ab3b 4704 f2bd 8dbf e4bd
000002c0: 7c7d 26bd 25e8 f2bc 8b81 d13c bf8e 893c
000002d0: 1319 983c a056 403d e23b 483d 7a6a c3bd
000002e0: 43be 87be f90f 97bd 3871 08be d8d2 923d
000002f0: e924 0a3d f5a0 1c3c 238d 98bc 73e2 15be
00000300: 41da c73c 9da4 24bd 42de 9f38 d782 6d3d
00000310: 8b50 143c 9e75 bb3c b196 53bc 4300 fe3c
00000320: d50f f63d 4911 eb3c b826 d8bd e1aa 7ebd
00000330: 12a9 353d 5284 b23b 2322 d43d 656e 4a3c
00000340: 6f8f 343d fa23 06bc 5dc2 2dbd cb64 0ebe
00000350: 3dec 143d 3f6c 533c 9a1d c23c fa2a ebbd
00000360: 484a 0d3d 61c4 3a3e b736 a7bc 729e 023d
00000370: cc0a b4bd a881 bf3c 2579 20bd d675 cabb
00000380: 6738 ce3d 117d 043c 80b5 51bd bd6f 173d
00000390: 6c99 30bd 99a3 353d 0813 673d 096f 35bd
000003a0: 8747 173c fe1e 9d3d 0f6f 923d dfbe 1b3d
000003b0: 2ffc 9fbd 5303 7abd bc0d 0dbd 7479 b03b
000003c0: ddbe 7ebd 610c b43c debc ddbd b471 d6bc
000003d0: 9ce8 593d 0f5d 5e3d 71e8 263c 60bc 843d
000003e0: 4d44 b3bc 69f5 6fbd 0045 16be dcf0 55be
000003f0: 2e76 893d 8786 12bd f263 74bc 8772 cbbc
-0.0113943815 0.020127917 -0.029851632 -0.023448765 -0.07592449 -0.11154129 0.03609027 0.029826319
-0.10528621 -0.14571781 -0.009698415 0.03642614 0.019767052 -0.022351699 -0.19329141 0.10810438
0.09137321 0.037635583 0.048600014 -0.08099027 -0.05654217 -0.012820725 0.026456812 -0.0446799
0.051066227 -0.027175566 0.054384142 -0.033666097 0.06937154 -0.11691702 -0.101143464 0.05970659
0.017285995 -0.012353426 -0.05749662 0.05182465 0.09544514 0.07486386 -0.020293247 -0.1802694
0.15155861 -0.14590758 -0.08062813 0.089202836 -0.042824324 0.010143511 -0.12148868 0.17710342
0.11166529 0.041804172 0.07850209 0.028117888 0.11415784 -0.06701474 0.13807541 0.078322984
-0.039764896 0.090012796 -0.03326036 0.07325398 -0.013320343 -0.090621084 0.0056467596 -0.017275954
0.08844302 0.070888996 0.054837923 -0.046743352 -0.06797656 0.06588275 -0.054925464 0.065751046
0.04316805 0.017705124 -0.14055 -0.044121392 0.04470732 -0.15224154 0.06355404 0.029347755
-0.018600322 -0.14371465 0.082835324 -0.1441692 -0.023760274 0.14892985 0.052115534 0.09814287
0.058601674 0.03053102 -0.01294514 0.13108993 0.010519629 0.0903168 0.0073564076 -0.22123682
0.014680911 0.028804855 -0.079814255 -0.027263446 0.005084147 -0.03599291 0.100928396 -0.0053599062
-0.107521296 0.06658384 0.062848456 -0.002881878 -0.075826846 0.03493598 -0.03659622 -0.13172568
0.069808975 -0.015461295 -0.16401602 0.08273211 -0.061292946 -0.16851427 0.058572292 -0.025536308
0.04496686 -0.0014448436 0.08581161 0.0134204 -0.034118675 -0.119803205 -0.059771825 -0.109679386
-0.122143395 0.016535215 -0.059279036 -0.051494874 0.07688118 -0.06464929 -0.103582084 -0.12136698
-0.0690591 -0.07859186 -0.011620297 -0.19628033 -0.021734977 0.007875231 0.08914344 -0.026751067
-0.079117104 -0.056177404 -0.054060496 0.061570317 -0.21972084 0.022864806 0.073346764 0.06728105
0.12180185 -0.07681669 0.076108724 -0.045706034 0.034167122 -0.12537467 -0.03201224 0.016879214
-0.07480497 0.014372423 0.09884234 -0.091592364 -0.23407543 -0.09714705 -0.1822063 -0.05180355
0.084653385 -0.03104535 0.035101898 -0.06430323 -0.18608522 0.0052252226 -0.11817222 -0.11169348
-0.040647015 -0.02965171 0.025574466 0.0167917 0.018566644 0.046957612 0.048885234 -0.09541793
-0.26512346 -0.073760934 -0.1332444 0.071691215 0.033726607 0.0095598595 -0.018621987 -0.14637165
0.024396064 -0.04019605 7.6231096e-05 0.057986107 0.009052406 0.022883233 -0.012914346 0.031005984
0.120147385 0.028694766 -0.1055426 -0.06217468 0.04435069 0.0054479027 0.103580736 0.012355422
0.0440821 -0.008187288 -0.042421687 -0.13905637 0.036358107 0.012904226 0.023695756 -0.114828065
0.03449467 0.18238975 -0.020411832 0.031889386 -0.08791122 0.023377255 -0.039178032 -0.006178598
0.10069352 0.008086459 -0.051198483 0.036971796 -0.043115065 0.044345472 0.056414634 -0.044295345
0.009233362 0.07671927 0.07150089 0.038023826 -0.07811772 -0.061038326 -0.034436926 0.005385572
-0.06219374 0.021978559 -0.10827039 -0.026177265 0.05320035 0.054287966 0.010187254 0.06481242
-0.021883154 -0.05858365 -0.14674759 -0.20892662 0.06711994 -0.035772827 -0.014916407 -0.024834884

fc2.bias f4 [300]
00000000: bc17 853d e531 29bd a244 443b 567b c4bc
00000010: 1a20 8a3c ec29 d4bc 1cd3 0cbd 251f d2ba
00000020: a1f9 38bd f139 3d3d ed11 1dbd 9ecd 89bb
00000030: fe2c eebc 6dee 9b3c aec6 84bd 2b79 0fbd
00000040: 2caf 013d 617a d1bc 60c2 1d3a 6324 38bd
00000050: ab88 623d ba0a 1c3d 74a2 603c 6fe6 e53b
00000060: 6524 273c c5e4 033d 9066 0f3d 1695 a3bc
00000070: 9a6e 06bd d5ff 023b ea1f fa3c 7b13 d23c
00000080: 16b9 7839 2061 98bc 8aaf c33d 48aa a33c
00000090: 26a9 c7bc b387 77bc 85c9 ecbc fc6a 0b3c
000000a0: 14c0 ffbc 0270 a0bb ff3e d43b f4cf acbb
000000b0: 1c2d 8b3d 0a5e 5cbc cdbe 06bd 6f25 183d
000000c0: caee 0a3d 0d4a 9cbc 07ba 823c 7493 1d3c
000000d0: d68d 9a3c a493 013d 47b5 5b3c 8a41 1abc
000000e0: 0cb6 d33d 665a 87bd c1b3 0f3d d533 dabb
000000f0: ef9a 113d 5f93 cc3c d01c fb3b 22b4 33bd
00000100: 0e14 16bd 1f6a 613c 9653 c93c 0327 873c
00000110: ff9b 263b 6f35 a83d bb9d 3cbd c0fc 843d
00000120: 1d11 f1bb c460 14bc 9bfb db3c c11c 3ebd
00000130: ed68 183d 5ba2 c7bc 4e73 cebc 949f 30bd
00000140: 9d50 4fbd 3769 443d 1fe6 003c 1515 373d
00000150: decf 90bc 2fe9 703d 49f4 583c 1a46 453c
00000160: 6c3a f13c df9b b43c ae46 43bc 0e9d 1dbd
00000170: e7e9 03bd 5c69 e13c 0ded b13c cc64 8bbc
00000180: 4eca ef3c 8cc2 69bd eab9 003d 8a86 34bd
00000190: ed65 9ebc 5d3c e5bc aaed 1a3d 8ea6 b7bc
000001a0: 1b43 0ebd 9781 153d 1014 a73b 029c 24bd
000001b0: 5f36 113d f35a 03bd 2533 5fbd 53af 473a
000001c0: 3f51 82bc bd69 983d da25 143d 438b bb3c
000001d0: 1e7f 0f3d 8bb0 4a3d 9a42 133d ecec 69bd
000001e0: 73ba 673d 43f4 cf3b ef0e 5a3d 7bbd 45bc
000001f0: d747 97bc 85c4 173d 283f fb3c af68 babb
00000200: 34eb af3d 8ce1 bb3c 3420 bf3c bd2f 3fbc
00000210: fba2 90bc 757c 97bb 3e3f d5bb f2f3 54bd
00000220: acd1 303d fdbe 1c3d aacd d83c eb77 f23c
00000230: f9eb 7f3c 71db 603d 6d24 94bc a45a 963c
00000240: 2ec9 123d 9036 ddbc 9269 cd3c b4bf 253c
00000250: 9b46 17bb c7ac a1bc e586 0d3d 9891 9c3c
00000260: fed7 6e3b ffca e53c ebbb 2d3d 6ddb 973d
00000270: fcca e83c 58b6 65bd 8658 f5bc cee8 573d
00000280: 9543 903c a334 13bd 503c bb3b d8fb 313d
00000290: 434e 833d 5631 3d3d 0ac3 ab3b ba3d 1ebc
000002a0: 0443 6dbd 5abc 053e 16cd 90bd e813 b23d
000002b0: 5786 273c 025e f63c a680 4c3c 423d 1bbc
000002c0: de27 a7bc c399 ddba 3077 68bc 0eca dd3c
000002d0: 24d1 043b f768 1a3d 9309 28bd cf22 15bc
000002e0: bbf9 933b 5300 e2bb b66e d23c 6bd9 fe3c
000002f0: 37cf b83c 208a 643d 3ce3 0dbd 4184 ab3b
00000300: f9c1 e23c 2029 f33c 524d 4a3c dbc9 87bd
00000310: 791f ecbc 6d74 42bd 7a46 0e3d d91e 8b3a
00000320: 78df ed3b f031 0cbd 7598 17bd 790a 05bd
00000330: c38d 76bb 1213 f1bb b69e b7bc fdd5 e33c
00000340: 4e29 c03b 05ff 00bd 32f2 a0bc 4bb6 46bd
00000350: 4d13 31bc 224f b3bc c6d2 1ebc 410c fb3c
00000360: f555 b63c ead0 c43c e031 e73d 98a9 273d
00000370: f5e8 fe3c 79d2 36bb f3bb 36bc 252a 393a
00000380: 444d f6bb c8f1 d8bc fb1f 4f3b cc35 bdba
00000390: fc3d 66bc 3157 4b3c 2aa4 493c 4800 02bd
000003a0: 51b1 013c ae20 3f3d 2ed3 20bd afcf 073e
000003b0: e291 50bd 039b d53b 7681 2abd 119f 923c
000003c0: cbb2 b3bb caac 93bc d2ca 0ebd faf6 86bd
000003d0: d5cc a23c 6f61 10bb ef5d 743a 10cd 593d
000003e0: fd27 133d af1e 073c 4899 04bc cfcd 99bb
000003f0: 2577 163d 99ad 6b3c 612e c9bc 6d49 3f3b
0.064986676 -0.04130735 0.0029948135 -0.023984592 0.01686101 -0.025898896 -0.034381017 -0.001603101
-0.04515994 0.046197835 -0.038347173 -0.0042054197 -0.029074188 0.019034589 -0.06483208 -0.035027664
0.031661198 -0.02557105 0.0006018039 -0.044956576 0.055306118 0.038096167 0.013710607 0.007015995
0.010201548 0.032200594 0.03500992 -0.01996855 -0.03282032 0.0019988914 0.030532796 0.025644055
0.00023720073 -0.018601 0.09554966 0.019978657 -0.024372648 -0.015108037 -0.028904686 0.008509394
-0.03121952 -0.004896165 0.0064772363 -0.0052738134 0.06795713 -0.013450155 -0.032896806 0.037145074
0.033919133 -0.019078279 0.015957845 0.009617675 0.01886646 0.03163494 0.013409919 -0.00941504
0.10337457 -0.06609039 0.035083536 -0.006659011 0.035548147 0.024972616 0.007663347 -0.04387296
-0.03664022 0.013758211 0.02457599 0.016498094 0.002542257 0.08213317 -0.04604886 0.06493521
-0.0073567764 -0.009056274 0.026853373 -0.04641414 0.03720944 -0.02436941 -0.025201466 -0.043120936
-0.05061399 0.047951903 0.007867365 0.04469784 -0.017677244 0.05881613 0.013241836 0.012040639
0.029446803 0.022046981 -0.011918707 -0.038479857 -0.03220549 0.02751606 0.02171948 -0.017015837
0.029271271 -0.0570703 0.0314273 -0.04407362 -0.019335711 -0.027982885 0.03782431 -0.022418287
-0.034731966 0.03650054 0.005098827 -0.040187843 0.035452243 -0.032069158 -0.054492135 0.0007617373
-0.015907882 0.07442043 0.03616891 0.022893554 0.035033338 0.04948477 0.035952188 -0.057110712
0.056574296 0.006346257 0.053236898 -0.012069101 -0.018466873 0.03705265 0.030669764 -0.005688749
0.08589783 0.022934698 0.023330785 -0.011669097 -0.01765584 -0.0046229907 -0.006507783 -0.051990457
0.04316871 0.038268078 0.026465256 0.029598197 0.015620225 0.054896776 -0.018083775 0.018353768
0.03583639 -0.027003556 0.025074754 0.010116506 -0.0023082856 -0.019735707 0.034552474 0.019112393
0.003644466 0.028050898 0.04241554 0.07414899 0.028417103 -0.0560821 -0.029949438 0.052712254
0.01761035 -0.03593887 0.005713977 0.043453068 0.064114116 0.04618963 0.0052417563 -0.009658271
-0.05792524 0.13060132 -0.07070367 0.08695203 0.0102249 0.030074123 0.012481844 -0.009475054
-0.020404752 -0.0016906786 -0.014188573 0.027073886 0.002026626 0.03769776 -0.041024756 -0.009102537
0.004515854 -0.0068970113 0.025687557 0.031109532 0.022559745 0.05579579 -0.034640536 0.0052342718
0.027680384 0.029682696 0.012347536 -0.06630298 -0.028823601 -0.047474314 0.03473518 0.0010614052
0.0072593056 -0.03422731 -0.03701063 -0.03248069 -0.0037621118 -0.0073570097 -0.022414546 0.027811999
0.005864299 -0.031493206 -0.019646738 -0.048513692 -0.010807824 -0.02188832 -0.009693807 0.030645492
0.022257784 0.0240254 0.1128881 0.04093322 0.031116942 -0.0027896448 -0.011153209 0.000706347
-0.007516535 -0.026482478 0.0031604755 -0.0014435588 -0.014052864 0.012410925 0.012307206 -0.03173855
0.007915811 0.046662025 -0.039263897 0.13262819 -0.050920375 0.006518723 -0.04162737 0.017898114
-0.0054839603 -0.018026728 -0.034861393 -0.06590076 0.019873062 -0.0022030731 0.00093218585 0.05317408
0.035926808 0.008247062 -0.008093186 -0.0046937237 0.03673472 0.014384651 -0.024558248 0.0029188052

fc3.weight f4 [2, 300]
00000000: 8c5a e7bd c13f eebc fc30 f63c 4548 75bd
00000010: e636 60bd c79b 4bbd 63a8 83bd bcf1 a2bd
00000020: e037 2ebd eb8a 0abd 871c 9c3a 4f1d 7239
00000030: 9d36 b3bd e7e8 9abc baab 4e3d 5662 82bd
00000040: b70d c938 f0c4 2c3d 3aa4 85bc e9e2 0d3b
00000050: 0bac 2a3d 1e45 babc ac10 bebc 8df5 68bd
00000060: 935c 1cbd 3095 eabc bd30 e2bc 9138 f53c
00000070: b164 2fbe 69f8 c8bd ce23 89bd 0b4b 56bd
00000080: 599e 363d c6f7 97bd 96ee f13c afa7 0abd
00000090: 8db3 b6bd eab8 3fbd f6b4 fb3c 09c7 1cbd
000000a0: 08f2 12bd e669 9fbc e20d 5c3c 3da0 bfbd
000000b0: 7dc7 473b b4b1 d23a 47dd 053d 539b 253d
000000c0: 18bc 983d f477 9ebd 44aa 9c3c e057 963c
000000d0: c847 cbbd 435e 4ebc 4914 ecbc 7483 253d
000000e0: 064a 043d d6a2 283d 4884 69bd 324b a7bd
000000f0: 9234 eebd 7ddb eabc 5850 6cbd da70 5cba
00000100: 9d88 95bd b168 1b3d f947 19bd a858 f43c
00000110: fb54 ccbd 0e60 f83c 434c dbbd 2121 54be
00000120: 8e80 0dbd b1ec 98bd 5690 0e3d b97f 52bd
00000130: e65c a7bc 4950 00bd a990 12bd 75eb a83b
00000140: cf49 103d 0f03 e1bb 1a09 c3bc c0d4 bcbc
00000150: c0c0 6d3c c73c 05be 6756 4a3d c25f a13d
00000160: 5ae5 82bc 9cbd afbd 7e93 e4bc 27f1 a4bd
00000170: 72a6 c7bc e350 66bd 6612 adbd 3a51 7cbd
00000180: c056 20bd 204a 1c3d 790f babc 29ee 0dbc
00000190: a9bc e93c 9fdb a9bd b523 f9bc 42d0 313c
000001a0: 7d2f 2fbd ea4d e9bd 5e73 16bd 2a50 813c
000001b0: 73d5 44bc 675a 9ebd 5a81 733d 6ce5 1eba
000001c0: ba5e 79bd dc0c ffbd 4637 1fbd 4004 05bd
000001d0: b38d 2abc 9194 fcbc 2aa8 823b c415 fabb
000001e0: 2baa 873d 486e 36bd e70f d73b ca99 dbbc
000001f0: 8f43 1dbe bc98 71bd a477 a53c 02a5 61bd
00000200: d946 903d 3cdc d5bd c618 f8bb 5987 27bd
00000210: fd17 b73a fd2e 8cbd 863e 98bd 8797 d2bd
00000220: 5439 25be d83a c0bd 444d 41ba cff8 93bd
00000230: 3005 b9bc 84f1 fbbc eac9 a5bd 9975 b63c
00000240: 797b 22bd 6559 d43b 0cd5 ce3c 57a2 08bc
00000250: 9dee 9bbd 5e3e 593c 1755 3abd a9ff e93c
00000260: 9252 2dbd e95c e1bc ae5d 90bd 3eed 123d
00000270: c4a1 1bbd 5e0e 273c d54b a73c 2d88 f6bc
00000280: 303d 31bd 5b57 7abd 895a 63bd 93a4 093d
00000290: bb2a aa3d 33a0 12bb c8da 89bd 339f 36bc
000002a0: 875a f73c 922a 8e3d a094 3d3d 8890 263d
000002b0: 3bc8 033d c282 a53d acb5 a9bd 1621 36bd
000002c0: e869 fab9 9000 abbd 334c 323d 2d17 bcbd
000002d0: 4a94 3bba d00c 3cbc 951d 1fbd 9f81 6d3d
000002e0: 46cb da3b 6730 c73c 5a94 a9bc 43ce eb3c
000002f0: a077 6c3c 6ee0 12bd 1fc1 4cbd 7849 7fbd
00000300: 9da9 24bc e287 1f3d cc32 45be 85d5 d2bd
00000310: 00cc 503d cda2 2fbd 1742 2fbb fd63 e4bc
00000320: 855d f0bc 8953 91bd 2c1b 39bc 319d 94bd
00000330: 6f88 0dbd dea1 1f3d c27a 8dbd 529e 61bc
00000340: 168c 1dbd 2d7b e83c 1b6b 1cbe 578d 13bd
00000350: 771f 0abe f0a2 5a3d 9384 c3bd 2dcc 4bbd
00000360: c1cf 613d 456b 663b 87d4 153d aaf8 eebc
00000370: 7b67 13bd 2c22 09bd d6d7 a1bd 53a0 4a3d
00000380: 981c 7a3a 16ad 37bd bd2d 91bd fc0a 173d
00000390: 903d b7bc 2a78 36bd ccd6 87bd d283 3dbd
000003a0: bc81 7abc 75c5 aebc fdf2 a4bd ca68 973d
000003b0: 7303 1bbd 408c 753c b798 11bb 8be1 6cbc
000003c0: 02dd 54bd 716d 0abe c6f5 80bd 14cd c13c
000003d0: 3f0e fd3c a37d a9bd 5045 08bd f880 15bd
000003e0: c0b5 4dbd 967b c7bd 7af2 36bd 732c a6bc
000003f0: e071 fdbc e95b a3bc 5635 abbd c32d 70bd
-0.11296567 -0.029083135 0.030052654 -0.059883375 -0.054739855 -0.049709108 -0.064286016 -0.079562634
-0.042533755 -0.03382389 0.0011910357 0.00023089837 -0.08750651 -0.018909885 0.05045674 -0.06366412
9.5869815e-05 0.04218 -0.01631366 0.0021650142 0.04166798 -0.022738036 -0.02320131 -0.0568748
-0.038174223 -0.028635591 -0.02761113 0.0299342 -0.17128254 -0.098130055 -0.06696282 -0.05231766
0.044584606 -0.07420306 0.029532712 -0.03385132 -0.08920965 -0.046807207 0.030725937 -0.038275752
-0.03587535 -0.019459676 0.013431044 -0.09356735 0.0030483895 0.0016074688 0.03268173 0.04043133
0.07457751 -0.07737723 0.019124158 0.018352449 -0.099258006 -0.012595716 -0.028818266 0.040408567
0.032297157 0.041170917 -0.05701092 -0.08168639 -0.11631121 -0.028669113 -0.05769381 -0.000840915
-0.073014475 0.03794164 -0.037422154 0.02982743 -0.09977146 0.03031924 -0.10707905 -0.20715763
-0.034546427 -0.0746702 0.03480562 -0.051391337 -0.02043004 -0.031326566 -0.03578249 0.005155022
0.03522664 -0.0068668197 -0.02380805 -0.023050666 0.014511287 -0.13011466 0.049398806 0.078795925
-0.015978504 -0.08581087 -0.027902361 -0.08053809 -0.02437136 -0.056229483 -0.08450775 -0.0616009
-0.03914523 0.03815663 -0.022712456 -0.008662739 0.028532343 -0.082938425 -0.030412534 0.010852875
-0.042769898 -0.11391814 -0.036731116 0.015785296 -0.012013781 -0.07732087 0.05944953 -0.0006061408
-0.060881354 -0.124536246 -0.038871072 -0.032474756 -0.01040976 -0.03083256 0.003987332 -0.007631989
0.06624254 -0.044538766 0.006563175 -0.02680673 -0.15357803 -0.05898355 0.02019865 -0.055089004
0.07044763 -0.10442397 -0.0075713126 -0.040900562 0.0013968941 -0.068449 -0.074338004 -0.10282808
-0.1613515 -0.093862236 -0.0007373879 -0.07225191 -0.022585481 -0.030754812 -0.08095153 0.022272872
-0.039668534 0.006480383 0.025248073 -0.008339486 -0.07613871 0.013259498 -0.045491304 0.028564291
-0.042315073 -0.027510123 -0.07049118 0.035870783 -0.03799607 0.0101962965 0.020421902 -0.03009423
-0.043271244 -0.061118465 -0.055506263 0.033604216 0.083089314 -0.0022373318 -0.06731182 -0.0111463545
0.030194534 0.069417134 0.046284318 0.04066518 0.032173377 0.08081581 -0.08286604 -0.044465147
-0.00047762622 -0.08349717 0.0435297 -0.09184108 -0.00071555807 -0.011477664 -0.03884657 0.057984944
0.006677064 0.024315072 -0.020700622 0.028784877 0.014432818 -0.035858564 -0.049988862 -0.062325925
-0.010050205 0.038947947 -0.19257659 -0.10294632 0.0509758 -0.04287987 -0.0026742273 -0.02787971
-0.029341469 -0.07096011 -0.011297982 -0.072565444 -0.03455394 0.038972728 -0.0690818 -0.013770657
-0.038463674 0.028379047 -0.15275232 -0.036023464 -0.13488565 0.053378046 -0.09546771 -0.049755264
0.05512977 0.0035159152 0.036579635 -0.029171307 -0.03598736 -0.033479854 -0.079024956 0.049469303
0.0009541004 -0.044842802 -0.07088802 0.03687571 -0.022368222 -0.04454819 -0.06632766 -0.04626829
-0.01528972 -0.02133439 -0.08054159 0.07393034 -0.037845086 0.0149870515 -0.002221627 -0.0144580705
-0.051968582 -0.13518311 -0.062968776 0.02365736 0.030890582 -0.082759164 -0.033269227 -0.036499947
-0.05022216 -0.09740369 -0.044664837 -0.020284867 -0.030938089 -0.019941287 -0.083597824 -0.05863739

fc3.bias f4 [2]
00000000: a746 5f3d c11e 96bd
0.05451074 -0.073300846
