DataShared/results/Reacher-v2_buffer_mod_p_mixed_0.75_final/bcq_actor.pt (torch_old, 507034 bytes, 6 tensors)

l1.weight f4 [400, 13]
00000000: 7227 093c 47e4 0dbf f2f1 923e 38e8 b9bf
00000010: c28d fd3f a27c 77bd 034f 83bc 6947 5d3e
00000020: 93f9 39c0 4a83 62bf 34a9 abbd 49c2 313f
00000030: 89f5 433f 8964 b2be 2f96 6a3e 58b2 213e
00000040: 369d afbe 5cea 1940 5ebf a8bf 8af0 41be
00000050: c2af 1b3e be1b e1bf f65c d43f 8086 543e
00000060: aa8a 2cc0 ea1f 98bf 10e3 28be ee74 1abe
00000070: 26c5 62be 6f99 57bf ee5d 0740 8a2d 96bf
00000080: 2668 823e 29b7 ef3d a201 ccc0 4259 ff3f
00000090: 3dc9 25be fe6b 2840 137b 893f 5afd 72bf
000000a0: ca90 453e b435 23bf 68d9 cebd d0fb 43c0
000000b0: 13df 13c0 5534 bbbe 18b4 a73e a14c 8e3f
000000c0: 3227 803f 40f6 23bc c70f 5dc0 8be9 4a3f
000000d0: 5350 98be 7529 a2be c5f1 843f 1a00 41be
000000e0: ea68 9dbe 88ac bc3f a8cc 85be be10 ffbd
000000f0: e30e 243f 768c 60bf 623b 28be b926 6bbf
00000100: 100a a6bf 3550 0a3d 5370 5cbe 8533 213e
00000110: 04bb eebe 02c6 5ebf e346 2dc0 8f9a cd3d
00000120: dac1 733d 136a a73f 7ad8 a240 5698 7a3e
00000130: c4f2 17c0 612f 2040 1c2b 56be 24cd 9fbf
00000140: 76bc 15bf 975e 633f 92ff 81bf d56f 97bf
00000150: 7f36 30be ebc3 00be 92d3 413f 9b75 973f
00000160: d46e da3d b355 58bf 89a7 183f eaa5 0cbf
00000170: 6a94 ea3e b841 983f d233 243e 0dc9 c7bf
00000180: 8a35 d43f 75f7 cebd 2cc6 8ebe 28b5 223f
00000190: 5896 993f 605e 3f3e 11cd 17c0 61ee 88c0
000001a0: 914b 61be b847 2a3e 8188 cdbe d7d1 9cbf
000001b0: c245 f93f ccad 4ac0 b69a 7bbd a1ee 2abe
000001c0: 1904 2ac0 056e 3b40 2ea1 423e 9963 af3e
000001d0: 8af3 7d3f a29d 4ebd 9203 a83e 8606 8fbe
000001e0: 9d49 11bf b2af 0f40 3e30 4cbf 7d06 02be
000001f0: 4576 043e 9866 7cbf 2e2a 1fbf e657 0abe
00000200: a8f0 7bbf 10fa 38c0 5849 8cbe f972 3c3e
00000210: 450b 8bbe 15a9 0a3f f300 2340 2ed7 b4bd
00000220: 0757 453d ac43 6abe f5a7 10c0 33b9 b43e
00000230: 1583 863e 508a bb3f ef9f 7b40 0b26 0ebd
00000240: 1871 10be 2aea 913e 7120 9e3e 06d3 4340
00000250: 8e60 89bf f7d2 4dbd 66ce 28be 0e78 63c0
00000260: 5177 1440 3ac0 1b3e c20d 97bf cc74 c1c0
00000270: 9d02 d93e 2d61 c8be bffe 8ebf b1cf ecbe
00000280: bb4d 383f fe35 9dc0 acb4 40bd ec19 75be
00000290: 79c9 1abe c06d 0f40 5c04 01be d40f 133f
000002a0: b907 f1bf 4d7f e6bc 72d1 a6be ebeb 2c3e
000002b0: 549b 353f 83d3 c23e bbfd 01c0 e5b1 00be
000002c0: 581c 04be d661 0fbf 2339 8b40 1a81 65be
000002d0: 5b31 fbbe fc1b b8bf 577f b13c 0cb2 a33e
000002e0: bd1c 1e3f c411 eabe d51f 763f 4cd6 433e
000002f0: 820b dfbe fd10 023f f102 1fbf 7059 c73e
00000300: 0055 48be c169 37c0 84d0 8abf b474 e6bd
00000310: cccc 5ebf e6ed dcbe a371 4a3f 0a2f 2840
00000320: 4538 0b3f a43e 323c 9567 f2be db73 bdbf
00000330: 9190 85bf 20c9 463e d981 aabf f9da 4fbf
00000340: b43d 983d 7ae2 8dba 71e0 b9bc 7f92 18bd
00000350: 17ba d23c 65a3 c2bd 1dba 06bc f2ad ad3c
00000360: 35e8 7abe 3c1c ddbd 4a55 653e e08e 55be
00000370: 014e 983c 7a86 8f3d 8a8a 21bf ee71 91be
00000380: ee9e 18bf 9ff3 1940 f69c 1e40 4ecc c0be
00000390: 129f 253e d703 0cc0 6206 06c0 2e40 6a3e
000003a0: 9fbe ad3f 75a4 883f 6568 c0bd d8d0 6ebf
000003b0: d71d a4be 6193 19bf d8a3 fbbf fea7 93c0
000003c0: 5e47 5ebe 8b0a d43e 9672 9d3f eb05 3440
000003d0: 9636 123e 268d 89bf db11 7140 7b44 e3bf
000003e0: 9b7e acbe 2867 47bd 8e09 debe 608d 013f
000003f0: 6e95 1d3f b161 55be f92f 6bbe f779 06c0
0.008371221 -0.5542645 0.28700215 -1.4523993 1.9808886 -0.060421593 -0.016028887 0.21609272
-2.9058578 -0.8848158 -0.08381882 0.6943708 0.7654653 -0.34842327 0.22908853 0.15790689
-0.3429963 2.4049292 -1.3183401 -0.18939415 0.15203765 -1.7586591 1.659087 0.20754433
-2.6959634 -1.1884739 -0.16492867 -0.15083668 -0.22145519 -0.84218496 2.115108 -1.1732647
0.25470084 0.11704857 -6.3751993 1.9949114 -0.16190048 2.6315913 1.0740684 -0.94917834
0.19293514 -0.6375382 -0.10100061 -3.0622444 -2.3104904 -0.36563364 0.32754588 1.1117135
1.0011961 -0.010007441 -3.454088 0.7926261 -0.29748783 -0.31672254 1.0386282 -0.18847695
-0.30744106 1.4740152 -0.26132703 -0.12454365 0.64085215 -0.87714326 -0.16428903 -0.9185596
-1.2971821 0.033767898 -0.21527223 0.1574231 -0.46627057 -0.87020886 -2.7074516 0.10039245
0.059511043 1.3079246 5.0889254 0.24472174 -2.3741922 2.5028918 -0.20914882 -1.2484479
-0.58490694 0.8881621 -1.0156119 -1.1831003 -0.17208289 -0.12574737 0.75713456 1.1832765
0.1066567 -0.84505767 0.5963064 -0.54940665 0.45816356 1.1895056 0.16035393 -1.5608231
1.6578839 -0.101057924 -0.27885568 0.6355767 1.1999006 0.18688345 -2.3718913 -4.279099
-0.22001483 0.16628921 -0.40143207 -1.2251538 1.9474413 -3.1668577 -0.06142684 -0.16692592
-2.6565 2.92859 0.19006798 0.34255674 0.99199736 -0.0504433 0.32815224 -0.27934664
-0.5675295 2.2450986 -0.7976111 -0.12697788 0.12935741 -0.98594046 -0.62173736 -0.13510093
-0.9841409 -2.8902626 -0.27399707 0.18403234 -0.27157035 0.5416425 2.546933 -0.08830105
0.0481787 -0.22877377 -2.2602513 0.35297546 0.26271883 1.4651585 3.9316366 -0.03470425
-0.14105642 0.28498966 0.30884126 3.0597548 -1.0732591 -0.05025002 -0.16484985 -3.5542026
2.3197825 0.15210047 -1.1801074 -6.0455074 0.42384806 -0.3913664 -1.1171492 -0.46252206
0.7199361 -4.912841 -0.047047302 -0.2393567 -0.15115918 2.2410736 -0.12599319 0.57446027
-1.8830482 -0.028136874 -0.3258167 0.1688687 0.70940137 0.38051996 -2.0311115 -0.12567861
-0.12901437 -0.5600866 4.3507247 -0.2241253 -0.49061093 -1.438354 0.021667166 0.31971776
0.617626 -0.4571668 0.9614232 0.19124717 -0.43563467 0.5080717 -0.62113863 0.38935423
-0.19563675 -2.8658297 -1.0844884 -0.11252728 -0.87031245 -0.43150252 0.79079646 2.627871
0.54382735 0.0108791925 -0.47344652 -1.4800981 -1.0434743 0.1941266 -1.3320876 -0.811935
0.07433644 -0.0010824942 -0.02269003 -0.037249085 0.0257235 -0.09503821 -0.008223084 0.021201108
-0.24502642 -0.10796401 0.22395816 -0.20855284 0.018591883 0.07008071 -0.6310202 -0.28407234
-0.5961751 2.4054945 2.4783301 -0.37655872 0.16173962 -2.1877344 -2.0941396 0.22876045
1.3573798 1.0675188 -0.09394912 -0.9328742 -0.32054016 -0.5999051 -1.9659376 -4.614257
-0.21706912 0.41414294 1.2300594 2.8128612 0.14278635 -1.07462 3.7667148 -1.7755274
-0.33690342 -0.04868236 -0.43366665 0.50606346 0.61556137 -0.20838048 -0.22967519 -2.1011941

l1.bias f4 [400]
00000000: b2ee 0dbf 2d19 03be d1a1 a2be 3948 5bbf
00000010: 03af 5bbf 503d 6f3d 89cf 21bf a921 7bbf
00000020: 3ed0 86bd cc76 f6be 76f9 9cbe 939e 1abe
00000030: ef77 213e dc82 863e e801 1bbf 30fd 56bf
00000040: 27dd 90be 54fe 46bf fa04 a4bf bfab c1bf
00000050: 3512 18bf 9c18 81be dd9d 48bf 8b34 94bf
00000060: 3b76 43be 1360 fdbe cfe9 90bf 847c a3bf
00000070: 302b 79bf c95c 32bf 04fe 12bf a92d 4bbf
00000080: 4fbf 5cbf bd3d 3bbf 9721 15bf f917 15be
00000090: f979 b6bf 1213 89be c221 94bf 7f7d d6be
000000a0: d15c 42bf ab84 b5bf 2249 dbbe 0de8 ecbe
000000b0: ede9 fb3c cb08 a3bf 19f3 85bf 6a69 c1bf
000000c0: 308c bcbf 8d9f 87bf 70ae 9cbf 5b28 b8be
000000d0: 0c2e cebe b34a 3fbf 1dd5 febe 0cc3 00be
000000e0: 9390 63bf d787 37bf caef 75bf 0579 c9be
000000f0: 451c 22bf e3cd cebe 8ff9 56be 99c0 11bf
00000100: 9e0b 1fbe 118c b3be d2f9 e1be 2f73 83bf
00000110: 6ccb 75bf 9f8e bcbd c833 8abe a6f1 37be
00000120: 17c2 4fbf b0a5 31be 6abc 12bf 0f35 30bf
00000130: 8823 9dbe 470f e53d df76 8ebf 223c 15bf
00000140: 59bc c4be 5b15 57bf 16ad c1bf bc05 69bf
00000150: 965d 96be c29b ebbc 15f4 2c3e 4b6e 2abf
00000160: f384 903d 9b96 cabe 32ca a9bf 2d0c 6fbe
00000170: f412 07bf e9d6 54bf 5b43 13be 6f57 4abf
00000180: d498 19bf 6a78 eebe 58e0 ddbe e67a e4bc
00000190: d634 08bf 4fe3 1fbf e1af dabe d661 c6be
000001a0: 6710 36be 34a3 b23d 0bab 23bf f253 35bf
000001b0: 16fd 13bf 46fa 32bf 0ade ffbd 683f c1bf
000001c0: f2be e3bf b44d 24bf 81d0 8cbd 8946 51bf
000001d0: 72bf 5bbd cdbe b1be 697d 1abf 4a18 63bf
000001e0: 24db a8bf 0bcb 79bf 9599 0ebf b930 8dbe
000001f0: c8d2 f1be 8c82 5abf e508 9cbf b9f5 48bf
00000200: 595a 55be 7680 d9be 59e7 cdbe 1762 95be
00000210: 006e 66bf aa6f 41bf 60a8 023e c90a 78bf
00000220: 530d f7bd e8ff 81bf fa7a c8be d5b6 c2be
00000230: ddfb 95bf dfc2 27be d1ff 28bf b2bf ecbe
00000240: bfc1 27be ec48 8dbe fa29 3ebf 6219 f8be
00000250: f6d3 d8bf 3849 47be 9d07 e9be 7311 f6be
00000260: 711b 0dbf b148 f13d ac84 06bf f288 0dbf
00000270: ce6b 37bf 77d9 81bf 4697 18bf 280f 1b3c
00000280: 2730 01bf da15 e7bf 9769 a7bd c492 25bf
00000290: 6f61 33be df48 dd3c a576 83be 539c 85bf
000002a0: 5838 a1bf 8e7d b6be a41e 04bf 0660 5ebf
000002b0: aa83 73bf 0128 bbbe ccb6 5bbe e351 90be
000002c0: a10c 86bf 41c4 0ebf 8caf 8abe 044d 0cbf
000002d0: f2c7 13bf eadc a2bf fb0d 66bf 7202 e8be
000002e0: 8513 8ebe 863d 12bf f30b 65be 2ce7 3dbf
000002f0: 30df 95bf 6dda 29bf 2e66 54bf 8108 54be
00000300: 2bde a9be c517 b3be 1090 933c 5c9e a4bf
00000310: 599e 5abf 8c55 afbe 392c 43bf 11d7 a5bf
00000320: b6e7 60bf 7172 c0bf c3f1 97be 4bf7 343e
00000330: 5d17 6fbf 646e cdbe b3c6 6fbf 93f9 8fbf
00000340: 9b69 05bf dc1e dabe b005 a1bf 5ebf ddbd
00000350: e93e 9cbe aa92 63bf 7930 3ebf 1093 72bf
00000360: dee4 30bf 4246 1ebf 64fd b1be 746f 90be
00000370: 031a 57be 0859 80bf 6100 8cbe a084 5cbf
00000380: cdc7 82bf af5c 5abf 56e5 c1be b0d2 e4bd
00000390: e9f3 babe 83ad 41bf 93c7 1ebf b13e 4abf
000003a0: 0554 7abf 579b 99bf 7813 8ebf 6316 2ebf
000003b0: 7145 40bf edc4 47bf b9f2 83bf 2a7b 3bbf
000003c0: 1cf8 06bf 1d98 0fbf 07fe d9be 4ab3 84be
000003d0: 5e41 6dbe bff6 99bf 9cd4 63bf 7710 b1be
000003e0: 4982 ffbe 0136 04be 622a 3ebe 6939 edbb
000003f0: 9200 9bbf 8468 5fbf f78c 7bbd d1ff 5abf
-0.55442345 -0.12802573 -0.3176408 -0.8565708 -0.8581392 0.05840808 -0.632073 -0.98098236
-0.06582688 -0.4813751 -0.30659074 -0.15099554 0.15768407 0.26271713 -0.60549784 -0.83980083
-0.28293726 -0.77731824 -1.2814019 -1.5130538 -0.5940278 -0.25214088 -0.7836588 -1.1578535
-0.1908807 -0.4948736 -1.1321353 -1.2772374 -0.97331524 -0.6967283 -0.5741885 -0.79366547
-0.86229414 -0.7314108 -0.5825438 -0.14559926 -1.4255973 -0.26772362 -1.1572802 -0.4189262
-0.75922877 -1.4181112 -0.42829233 -0.4627079 0.030751193 -1.2737058 -1.0464813 -1.5110295
-1.4730282 -1.0595566 -1.2240734 -0.3596829 -0.40269506 -0.74723357 -0.49771968 -0.12574404
-0.8889248 -0.7169165 -0.96069014 -0.39350143 -0.63324386 -0.40391454 -0.20993637 -0.56934506
-0.15531775 -0.350678 -0.4413591 -1.0269526 -0.9601352 -0.0920689 -0.2699263 -0.17963275
-0.8115553 -0.17348361 -0.5731875 -0.6883096 -0.3069117 0.111845545 -1.1130027 -0.5829488
-0.38424948 -0.8401696 -1.5130947 -0.91024375 -0.29368275 -0.028760795 0.16889985 -0.66574544
0.07056608 -0.39568028 -1.326483 -0.23344488 -0.52763295 -0.83140427 -0.14381163 -0.79039663
-0.5999882 -0.46576244 -0.43335223 -0.027890634 -0.5320562 -0.6245622 -0.4271231 -0.38746518
-0.17779694 0.08722535 -0.63932866 -0.70831215 -0.57808053 -0.69913137 -0.124935225 -1.5097475
-1.7792647 -0.64181066 -0.068757065 -0.81748253 -0.053649373 -0.34715882 -0.6034761 -0.8870894
-1.3191876 -0.97575444 -0.557031 -0.27576235 -0.47231126 -0.8535545 -1.2190214 -0.78499943
-0.20835246 -0.4248082 -0.40215567 -0.291764 -0.90011597 -0.7556101 0.12759542 -0.96891457
-0.12063088 -1.0156221 -0.39156324 -0.38030115 -1.1717488 -0.16382931 -0.66015345 -0.46240002
-0.16382502 -0.27594697 -0.742828 -0.48456866 -1.6939685 -0.19461524 -0.4551362 -0.48060188
-0.5512 0.11781443 -0.5254619 -0.55287087 -0.7164887 -1.014449 -0.59605825 0.009464063
-0.504641 -1.8053544 -0.081744365 -0.6467707 -0.17517637 0.027012287 -0.25676456 -1.0438331
-1.259532 -0.35642666 -0.51609254 -0.8686527 -0.9512278 -0.36553958 -0.2145645 -0.28187475
-1.0472604 -0.5576821 -0.27087057 -0.54805017 -0.5772697 -1.2723668 -0.8986508 -0.45314366
-0.27749267 -0.5712513 -0.2236784 -0.74180865 -1.1708736 -0.66348916 -0.82968414 -0.20706369
-0.33177313 -0.34979072 0.01801303 -1.2860827 -0.8539787 -0.34244955 -0.76239353 -1.2956258
-0.8785356 -1.5034925 -0.29676637 0.1767246 -0.93395025 -0.40123284 -0.93662566 -1.1248039
-0.52114266 -0.4260167 -1.2579861 -0.10827516 -0.30516747 -0.88895667 -0.74292713 -0.9475565
-0.69099224 -0.61825955 -0.34763634 -0.28210032 -0.21006016 -1.002717 -0.2734404 -0.8613987
-1.0217224 -0.85297674 -0.37870282 -0.11172998 -0.36514214 -0.7565538 -0.62023276 -0.7900191
-0.97784454 -1.2000531 -1.1099691 -0.6800291 -0.7510596 -0.7803486 -1.0308448 -0.7323481
-0.52722335 -0.5609148 -0.4257662 -0.25918037 -0.23169467 -1.2028426 -0.8899629 -0.34582874
-0.49904087 -0.12911226 -0.18570855 -0.00723951 -1.2109549 -0.87268853 -0.06141373 -0.85546595

l2.weight f4 [300, 400]
00000000: a49f ae3f 3273 7a3e 5eb4 733f 483a 39bd
00000010: 5964 253d eaa6 45bf 6cfc a13e 9904 3f3e
00000020: aa54 7eb9 4154 bebe 25e2 0ebf ac71 a73e
00000030: 3ed1 a4bf c457 303e a692 50c0 e1dc a4be
00000040: b970 38bd 37cb b03f 78e7 88bd d87e 003e
00000050: c057 3a3f 3545 13bd 0f41 3e3f 143a 003f
00000060: 0e0b 40bf 7472 f1bf 47b1 99be acfb 19bf
00000070: f30a 9e3e 8df6 24bf 61a2 15c0 a817 dbbe
00000080: 73ef 4a3f 37e8 0abf 06f1 d5be d623 1f3f
00000090: 23eb f83e fffe e23e f26b 44c0 fc7c 073f
000000a0: 0a99 a9bf d985 e83c f68d cb3d 26a9 b63e
000000b0: 5f12 37be 8095 293f 76ac a73d cccc d0be
000000c0: 02b5 d5be 21ad cd3e 1a3a 0b40 1dda 4d3d
000000d0: e33a ca3d 26aa dcbe 740b 1d3f 3b78 d6be
000000e0: 92c3 4bbf 8062 2cbe d758 553e 13c9 003f
000000f0: f0bb 823e 3dd9 b9bf 9e56 b6bc c03e 613f
00000100: a8e5 5a3e 8cea 843f 73a6 bc3e 0556 f43e
00000110: 4d9b c2be d331 acbd 1cf7 9ebe 13ec ef3d
00000120: cea8 e73e d629 853e 9295 78be 15b1 883e
00000130: dc71 67bd 7f40 05c0 43fe febd 77dd 913e
00000140: 2508 1cbf aec0 f43e bb35 483f 103b 16be
00000150: fcd1 c1bf 8132 dc3d 85ee 63bf 4346 3ebf
00000160: ca94 7c3e b77c 82bf e85c cf3e c148 963f
00000170: 9472 813b 880b 843e 28ab 033e 43b0 233f
00000180: cbf4 c9bc a703 f03e 0be5 533f 90d1 9b3e
00000190: 5dd4 c33c ad15 a73e 2c23 45bf 792a 303f
000001a0: 73cc c1be c410 66be 2478 f53d f26b 5cbf
000001b0: 38e2 db3f 68c8 4e3e 8c8f d53e f37d 653f
000001c0: d61c 853e 9dfe c33e 72f6 acbe d58e 6b3f
000001d0: 29cd 663e d32b 073f 43da d1be d81f 56bf
000001e0: cef9 49bf 0746 943e afb0 823e b72f 92be
000001f0: 9f9d adbf be0f 0a3f 8ede 3dbf 7896 8abd
00000200: 6f71 04be f4ac 1d3f edcd 623f e67d 113f
00000210: d0f0 c8bf 0d97 873d 1b3a 393e 3872 9bbf
00000220: cf2b 893c 97eb 2b3f f4bd 803d b998 ccbd
00000230: 71b4 5f3f 3c44 37bf e9ca 3cbe 8927 72be
00000240: 3f0c 033e cc98 5fbe 2fa0 aa3e 46a7 9f3e
00000250: 137b 283f 44d0 c1bd 638f 89be bb9a 26be
00000260: 31b4 cbbf 50b4 f33d 9b87 e13e 0454 e73d
00000270: 6848 08bf 2204 a43e 30eb 0abf ff92 9c3e
00000280: 1c89 e7bd 385a 5dbe 0569 d03d b91c fe3e
00000290: 94a2 333f adcd 723e 8568 04c0 208d f0be
000002a0: 86ba c2be f692 ddbe 8ea5 a8bf 7e9e cebe
000002b0: 6b8a 2c3f f90a 653e 4383 f7be 4702 723e
000002c0: 2d54 acbd 6d7e 6f3e cef2 58bf ad51 54bf
000002d0: e11c acbe 72f0 4abf 72a8 39bf 0832 353f
000002e0: 11ff 483f 6fb5 4c3f 1934 f73d 8ee7 a73e
000002f0: db0e 99bd 8834 b4be fa52 a53e 1c61 873c
00000300: 4bee 603e 0eea 83be f69c bfbe fab5 223e
00000310: e748 1dbf 1b98 273f 411a 4c3f ef5c 933f
00000320: 15be 5f3f 6082 7cbe a0ea 1c3f 3ca2 483f
00000330: 4dfa 8bbe fc30 c2be 07b6 1fbf e14b a93f
00000340: fe69 0fbd bb64 8e3e fd91 1e3e a122 08bf
00000350: 1080 c7be 1b68 f2be b735 053f a99e aabe
00000360: 7127 c8bf 50ca 303e bf55 0abe 7fbf 8d3d
00000370: bd9b 2ebe 605d 0c3f f09e 2d3f 8667 cf3d
00000380: 2419 1c3f 1479 623d f36e bcbd de21 01bf
00000390: 2475 da3d 27ee d7bd 22e1 b73d c2e7 31be
000003a0: 04d8 49be c4b1 4ebe 03d2 3b3f e478 473e
000003b0: c26d 7d3f dcc1 fa3d 903c acbe 39aa 91bf
000003c0: 7dca a8bd 1698 44be 0a01 c8be cd81 71bf
000003d0: 6bbd 9cbf 3c97 103e 8fa1 ca3e e2c2 3c3e
000003e0: 3655 083f 052d 28bf d815 82bd ff3e 0ebe
000003f0: f63f cd3e ce52 303f 5998 cebd 7042 6cbe
1.3642468 0.24458006 0.95197093 -0.045221597 0.040378902 -0.77207816 0.31637895 0.18654098
-0.00024254867 -0.37173656 -0.5581382 0.32703912 -1.2876356 0.1722098 -3.2589507 -0.32199767
-0.045029376 1.3812016 -0.06684774 0.12548387 0.72790146 -0.035954673 0.7431802 0.5008862
-0.7501687 -1.8863053 -0.30018064 -0.60149646 0.3086773 -0.64438707 -2.3380358 -0.42791486
0.7927162 -0.5426058 -0.4178545 0.62164056 0.48616895 0.44335172 -3.0690885 0.52925086
-1.3249829 0.028384136 0.09939186 0.35675925 -0.17878102 0.66243744 0.08187191 -0.40781248
-0.4173966 0.4017115 2.1754212 0.050256837 0.09874513 -0.43098563 0.613456 -0.41888604
-0.7959529 -0.1683445 0.20834671 0.50306815 0.2553401 -1.4519421 -0.0222581 0.87986374
0.2137667 1.0384078 0.3684574 0.47721878 -0.3800911 -0.08407941 -0.31047904 0.117149495
0.45245975 0.2600848 -0.24275807 0.26697603 -0.05650507 -2.0820615 -0.1245084 0.28489277
-0.6094993 0.47803253 0.78206986 -0.14670968 -1.5142207 0.1075182 -0.89035827 -0.7432596
0.24666134 -1.019431 0.4050057 1.1740953 0.0039504264 0.25790048 0.1285826 0.6394083
-0.02465286 0.46877787 0.82771367 0.3043332 0.023904974 0.32633725 -0.77006793 0.6881481
-0.37851295 -0.22467333 0.11985806 -0.8610221 1.7178411 0.20193636 0.4171108 0.8964531
0.25998563 0.38280192 -0.33781773 0.9201482 0.225392 0.52801245 -0.40986833 -0.8364234
-0.78896797 0.28959677 0.25525424 -0.2855203 -1.3563727 0.5393027 -0.74167717 -0.06766981
-0.12933896 0.6159203 0.8859547 0.5683273 -1.569849 0.066206075 0.18088572 -1.2144232
0.016744522 0.67156357 0.06286231 -0.09990067 0.87384707 -0.7158849 -0.18436779 -0.23647894
0.1279764 -0.21835631 0.33325335 0.31182307 0.65812796 -0.09463552 -0.26867208 -0.16269962
-1.5914365 0.11899626 0.4404877 0.112953216 -0.53235483 0.32034403 -0.5426512 0.305809
-0.113054484 -0.21616447 0.10176281 0.4963129 0.7016995 0.23711272 -2.0688794 -0.4698267
-0.3803293 -0.43276185 -1.3175523 -0.40355295 0.6739871 0.22367467 -0.48342332 0.23633681
-0.08414493 0.23388071 -0.8474549 -0.8293713 -0.33615783 -0.7927314 -0.7252265 0.70779467
0.785142 0.79964346 0.12070484 0.3279385 -0.074735366 -0.35196328 0.3228987 0.016525798
0.21965902 -0.25764507 -0.3742444 0.15889731 -0.61439365 0.6546647 0.7972756 1.1512736
0.8739942 -0.24659109 0.6129551 0.7837255 -0.27339402 -0.37927997 -0.62387127 1.3226281
-0.03501319 0.27811226 0.15485378 -0.5317784 -0.3896489 -0.4734505 0.5203509 -0.33324173
-1.5637037 0.17264676 -0.13509272 0.069212906 -0.17051597 0.5482998 0.67820644 0.101271674
0.6097586 0.05529125 -0.092008494 -0.504423 0.10666874 -0.10543471 0.089784876 -0.17373565
-0.1971131 -0.20185 0.7336733 0.1947971 0.989956 0.12244007 -0.33639956 -1.1380073
-0.082417466 -0.19198641 -0.39063293 -0.94338685 -1.2245306 0.14120191 0.39576384 0.18433717
0.5325502 -0.65693694 -0.063518226 -0.13891219 0.4008786 0.6887635 -0.10087652 -0.23072219

l2.bias f4 [300]
00000000: 6d55 64bd dab1 223f 79ce 4abd 2ad0 72bc
00000010: b163 59bd 7705 1d3e 3bc1 07bf 3d02 bebc
00000020: 8320 8bbd 75d2 efbe 1e48 09be d7d1 403f
00000030: 9013 05be b3a4 73bd 16b7 97ba 054a 5abd
00000040: 65c7 8dbd a3c6 42bd 3b51 eabd b8ab acbc
00000050: f0cc 28bd 74ba ab3d a19b 38bf babd 6fbe
00000060: 14a1 ce3e d644 403d f8cb 8cbf 4fff 8cbf
00000070: e078 4d3e fe11 b93e 0647 503f 483c 6f3d
00000080: d431 0cbf 5983 c23e 16e6 19bf 384f 37bd
00000090: 0c7b 1bbd b201 1cbf 0c9f c1bd 703b 5fbd
000000a0: 52cc c4bc de2d 38be 84b5 6fbf a7a4 5bbc
000000b0: 3794 94be 58be 53bd 18f4 e93c 94a7 2fbd
000000c0: b409 9ebd 8a1b 15bd efd7 1ebf 864d ec3e
000000d0: e656 a0bd 3ed8 8ebc 5413 98bd 59da 6a3e
000000e0: a821 b2bd 4711 54bd 9734 a8be 4c54 25bc
000000f0: 4da4 9abb f9ae 6cbc 41c6 6abd 1197 3cbc
00000100: cd25 a5be 31df 23be 4b71 1dbf 1678 7fbd
00000110: 4e0c 33bb c8fb c3bd ffe7 36bd 7fe3 58bd
00000120: 8782 b7be 392d 67bd f006 b0bf fcba 53bd
00000130: e5a3 c2bc 5f19 ebbb a36f aabd 9ff3 1b3f
00000140: 63bf 7cbf 6dc9 82bb 26d8 32bd 0837 bdbe
00000150: 0b33 adbd b035 1dbd e1a6 6cbc 171f fdbc
00000160: 88e9 95bd 04a7 16bf 4cec ddbd 5f66 15be
00000170: e218 14bd 8400 97bd cba7 11be 396c 3bbd
00000180: 4e12 333f d37d 05bd 2c7a 3cbd aa65 61be
00000190: 2ccb 69bd e11d 043f 935b bbbe 60cd 65be
000001a0: 5df5 e6b8 3950 67bd cf45 b43d 7f9f f3bd
000001b0: 8dbd 643e beaa c8bd fa40 e2ba cfa6 a9bd
000001c0: 0301 dbbd 1a1c 56bf 9f76 4bbd 310c 32bc
000001d0: 1947 05bc c7d1 97be 2faa 63bd 63ed b7be
000001e0: 3cef c0bb 0149 96bc 3a4c 803e 50d7 0c3c
000001f0: be09 b3be f56e a6bd a4a4 8bbd ea3f 4cbd
00000200: bbf8 0ebe bf97 7cbe e08a 2bbd f650 5dbd
00000210: b39b 9abc c00b 273f f557 17bd 154e 91bd
00000220: a58e e7be 3d3a f2bd 5b3c c4be 74c6 a1bb
00000230: 45a1 9fbd 7959 09bf 69a8 46bd ed46 343f
00000240: 8b15 63bd 4e54 80bd 5ac1 4cbd 0c9f 82bd
00000250: 83e7 9f3a e8e9 fbbd 66e1 0ebd 2cbc a0be
00000260: 74fe 693e 9e75 e23a 3153 13bf 8f64 8abe
00000270: 0b73 07be 2a37 a5bc 1340 febe 660e abbc
00000280: b244 1dbf 5677 303e 842c c5bd db10 02bf
00000290: 7931 20bf 24fd d2bc 390f 53bd 25ff 86bd
000002a0: 5a8b 90bd 4254 5b3e 40cc 363f 193d 42bd
000002b0: 1e92 2c3c e2d4 29bd 3696 463e f8b5 36be
000002c0: 8584 0dbd 8015 65bb 5b33 13bd 746d c6bc
000002d0: 448e 37bd 558b 42bd 4fca 13ba cf70 aebd
000002e0: b9e6 7cbd 3100 84bd a437 04bd 7c80 20be
000002f0: daa0 e1bc f397 2dbd 94f6 b13e 13e5 5fbf
00000300: 13ee 80bd 18bf 09bf 74cf a9be a1f7 8abd
00000310: df02 15bd d141 9d3e f70b 38bd af47 d4bd
00000320: c326 423e 7f22 a3bc 1322 63bd f3f9 83bf
00000330: d1bb 143f 6205 c2be 85c9 3cbd 2d45 de3e
00000340: 8212 a6be 0bd8 7dbd de0a 89bd 677f 94bd
00000350: 405a 2cbf ca70 6abd a5cd 3d3f 8ecd 9ebd
00000360: 0a9c aabe bae3 91bc 44c4 3abd 15cc adbe
00000370: 96fa a5bc 205b acbd 41c4 b33e e481 5abd
00000380: 0d58 05be c862 04bd 4b82 303f 701b b9be
00000390: 4cb2 52bd 300a 69bc a36d 91bd a6ac 83be
000003a0: d715 b5bd 065e 25bd ca84 d1bc a22f 69be
000003b0: 0636 32bf b324 bcbc ce7c 5cbf 3e1a 9fbd
000003c0: 27ec 7cbc 6995 0dbd bb61 27bd b686 fabc
000003d0: af9c 7bbc 36c4 ecbe 80c6 3abf 9ffe d73e
000003e0: 442c 86be 3194 50bf fa20 9abe b79e 11bd
000003f0: bfb7 12bd 7436 073c 02f2 e6be a55b 12be
-0.05574553 0.6355263 -0.049513314 -0.014820138 -0.05307359 0.15334116 -0.5302922 -0.023194427
-0.067933105 -0.46840253 -0.13406417 0.7532019 -0.12995744 -0.05948324 -0.001157495 -0.053293247
-0.06922797 -0.047552716 -0.11441275 -0.021077976 -0.04121107 0.083851725 -0.7211247 -0.23412219
0.40357268 0.046940647 -1.0999746 -1.1015414 0.20065641 0.3614654 0.81358373 0.058407098
-0.5476353 0.37990835 -0.6011671 -0.044753283 -0.037959144 -0.60940087 -0.09454164 -0.054500043
-0.024023209 -0.17986247 -0.93636346 -0.013405955 -0.2901933 -0.051695198 0.028558776 -0.042884424
-0.077166945 -0.036403216 -0.6204824 0.46152896 -0.078290746 -0.017437097 -0.074255615 0.22934856
-0.08697826 -0.05177429 -0.32852623 -0.010090899 -0.004719293 -0.014446014 -0.057317976 -0.011510626
-0.32255402 -0.1600311 -0.61500996 -0.062370382 -0.0027320567 -0.09569508 -0.044654842 -0.052951332
-0.35841772 -0.056439612 -1.3752117 -0.051691994 -0.023759792 -0.0071746553 -0.08322074 0.6091861
-0.9872953 -0.003991297 -0.043663166 -0.36956048 -0.08457001 -0.03838128 -0.014444084 -0.030898614
-0.07319933 -0.58848596 -0.10836086 -0.14589833 -0.036156543 -0.07373145 -0.14224164 -0.045757506
0.69949806 -0.0325907 -0.04601495 -0.22011438 -0.057078525 0.5160809 -0.36593303 -0.22441626
-0.00011012957 -0.05647299 0.088023774 -0.11895656 0.22337933 -0.097981915 -0.0017261796 -0.08283769
-0.10693552 -0.8363663 -0.049673673 -0.0108671645 -0.008134627 -0.29652235 -0.05558222 -0.359233
-0.005887894 -0.018345358 0.25058156 0.008596256 -0.3496837 -0.08126632 -0.06818512 -0.04986564
-0.1396207 -0.24667262 -0.04188049 -0.05403229 -0.018873071 0.65252304 -0.036949117 -0.07094971
-0.45226017 -0.11827514 -0.38327298 -0.0049369875 -0.077944316 -0.5365215 -0.048500452 0.70420724
-0.055440467 -0.0626608 -0.049989082 -0.06377992 0.0012199733 -0.123004735 -0.034882925 -0.31393564
0.22850972 0.0017277484 -0.57548815 -0.27029845 -0.13227479 -0.020167906 -0.4965826 -0.02088089
-0.61432946 0.17233023 -0.09627631 -0.5080697 -0.6257549 -0.025755472 -0.05152819 -0.06591634
-0.07057829 0.2141886 0.7140541 -0.04742155 0.010532884 -0.041462786 0.19393238 -0.17842853
-0.03455021 -0.0034955442 -0.03593765 -0.024222113 -0.04481341 -0.04749616 -0.00056377513 -0.0851761
-0.06174347 -0.06445349 -0.032279626 -0.15674013 -0.02754252 -0.04238124 0.34758437 -0.87458915
-0.06295409 -0.5380721 -0.33166087 -0.06785513 -0.03637969 0.30714276 -0.044933286 -0.10365235
0.18960099 -0.01991391 -0.055452418 -1.0310653 0.58099085 -0.37894732 -0.04609062 0.43412152
-0.32435995 -0.061973613 -0.06691526 -0.072508626 -0.6732521 -0.05723647 0.74141914 -0.0775405
-0.33322173 -0.017808784 -0.04559733 -0.33944765 -0.02026109 -0.08415818 0.35110667 -0.05334653
-0.1302187 -0.032320768 0.6894881 -0.36153746 -0.05143957 -0.01422362 -0.0710099 -0.25717658
-0.08842056 -0.04037287 -0.025576014 -0.22772077 -0.69613683 -0.022966718 -0.86127937 -0.07768677
-0.0154371625 -0.034566317 -0.040864687 -0.030581813 -0.0153571805 -0.46243447 -0.72959137 0.42186448
-0.26205647 -0.8147612 -0.30103284 -0.035551753 -0.035819765 0.008252729 -0.45106512 -0.14292772

l3.weight f4 [2, 300]
00000000: cb52 80be 61a2 723f 9b76 76bc b362 9f3c
00000010: e9b9 0a3d a253 10bd 2ca6 353e c878 acbc
00000020: a9cf f43c f263 24bf 06ea 5c3d 95d5 f13e
00000030: fdd6 2ebd 84fe a73c 06ab 49bc 554c 7a3a
00000040: dbf8 dfbc a8db 8a3c f131 58bd 0c48 843c
00000050: 436b bd3a d36a 7bbf a846 85be 5939 df3d
00000060: 7f5b d33e 4c8e 033e 6739 343f ece4 c53e
00000070: c210 a13e b531 2840 8c11 18bf e030 26bf
00000080: 4b65 7d3f 65fb ac3f d13e 58be ccdb 89bc
00000090: a7dd 11bc e11b 64bd 5a78 543d e1cf edbc
000000a0: b759 96bc e017 983c a9e6 d63d 7ee5 013d
000000b0: 69dd 86bf ef79 e3bc 6cb8 723e c7c8 3dbd
000000c0: 73f2 10be 9c77 873b 6d1b 043f 9e1f acbe
000000d0: 9b82 a6bc 0a8d acbb e185 28bb 1a67 f0bd
000000e0: 9221 8abb d63e 1dba 64de 6e3e c42e 803c
000000f0: b40f 87be 47bd bb3c b0c2 6a3e 7a06 aabc
00000100: 7b44 113e d5dd 95bd 5850 b5be 4a84 0cbc
00000110: e0a4 e13c 75b6 1c3e 7777 89bb 9576 beba
00000120: f12f 6a3e 3f1a 703b 3a60 9a3e 21c0 4d3c
00000130: d65a fe3c 45ba ac3c 9bf0 c33c d7e2 2c3e
00000140: 7463 4ebf 2e01 d93c 03f2 8d3b 4f5a 14be
00000150: 271f 85bc 5205 4bbc a60b 1fbc 5f0a 033c
00000160: a234 b5bc 6f8e c33e b453 6fbb 2c4d a03e
00000170: f846 183d 2ed8 85bc 3bbb 3d3d f022 a63c
00000180: 8d36 053f cf3a 833e 9410 c43c 65d9 87bd
00000190: d82d 493d af0d cebf 903f 48bf 4431 edbb
000001a0: a7a4 89bb 1538 35bf 1cc4 a53b 0544 a83b
000001b0: 4fce be3d 8a84 73bc 137d 8d3c d1b4 153a
000001c0: 909e 923b 401a 16be c065 9fbc 29ba 73bc
000001d0: b81c ae3c b9b6 063f d393 47bd 0dae 583b
000001e0: 9a0c f13c c714 31bb 727d 1040 4524 c6bb
000001f0: 2c4f 8bbe 132c ce3c a132 63bc 7186 c33c
00000200: 88aa e83c 7f8f 17be 2902 acbc 7a17 83bc
00000210: 0ae8 573d 2902 5b40 d1df 003d 24df 483c
00000220: 25d9 10be 7ed8 ec3c fd0b 043c f437 b13d
00000230: 3553 4abc 06d1 74be 7d16 493c fa62 0ebf
00000240: d3ea 9c3c 39f5 3e3f 59b7 9cba 21a3 3abd
00000250: 0bd2 7fbc 3a5e 45bf 9bce fe3c 2f0f 883e
00000260: 8d7e 1c3f c2a5 a13c 89c6 38bc 8840 fabf
00000270: bf35 803d 8b96 0bbd e1d5 113e 57e3 4dbc
00000280: 5848 023e d3d9 ad3f dd95 1abb da29 8ebe
00000290: 5bf0 21bf fb1b 133b 65b7 3b3d 068b 853b
000002a0: c444 18bd 166d 05be 0f6d 5ebf d0c3 973c
000002b0: 86db 0d3d c7c2 acbc f2f5 c4bd a962 e0be
000002c0: c673 2b3d c301 753d b3f5 ef3c 8d13 dabc
000002d0: a98a e33b d248 033d 9e5a 5ebd 10bc af3c
000002e0: a998 67bc 89d0 51bb f654 003d 04aa 37be
000002f0: 0120 263d f09b 203d 08f4 2940 35d7 943d
00000300: 6c16 963b 8561 c0be b618 b8be b761 d33b
00000310: ef2a 603c f477 6c3e 7e78 d93e 41b8 993c
00000320: b71f 353e be25 913c a8f9 e13b c3ce 99bd
00000330: 4fa4 b23b 8d51 083f d17d 1d3c e1e0 50bf
00000340: 1b23 023f aa01 033c 2863 99bc 3025 b63c
00000350: ec3b f4bd 5461 823d 3d69 5b3f 5492 85bc
00000360: 05f8 61be 8292 b83c fe38 62bc 3e11 923e
00000370: 6978 41bd 489c cfba 93fa ea3f 89eb a2bc
00000380: ab4c 3dbe 3ffc 693b 8375 723e ca25 bebe
00000390: e083 d93c d8a3 273c 9857 a7bc 58a9 01bd
000003a0: 9849 d63c 185a 053a 4d36 ed3f 8105 033d
000003b0: 1b35 543e 64d4 0f3d bec0 1bbd bb27 013b
000003c0: ec3b f33c 6968 fc3c 3403 dbbd d660 c03b
000003d0: df23 e73c 5cf6 9e3e af0a f0bd a7f2 5abf
000003e0: 6398 27bf 07e3 92be c8b5 65bf 79c5 313f
000003f0: e77e aabc 2999 903c 51e4 5d3d 6fb1 713e
-0.25063166 0.9477902 -0.015042926 0.019456243 0.033868704 -0.03523601 0.17739171 -0.021053687
0.029884176 -0.64215004 0.05393412 0.47233263 -0.042685498 0.020507105 -0.012308842 0.00095481175
-0.027340343 0.016950443 -0.052782003 0.016147636 0.0014451522 -0.98209876 -0.2603047 0.1089961
0.41280743 0.1284725 0.7040009 0.38651216 0.31458098 2.6280339 -0.59401774 -0.6491833
0.98982686 1.351422 -0.21117713 -0.01682844 -0.008902944 -0.05569065 0.05187259 -0.029029788
-0.018353326 0.018566072 0.10493214 0.031713 -1.0536319 -0.027768103 0.23703164 -0.046334054
-0.14154987 0.0041341316 0.5160435 -0.33617872 -0.02032595 -0.0052658366 -0.0025714564 -0.11738415
-0.0042154277 -0.0005998438 0.23327023 0.0156473 -0.26379168 0.022917403 0.2292583 -0.020755041
0.1418628 -0.07317702 -0.3541286 -0.008576462 0.027544439 0.15303977 -0.0041951495 -0.001453119
0.2286985 0.0036636738 0.3015154 0.012558014 0.031049173 0.021084914 0.02391844 0.16883408
-0.80620503 0.02648982 0.0043318286 -0.14487575 -0.016250206 -0.012391405 -0.009707367 0.007998078
-0.022119824 0.38194606 -0.0036518397 0.31308877 0.037177056 -0.016338434 0.046321135 0.020280331
0.5203636 0.25630805 0.023933686 -0.066332616 0.049115986 -1.6097926 -0.7822199 -0.007238539
-0.0042005363 -0.707887 0.0050587784 0.0051350617 0.09316694 -0.014863143 0.017271554 0.00057108427
0.0044744685 -0.14658451 -0.019457698 -0.014875927 0.021253929 0.5262256 -0.04872496 0.0033062727
0.029424954 -0.002702044 2.2576566 -0.006046804 -0.2720884 0.0251675 -0.013867051 0.023867818
0.028401628 -0.14800833 -0.020997124 -0.016002405 0.052711524 3.4220068 0.031463448 0.012260232
-0.14145334 0.028911825 0.008059499 0.0865325 -0.01234894 -0.23907861 0.012273428 -0.55619776
0.019154942 0.7459293 -0.0011956497 -0.045565728 -0.015614043 -0.77096903 0.031104377 0.26574084
0.611306 0.01973236 -0.011277803 -1.9550943 0.06260251 -0.034079116 0.14241745 -0.012566409
0.1272291 1.35821 -0.002358786 -0.27766305 -0.6325738 0.0022447098 0.045829196 0.004075411
-0.037174955 -0.13029894 -0.8688516 0.018525988 0.034633182 -0.02108897 -0.09617223 -0.43825272
0.041858457 0.059816133 0.029291963 -0.02662065 0.00694402 0.03205187 -0.054285638 0.02145198
-0.014135518 -0.0032015166 0.031331025 -0.1793595 0.040557865 0.039211214 2.6555195 0.0726761
0.0045803096 -0.37574401 -0.35956353 0.0064508575 0.013682111 0.23092633 0.4247474 0.018764617
0.1768788 0.017718192 0.0068962164 -0.0751014 0.005451716 0.53249437 0.0096125165 -0.8159314
0.50834817 0.007996002 -0.01872404 0.02223453 -0.11925492 0.0636622 0.85707456 -0.016305126
-0.22067268 0.022530798 -0.013807533 0.2852878 -0.047233973 -0.0015839422 1.8357719 -0.019887703
-0.18486278 0.003570333 0.2367764 -0.37138206 0.02655214 0.0102319345 -0.02042751 -0.03165564
0.02615814 0.00050869724 1.8532196 0.03198767 0.20723383 0.03511466 -0.03802561 0.001970752
0.029691659 0.030811505 -0.1069397 0.0058709187 0.028215347 0.31047332 -0.11720788 -0.8552651
-0.654669 -0.28688833 -0.897305 0.69441944 -0.020812465 0.017651157 0.054172818 0.23602842

l3.bias f4 [2]
00000000: 0553 5cba 095d 48be
-0.0008404705 -0.1956674
