BCQ/pytorch_models/DDPG_Hopper-v2_0_actor.pth (torch_old, 505028 bytes, 6 tensors)

l1.weight f4 [400, 11]
0	0x3e08714d	0.13324471
1	0x3fc2e744	1.5226827
2	0xbf8babdf	-1.0911826
3	0xbf138ccd	-0.5763672
4	0x3e004597	0.12526546
5	0x3d961c5a	0.073296264
6	0xbe070734	-0.13186342
7	0x3de9d7d6	0.114181206
8	0xbdc682e7	-0.096929364
9	0x3c4f8fd1	0.012668566
10	0xbcc3735b	-0.023858717
11	0x3d95d71b	0.07316419
12	0xc01c9488	-2.4465656
13	0xbedc721f	-0.43055817
14	0x3eb3aee4	0.35094368
15	0x3e361be9	0.17784084
16	0x3d075790	0.03304249
17	0x3e0c84f8	0.13722599
18	0xbdff26aa	-0.124585465
19	0x3bc36978	0.0059635006
20	0x3d7da90f	0.061928805
21	0x3d6afc73	0.05736966
22	0x3e509e15	0.20372804
23	0x3f03a3f1	0.5142203
24	0x3ed62403	0.4182435
25	0x3f3084d9	0.6895271
26	0x3ef4fc92	0.47848946
27	0xbf232c36	-0.63739336
28	0xbf1c4609	-0.61044365
29	0xbe424c38	-0.18974388
30	0x3eba2822	0.36358744
31	0x3e64d5ba	0.22347155
32	0x3af085db	0.0018350439
33	0xbed38b23	-0.4131709
34	0xbe15cb41	-0.14628316
35	0xbf3b9fc9	-0.7329069
36	0xbebb723e	-0.36610597
37	0x3f51996b	0.8187472
38	0x3c27c691	0.010240213
39	0x3e31f094	0.1737693
40	0x3c86cc0a	0.016454715
41	0xbd0286bd	-0.031866778
42	0xbd6b4db7	-0.05744716
43	0xbd13b3b5	-0.036060054
44	0xbe2f53a7	-0.17121755
45	0x3f9e4b8f	1.2366809
46	0x3fb3833e	1.4024427
47	0x3f1a9aea	0.6039263
48	0xbdb11cf7	-0.08648103
49	0xbc5d84ea	-0.013520459
50	0x3e9d8880	0.30768204
51	0xbde91fa5	-0.11382989
52	0x3e173d8d	0.14769574
53	0x3e1a2cc9	0.15056147
54	0x3d7bacf8	0.061444253
55	0xbee72192	-0.451428
56	0xbf07d927	-0.53065723
57	0xbe1d2788	-0.15347111
58	0xbe5dbf21	-0.21654941
59	0xbe91f48b	-0.28506884
60	0x3da6d852	0.081467286
61	0xbcd025e5	-0.025408695
62	0xbe07d1ac	-0.13263577
63	0x3e3c6490	0.18397737
64	0x3da26ac7	0.079305224
65	0xbd8691b5	-0.0657076
66	0x3c0fa9a2	0.008768471
67	0x3e259c7f	0.1617298
68	0x3f5c1bf3	0.8598015
69	0x3f08477e	0.5323409
70	0xbf357f21	-0.7089711
71	0xbdea69f1	-0.11445988
72	0x3f0e8aaa	0.55680335
73	0xbe6d1ec1	-0.23156263
74	0x3eb5017e	0.353527
75	0x3e577305	0.2103997
76	0x3d28a95a	0.04117713
77	0xbd9bf523	-0.076151155
78	0x3f49b142	0.787861
79	0xbf427a91	-0.7596827
80	0xbf161c2b	-0.5863673
81	0x3f261c09	0.6488653
82	0x3e40da8e	0.18833372
83	0xbe7ced04	-0.2469979
84	0x3e9561ba	0.29176122
85	0xbe04d218	-0.1297077
86	0xbdbebb4a	-0.09313066
87	0x3c963b43	0.018338805
88	0x3e2fb23f	0.17157839
89	0xbfee14b2	-1.8600066
90	0x3edbe7b2	0.42950207
91	0x3f6653f5	0.8997186
92	0x3eba1061	0.3634062
93	0xbd2b1e41	-0.0417769
94	0xbe821b93	-0.25411662
95	0xbea17070	-0.31531096
96	0x3ea1ae13	0.3157812
97	0x3e4d6708	0.20058835
98	0xbbff80be	-0.0077973297
99	0x3e733aca	0.23752895
100	0xbf18a5a6	-0.5962776
101	0xbd15b452	-0.03654892
102	0xbe81bdc9	-0.25340107
103	0xbe6873f5	-0.22700484
104	0xbf7cdb85	-0.9877246
105	0x3da2ae08	0.0794335
106	0xbe6157ea	-0.22006193
107	0xbe521855	-0.20517094
108	0xbe32904f	-0.17437862
109	0xbdcae9c5	-0.09907869
110	0x3e481848	0.19540513
111	0x3f182af7	0.5944056
112	0xbf3b540a	-0.7317511
113	0xbe8af040	-0.2713642
114	0xbc1b9289	-0.009495386
115	0xbf07e48d	-0.53083116
116	0xbcc19fc1	-0.023635747
117	0x3dc1d54c	0.09464511
118	0xba72515b	-0.00092436903
119	0x3d3a7a22	0.04552663
120	0xbb44fc84	-0.0030057738
121	0x3dacec7b	0.084435426
122	0xc02ed1a0	-2.7315445
123	0x3e9e5e04	0.30931103
124	0xbeb9d8a3	-0.36298093
125	0xbe8dd487	-0.27701208
126	0xbdfccac4	-0.12343362
127	0xbea07b2c	-0.31343973
128	0x3dd3376f	0.103133075
129	0xbe24cda5	-0.16094072
130	0xbda983d6	-0.08277099
131	0x39d6209a	0.0004084155
132	0xbe4c83d4	-0.19972163
133	0x3ff7cdb6	1.9359653
134	0x3dada979	0.0847959
135	0x3efcd733	0.49382934
136	0x3e50b786	0.20382509
137	0x3de12c4f	0.10994779
138	0x3e05097a	0.12991896
139	0xbe335e51	-0.17516448
140	0x3ea25ecd	0.31712952
141	0x3ea53458	0.32266498
142	0x3d6e3370	0.058154523
143	0x3e230960	0.15921545
144	0xc014bf19	-2.3241637
145	0xbe48c8de	-0.19607875
146	0x3db895c6	0.09012942
147	0x3eab37b5	0.3344094
148	0xbdfbb663	-0.12290647
149	0xbdfd7743	-0.12376263
150	0xbc054be3	-0.008135769
151	0xbdf09ce5	-0.11748675
152	0x3d09112e	0.03346365
153	0x3dc280fa	0.094972566
154	0x3ea5107c	0.3223914
155	0xbf8efda8	-1.117116
156	0x3f1a1863	0.6019346
157	0xbed1a2ec	-0.40944612
158	0xbee3ff75	-0.44530836
159	0xbd7f0393	-0.062259268
160	0xbea33470	-0.31875944
161	0x3e618135	0.22021945
162	0xbdd6e5f5	-0.104930796
163	0xbd8a00a4	-0.067384034
164	0xbd06e026	-0.03292861
165	0xbdac2337	-0.08405154
166	0x402f9bc5	2.7438824
167	0xbe1dea25	-0.1542135
168	0xbead9bb9	-0.3390787
169	0xbdaf8c45	-0.08571676
170	0xbe3679b4	-0.17819864
171	0xbdd725c1	-0.10505248
172	0x3e12c171	0.14331605
173	0x3d9179e7	0.07103329
174	0xbd367240	-0.04454255
175	0x3d1a4a54	0.03766854
176	0xbe7f0e91	-0.249079
177	0xc00676de	-2.101005
178	0x3f8470ab	1.0346884
179	0xbdf1cd9f	-0.11806797
180	0xbec874cf	-0.39151618
181	0xbd19893c	-0.037484393
182	0x3e69f071	0.22845627
183	0xbe225b1a	-0.15855065
184	0x3e2ebb69	0.17063679
185	0x3e1c48e8	0.15262187
186	0x3c82abe7	0.01595111
187	0x3e2d281c	0.16909832
188	0xc0080dd1	-2.1258433
189	0x3f452a87	0.77018017
190	0x3ee65506	0.44986743
191	0x3ecc07fe	0.39849848
192	0xbeb1e6b6	-0.3474633
193	0xbc99b485	-0.018762836
194	0x3e07a0a7	0.13244878
195	0xbe0a676f	-0.1351602
196	0xbd90e715	-0.070753254
197	0xbd3b0844	-0.04566218
198	0x3e85d550	0.26139307
199	0xbf33d331	-0.7024413
200	0x3eee119a	0.46497804
201	0x3f2f4e8b	0.6847922
202	0xbf693adf	-0.91105455
203	0xbe87f29b	-0.2655228
204	0x3ca652a4	0.020303078
205	0x3ddbc6e0	0.10731292
206	0xbc4530f9	-0.012035602
207	0x3dccb37f	0.09995174
208	0x3e1dd4a3	0.15413146
209	0xbd5940e1	-0.05304039
210	0xbeb25999	-0.34833983
211	0xbe4d1625	-0.20027979
212	0x3e86f259	0.26356772
213	0xbf0902f5	-0.5352014
214	0xbd91b30b	-0.07114228
215	0xbd734dbf	-0.059400316
216	0xbe2cf875	-0.16891654
217	0x3da407da	0.0800931
218	0x3e43a793	0.19106893
219	0xbe475999	-0.19467773
220	0x3dbf9893	0.09355273
221	0x3fcea9f1	1.6145612
222	0xbf287745	-0.6580699
223	0xbf387469	-0.7205263
224	0xbd884f1d	-0.06655715
225	0x3e44f8bd	0.19235511
226	0xbe264cec	-0.16240281
227	0x3e1c02b7	0.1523541
228	0xbd1893cc	-0.037250325
229	0xbd45a8f1	-0.04825682
230	0xbcfdd94c	-0.030987404
231	0x3ec50b1f	0.38485047
232	0xbce9408c	-0.028473161
233	0x3f29c920	0.6632252
234	0x3f29700d	0.661866
235	0xbe43e6e7	-0.19131051
236	0x3d61f249	0.0551627
237	0xbe0d90c7	-0.1382476
238	0xbdcade6a	-0.09905703
239	0x3de1e57a	0.11030097
240	0x3dcdd74f	0.100508325
241	0xbb22a17b	-0.0024815488
242	0xbedd103e	-0.43176454
243	0xbcfb4dfa	-0.03067683
244	0x3f2f1c59	0.6840263
245	0xbe1e625c	-0.15467209
246	0x3ea4c30d	0.32180062
247	0xbedc50e9	-0.4303048
248	0x3e3267f3	0.17422466
249	0x3e561ede	0.20910212
250	0xbdbad115	-0.091219105
251	0x3e0fa0b8	0.14026153
252	0x3e32ee74	0.17473775
253	0x3b9d0c6c	0.0047927406
254	0xbe0f69a9	-0.1400515
255	0xbf681d68	-0.9066987

l1.bias f4 [400]
0	0xbdb3131c	-0.08743879
1	0xbeae8c37	-0.3409135
2	0x3ebc5249	0.3678153
3	0x3cf7cad6	0.030248087
4	0x3e3af829	0.18258728
5	0x3e9fe1f4	0.31227076
6	0xbe73a105	-0.23791893
7	0x3dc85203	0.097812675
8	0x3d1ad3fb	0.037799817
9	0x3de5108f	0.11184799
10	0x3e50e4de	0.20399806
11	0x3e6efa9a	0.23337784
12	0xbebbc505	-0.3667375
13	0xbef7f1e8	-0.48426747
14	0xbe851132	-0.2598968
15	0x3e20d073	0.15704517
16	0x3d76f4ec	0.06029217
17	0x3eeed913	0.4664999
18	0x3ea46898	0.3211105
19	0xbf3bba31	-0.7333098
20	0x3dc17fff	0.094482414
21	0x3de2030f	0.1103574
22	0xbedb6b95	-0.42855516
23	0x3dcc7565	0.09983329
24	0xbd28dfef	-0.041229185
25	0xbf1b3396	-0.6062559
26	0xbf2d0bb1	-0.67595965
27	0x3ec8d007	0.39221212
28	0xbeacbdb3	-0.3373848
29	0xbe6331f8	-0.2218703
30	0x3e88d463	0.26724538
31	0x3f129c20	0.5726948
32	0x3e8582e3	0.2607642
33	0xbd949af3	-0.07256117
34	0x3e76f11b	0.24115412
35	0xbd2210ed	-0.039566923
36	0xbd6d1532	-0.05788154
37	0x3d4f4174	0.05059953
38	0x3d20633b	0.039157134
39	0x3ebd2ab4	0.36946642
40	0xbe89341c	-0.2679757
41	0x3e68423c	0.22681516
42	0x3d5390a8	0.051651627
43	0xbe993593	-0.29923686
44	0x3e70d0b7	0.23517118
45	0x3c520f18	0.012820981
46	0xbf4b7a35	-0.7948335
47	0x3d43e170	0.047822416
48	0x3f01081f	0.50403017
49	0xbedd0a8f	-0.43172118
50	0x3efe7fc4	0.49706852
51	0x3ddd1d2d	0.107965805
52	0xbe2566f9	-0.16152562
53	0xbef16a40	-0.47151375
54	0xbd8431a8	-0.06454784
55	0x3e2de3e8	0.1698147
56	0xbe3c8535	-0.1841019
57	0x3dc383b2	0.09546603
58	0xbf2c8160	-0.6738491
59	0x3e72beba	0.23705569
60	0xbe82f869	-0.25580147
61	0x3e9ee57e	0.31034464
62	0xbd4566ab	-0.048193615
63	0xbe8f65c0	-0.28007317
64	0xbca3e86b	-0.020008286
65	0x3f23c97e	0.6397933
66	0x3ecb7803	0.3974
67	0xbe9712e6	-0.29506606
68	0xbd4226bc	-0.04740022
69	0x3f2b752c	0.66975665
70	0x3de68d71	0.112574466
71	0xbed5826f	-0.41701075
72	0x3e8b7824	0.27240098
73	0x3d90c61c	0.07069036
74	0x3eb1fd36	0.34763497
75	0xbf1c5bf3	-0.61077803
76	0xbe2fd119	-0.17169608
77	0x3e65d774	0.2244547
78	0xbdf45c91	-0.11931718
79	0xbcc56865	-0.02409763
80	0xbea93134	-0.33045352
81	0xbe9d7a72	-0.3075748
82	0x3dcadbdf	0.09905218
83	0xbeaa2b69	-0.33236244
84	0xbe33f10f	-0.17572425
85	0x3dd539e0	0.104114294
86	0x3d9d72c7	0.07687908
87	0xbe964d1d	-0.29355708
88	0xbe3020da	-0.17200032
89	0xbf11f935	-0.57020885
90	0x3f09fdf9	0.53903157
91	0x3cfa5ea8	0.030562714
92	0x3eb6b4c7	0.35684797
93	0x3ed6645d	0.41873446
94	0xbccaa5fe	-0.024737354
95	0x3e1fbc5d	0.15599199
96	0xbec87431	-0.39151147
97	0x3eddba66	0.43306273
98	0x3f0ad1c5	0.5422633
99	0xbe7ec391	-0.2487929
100	0x3e819bee	0.25314277
101	0x3e2f7409	0.17134108
102	0x3ed76cdd	0.42075244
103	0xbe1ee01d	-0.1551518
104	0x3f069b52	0.5258075
105	0xbe2b5265	-0.1673065
106	0x3eaba30b	0.3352283
107	0x3dec947b	0.11551758
108	0x3e60be11	0.21947505
109	0x3eaa99a6	0.3332035
110	0x3e806dae	0.2508368
111	0x3d9eab2c	0.07747492
112	0xbdf55653	-0.11979356
113	0xbf2d6607	-0.67733806
114	0x3f1de544	0.61677957
115	0xbdfde3a6	-0.12396936
116	0x3dc274b0	0.094949126
117	0x3e7dae8a	0.24773613
118	0xbe104383	-0.14088254
119	0xbe7d19a7	-0.24716817
120	0xbe31521c	-0.17316478
121	0xbe969f73	-0.29418525
122	0x3e8bd863	0.27313527
123	0x3db68fc9	0.089141436
124	0x3f0c4383	0.54790515
125	0x3e2370fe	0.15961072
126	0xbef60cc1	-0.48056605
127	0x3e26684b	0.16250722
128	0xbf011207	-0.5041813
129	0x3e12e95e	0.14346835
130	0xbefcb517	-0.4935691
131	0xbf063b81	-0.52434546
132	0xbeaf1f9e	-0.3420381
133	0xbeb52c6b	-0.3538545
134	0xbe8fd9bd	-0.2809581
135	0xbe5676c8	-0.20943749
136	0x3e018f9c	0.12652439
137	0x3d83df7e	0.06439112
138	0x3dbb8fed	0.09158311
139	0xbded70f2	-0.11593808
140	0xbe98e79f	-0.29864213
141	0xbea5e482	-0.324009
142	0x3db69988	0.089160025
143	0x3eab56ae	0.3346457
144	0xbf2991bc	-0.66238
145	0x3d73f75d	0.059562076
146	0xbf1cadb2	-0.6120254
147	0x3d81c1cb	0.06335791
148	0x3e08888d	0.1333334
149	0xbe6f0de6	-0.23345146
150	0xbde6f49e	-0.11277126
151	0xbe0c3256	-0.13691077
152	0xbe519265	-0.20466001
153	0x3ca6cbf2	0.02036092
154	0x3ea01e4a	0.3127311
155	0xbf078635	-0.5293916
156	0xbde2e716	-0.110792324
157	0xbd0cef12	-0.034407683
158	0xbe702265	-0.2345062
159	0xbe91bf7c	-0.28466403
160	0xbe62bbde	-0.22141978
161	0x3f244659	0.6416984
162	0x3e8cd338	0.27504897
163	0xbe70bc10	-0.2350924
164	0xbecac024	-0.39599717
165	0x3d7d7c0b	0.061885875
166	0x3da8c0cb	0.08239897
167	0x3e34a332	0.17640379
168	0xbdcfa9ed	-0.10139833
169	0xbdf67f04	-0.12035945
170	0xbd8bfccf	-0.06835329
171	0xbe53e45c	-0.20692581
172	0x3e328e98	0.17437208
173	0x3e326020	0.17419481
174	0x3e9312ee	0.2872538
175	0x397d9d2c	0.00024186511
176	0xbe9135c0	-0.2836132
177	0xbf2339e6	-0.6376022
178	0x3e6d77c9	0.23190226
179	0x3cf5be42	0.029997949
180	0xbe3b5b2e	-0.18296501
181	0xbd095565	-0.033528704
182	0xbed57773	-0.41692695
183	0xbec3bd4f	-0.38230368
184	0xbe8a3ae3	-0.26998052
185	0xbe625058	-0.22100961
186	0xbebcf605	-0.36906448
187	0x3e95c4e1	0.2925177
188	0xbf1cce90	-0.6125269
189	0x3df225b1	0.11823595
190	0x3ebd0b28	0.36922574
191	0x3dd63283	0.10458853
192	0x3e12e7a6	0.1434618
193	0x3deff019	0.11715717
194	0x3e74ce08	0.2390672
195	0x3dd3fac8	0.10350567
196	0xbd801a63	-0.06255033
197	0xbeba4246	-0.36378688
198	0x3e3e7acc	0.18601531
199	0xbf129e36	-0.5727266
200	0x3e2ff853	0.17184572
201	0xbf3bb42b	-0.7332179
202	0xbe4bb358	-0.19892633
203	0xbe981526	-0.29703635
204	0x3eaf24ac	0.34207666
205	0x3e9022df	0.28151605
206	0xbf0378b3	-0.5135605
207	0x3ee57f3a	0.4482363
208	0x3ddc7802	0.10765077
209	0x3e85df51	0.2614694
210	0x3dd2835e	0.102789626
211	0x3e5e1539	0.21687783
212	0x3e3fc288	0.18726552
213	0xbf3fb7c9	-0.7488981
214	0xbebe2e10	-0.37144518
215	0x3eb60e24	0.35557663
216	0xbead5e1a	-0.33860856
217	0xbe8c2500	-0.2737198
218	0x3e397fac	0.18115109
219	0x3ed41007	0.41418478
220	0x3f17283a	0.59045756
221	0x3e15fc7a	0.14647093
222	0xbebd6243	-0.3698903
223	0xbd76ebd6	-0.060283504
224	0x3def5e87	0.116879515
225	0xbb367e69	-0.0027846342
226	0xbe0fdff5	-0.14050277
227	0x3f0ccb63	0.54997844
228	0xbe637e16	-0.22216067
229	0x3ec298c6	0.38007182
230	0x3e979ac4	0.29610264
231	0xbde34759	-0.11097593
232	0x3ec3aa1a	0.38215715
233	0x3ed1c3b7	0.4096963
234	0x3d09439f	0.033511754
235	0xbf3facab	-0.74872845
236	0x3e25e4bd	0.16200538
237	0x3f019241	0.5061379
238	0xbe2e313c	-0.17010969
239	0x3cb05e54	0.021529354
240	0x3e04b123	0.12958197
241	0x3e351058	0.17682016
242	0x3ed29d08	0.4113543
243	0xbd992579	-0.074778505
244	0xbe48c763	-0.1960731
245	0xbe7c9fa2	-0.2467027
246	0x3e0b9457	0.13630806
247	0xbea7b9c6	-0.3275892
248	0x3e1788f3	0.14798336
249	0x3e3fcdc8	0.18730843
250	0x3e248025	0.16064508
251	0xbec90d27	-0.39267847
252	0x3bd3189c	0.0064421427
253	0xbf410585	-0.7539905
254	0xbd3d2bf0	-0.04618448
255	0xbeae44cf	-0.34036872

l2.weight f4 [300, 400]
0	0xbe78ae84	-0.24285322
1	0x3d21c030	0.039489925
2	0x3ddfc79b	0.109267436
3	0x3d522d68	0.051312834
4	0x3da289e7	0.07936459
5	0x3d93e617	0.072216205
6	0x3e88f597	0.2674987
7	0xbcb80461	-0.022463026
8	0xbe1c50dc	-0.1526522
9	0xbe7f87de	-0.24954173
10	0xbd899d0e	-0.06719409
11	0xbee91fbc	-0.45532024
12	0x3e6cc246	0.23120984
13	0xbe3879dc	-0.18015236
14	0xbe5dfc41	-0.21678258
15	0xbd0a899a	-0.033822633
16	0x3d87bfe2	0.066283956
17	0xbe7e0593	-0.24806814
18	0x3ebffe04	0.37498486
19	0xbe334f49	-0.17510714
20	0xbdcfcb5a	-0.10146208
21	0x3e810ce6	0.25205153
22	0x3d1da030	0.038482845
23	0xbe27fae9	-0.16404308
24	0xbd981181	-0.074252136
25	0x3ed4eb8a	0.41585952
26	0xbe11e55f	-0.14247654
27	0xbea13ffd	-0.31494132
28	0xbab5c310	-0.0013867337
29	0xbe36588e	-0.17807218
30	0x3d8b3f1b	0.06799146
31	0x3d283bfe	0.041072838
32	0xbf01a9f8	-0.50649977
33	0x3d3476db	0.044058662
34	0xbc16ab06	-0.009196049
35	0x3dff66a9	0.12470753
36	0x3c52a0b5	0.012855698
37	0x3e15dceb	0.14635055
38	0x3e222335	0.15833743
39	0xbe2c9af9	-0.16855992
40	0xbe121536	-0.14265904
41	0x3e76eabc	0.24112982
42	0xbea67f35	-0.32518926
43	0xbabcec0e	-0.0014413611
44	0x3c5de33b	0.0135429455
45	0x3daca93d	0.08430717
46	0xbd394c2a	-0.04523865
47	0x3e0c11e6	0.13678703
48	0xbf1bc441	-0.60846335
49	0x3d8bae0c	0.06820306
50	0x3ddb00b6	0.10693495
51	0x3e39a394	0.18128806
52	0x3cca2d8e	0.024679925
53	0xb9deabd7	-0.0004247117
54	0x3e15abfc	0.14616388
55	0xbc1672e3	-0.009182665
56	0x3e5ee3de	0.21766612
57	0xbd366e57	-0.044538822
58	0xbe151294	-0.14557868
59	0x3e62a423	0.22132926
60	0xbe1c77f7	-0.15280138
61	0xbdc3425d	-0.09534142
62	0x3d3e290c	0.046425864
63	0x3d8ea9f7	0.06966012
64	0xbebfeb49	-0.37484196
65	0xbed3ac72	-0.41342503
66	0x3e1680c3	0.14697556
67	0xbe325fc5	-0.17419346
68	0xbd1440b6	-0.036194526
69	0xbe507661	-0.20357658
70	0x3b4e6026	0.0031490414
71	0xbdbdd9b1	-0.09270037
72	0x3dfd2f87	0.12362581
73	0x3dbc43c9	0.091926165
74	0x3d86c018	0.06579608
75	0xbe728e53	-0.23687105
76	0x3da6e00a	0.08148201
77	0xbd024e1f	-0.031812783
78	0xbd4aea37	-0.04953977
79	0xbd8f7933	-0.07005539
80	0x3dd69f8d	0.10479651
81	0x3dbef915	0.093248524
82	0xbf35aa17	-0.7096266
83	0xbea620f1	-0.32447007
84	0x3d9d1f6d	0.076720096
85	0x3df89716	0.12138192
86	0xbdc3add4	-0.095546395
87	0xbda9fa58	-0.082997024
88	0xbc98c2bd	-0.018647546
89	0xbd9bbb37	-0.07604068
90	0xbe2801ba	-0.16406909
91	0xbed89bf0	-0.4230647
92	0xbeb45f9d	-0.35229197
93	0xbd2ff1a3	-0.042955052
94	0xbd5dadcf	-0.054120835
95	0xb8078874	-3.231359e-05
96	0xbeaeb4cf	-0.3412232
97	0xbf169cc6	-0.5883297
98	0xbc6a7cf4	-0.014312018
99	0xbe9bdd7a	-0.3044241
100	0x3dd16223	0.10223796
101	0xbf301db3	-0.6879532
102	0xbdd44a23	-0.10365703
103	0xbcdedb42	-0.02720416
104	0xbd5ccb24	-0.053904667
105	0x3d1e710f	0.03868204
106	0x3d9d5915	0.07683007
107	0x3dd615c6	0.10453372
108	0x3d6adece	0.05734139
109	0xbea5bd33	-0.3237091
110	0x3e3b5e20	0.18297625
111	0xbe4f8487	-0.20265399
112	0x3e49774f	0.19674419
113	0xbe8bc310	-0.27297258
114	0xbe4cf821	-0.20016529
115	0xbe1a2351	-0.15052535
116	0x3dba6009	0.091003485
117	0xbe23ccf2	-0.15996149
118	0x3d756144	0.059907213
119	0xbd17b32f	-0.037036117
120	0xbe251afa	-0.16123572
121	0xbef9faea	-0.48824245
122	0x3ce7cd3b	0.028296104
123	0x3dd9ede7	0.106410794
124	0x3e2bb914	0.1676982
125	0x3d8e04e4	0.069345266
126	0x3d29b9c0	0.04143691
127	0x3da679f6	0.08128731
128	0xbdb93cb1	-0.09044779
129	0xbcf60c0d	-0.030035043
130	0x3dc555c2	0.09635498
131	0xbcc6e069	-0.024276929
132	0xbecf0ace	-0.4043793
133	0x3dab06eb	0.08350929
134	0x3cc9a65a	0.024615455
135	0xbd50a377	-0.050937142
136	0xbd76bb76	-0.06023737
137	0xbea24c86	-0.31699008
138	0xbea49996	-0.32148427
139	0x3d136a77	0.035990205
140	0x3dcd4ef2	0.10024823
141	0xbec8d8fe	-0.39228052
142	0x3e270ced	0.16313525
143	0x3cfe2aab	0.031026205
144	0xbe471182	-0.19440272
145	0xbce0da9c	-0.027447991
146	0xbe3294d6	-0.17439589
147	0x3e81c320	0.2534418
148	0x3d7d94c9	0.06190947
149	0xbd9715b6	-0.07377188
150	0x3d8b70c6	0.06808619
151	0xbdce28e0	-0.1006639
152	0x3e472f34	0.194516
153	0x3d566744	0.052344576
154	0x3e353384	0.17695433
155	0xbd15b639	-0.036550734
156	0x3defecdf	0.117151015
157	0xbe2d544b	-0.16926686
158	0x3e02f736	0.12789616
159	0x3ce21e0f	0.027602224
160	0xbe44acf2	-0.19206598
161	0x3e0480bc	0.12939733
162	0xbd6f5a72	-0.058435865
163	0xbdf02d54	-0.11727396
164	0xbd98ae4b	-0.07455119
165	0xbf574ed2	-0.84104645
166	0xbe0e217c	-0.13879961
167	0x3ddcb545	0.10776762
168	0xbcd1a98b	-0.02559354
169	0x3dea2620	0.11433053
170	0xbb8da6ec	-0.004322877
171	0xbe0ea91c	-0.13931698
172	0x3d3182b3	0.043337535
173	0xbe4b7c1d	-0.19871564
174	0x3d97dda5	0.07415322
175	0x3ae28374	0.0017281608
176	0xbea04189	-0.313
177	0xbe1f4d39	-0.15556802
178	0xbeeb97f5	-0.46014372
179	0x3e1ede54	0.15514499
180	0x3e1f79c7	0.15573798
181	0x3db8c1f2	0.09021367
182	0xbe66d67d	-0.22542758
183	0xbd021233	-0.031755637
184	0xbe4c8f4d	-0.1997654
185	0x3d967d77	0.07348149
186	0x3e389c2f	0.1802833
187	0x3d38f228	0.045152813
188	0x3e2eac94	0.17058021
189	0xbe4683a7	-0.19386159
190	0xbc906086	-0.017624151
191	0xbd64bd53	-0.055844616
192	0x3d8606b9	0.06544251
193	0xbea0a291	-0.31374028
194	0xbeb7c762	-0.35894305
195	0x3d89c69c	0.06727335
196	0xbf15535c	-0.5833032
197	0x3e1da8ab	0.15396373
198	0x3dd92cd3	0.10604253
199	0xbe2268ed	-0.15860339
200	0x3e85b550	0.26114893
201	0xbeb89621	-0.3605204
202	0x3e7e31ad	0.24823637
203	0x3c954cd1	0.018225105
204	0xbd9c7f91	-0.07641519
205	0xbdce3ee8	-0.10070592
206	0xbdc29195	-0.09500424
207	0xbec71912	-0.38886315
208	0xbcc186ee	-0.02362391
209	0x3cb803f2	0.022462819
210	0xbe982185	-0.29713073
211	0x3e30e42c	0.1727454
212	0x3d3dab5a	0.04630599
213	0x3c562098	0.013069294
214	0xbe3c8874	-0.18411428
215	0xbf0e1232	-0.55496514
216	0xbd682d44	-0.056683794
217	0xbd7bbb81	-0.061458115
218	0xbf0bab87	-0.54558605
219	0xbd108901	-0.035286907
220	0x3c94b042	0.018150453
221	0x3df1a3b7	0.11798804
222	0xbec6eb94	-0.38851607
223	0xbd825849	-0.06364495
224	0x3e322d53	0.17400102
225	0xbdaa4fff	-0.08316039
226	0x3d64b5be	0.055837385
227	0x3d820b9a	0.06349869
228	0x3cbb5507	0.022867693
229	0xbee3f663	-0.44523916
230	0xbe0aaaa0	-0.13541651
231	0x3d403e93	0.046934675
232	0xbe76e0ac	-0.24109143
233	0x3d9d286a	0.07673724
234	0xbe562ac0	-0.20914745
235	0xbec59b7f	-0.38595197
236	0xbcd6287f	-0.026142357
237	0x3c55a2ba	0.013039285
238	0x3d24c1da	0.040223934
239	0x3e9c6ff0	0.30554152
240	0x3e1ba438	0.15199363
241	0xbe0b2ca6	-0.13591251
242	0x3d634663	0.055487048
243	0x3dd050d7	0.10171669
244	0x3c98872b	0.01861914
245	0xbe79f2fc	-0.24409097
246	0x3f20e042	0.6284219
247	0x3e41e345	0.18934353
248	0xbc64be87	-0.013961441
249	0x3da5278a	0.08064182
250	0x3e21db4a	0.15806308
251	0xbde53c3a	-0.11193128
252	0x3adc0c92	0.0016788414
253	0xbdf210b8	-0.11819595
254	0x3dc04170	0.09387481
255	0xbd05e44f	-0.032688435

l2.bias f4 [300]
0	0x3d2dbb3a	0.04241488
1	0xbde9498c	-0.11390981
2	0x3e5fb291	0.21845461
3	0x3c60cb11	0.01372029
4	0xbe02a494	-0.12758094
5	0xbe945313	-0.2896963
6	0xbde3dd16	-0.11126153
7	0xbc98b8e7	-0.018642856
8	0xbe2f47f4	-0.17117292
9	0x3e2548f7	0.16141115
10	0xbd62fbca	-0.055415906
11	0x38a16661	7.696148e-05
12	0xbe3ae2b4	-0.18250543
13	0x3ca4a1d8	0.020096704
14	0xbd8931b6	-0.06698935
15	0x3da2e062	0.07952954
16	0xbd0e48dc	-0.034737453
17	0x3dde7f22	0.108640924
18	0x3dad890d	0.08473406
19	0xbd28b57f	-0.041188713
20	0xbd94b081	-0.07260228
21	0xbde01fe5	-0.109435834
22	0xbcdc67dc	-0.026904993
23	0xbd7f5345	-0.06233527
24	0x3caad2c2	0.02085245
25	0x3e005c59	0.12535228
26	0xbdd7e541	-0.105417736
27	0x3d88f393	0.06687083
28	0xbe1e6c8f	-0.154711
29	0xbd5edb18	-0.054408163
30	0xbdc93a06	-0.0982552
31	0xbd6b33b3	-0.05742235
32	0x3df52ec0	0.119718075
33	0xbc4d8ff1	-0.012546525
34	0xbe070c47	-0.13188277
35	0x3dc41ce6	0.095758244
36	0xbe17fd0d	-0.14842625
37	0x3bddffc6	0.0067748753
38	0xbd798c51	-0.06092483
39	0x3d2a189c	0.041527376
40	0xbc7d4b04	-0.01545978
41	0xbc29a233	-0.010353613
42	0xbc04dc07	-0.008109099
43	0xbc82a2b0	-0.015946716
44	0xbd15f198	-0.036607355
45	0xbe05f7cb	-0.13082807
46	0xbd54a28d	-0.051912833
47	0x3cb74766	0.022372913
48	0xbbfdd047	-0.007745776
49	0xbd2b7f15	-0.04186924
50	0xbd995c1d	-0.07488272
51	0x3d71e594	0.059056833
52	0xbc227ecf	-0.009917929
53	0x3d435702	0.0476904
54	0x3cd846ac	0.026400886
55	0xbdb8ffdc	-0.09033176
56	0xbc76049e	-0.015015749
57	0xbe412024	-0.18859917
58	0xbd9afda6	-0.07567911
59	0xbddeca13	-0.10878386
60	0x3e237789	0.15963568
61	0xbda1e5bf	-0.07905149
62	0x3e07775c	0.13229126
63	0xbe864042	-0.262209
64	0x3d5a4836	0.053291522
65	0xbd781975	-0.060571153
66	0x3cc11b29	0.023572521
67	0xbc872188	-0.016495481
68	0xbda31c45	-0.07964376
69	0xbe1698e6	-0.14706764
70	0xbe544951	-0.20731093
71	0xbd3ed6f6	-0.04659172
72	0xbdf1ba11	-0.118030675
73	0xbe26244e	-0.16224787
74	0x3d39c940	0.045357943
75	0x3e1ff3ef	0.15620397
76	0xbe1c97ba	-0.15292254
77	0x3d396548	0.045262605
78	0xbebf28b0	-0.3733573
79	0xbd40ce85	-0.047071952
80	0xbe38dc74	-0.18052846
81	0xbdcebb41	-0.100943096
82	0x3dc9ccce	0.098535165
83	0x3dc7dcef	0.097589366
84	0xbd654573	-0.055974435
85	0xbdeb19a5	-0.11479501
86	0xbe029566	-0.12752303
87	0xbb03d703	-0.002011717
88	0x3d8734bd	0.06601856
89	0x3d89ba41	0.06724978
90	0xbd5a13a3	-0.053241383
91	0x3dacf553	0.084452294
92	0xbdaf6b5a	-0.085653976
93	0x3d1722f7	0.03689858
94	0x3e1c8a8c	0.15287226
95	0x3b1c06d3	0.0023807778
96	0xbc80ac35	-0.015707115
97	0xbcb391a8	-0.02192004
98	0x3e273d98	0.1633209
99	0xbdaa9bdd	-0.0833051
100	0xbc5f062e	-0.013612313
101	0xbe38608c	-0.1800558
102	0xbdb375f6	-0.08762734
103	0x3cd66c5b	0.026174715
104	0x3cd9b467	0.02657528
105	0xbe616fe9	-0.22015347
106	0xbb128837	-0.0022359022
107	0xbd746ba7	-0.059672978
108	0x3cecf006	0.028923046
109	0xbd5532e2	-0.05205048
110	0xbc5eb444	-0.013592783
111	0xbc295954	-0.010336239
112	0xbe1afe41	-0.15136053
113	0x3d2b95a6	0.041890763
114	0xbe03a7c8	-0.12856972
115	0xbe911d98	-0.2834289
116	0xbcb8fb2c	-0.022580706
117	0xbe149588	-0.14510167
118	0xbcd6325a	-0.026147056
119	0xbdb2057c	-0.08692452
120	0xbdf1496f	-0.117815845
121	0x3cf81799	0.03028469
122	0xbe92c238	-0.28663802
123	0xbd8a41f2	-0.06750859
124	0xbc813543	-0.015772467
125	0xbbf51135	-0.007478858
126	0x3e395766	0.18099746
127	0x3dc84338	0.09778446
128	0xbc6b769f	-0.014371543
129	0xbe891160	-0.2677107
130	0xbc607ecc	-0.013702106
131	0x3baf6b43	0.0053533628
132	0xbd64fb41	-0.055903677
133	0xbcaca0d3	-0.02107278
134	0xbd549e27	-0.05190864
135	0xbc345f77	-0.011009089
136	0xbd3328d1	-0.043740097
137	0xbd89f939	-0.067369886
138	0x3d92affe	0.07162474
139	0xbce59068	-0.02802296
140	0x3c9a7967	0.018856717
141	0x3e05f154	0.1308034
142	0x3cc6afb0	0.024253696
143	0xbe45351e	-0.19258544
144	0x3d1428f8	0.036171883
145	0xbe2648b0	-0.16238666
146	0xbcd90ad3	-0.02649442
147	0xbb0fea42	-0.0021959697
148	0xbe4595d8	-0.19295442
149	0xbc9dc589	-0.019259231
150	0xbe41f56e	-0.1894128
151	0xbd71b9d6	-0.059015118
152	0xbf04e316	-0.51909006
153	0xbe852f16	-0.26012486
154	0x3d90f7e7	0.070785336
155	0xbd25bf59	-0.040465686
156	0x3b01a6ba	0.0019783215
157	0xbd8cd878	-0.06877226
158	0x3c6432a5	0.01392809
159	0xbd3232a9	-0.043505345
160	0xbdb2a271	-0.087223895
161	0xbd805415	-0.062660374
162	0xbd86b93e	-0.06578301
163	0xbd00bae0	-0.031428218
164	0xbbfcedd2	-0.00771878
165	0x3d969ca1	0.07354093
166	0xb9a6e7dc	-0.00031834736
167	0xbdaeb07c	-0.085297555
168	0xbd6abb51	-0.057307545
169	0xbe38eeee	-0.18059894
170	0x3dbe480a	0.09291084
171	0xbd22736f	-0.039660867
172	0x397b6a2e	0.0002397678
173	0xbb1a60e3	-0.0023556284
174	0x3e25f0e0	0.16205168
175	0xbdf0d078	-0.11758512
176	0xbe1767f7	-0.14785753
177	0x3e0801f3	0.13281994
178	0xbd33251b	-0.04373656
179	0xbddf191d	-0.10893462
180	0xbd6ae334	-0.057345584
181	0x3caaa795	0.020831862
182	0xbd383b89	-0.044978652
183	0xbc0c1294	-0.008549351
184	0xbe5d1007	-0.21588145
185	0xbd949312	-0.07254614
186	0xbd1d9cf5	-0.038479764
187	0xbe6cbe6a	-0.23119512
188	0xbd10f127	-0.03538623
189	0xbbb0dee6	-0.0053976653
190	0xbe9ba9b2	-0.30402905
191	0x3d1f10a3	0.038834225
192	0x3d114317	0.035464372
193	0xbdc5da71	-0.09660805
194	0x3c41ca0d	0.011827958
195	0xbda3fc45	-0.08007101
196	0xbed44bac	-0.41463983
197	0xbc3e7826	-0.011625325
198	0x3c4f7411	0.01266195
199	0xbcf0275e	-0.029315647
200	0xbca81987	-0.020519985
201	0xbd350c72	-0.044201322
202	0xbe92a4ec	-0.2864145
203	0xbb136ccd	-0.002249527
204	0x3c4ff664	0.012693021
205	0xbcc0d9cc	-0.023541354
206	0xbd333410	-0.043750823
207	0xbe55405d	-0.20825334
208	0xbe21d051	-0.15802123
209	0x3c6af450	0.014340475
210	0x3cd6703b	0.026176563
211	0xbdb34b79	-0.0875463
212	0xbc248e46	-0.010043686
213	0xbe75ce49	-0.24004473
214	0xbcebca60	-0.028783023
215	0x3d49b332	0.04924316
216	0x3bb05cde	0.0053821644
217	0x3cb6d5a0	0.022318661
218	0xbd137d96	-0.03600844
219	0xbd57ec79	-0.052715752
220	0xbbd77ab5	-0.006575907
221	0x3e631e13	0.22179441
222	0xbce64c34	-0.028112508
223	0xbc822f72	-0.015891764
224	0xbe69743f	-0.2279825
225	0xbd4722c5	-0.048617143
226	0xbbb40f1d	-0.0054949657
227	0x3e1f8c8f	0.15580963
228	0xbdc9c280	-0.09851551
229	0xbde139b5	-0.10997335
230	0xbd1e1f32	-0.03860397
231	0xbe918959	-0.284251
232	0x3db4a1c3	0.08819916
233	0x3dc99285	0.098423995
234	0xbdd8ef62	-0.10592534
235	0x3c5dcacf	0.013537123
236	0x3bbf735a	0.0058426084
237	0xbd93274b	-0.07185229
238	0xbd02c47b	-0.03192566
239	0x3c90b904	0.017666347
240	0x3e500f18	0.20318258
241	0x3d3d31e2	0.04619015
242	0x3ce42501	0.027849676
243	0xbd90b2be	-0.07065342
244	0xbc86d8a7	-0.01646073
245	0xbda7000a	-0.08154304
246	0x3c74b06b	0.014934639
247	0x3d05f8b0	0.03270787
248	0xbce9be23	-0.028533047
249	0xbc80603c	-0.015670888
250	0x3d28caab	0.041208904
251	0xbd200b4a	-0.039073266
252	0x3e038395	0.12843163
253	0x3ebadc50	0.3649621
254	0x3d399e4d	0.045316983
255	0xbe790b60	-0.24320745

l3.weight f4 [3, 300]
0	0xbe3d5a66	-0.18491516
1	0x3d3150d1	0.043289963
2	0xbdd7bcc8	-0.10534054
3	0xbce22ccd	-0.027609253
4	0xbe2c918b	-0.16852395
5	0xbf2d16b3	-0.6761276
6	0xbe8bd913	-0.27314052
7	0x3d93901f	0.07205223
8	0x3e10cbda	0.14140263
9	0xbe5a5ca2	-0.21324399
10	0xbd35473f	-0.0442574
11	0xbda8bd8c	-0.08239278
12	0x3f00b9b3	0.50283355
13	0xbc390e2c	-0.011294883
14	0xbbf04c95	-0.007333348
15	0xbe074fce	-0.13214037
16	0xbd53f87e	-0.051750652
17	0xbd933475	-0.0718774
18	0x3da2daec	0.07951912
19	0xbd16f089	-0.036850486
20	0xbfc4c71a	-1.5373261
21	0xbd6f58e1	-0.05843437
22	0xbdfad68e	-0.12247954
23	0xbca77d70	-0.020445555
24	0xbbb0ab97	-0.005391549
25	0x3cee4ba7	0.029088808
26	0xbc37ff17	-0.011230252
27	0xbec7e56d	-0.39042225
28	0xbf0bdf72	-0.54637825
29	0xbec125a3	-0.37724027
30	0xbc284d5a	-0.010272348
31	0xbd1182a0	-0.035524964
32	0xbf5e6c65	-0.86884147
33	0x3e438480	0.19093513
34	0x402e0698	2.7191525
35	0xbb9127ac	-0.004429778
36	0x3e2381a1	0.15967418
37	0xbcbf7698	-0.02337198
38	0x3decb395	0.1155769
39	0xbfb91d97	-1.4462155
40	0x3c03fd00	0.008055925
41	0xbb9c0067	-0.00476079
42	0x3d00dc05	0.031459827
43	0x3ec24183	0.37940606
44	0xbf285d69	-0.6576753
45	0xbe49e008	-0.19714367
46	0x3ea8c374	0.3296162
47	0x3d7b1866	0.061302565
48	0xbe051d51	-0.12999465
49	0x3de0ad51	0.109705575
50	0x3e0abe08	0.13549054
51	0xbb7ee576	-0.0038894094
52	0x3c3ba37b	0.011452551
53	0x3e4817f4	0.19540387
54	0xbe062e3d	-0.13103576
55	0x3d5ba527	0.0536243
56	0xbea303f2	-0.31838948
57	0xbfde425b	-1.7364
58	0x3e3976d2	0.18111733
59	0x3e470cdf	0.19438504
60	0xbe40783e	-0.18795869
61	0xbdcfcf2d	-0.101469375
62	0x408b9361	4.3617406
63	0xbf2214b1	-0.6331282
64	0x3f0dc1a6	0.5537361
65	0x3e3e75fa	0.18599692
66	0xbd844d34	-0.06460038
67	0xbd13f123	-0.036118638
68	0x3fe70f4f	1.8051547
69	0x405d2fdc	3.456046
70	0xbf2bef5a	-0.67162097
71	0xbd950fca	-0.07278402
72	0xbe9ec6d6	-0.31011075
73	0xbe4ada91	-0.19809939
74	0x3e829275	0.25502363
75	0x3e726709	0.23672117
76	0xbe8e413d	-0.27784148
77	0xbe155594	-0.14583427
78	0xbd95f320	-0.07321763
79	0x3b336fc5	0.0027379852
80	0x3d80a7a5	0.06281976
81	0xb930fb77	-0.00016878346
82	0x3e756d1f	0.23967408
83	0x3e79bb9d	0.24387975
84	0xbd67964c	-0.05653982
85	0x3e99ee2f	0.30064532
86	0x4042edf7	3.0457742
87	0xbb30cfb8	-0.0026979279
88	0xbca160f6	-0.019699555
89	0xbd82b6fd	-0.063825585
90	0x3d5c4fde	0.053787105
91	0x3e01d44f	0.12678646
92	0x3db92d99	0.090419
93	0x3f34916d	0.705344
94	0x3eaf98cf	0.3429627
95	0xbda8690d	-0.08223162
96	0xbcb35e2a	-0.021895487
97	0x3e249a8b	0.16074578
98	0xbd762e2f	-0.060102638
99	0x3e1dc24d	0.15406151
100	0x3e68b047	0.22723494
101	0xbed6046b	-0.41800246
102	0xbf035bc9	-0.5131193
103	0x3e844808	0.25836205
104	0xc022a8a6	-2.5415435
105	0x3e4fc300	0.2028923
106	0x3e3c0cfe	0.18364331
107	0xbc99f2c1	-0.018792512
108	0x3c00cb38	0.007860951
109	0xbd147079	-0.036240075
110	0xbd19ac36	-0.03751775
111	0xbc6ff9ee	-0.01464699
112	0x3ec5fb45	0.38668266
113	0x3d0dccc1	0.034619097
114	0x3f04f4b9	0.5193592
115	0xbe85a70a	-0.26104003
116	0xbd44ac80	-0.04801607
117	0x3d490d18	0.049084753
118	0x3e42e525	0.19032724
119	0x3e567db0	0.20946383
120	0x3ac70fba	0.0015187182
121	0xbb24e569	-0.0025161153
122	0x3f6abed8	0.91697454
123	0xbd2233dd	-0.039600242
124	0x3b8f85b8	0.004379954
125	0xbd1c205a	-0.03811679
126	0x3d35762d	0.044302154
127	0x3d6a2287	0.057161834
128	0x3e75b2d9	0.23994006
129	0xbba507fa	-0.0050363513
130	0x3d417b12	0.04723651
131	0x3be61141	0.0070211
132	0x3f3207c2	0.6954309
133	0x40213dd7	2.5193994
134	0x3e02fa7d	0.12790866
135	0xbed35f7b	-0.41283783
136	0xbdb44de8	-0.08803922
137	0xbe8d8061	-0.27637008
138	0x3d5ba625	0.053625245
139	0xbd2af42e	-0.041736774
140	0x3fdb0b64	1.7112851
141	0x3ea1454f	0.3149819
142	0x3d2fa473	0.04288144
143	0xbd91db77	-0.07121938
144	0x4049c3cb	3.1525753
145	0xbd359877	-0.044334855
146	0xbec9bf97	-0.39403984
147	0x3b89997a	0.004199204
148	0x3de6d439	0.11270947
149	0x3cd48063	0.025940126
150	0x3b9b9ec8	0.004749153
151	0x3e447ed1	0.19189002
152	0x3f53389f	0.8250827
153	0x3df2aea8	0.11849719
154	0x3dcc575d	0.09977601
155	0xbb8708e3	-0.0041209324
156	0x403d15a2	2.9544454
157	0x3ca52a16	0.02016167
158	0x3c0001a9	0.007812896
159	0xbc1b0823	-0.009462389
160	0xbe78fed7	-0.24315964
161	0x3dd1df9d	0.10247729
162	0x3d8f4cba	0.06997056
163	0x3d48f7b9	0.04906437
164	0xbf0c9122	-0.54908955
165	0xbd987666	-0.07444458
166	0xbd56246f	-0.05228084
167	0x3f20a43b	0.62750596
168	0xbd0592b3	-0.032610606
169	0xbc995c28	-0.018720701
170	0x3cb7f5c6	0.022456061
171	0x3da15ba6	0.07878809
172	0xbe1cf8e3	-0.15329318
173	0x3d62d6bd	0.05538057
174	0xbebb712e	-0.36609787
175	0xbd803706	-0.06260495
176	0xbd7c1d45	-0.06155135
177	0x3df59156	0.11990611
178	0xbd796af1	-0.060893003
179	0x3dd6ba60	0.10484767
180	0xbf059dd7	-0.5219397
181	0xbce32b50	-0.027730614
182	0x3eb7f762	0.35930926
183	0x3c15db2b	0.009146492
184	0x3ec9a996	0.39387196
185	0xbf977f02	-1.1835635
186	0xbcffef69	-0.03124209
187	0x3d50cc1d	0.050975908
188	0xbb285306	-0.0025684251
189	0xbd440c30	-0.047863185
190	0x3e543649	0.20723833
191	0x3cedac67	0.029012872
192	0xbe194534	-0.14967805
193	0xc00a15b9	-2.1575758
194	0xbcf346bf	-0.02969682
195	0x3eeb6925	0.45978656
196	0xbe2f0a73	-0.1709383
197	0xbd620637	-0.05518171
198	0xbe9f6c51	-0.31137326
199	0x3c846564	0.016161628
200	0x3cacfb6b	0.02111598
201	0xbbe58d48	-0.0070053674
202	0x3dd4ca2a	0.10390122
203	0xbe8dcb9f	-0.27694413
204	0x3c2637fb	0.010145183
205	0x3eb214a1	0.34781364
206	0x3edee1b2	0.43531567
207	0x3fe17844	1.7614827
208	0x3d3a253d	0.04544567
209	0xbf9702c7	-1.1797723
210	0xbdc3de6c	-0.09563908
211	0x3f0d0221	0.55081373
212	0x3f1ff6c0	0.62485886
213	0xbe54b894	-0.20773536
214	0xbd1091b4	-0.035295203
215	0xbbf4fa57	-0.007476132
216	0x3e3992dc	0.18122429
217	0x3e272c79	0.16325559
218	0xba649123	-0.0008719137
219	0x3d9853e3	0.07437875
220	0x3faf40da	1.3691666
221	0xbe8729ad	-0.26398984
222	0x3e0d4275	0.13794883
223	0x39a77ad4	0.00031944236
224	0x3d1f1bec	0.038844988
225	0xbc90daf0	-0.017682523
226	0x3cc14355	0.023591677
227	0xbd825f90	-0.06365883
228	0x3e06955b	0.13142912
229	0x3d8c5349	0.06851823
230	0x3db5320d	0.08847437
231	0x3e370d6c	0.17876214
232	0x3fca3b3d	1.5799328
233	0xbe761afd	-0.24033733
234	0xbe6b8a52	-0.23001984
235	0xbd19bd16	-0.037533842
236	0xbd14d6bd	-0.036337603
237	0x3f9d7213	1.2300438
238	0x3e31bb65	0.17356642
239	0xbd4855a6	-0.048909806
240	0x3d6b0ce9	0.05738536
241	0x3c9d2462	0.019182388
242	0x3cc80fe3	0.024421638
243	0x3db72a18	0.089435756
244	0xbc4dd279	-0.012562388
245	0x3f99b23c	1.2007518
246	0xbccda0c7	-0.025101079
247	0x40b0e35f	5.5277553
248	0x3bf68d0a	0.0075241374
249	0xbc004408	-0.00782872
250	0x3ef6d4c3	0.482092
251	0xbf2d9f5c	-0.6782129
252	0xbe26d62e	-0.1629264
253	0xbde1b929	-0.110216446
254	0x3d64afdb	0.05583177
255	0xbfdc0564	-1.7189145

l3.bias f4 [3]
0	0xbdd28564	-0.102793485
1	0x3d9d1a64	0.07671049
2	0x3d90f68b	0.07078274
