BCQ/pytorch_models/DDPG_Hopper-v2_0_critic.pth (torch_old, 506220 bytes, 5 tensors)

l1.weight f4 [400, 11]
000000 86 a5 a1 bc 58 e8 0f 3a cd 53 a3 39 a1 45 9e b7
       -0.019732248 0.0005489639 0.0003115222 -1.8867491e-05
000010 08 2d 40 38 5a ac fe bc 6d cf c5 bb d4 27 9f 3b
       4.5818306e-05 -0.031088043 -0.00603669 0.004857043
000020 9d 74 1c bb 6b 85 80 3b 4a cf c6 3a 02 a4 af bd
       -0.0023873218 0.0039221547 0.0015167978 -0.08576204
000030 b0 4e 82 b9 53 ac b8 3c cb 55 13 3d 6d 14 c2 bb
       -0.0002485416 0.022543108 0.03597049 -0.005922845
000040 8c 3e ac bd 99 c5 c2 bc ce fb d1 3b 56 3c 8b bb
       -0.08410367 -0.023775863 0.0064081913 -0.004249136
000050 dc f2 6b bc ec b0 7a bb 8b b1 ab bd 4b d6 9e be
       -0.014401164 -0.0038252426 -0.08383473 -0.31022868
000060 6e 73 cf 3e 78 e9 8f 3e ba d1 64 3e 38 12 fa be
       0.40517753 0.2810781 0.2234563 -0.48842025
000070 5d 4c 09 bf 67 65 8e 3e 17 3b a3 be d8 77 4d be
       -0.53632146 0.2781174 -0.3188102 -0.20065248
000080 fe 38 2c be 71 0f 93 bd 52 85 df 3c a4 0c 8c 3d
       -0.16818616 -0.071806796 0.027285252 0.068383485
000090 73 78 1f 3d cb a0 60 bd 89 20 e4 bd 35 fd 1f bc
       0.03893323 -0.054840844 -0.11139018 -0.009764959
0000a0 ad 38 03 3b 2c 6b b4 3c 6e d4 76 3c 4e 65 3e 3b
       0.0020022795 0.02202376 0.015065296 0.0029052082
0000b0 1b e1 9b bd 60 a6 f0 3c 1d 4e bd 3c 61 fb 08 3d
       -0.07611295 0.029376209 0.023108536 0.03344286
0000c0 14 51 0c bd 9a 41 2b bd 9c 59 9e 3b 17 15 fa bc
       -0.03425701 -0.04181061 0.0048324596 -0.030527635
0000d0 50 ef b1 bb 31 2a 5b bc 0c c8 87 3c 0e 9e 58 bd
       -0.0054301396 -0.013376758 0.016574882 -0.052885108
0000e0 cf ff c1 35 86 34 a1 3b 7a 9e a1 3c a7 f1 aa 38
       1.4454071e-06 0.0049195914 0.019728888 8.151243e-05
0000f0 fe f5 5b bd 6c 92 bb bc d7 cf 0a 3c 92 ee 60 3c
       -0.053701393 -0.022896968 0.008472404 0.013728755
000100 fe e8 42 3b 8c 18 d7 b9 03 06 5e bc 02 50 8c ae
       0.0029740925 -0.00041026284 -0.013551238 -6.380675e-11
000110 0c e7 53 36 84 8e 49 38 ab 91 5a 39 9f 36 8b bc
       3.1575937e-06 4.8054862e-05 0.00020844366 -0.016993819
000120 49 c2 18 bb 26 41 24 3b a9 1c ca 3b 65 09 9d 3b
       -0.0023309162 0.0025063246 0.0061679673 0.0047923797
000130 c2 72 a5 b8 51 8a 50 bd ee ff 6d ba 45 e9 91 3b
       -7.8891884e-05 -0.05091316 -0.0009078969 0.0044528567
000140 5f be 93 3c da 3b cd 3b 0e f0 5c bd 35 39 0d bc
       0.018035112 0.0062632384 -0.05393987 -0.008619596
000150 69 f2 ca 3b a8 21 d7 bb 9c d5 7d 3b 2a 2f 02 3c
       0.0061934483 -0.0065652914 0.0038732057 0.007945815
000160 2f 8f 9f bd 2d f7 62 bb ac d8 31 3d c7 ec be 3c
       -0.07790982 -0.0034632192 0.043419525 0.023306264
000170 8c e3 26 bc af 4b af bd 22 2b 3e bd b1 d8 de 3c
       -0.010186087 -0.085593574 -0.046427853 0.027202936
000180 14 90 5f 3c 0f b5 a3 3b 44 2e 9c 3b fb f2 13 bd
       0.013645191 0.004995949 0.0047662575 -0.036120396
000190 ba bc 0d b5 09 fe ef 3a 14 a1 32 3a 13 da 93 3b
       -5.2801227e-07 0.0018309961 0.00068141636 0.0045120805
0001a0 41 61 25 bd 16 3e 94 bc 3f da 7a 3a 07 7d 12 bc
       -0.04037595 -0.018096011 0.00095692644 -0.008940942
0001b0 aa 71 d2 3a 4e 45 ab 3b b5 c0 14 3f 9e b0 16 40
       0.0016055603 0.0052267676 0.5810655 2.3545299
0001c0 62 1d f3 be bb 39 8a 3e a3 45 e2 bc 6a 0c 75 3e
       -0.47483355 0.2699717 -0.027621096 0.23930517
0001d0 14 f2 f1 be 5f 6e 21 3f 4e e3 da be cd 84 88 be
       -0.47255003 0.6305904 -0.42751545 -0.2666382
0001e0 49 81 32 3d 23 f1 f0 bd c4 8c ac 3b 1d f5 98 3c
       0.043580327 -0.11764743 0.005265804 0.018671567
0001f0 9b cc 96 3c 55 66 db bc cc 17 5a bd 37 46 89 bd
       0.01840811 -0.026782194 -0.05324535 -0.067028455
000200 10 1b 3a bd 5b e1 62 3c 90 56 a9 3b 95 ab ea bb
       -0.045435965 0.013847674 0.0051677898 -0.0071615675
000210 78 a9 0b bc 88 a0 ad b3 14 24 f1 39 52 59 9e 3a
       -0.008524291 -8.085141e-08 0.00045993982 0.0012081063
000220 1b 7e 30 ba 27 fa 36 bc df 45 74 bb f4 5c 0b 3b
       -0.00067326584 -0.011168039 -0.0037273092 0.0021265121
000230 cd 1c ae ba bb ee 0a 3b 60 88 57 b9 0b 77 84 bd
       -0.001328373 0.0021199423 -0.00020554801 -0.06468018
000240 99 d8 80 ba 26 b4 4d 3c 58 46 e0 3c 5e 40 be 3b
       -0.0009830176 0.012555158 0.027377293 0.005806013
000250 57 0c 52 bd 06 ac c2 bc 9a 22 6e 3c 6c 07 9d 3b
       -0.0512813 -0.023763668 0.014534617 0.0047921445
000260 ee 34 00 3c 79 35 3f bc 4d 65 94 bd 7a ab 99 39
       0.007825119 -0.011670464 -0.07245884 0.00029310194
000270 86 e4 1c 3c 0f 3d 8f 3c 08 84 b8 bb 24 8c 8f bd
       0.009575969 0.01748517 -0.0056309737 -0.070091516
000280 28 64 9e bb a7 06 d5 b7 03 69 b1 3c c4 9b 2a 3c
       -0.004833717 -2.5394676e-05 0.021656519 0.010413114
000290 5b d6 56 3c 69 f9 b8 bd 20 79 2c ba 34 e8 84 3d
       0.01311263 -0.09031946 -0.00065793283 0.06489602
0002a0 28 7a 5a 3d 5d 53 28 3c c0 80 a4 bd 4a 96 2a bd
       0.053339154 0.010273782 -0.080323696 -0.041647233
0002b0 12 47 b5 3c 64 a7 6d 3c c6 04 8d bb 47 fc 3a 3c
       0.022128616 0.014505241 -0.0043035476 0.011412687
0002c0 83 be d0 bf 86 51 a5 bd 97 3b 7c bf 39 90 d4 3e
       -1.630814 -0.0807219 -0.98528427 0.41516283
0002d0 2c a3 b0 3e 86 cd bb 3d 33 97 ca be 35 32 b3 3e
       0.3449949 0.0917006 -0.3956848 0.34999242
0002e0 69 9e a6 be 00 82 46 be 5e b0 94 3d 26 4e 78 bd
       -0.32542732 -0.19385529 0.07260202 -0.060621403
0002f0 bd 58 99 3b 3f e9 bc 3c 54 95 70 3d ee fb a6 3c
       0.004679768 0.02306044 0.05873616 0.020383801
000300 43 99 80 bd a7 2f 8e 3b b6 0a 3f 3c 40 cc 8b bb
       -0.06279232 0.0043391767 0.0116602685 -0.004266292
000310 b3 ef a6 3c 98 8c 8c bb ca 65 b9 3e 77 8e 7c 3f
       0.02037797 -0.004289221 0.3621047 0.98654884
000320 f5 68 8d bf 55 a4 12 bf 9e f5 85 3f 5c 61 e7 3e
       -1.1047655 -0.57282 1.0465581 0.45191467
000330 e1 de fb 3b 1d ca 01 bf 69 2d c4 3e bf 16 4e 3e
       0.0076864813 -0.50699025 0.38315895 0.20125864
000340 5f 38 06 bc bc b5 48 bf a8 8d 9f bc cc 92 07 3e
       -0.008192151 -0.78402305 -0.019476727 0.13239592
000350 ec 1b 9a be bc e9 43 bd c6 f7 90 3e 02 06 36 be
       -0.30099428 -0.04783033 0.28314036 -0.1777573
000360 f0 e4 08 bd a7 8d 82 3d 5c 3f ce 3d 0f 5c 3c bc
       -0.033421457 0.06374674 0.100706786 -0.011496558
000370 64 48 28 3e 84 5c a8 bf 99 30 c1 be a8 64 76 be
       0.16433865 -1.3153234 -0.3773239 -0.24061835
000380 f4 b2 48 bf 44 5c 26 3f 8e c9 6a bf fe ba 3c bf
       -0.7839806 0.64984536 -0.917138 -0.7372283
000390 b5 1b 03 3f 16 84 76 3e 67 a0 57 bd 26 a0 5e bb
       0.5121415 0.24073824 -0.052643206 -0.0033969968
0003a0 4c 3c 4e 37 2d e4 21 39 6f 08 c1 37 d5 92 60 39
       1.2292596e-05 0.00015439159 2.301132e-05 0.00021417004
0003b0 87 8e 28 bb 09 9e 63 3a 7f 46 79 3a 8e f0 f3 ba
       -0.0025719719 0.0008682912 0.0009509101 -0.001861112
0003c0 04 cd 77 b9 bd 03 ec b8 3a 82 78 bd c0 1a 86 bb
       -0.0002363213 -0.00011254053 -0.06067107 -0.0040925443
0003d0 9a 1a e6 3c 89 fd 04 bc a0 a4 30 bd 8f b4 22 bd
       0.028088856 -0.008117088 -0.04312575 -0.039722975
0003e0 e2 1d 06 3d 1c 97 5e bb 70 1c 91 3b 03 93 04 3c
       0.032743342 -0.003396458 0.004428439 0.008091691
0003f0 22 48 d3 3b f0 73 d0 bc 6b 4d c6 39 0a 3f f6 3a
       0.006447808 -0.025445908 0.00037823184 0.0018787098

l1.bias f4 [400]
000000 e5 6a 31 bc 23 90 9d bd 9e ec 0b 3e 55 25 84 bd
       -0.010828708 -0.076935075 0.13664481 -0.06452433
000010 7e 1b 93 bd 89 55 28 bd c6 bd e5 bb 01 ac 2a bd
       -0.07182978 -0.041097198 -0.007011148 -0.041667942
000020 c4 de 8f bd c3 4c c2 bc 66 8b a4 bf 27 bb d8 bd
       -0.07024911 -0.023718243 -1.2855041 -0.105825715
000030 80 8a bf bb db 0a 5c bd 8c ac 6b bd fc 3b a8 bd
       -0.005845368 -0.05372129 -0.0575376 -0.08214566
000040 e1 52 01 bf f3 68 5f bd fe 66 df bf 30 d5 a9 be
       -0.5051709 -0.054543447 -1.7453306 -0.33170462
000050 28 9c e4 3f 5f c7 ec ba ff 0c 5a bd 36 13 97 bc
       1.7860155 -0.0018064788 -0.05323505 -0.018441778
000060 cc 85 22 bf 50 4c c3 bc 87 ef 69 bd 05 0e 26 bf
       -0.6348541 -0.0238401 -0.057113197 -0.6486514
000070 63 d5 53 bd ce b7 8b bc c3 a4 a4 bd 41 e0 58 bf
       -0.051717173 -0.017055418 -0.08039238 -0.84717184
000080 7d b0 a8 bd 4a 49 be be eb 88 0d be 56 ee 1f bd
       -0.082367875 -0.3716529 -0.13821761 -0.039045654
000090 82 6f ab bd fe a6 9b bc 88 73 1a bd 49 4e 55 bd
       -0.08370878 -0.019000527 -0.037707835 -0.05207661
0000a0 36 bc 20 bd 57 76 0a bd 06 f3 b9 bd 68 a2 14 40
       -0.039241992 -0.033804264 -0.09079556 2.3224125
0000b0 08 61 b7 bd c2 d6 2f bd 0a d1 1f bd 00 95 19 bd
       -0.08954054 -0.04292942 -0.039017715 -0.037495613
0000c0 fe 86 ce bd 21 ff 24 bd b6 a5 83 bd f8 d5 d5 3f
       -0.100843415 -0.040282372 -0.06428091 1.6705923
0000d0 9c b0 80 bd f6 3e 67 bd d5 1c 19 bc 4c 6c 78 bd
       -0.062836856 -0.05645653 -0.009345253 -0.060650155
0000e0 99 5c 9e be ef 05 df bf 73 a9 95 bc 85 78 c7 bb
       -0.3093002 -1.7423686 -0.018269276 -0.006087365
0000f0 ec da 9a bd dc 92 cf bd 18 8c f2 bd 38 9d 94 bd
       -0.07561287 -0.10135433 -0.11843127 -0.072565496
000100 40 61 7b bb 8a 1f b2 bd 72 6e 3a 3c 0b f7 34 bd
       -0.0038357526 -0.08697422 0.011378871 -0.04418091
000110 5c 55 b8 bd eb 87 2b bd fe 7f 7a 3f 36 14 50 bd
       -0.09000656 -0.04187767 0.9785155 -0.050800525
000120 fd 3a 94 bd 0a e4 38 bd 92 62 20 3f 15 11 01 be
       -0.072378136 -0.04513935 0.62650406 -0.12604173
000130 25 f5 0c bf c9 78 8f bd ac 16 95 bc 10 fc 74 bd
       -0.5506156 -0.0700546 -0.018199287 -0.059810698
000140 d4 f8 09 3f b0 d6 96 be 32 d6 9b bd 9b 16 a7 bd
       0.53895307 -0.2946067 -0.07609214 -0.081586085
000150 19 a4 8c be 4c 4d 4f bc 58 55 be bc 6a 1d 71 bf
       -0.27468947 -0.012652706 -0.023234054 -0.9418551
000160 6b 1f a8 bb 92 cc e5 be 8f 02 61 bf ad fa 3f bd
       -0.0051306984 -0.44882637 -0.8789453 -0.046869922
000170 33 ae b1 be 67 b2 8f bd b2 6f 5b bf 56 71 ad bd
       -0.34703216 -0.070164494 -0.8571731 -0.08468883
000180 ad 7f 3c bf 12 11 f3 3f 2c 71 29 bd cc c6 e8 bf
       -0.7363232 1.8989584 -0.041367695 -1.8185668
000190 03 4b 94 bd 01 a7 ef be cd dd 23 bd 27 23 b9 bc
       -0.0724087 -0.468071 -0.040006448 -0.02259977
0001a0 59 55 c1 bf 88 58 5d be 62 ac 7d bb 85 1c 50 bd
       -1.5104171 -0.21615803 -0.0038707484 -0.05080845
0001b0 56 55 0e bd ec 87 00 bd 40 61 4d bd 7f c5 30 bd
       -0.03474935 -0.031379625 -0.050141573 -0.043157097
0001c0 4a 64 ae be b4 ec 9c 3e dc 71 9c bd 4e 7d b0 3d
       -0.3406089 0.3064934 -0.076389045 0.0861765
0001d0 60 5e b3 bc 7a 3b b4 bd df 67 51 bc 71 8d 01 bf
       -0.021895587 -0.08800407 -0.012781112 -0.5060645
0001e0 c7 9b 05 c0 3d 27 45 bd 17 69 22 bf 43 00 66 bd
       -2.087633 -0.048133124 -0.63441604 -0.056152593
0001f0 55 f9 56 bd c8 54 3e bd 46 62 ff bd 0a 19 11 bf
       -0.052483875 -0.046467572 -0.12469916 -0.5667883
000200 df 6a e9 be 20 3f 42 bd ae 13 01 be bf 9f 41 bd
       -0.4558935 -0.047423482 -0.12605163 -0.047271486
000210 27 16 b7 3f 7b 53 8e bd e1 02 97 bd 9e 10 df be
       1.4303635 -0.069495164 -0.07373596 -0.43567365
000220 52 e1 cc be 27 27 bc bd 42 b1 b6 bc 67 ac 94 bd
       -0.40015656 -0.09187155 -0.02230132 -0.07259446
000230 8e 39 9b bc 94 cd 32 bc 74 5d 24 bd a0 3c fc bd
       -0.018948343 -0.010913271 -0.040128186 -0.12316251
000240 ac df 54 bf 69 b6 e9 3e 61 7c 8f bd 82 1c c3 3e
       -0.83153796 0.4564698 -0.07006145 0.38107687
000250 fc 8c 9d bf 5e b7 83 bd 18 29 e6 bc 60 6f 0a bd
       -1.230865 -0.06431459 -0.028095767 -0.03379762
000260 3c 95 8a be fc f8 ee bb fb 09 85 bc 98 dc 29 bc
       -0.27066982 -0.007292865 -0.01624011 -0.010367535
000270 e7 98 62 bd 61 67 d3 bb 71 af 5d bd 6c c4 11 bc
       -0.0553216 -0.0064515327 -0.054122392 -0.008896928
000280 d5 59 87 bc 7e 65 6e bd d5 2a af be 38 57 c9 bd
       -0.016522327 -0.05820226 -0.34212366 -0.09831089
000290 22 e3 00 bd af e5 aa be 0d 5c 3f bc 4a f4 ad bd
       -0.03146661 -0.3337836 -0.011679661 -0.0849386
0002a0 85 a4 83 bd 34 24 5a bc a0 e8 a5 bc f1 f9 c3 bc
       -0.06427864 -0.013314296 -0.020252526 -0.023922892
0002b0 75 e7 35 3f 61 71 8f bf 7a 39 6d bd 9a ac 48 bd
       0.710563 -1.1206475 -0.057916142 -0.04899273
0002c0 cf 05 c8 be 67 91 cd bf 18 2f 3c bd 6c 6e a6 bd
       -0.39066932 -1.6059998 -0.04594335 -0.0812653
0002d0 4f 1e 55 be 6d 64 b6 be 96 bd 8a bd 06 1b 55 bc
       -0.20812343 -0.35623494 -0.06774442 -0.013006931
0002e0 53 d7 30 3f 0d 4a 6b bc a9 3b 31 3f 4c 7f 64 be
       0.6907856 -0.014360917 0.6923166 -0.22314185
0002f0 a0 01 fb bc 8e f8 1f bd 87 eb 28 bd c0 7a a3 3d
       -0.030640423 -0.0390554 -0.04124024 0.07982397
000300 1b 41 9c bd 06 c2 58 bd 18 95 5d bd 1e 87 7c be
       -0.076296054 -0.05291941 -0.054097265 -0.24660918
000310 8c 4d 13 bc 68 76 46 bf 45 ff 82 bd fd ec 42 bf
       -0.008990657 -0.77524424 -0.06396345 -0.76142865
000320 f2 c9 ee b9 bb bf 7c bd e8 62 2a bc dd 6a 76 bc
       -0.00045545358 -0.061706286 -0.010399558 -0.015040127
000330 3f f8 86 bc 03 a7 6a bd c2 2b a9 bd 31 67 c6 bd
       -0.016475795 -0.05728818 -0.08260299 -0.09687651
000340 83 dc 12 bf de ab 9a bd 52 de d6 bf f4 03 8c bd
       -0.57367724 -0.07552312 -1.6786597 -0.068366915
000350 22 a3 15 bd 8b b2 e5 bc 4a 3b 21 bd 5d 58 9b bd
       -0.03653253 -0.028039237 -0.039363183 -0.07585213
000360 27 6b 03 bf 95 c1 ed bc dd 85 ae bc 0a ec 8d bd
       -0.51335377 -0.029022971 -0.021304065 -0.069297865
000370 48 6d 28 bd 0b d7 a1 bb 72 18 11 40 c9 30 27 bd
       -0.041119844 -0.004938965 2.267117 -0.04081801
000380 06 c4 41 bd 4d 9f 6e bd 33 cb 1c 3e 69 9d 85 bd
       -0.047306083 -0.05825739 0.1531189 -0.06524164
000390 08 9d 38 3f e7 f2 5f bd 11 76 60 bd 38 0a cb bd
       0.7211461 -0.05467501 -0.054800097 -0.099140584
0003a0 77 e5 b1 bd 5f b7 55 3f b4 82 f7 bd 8f 3c 75 bd
       -0.08686345 0.8348293 -0.120854765 -0.059872206
0003b0 3e 2d 24 bd e3 15 5e bb 9b 47 e2 bd 99 24 72 bf
       -0.04008221 -0.0033887557 -0.11048814 -0.94587094
0003c0 ab af 8d 3e f6 0d c0 bf 8c ac 29 bd c0 7b a5 bf
       0.27673087 -1.500426 -0.04142432 -1.292839
0003d0 36 40 86 bd 71 2b 95 bd a2 eb 1f bd ff cd 74 bc
       -0.06555216 -0.072836764 -0.039043076 -0.014941691
0003e0 e7 63 54 bd fa f9 b9 bd 94 20 c8 3f f6 16 0f bf
       -0.051853087 -0.09080882 1.5634942 -0.5589441
0003f0 9e 06 10 bc ad 81 ac bd 46 e0 56 bd 0e bd 11 bd
       -0.00879064 -0.08423171 -0.052459978 -0.035580687

l2.weight f4 [300, 403]
000000 52 e2 24 b8 af 92 19 38 84 93 64 2b cf 18 cd 2d
       -3.9311424e-05 3.6614652e-05 8.120659e-13 2.3316819e-11
000010 81 00 00 80 64 3b 8d b1 70 21 f4 aa db de f4 a3
       -1.81e-43 -4.110392e-09 -4.336631e-13 -2.6548916e-17
000020 be 8d 34 29 67 67 56 b1 28 31 b6 2b 24 aa 45 37
       4.009097e-14 -3.1199876e-09 1.2945521e-12 1.1781729e-05
000030 ad a8 10 30 0f 55 d9 ab cf 00 00 00 22 05 00 80
       5.26266e-10 -1.5442386e-12 2.9e-43 -1.841e-42
000040 dc a5 08 2c cc 1a 85 b2 42 2d 45 ad 40 c1 a9 2b
       1.9418833e-12 -1.5495424e-08 -1.1208203e-11 1.206181e-12
000050 a4 71 2e b8 a1 0e af b7 6d cf a5 28 18 9f 19 b4
       -4.159067e-05 -2.0868438e-05 1.8408636e-14 -1.4307113e-07
000060 c0 31 43 2b 3f d7 c6 2c d1 07 01 a7 12 f2 ac ac
       6.934696e-13 5.6513956e-12 -1.7906584e-15 -4.9154092e-12
000070 5f f2 6f b3 76 03 00 00 3e d8 65 ac 6f 8a 03 2c
       -5.586696e-08 1.242e-42 -3.2662896e-12 1.8693066e-12
000080 06 00 00 00 76 8e e6 ab 05 b9 04 2c f6 2f c3 b1
       8e-45 -1.6382024e-12 1.8861035e-12 -5.6806995e-09
000090 42 03 00 80 a0 76 18 9c d0 64 1d ac 49 96 b1 b1
       -1.169e-42 -5.04459e-22 -2.2367004e-12 -5.1684634e-09
0000a0 fe bd d6 ab ac 46 41 35 3e 00 00 00 32 40 08 ac
       -1.5258348e-12 7.2000944e-07 8.7e-44 -1.9362398e-12
0000b0 98 03 00 80 84 02 00 80 52 04 00 80 25 c3 07 91
       -1.289e-42 -9.02e-43 -1.55e-42 -1.0709756e-28
0000c0 cc 08 00 00 12 2e ba 33 c1 13 b4 33 7b fe ed b6
       3.156e-42 8.66968e-08 8.3854964e-08 -7.092776e-06
0000d0 c4 5b 1c a1 a6 02 00 80 bc 71 47 ab 7b af 44 1f
       -5.2976307e-19 -9.5e-43 -7.085684e-13 4.164977e-20
0000e0 ea cc 58 28 d2 cb ca 2c d4 d1 70 35 ac 27 85 36
       1.2034842e-14 5.763814e-12 8.971231e-07 3.9683273e-06
0000f0 cb 2a 8b af b3 8b 1f ad 91 d3 e0 b5 3a 3c 25 b1
       -2.531436e-10 -9.069123e-12 -1.6750874e-06 -2.4044895e-09
000100 7f 75 06 a7 6c 0c 90 2d 03 02 ef ac 10 3b d8 ab
       -1.865993e-15 1.6376421e-11 -6.793012e-12 -1.5364116e-12
000110 44 00 00 80 8f 07 a8 aa c6 dc 02 2b e3 07 00 00
       -9.5e-44 -2.984804e-13 4.649166e-13 2.829e-42
000120 d0 01 00 00 b9 69 80 2c 0d bf 3e b0 51 45 73 2c
       6.5e-43 3.6497164e-12 -6.9393097e-10 3.4570855e-12
000130 7d 41 2f 2c 3f 17 00 80 ef 11 f7 a6 be 01 00 00
       2.490535e-12 -8.339e-42 -1.7143929e-15 6.25e-43
000140 99 00 df ac 87 13 be 30 c5 56 40 2d 84 c4 e0 b6
       -6.3381076e-12 1.382987e-09 1.0933203e-11 -6.6985976e-06
000150 f2 4e c0 2b 89 91 59 b7 ed 7e 0c 2c ed 7b 91 ad
       1.3664332e-12 -1.2968093e-05 1.9965655e-12 -1.6539626e-11
000160 32 cf cf b0 23 6e 22 ab 5b 99 d0 ac 9f 99 24 ad
       -1.5120121e-09 -5.7706807e-13 -5.9287414e-12 -9.356431e-12
000170 25 9e 4d ab c6 ef 6a a0 05 ca 8d ac fe 63 24 2f
       -7.30501e-13 -1.9899905e-19 -4.0298897e-12 1.4951237e-10
000180 d4 00 00 00 c0 46 1a 2a 43 69 ea b2 8d b0 41 aa
       2.97e-43 1.3702494e-13 -2.7289053e-08 -1.7203097e-13
000190 75 ba e7 31 2e 6a 08 b0 8b ec df a9 21 3c d5 35
       6.7441825e-09 -4.96274e-10 -9.944223e-14 1.5887236e-06
0001a0 07 6b 81 2c 9f 06 00 80 92 10 ed 2e 06 1e 6d 2b
       3.678283e-12 -2.375e-42 1.0780456e-10 8.424098e-13
0001b0 d9 0c 00 00 73 05 cd aa 3d 3c c1 ae 0b 08 00 80
       4.609e-42 -3.6419096e-13 -8.787324e-11 -2.885e-42
0001c0 6c 64 a3 2c c4 67 2d ac a4 1f 08 ac 3e 1a 61 b0
       4.6438877e-12 -2.464238e-12 -1.9344326e-12 -8.1891816e-10
0001d0 4d 26 07 ad 0f 78 24 aa e4 23 a4 31 8f eb 0c ac
       -7.682366e-12 -1.460778e-13 4.7771085e-09 -2.0025958e-12
0001e0 89 8b 3d a8 7d a6 c7 33 bb e2 12 2a 43 c7 a9 ab
       -1.05218644e-14 9.296944e-08 1.3046068e-13 -1.2063478e-12
0001f0 05 52 a9 38 5f 1e e6 b2 29 86 58 ac 75 2e eb 2b
       8.073825e-05 -2.6789335e-08 -3.076992e-12 1.6710649e-12
000200 b8 03 00 80 7d 10 05 2c 2a 04 00 80 13 03 00 80
       -1.334e-42 1.890959e-12 -1.494e-42 -1.103e-42
000210 97 90 42 2b 0f 02 00 80 92 cc 5e a8 c1 85 93 ab
       6.9123304e-13 -7.38e-43 -1.2367835e-14 -1.0482102e-12
000220 4a cf 88 ab 84 0e 0e ac 9d cb f9 34 2f f4 b0 35
       -9.720915e-13 -2.0187471e-12 4.6528012e-07 1.3184089e-06
000230 38 52 cc ac 9b ac 91 2c 01 8d 38 aa ac 02 00 00
       -5.807157e-12 4.140311e-12 -1.6391403e-13 9.58e-43
000240 0f ba b0 ad 62 cf 40 ab 24 a7 01 b8 86 e7 f6 b4
       -2.009151e-11 -6.8499904e-13 -3.091166e-05 -4.5989526e-07
000250 8b 04 fe 2b 2f 35 01 b9 e3 80 16 ad 74 86 d6 32
       1.8049046e-12 -0.00012322211 -8.555131e-12 2.4974021e-08
000260 7a b8 b2 aa 8e 01 00 80 37 bc fb 31 48 cd 25 28
       -3.1747158e-13 -5.58e-43 7.326459e-09 9.203853e-15
000270 e7 8c 5e 32 82 d8 98 ad 56 bd a5 2d 03 01 00 80
       1.2954138e-08 -1.7376548e-11 1.884241e-11 -3.63e-43
000280 bf 0a 00 80 b9 6f 1e b1 b7 0a f8 b6 ac df 9b 2b
       -3.855e-42 -2.3055533e-09 -7.3922233e-06 1.1075494e-12
000290 89 c2 98 28 f9 ee 68 b6 42 00 1c ad d2 ee 40 2e
       1.6959756e-14 -3.4709794e-06 -8.867631e-12 4.386786e-11
0002a0 06 2c 6a 35 f3 7b 0a b4 7d d9 03 ae 4f 3c 56 1c
       8.7235856e-07 -1.2897344e-07 -2.997912e-11 7.0884607e-22
0002b0 15 10 2e ac fb 97 e7 28 41 ad b5 9b c9 f6 bd ab
       -2.4735815e-12 2.5712063e-14 -3.00559e-22 -1.3497754e-12
0002c0 db b3 81 2b b5 1c fc a9 f9 60 45 2f 11 f3 46 2c
       9.215921e-13 -1.1196028e-13 1.7951497e-10 2.8272421e-12
0002d0 54 61 51 2c 75 ba 42 ab 61 5c e7 2f 61 6a be 34
       2.9754714e-12 -6.9181406e-13 4.2084294e-10 3.546766e-07
0002e0 23 0a f2 2a b5 0d 00 80 2c f5 85 2b d2 17 46 27
       4.299487e-13 -4.917e-42 9.518267e-13 2.7490933e-15
0002f0 ac b9 e0 2f a4 ef 37 31 98 99 ff b0 34 89 39 2c
       4.087729e-10 2.6766225e-09 -1.8597346e-09 2.6366244e-12
000300 6a 02 00 00 3c 90 05 36 27 86 a6 b2 a8 01 00 80
       8.66e-43 1.99025e-06 -1.9385949e-08 -5.94e-43
000310 95 7e ba b7 83 83 31 ad 64 db 15 2a 47 65 20 2b
       -2.2231872e-05 -1.0090487e-11 1.3309975e-13 5.698397e-13
000320 d2 a2 df 2a e6 b9 18 34 cf 8e b8 b4 f6 f3 83 b9
       3.9725737e-13 1.4223733e-07 -3.4376578e-07 -0.00025168032
000330 70 d9 4b ac 75 26 ef 29 69 10 00 80 8e e3 05 af
       -2.8968737e-12 1.06204033e-13 -5.887e-42 -1.2177123e-10
000340 3a 9f df 2b 00 1e 20 ae 99 d0 62 ac 92 02 00 00
       1.5889297e-12 -3.6406433e-11 -3.2232327e-12 9.22e-43
000350 9b 0a 92 b3 a1 d0 f6 b5 31 48 06 b0 47 05 ab 37
       -6.800584e-08 -1.8389147e-06 -4.8851506e-10 2.0387246e-05
000360 72 7e b4 2b 1f 8e f0 2c c8 76 96 af 07 96 3e b2
       1.2824865e-12 6.836989e-12 -2.736924e-10 -1.1093568e-08
000370 65 a1 4b 37 e4 01 00 80 ed cf 32 ac 6f 37 b3 30
       1.21373205e-05 -6.78e-43 -2.5410743e-12 1.3039719e-09
000380 6d 38 12 30 47 5e 28 2b aa 9f 88 ac 43 8c 10 34
       5.3194676e-10 5.9816426e-13 -3.8830788e-12 1.3462072e-07
000390 9c 92 14 ac af cb b9 30 ce 61 b4 2f b4 a0 0d 34
       -2.111345e-12 1.3518412e-09 3.2811304e-10 1.3190112e-07
0003a0 3d f9 d8 aa 5c 67 2a ad c2 01 00 00 54 a7 9f ad
       -3.8542252e-13 -9.686332e-12 6.3e-43 -1.8150516e-11
0003b0 d3 63 ea 34 7c 5e b8 b1 bf a9 7b 2a a3 bc aa 2c
       4.3658528e-07 -5.3658464e-09 2.2352171e-13 4.8526335e-12
0003c0 fb 9c d7 2b f9 07 c1 ab 25 32 60 af e8 0e 89 ac
       1.532024e-12 -1.3715688e-12 -2.0390496e-10 -3.895429e-12
0003d0 93 02 00 00 9c cf 85 b0 12 9e 50 a3 14 6d 8c 30
       9.23e-43 -9.73603e-10 -1.1309175e-17 1.0217343e-09
0003e0 d0 77 2f b5 e1 0b 00 80 ed 15 32 2b 8b 3d 89 ad
       -6.536693e-07 -4.261e-42 6.326873e-13 -1.5602427e-11
0003f0 fc 72 1f b5 ce ca 4a 2c a6 4f 11 30 d6 24 3f 2c
       -5.939944e-07 2.8818506e-12 5.286388e-10 2.716318e-12

l2.bias f4 [300]
000000 ea 31 d9 2d 4b 8a b4 b6 9f 25 8e bd 21 3e 35 b7
       2.469221e-11 -5.3805175e-06 -0.069407694 -1.0802906e-05
000010 36 5d 37 be a6 5c c4 bc 56 86 2a 3f a5 37 40 be
       -0.17906651 -0.02396996 0.6661123 -0.18771227
000020 25 41 94 b5 d0 43 7c bb be 74 b0 b3 30 02 50 b4
       -1.1045819e-06 -0.0038492568 -8.216874e-08 -1.9372305e-07
000030 57 dc 5d 38 b0 0d 8f 3c 5f f5 42 bf ed fb 1f 3f
       5.2895713e-05 0.017462581 -0.76155657 0.62493783
000040 d5 4a 16 a5 c2 24 ea b8 61 92 b7 be d5 dc bf 3f
       -1.303578e-16 -0.00011164836 -0.35853866 1.4989268
000050 6b 44 cd 3e 09 63 c5 bb 5f 88 77 b8 5a f8 7f b8
       0.4009126 -0.006023769 -5.9016395e-05 -6.1028033e-05
000060 16 b3 2a 2e 5d 57 e6 ba 6e 16 05 bf b6 18 73 3f
       3.8812585e-11 -0.0017573644 -0.5198735 0.9495958
000070 18 f3 22 20 8b 79 13 ab aa 18 26 a7 ae 21 2e b8
       1.3802367e-19 -5.2393566e-13 -2.3050498e-15 -4.15162e-05
000080 13 a2 85 b5 60 a6 ce a9 5f 9f 35 3d a6 2f 1a bb
       -9.956442e-07 -9.177099e-14 0.04434144 -0.0023526936
000090 79 12 bb b6 94 14 4e 1f 95 6f a3 39 34 4a 39 3e
       -5.575185e-06 4.363922e-20 0.00031172918 0.18094712
0000a0 b7 b8 01 bc 29 63 b0 a0 5f 95 39 bd cc 73 35 9b
       -0.007917575 -2.9881178e-19 -0.045308467 -1.5009385e-22
0000b0 64 85 8b bc 03 be b5 ad 90 25 8a ae c6 3c c5 ba
       -0.017031379 -2.06617e-11 -6.282186e-11 -0.0015048019
0000c0 b1 39 ba 3e ad 46 4c ad de fe f7 bd 38 ca 11 9e
       0.3637214 -1.1611751e-11 -0.12109159 -7.718054e-21
0000d0 bf a8 3d 22 b4 ce 08 3f c0 6e 15 be 37 e8 41 ac
       2.570361e-18 0.53440404 -0.14593029 -2.7555855e-12
0000e0 de 70 97 bb 10 39 f9 3e 63 8e ed b7 3b 76 49 3f
       -0.004621609 0.48676348 -2.8318906e-05 0.7869603
0000f0 41 60 7d 3f e3 f3 1c 3f fa ad 23 a3 d0 b0 7e be
       0.98974997 0.6130964 -8.873089e-18 -0.24872136
000100 d8 1e 0e b1 29 c8 e4 bb 36 bd 0b 34 26 31 32 ba
       -2.0681252e-09 -0.0069818688 1.3014218e-07 -0.0006797485
000110 72 0d a1 bd f6 18 df b0 42 51 f2 ac 08 6c 04 3e
       -0.078638926 -1.623248e-09 -6.887075e-12 0.12931836
000120 ea 20 b5 a1 6b 36 1e a5 d1 8c cd b8 e1 7c 79 bc
       -1.2273749e-18 -1.3722753e-16 -9.801391e-05 -0.015227527
000130 22 5c d7 3e c0 05 bc bb 8c ee aa b6 11 6b f1 b5
       0.4206248 -0.00573799 -5.0941653e-06 -1.798706e-06
000140 48 9d 90 3e 9e 6a aa 2b 67 01 69 ba 48 f4 bc a4
       0.28244996 1.2108819e-12 -0.00088884536 -8.194583e-17
000150 29 6e fb b1 70 f6 01 b9 1f 1c 8c b5 b4 8f ca a2
       -7.317585e-09 -0.00012394204 -1.0438997e-06 -5.490436e-18
000160 94 08 6a 3f f1 76 1f 2d 80 13 06 b8 44 0d 4c a6
       0.9141934 9.064514e-12 -3.196625e-05 -7.0794696e-16
000170 73 6b 9c b9 64 a1 0e bf 00 fd 74 3f ac 60 57 ad
       -0.00029834695 -0.5571501 0.9569855 -1.22428005e-11
000180 ec a9 1b ba 1f b6 45 b8 9b c0 5c 95 59 71 55 be
       -0.0005938101 -4.7138074e-05 -4.4580585e-26 -0.2084402
000190 ab b3 b9 3e 37 97 57 a6 aa e2 01 3f 32 27 13 3e
       0.36269888 -7.4798044e-16 0.50736487 0.1437042
0001a0 7f 47 3d 26 2b c0 5d 3f a5 b8 45 a6 3e b1 7e a7
       6.5669443e-16 0.8662135 -6.8598345e-16 -3.5345664e-15
0001b0 1e 87 3c 3f c3 24 33 9a 5b 3d 97 bc 8f da 43 ad
       0.7364367 -3.7046028e-23 -0.018461874 -1.11329964e-11
0001c0 33 57 08 9e 91 61 5a a2 a0 30 0c 3f d1 e5 12 b7
       -7.2178124e-21 -2.959616e-18 0.54761696 -8.755786e-06
0001d0 05 fe 6e b2 8c ac e9 b9 76 d6 76 9e 47 dc b1 3d
       -1.3911181e-08 -0.0004456978 -1.3067481e-20 0.08684593
0001e0 79 71 7c 3f d6 5f d5 b1 29 22 79 af 3b 8b c0 b3
       0.98610646 -6.210011e-09 -2.2658554e-10 -8.9660226e-08
0001f0 bd 7b 6e b7 dc e7 c2 a2 54 f6 c9 b2 03 d4 00 3f
       -1.42147155e-05 -5.2829296e-18 -2.3511497e-08 0.50323504
000200 08 a3 eb ae b4 1d a2 a9 aa f5 61 a5 95 c5 71 b1
       -1.0715523e-10 -7.199398e-14 -1.9598873e-16 -3.5182428e-09
000210 e3 96 0e a7 eb 21 8b 3e ba 16 dc 3e c8 48 a7 af
       -1.9788255e-15 0.27174315 0.4298609 -3.0428837e-10
000220 5a b8 07 bb 7c 9b 0a bb 9a 33 85 b8 4e e3 8f 31
       -0.0020709247 -0.0021149805 -6.351546e-05 4.1876893e-09
000230 cc ca c2 b5 88 34 2b b8 ff 90 2c 28 7f e4 17 be
       -1.4513148e-06 -4.08185e-05 9.579359e-15 -0.14833258
000240 7d 73 75 bb 9b c5 9c bd c2 5b 98 af ae 71 9e b8
       -0.003745287 -0.07654878 -2.7713837e-10 -7.5552016e-05
000250 d2 8f 6b b6 a2 a2 3f bf b8 9f be 28 99 69 61 a9
       -3.5101443e-06 -0.7485753 2.1163504e-14 -5.0051627e-14
000260 1f 50 a8 3e 36 6d 9a bb 39 44 83 a1 29 43 61 b6
       0.32873628 -0.004712726 -8.894964e-19 -3.3566705e-06
000270 8b ff da ba 91 dd cf 2a 64 d9 70 3c 52 2f d3 a4
       -0.0016708238 3.692433e-13 0.014700267 -9.158683e-17
000280 94 28 17 3f 7f 2f 4c b3 58 e2 c7 a7 4f c5 20 ac
       0.5904629 -4.754065e-08 -5.5478998e-15 -2.2846896e-12
000290 6e 19 61 33 ed 28 62 b6 8e 42 64 9e 6f 4f de 33
       5.2410023e-08 -3.3700446e-06 -1.2083983e-20 1.03521295e-07
0002a0 97 7e 0d a2 17 79 63 3f 1e d7 4a bf 01 eb 22 bb
       -1.917608e-18 0.88856643 -0.7923449 -0.0024859312
0002b0 4e 06 b7 bc 28 e5 b9 2d fd b1 81 b3 b5 c8 68 a4
       -0.022341873 2.113383e-11 -6.0394065e-08 -5.0476986e-17
0002c0 d9 eb 9a bd 60 41 de a9 0f ed 92 98 f3 73 ea 9d
       -0.075645156 -9.870121e-14 -3.7979483e-24 -6.2059173e-21
0002d0 19 75 e2 b6 0c 6d 18 28 34 39 ff a0 f8 ef 29 3f
       -6.748957e-06 8.461341e-15 -4.3236534e-19 0.6638179
0002e0 ec 39 d8 36 89 b0 c3 3e 7c f3 b0 ab 1c 8a 9f bb
       6.4440446e-06 0.38220623 -1.2573133e-12 -0.004868759
0002f0 b3 a4 c2 3e d9 9a 96 b4 b6 2f 17 a4 fc b2 a0 3c
       0.3801628 -2.8052344e-07 -3.2783318e-17 0.019616596
000300 8c 2a 20 a9 09 14 69 3e e8 c5 35 b7 22 34 47 be
       -3.556404e-14 0.22761549 -1.0834519e-05 -0.19453481
000310 97 a0 ed a4 f2 e6 37 bc e1 5e 9c b3 fb 17 07 ab
       -1.03054416e-16 -0.011224495 -7.2815745e-08 -4.7994914e-13
000320 65 51 4b b2 59 47 9b 9f c4 c9 4d 3e cd 95 c1 b4
       -1.1834662e-08 -6.576309e-20 0.20096499 -3.6058046e-07
000330 d1 36 0d bd 00 5c 85 3f 5b 6e 11 99 e0 6d 9b b8
       -0.034476105 1.0418701 -7.5186104e-24 -7.411442e-05
000340 a0 ba c9 bd ca 96 a1 ad 30 91 e6 b9 2f 17 6c a3
       -0.09850049 -1.8370545e-11 -0.00043977192 -1.2798495e-17
000350 9f 02 4e bb ab 2a 18 b9 7a 95 ff b3 c2 ef e1 a2
       -0.0031434668 -0.00014511745 -1.19015525e-07 -6.1240226e-18
000360 9b 0b eb a5 12 26 05 be 7b 9f d1 b1 50 fe c8 b7
       -4.0773866e-16 -0.13002804 -6.1008314e-09 -2.3960281e-05
000370 b0 7b 1f bc d4 ab 07 b4 52 ae 5e bb 93 43 3f bd
       -0.009734079 -1.2635365e-07 -0.0033978415 -0.046695303
000380 cd 32 7b b6 9d dc 6d ad 44 2b f6 aa 00 e1 77 b9
       -3.7431485e-06 -1.3520876e-11 -4.37284e-13 -0.00023639575
000390 74 5e 3b a9 22 80 73 b5 60 01 90 2f 7b cb 98 be
       -4.1604266e-14 -9.071101e-07 2.6194424e-10 -0.29842743
0003a0 f2 7c 55 b7 c2 45 3d ae 82 79 ad a3 a0 7b 1f bb
       -1.272488e-05 -4.3035582e-11 -1.8808158e-17 -0.002433516
0003b0 f2 96 7f ba c8 91 69 b4 4b e2 71 3e 2d b0 79 3f
       -0.00097499706 -2.1752851e-07 0.2362148 0.9753445
0003c0 64 02 cb 3c 1b 88 4a 3f db 91 ca bb ea de bc be
       0.024781413 0.7911393 -0.006181938 -0.3688882
0003d0 c6 06 60 bb 98 22 41 35 e6 f1 35 3f 34 9e 13 b6
       -0.0034183725 7.1948443e-07 0.7107223 -2.1996793e-06
0003e0 d0 d0 fe b8 be 97 c2 bb e5 76 36 bc c1 96 95 af
       -0.00012150558 -0.0059384992 -0.011136745 -2.721006e-10
0003f0 6f 6d 65 20 21 47 53 bc c0 2f 8b bb ee 0c f0 98
       1.9433263e-19 -0.012895376 -0.0042476356 -6.20516e-24

l3.weight f4 [1, 300]
000000 d2 2b 9a 3a 86 d8 36 b7 02 af 3c c0 af 3b ac bb
       0.0011762327 -1.0898459e-05 -2.9481816 -0.0052561383
000010 80 6a 26 c0 20 ff 4a bd df 25 15 40 0a a7 37 bf
       -2.6002502 -0.049559712 2.3304365 -0.71739256
000020 45 91 d6 3c 8b b3 be bc 9a 3e 3a 38 6d a8 a2 b9
       0.026192317 -0.023278972 4.4404158e-05 -0.00031024535
000030 c7 00 34 ba 36 b9 9c bc 11 1e 87 c0 d0 26 7c 3f
       -0.0006866571 -0.019131284 -4.22242 0.98496723
000040 08 9b 3b bb 39 ce 25 bb bd c8 d2 bf 29 71 6b 40
       -0.0028626341 -0.002529992 -1.646751 3.6787817
000050 ad 85 24 3f 86 23 11 3c 68 ed b6 ba 96 2e 48 bc
       0.64266473 0.008858567 -0.0013956251 -0.012218138
000060 84 22 a0 38 cc 77 a2 bc 36 09 35 c0 e6 55 56 40
       7.6358236e-05 -0.019832514 -2.8286872 3.3489928
000070 7a 67 a0 ba fd 7a 8a bb 31 f6 3f bb 7e 69 2d 3d
       -0.001223787 -0.004226087 -0.0029291029 0.042336933
000080 11 d0 35 3c 50 44 cc ba 27 62 a6 3f 6b ec bb 3c
       0.01109697 -0.0015584324 1.2998704 0.022939881
000090 63 6f cc bc a3 70 88 39 9e 21 ff bb b2 20 87 3e
       -0.024955457 0.00026023862 -0.00778599 0.26392132
0000a0 97 af 9e ba a9 68 7d ba 7f 8b 65 c0 3b b2 a4 bb
       -0.0012106773 -0.00096667797 -3.5866392 -0.0050261295
0000b0 33 54 b0 3c f0 76 6d bc a3 2f 2a bb 3e 21 02 bd
       0.021524524 -0.014493689 -0.0025968335 -0.031769983
0000c0 3d fe 9c 3f ff 83 82 b9 89 78 15 40 e7 26 d9 3b
       1.2265087 -0.00024893877 2.335482 0.006626952
0000d0 dc c8 8b bc b8 09 57 3f f4 4a ae c0 bb 04 4b bb
       -0.01706355 0.83999205 -5.4466496 -0.0030978161
0000e0 17 5f 59 3a 7c 98 5a 3f 8e e4 5d 3c c7 78 06 40
       0.00082920626 0.8538892 0.013543261 2.1011217
0000f0 71 78 eb 3f ff 55 77 3f 6d 4e 03 bc d7 1a d8 c0
       1.8396131 0.96615595 -0.008014304 -6.7532763
000100 8f 58 53 bb 30 f9 0d c0 33 3f ac 39 1e 48 80 bc
       -0.003224883 -2.2183342 0.00032853484 -0.015659388
000110 e6 4c c0 bf 51 70 05 bc 3f fb 30 3c dd fc 39 3e
       -1.5023468 -0.008144454 0.010802089 0.18162866
000120 51 1a 8c bb 70 bc dd bb 5c 61 ac 37 11 d5 7b 3c
       -0.004275598 -0.0067668483 2.0549334e-05 0.015370623
000130 db 92 2b 3f 64 81 39 39 f0 72 5f 3c 49 86 8a 3b
       0.6702096 0.00017691177 0.013638243 0.004227434
000140 df 6e de 3f 01 d3 48 ba a0 05 a1 3c 87 4a 14 bc
       1.7377585 -0.00076608366 0.019656003 -0.009050972
000150 28 6c 0e bc 9f 0d 36 bc b4 31 b7 bc 52 4a d3 bc
       -0.008692779 -0.011111646 -0.022362567 -0.025792275
000160 bb 35 32 40 fd 16 4f 3a b8 79 06 3c 9e fa 32 3c
       2.7845294 0.0007899849 0.008207731 0.01092401
000170 d3 99 81 bc 5d bc 52 c0 c5 7e e8 3f a5 2b 59 b8
       -0.01582042 -3.2927468 1.8163687 -5.177748e-05
000180 6d 2c 36 3a 2f 2f dd 3b 8e 48 0d bc 73 cd 84 bf
       0.0006949369 0.0067500095 -0.008623255 -1.0375198
000190 6d 91 0f 3f e0 76 c3 bb 61 db 4b 3f a7 d5 43 3f
       0.5608128 -0.0059650987 0.7963162 0.7649788
0001a0 19 bb 90 38 52 6e e8 3f 2a 5f 4a b9 46 8b 07 3a
       6.901305e-05 1.8158667 -0.00019299673 0.00051705947
0001b0 6b 05 07 40 7a 14 04 bb ca e0 86 3c 63 5f d1 b8
       2.1097057 -0.0020153807 0.01646461 -9.983664e-05
0001c0 a6 2f ce 3b 1d 23 46 3b 22 7c 5c 3f 57 10 97 3c
       0.006292301 0.0030233331 0.8612691 0.018440409
0001d0 d8 70 26 ba 46 71 39 34 84 11 6d bc f4 97 91 3f
       -0.00063492125 1.7270676e-07 -0.014469508 1.1374497
0001e0 05 6e f2 3f 86 ef c8 b8 df 92 ce 3a da 5d 76 bc
       1.8939825 -9.581358e-05 0.0015760324 -0.015037024
0001f0 2d 43 0a ba 7a d2 48 3b 88 94 a1 ba 1a 28 4a 3f
       -0.0005274292 0.0030643032 -0.0012327591 0.7896744
000200 14 51 a6 bb 40 15 c4 39 bb 8d 8d 3c 80 f9 53 38
       -0.0050755832 0.00037399866 0.017279496 5.0538685e-05
000210 33 e4 1d bc ea 8d 65 40 ef 9a d4 3f 9d f8 8d bb
       -0.009636926 3.5867867 1.6609782 -0.0043326155
000220 c3 8a 01 3b a8 67 f4 3b 58 2b 75 38 6e ac 06 b8
       0.0019766546 0.007458646 5.845292e-05 -3.2108677e-05
000230 e7 e2 48 3c 46 d8 ff b8 fc 6e a4 bc 24 59 8b c0
       0.012261129 -0.000121996316 -0.020072453 -4.3546314
000240 e5 fc fb 3c 91 d1 36 c0 b5 85 cb 3a 7c 17 44 bc
       0.030760238 -2.856541 0.0015527519 -0.01196849
000250 df 77 28 ba 0c 9e c4 c0 ef 93 84 ba cf 9b ff bb
       -0.00064265536 -6.144293 -0.0010114888 -0.0078005563
000260 55 6f 5c 3f b1 27 d3 3c 5c 9c 5c 3b 10 f4 ba ba
       0.8610738 0.025775762 0.0033662533 -0.001426341
000270 7d a1 ce 3c 68 14 0f 3c cc 91 94 bc 57 d4 d9 39
       0.025223488 0.008732893 -0.018135928 0.0004154767
000280 98 14 6e 3f 28 60 cb 3c 53 16 b4 39 3a 50 55 bc
       0.93000174 0.024826124 0.00034348908 -0.013019616
000290 b0 47 ce 37 89 5f 10 3c 43 e8 48 3c 19 1c 7b 3a
       2.4590496e-05 0.00881184 0.012262407 0.0009579077
0002a0 df 1a be bb ed b9 d3 3f be eb 39 c0 13 2a 40 3c
       -0.005801543 1.6541115 -2.9050136 0.011728781
0002b0 52 7f 74 bc 07 8b d1 3c fe d0 ef 3b fb a0 52 bc
       -0.014922934 0.025578989 0.007318615 -0.012855764
0002c0 ef db 6b c0 b6 15 7d bb 6b 1d 2d bc be d9 39 3c
       -3.6852987 -0.0038617677 -0.010566096 0.011343418
0002d0 2a 3d 18 b7 9c 3c 97 3b cd f1 3b 3b 0c fd 85 3f
       -9.074147e-06 0.0046153795 0.002867806 1.0467849
0002e0 38 90 17 3c 4b 52 8e 3f e3 52 2c bb e3 30 f4 39
       0.009250693 1.1118864 -0.0026294522 0.0004657573
0002f0 27 3f 04 40 85 e6 b5 3a db 39 0b bb bc 9b bd bc
       2.0663545 0.0013877904 -0.0021244201 -0.023145549
000300 9c 0b 0b 3c 46 12 7a 3f f6 26 8b bb a5 dd 81 c0
       0.008486655 0.97684133 -0.004246588 -4.058306
000310 49 7b 14 3b 98 26 cd b9 d5 5b 30 3a 55 ab 9b bc
       0.0022656491 -0.00039129402 0.0006727551 -0.019002596
000320 4b 9f 5b 3c 4f b3 93 bb 19 6e ae 3f f5 ae 8f bc
       0.013404678 -0.0045074592 1.3627349 -0.01753948
000330 01 3c cf bc fa 3c ec 3f 23 d5 6b 3c 14 95 9e ba
       -0.025297167 1.8456109 0.0143940775 -0.0012098872
000340 33 ba 7d c0 58 f4 fe 3b 70 7b 12 3c 7e 2d db ba
       -3.9644897 0.007780593 0.008940563 -0.0016721932
000350 b0 d4 ce bc 1b 05 d9 3a e1 ae ea 3b de 9b f5 bb
       -0.025247902 0.0016557308 0.0071619605 -0.0074953875
000360 44 5d 3c 3a 0e ce 04 c1 c8 39 36 bb ff 86 9c bc
       0.00071855285 -8.300306 -0.0027805436 -0.01910734
000370 5c fe 5d 3b c1 7c bf bb 05 a1 29 bb 44 33 25 40
       0.0033873534 -0.0058437292 -0.0025883329 2.581254
000380 64 41 07 36 dc e5 fd bb f5 ac bc 39 79 d0 be 3b
       2.015463e-06 -0.0077483486 0.00035987017 0.0058231917
000390 d1 ab 2f 3c 6f 30 ac bc 9d b2 ba b9 7a 43 f4 bf
       0.010722117 -0.021019189 -0.00035609762 -1.9083092
0003a0 54 17 c9 3c 4d c1 7a 39 bf d3 a4 b9 28 75 df 3a
       0.024547257 0.00023913868 -0.0003143828 0.0017048465
0003b0 27 69 85 3c 84 1a d1 3c 0a 71 ee 3f ab a3 ea 3f
       0.016285492 0.025525339 1.8628247 1.8331198
0003c0 f5 6c 4c 3c fe 8d 9f 3f 26 2e b2 bc 64 4d 47 c0
       0.012477149 1.2465208 -0.02175052 -3.1140985
0003d0 52 33 8b 3c d4 fa de 3a 28 74 8f 3f 57 cc ce 3c
       0.016992245 0.0017012008 1.1207323 0.025243921
0003e0 25 71 a6 bc 49 0c c3 bc 3d a8 9c 3a cd 05 09 bc
       -0.020317623 -0.023809569 0.0011951994 -0.008363199
0003f0 97 da 8a 3a de 61 20 3d 27 71 71 3d f3 7e 97 bb
       0.0010593709 0.039155833 0.0589458 -0.004623288
