OurCode/ReacherPyBulletEnv-v0/actor_ddpg.pt (torch_old, 500637 bytes, 6 tensors)

fc1.weight f4 [400, 9]
00000000: 918f 013f 80ce 103f dd3a 71be db7d 10bf
00000010: b641 c2be 286f aebe fa2d 123f 5ef8 c6be
00000020: d602 63bd 6a0e 263b 7d2c 84bd c442 36be
00000030: 562b 1f3f ace0 a3be fde8 10bc 9c5d 2d3e
00000040: 8077 8fbe c66d 493e 5a9f f13e cc10 443f
00000050: d18c 4fbf a7db 16bf 9ab6 83bd 9983 a03d
00000060: 68e2 b5bd f635 573e 9e48 b8bd 09f6 223e
00000070: acd9 86bd 7b5f f4bd 1082 313e 57e5 e9bc
00000080: a82b c73e 23dd b0bd c01a debe 801f 66be
00000090: 199d cb3e ead3 45be a5bc 2abe e828 08bd
000000a0: 3bd9 853e 3f7f bdbe 4346 4d3d 3f4b 263e
000000b0: 1346 cebe 5ea4 93be c986 f0be d06e f63e
000000c0: 7bb9 f63e 4616 b33e 9918 a9be 5755 2f3c
000000d0: d50d c5bd 21ad e5bd 5e4d 67be 080b 383d
000000e0: 272c 6e3e bbe3 f2be 05ba 9c3e b5ba e3bc
000000f0: b10f 6cbe dd7d 1dbd 45f3 863e 4c4b 063f
00000100: 78aa 583e 49a4 1ebe 0cad a7be 640d c7bd
00000110: 5b2b 9bbe 5175 4bbe 223d 0e3f f318 36bd
00000120: 7f97 043f c0d8 293e 48cc 75be 280c e9be
00000130: e3b2 25be 4357 9ebe d915 b73d 8844 c33e
00000140: bbc3 1c3e b740 bebe 8db9 0abf 37d1 153f
00000150: 2bc6 153f fefb b5bd 0ed6 3cbe 5089 9a3e
00000160: 4539 67be abca a43e 32a3 e23e 2e87 023d
00000170: ad0c c33d 98c7 c1be 29cc 98be b60a a53e
00000180: 3969 173e 5518 8d3d f1ce d2bd 9797 cb3d
00000190: ecbf a7be c3cc 3fbf 7253 243e a4f1 84be
000001a0: 586e 383e 65c9 253e 6656 ce3e 7afd c33c
000001b0: a439 693e d713 9d3e fec6 08bf 5dd9 07bf
000001c0: 54cf 653e 7efa 8c3e 3a38 bd3e d538 273e
000001d0: da89 4bbe 0b5b 1b3f 2e9f b53c e338 98be
000001e0: c8ee c9bd 2cba 27be 7004 b93d 71cb d4be
000001f0: a779 45bd 11b7 423d 479d 28bf 4bdf 20bf
00000200: 78da de3e 72fa 763e 3660 823e 51fb cfbe
00000210: 06b9 86bd 38ca 0f3e 7e2a a13c b12d b8be
00000220: aaf0 8bbe 7aff 273f 68fb 913d 6010 25be
00000230: 3d24 f83e bba9 42be b7aa e7bd 9293 f53d
00000240: 9c1d 093e ee51 12bd b2eb 56be b78c b73e
00000250: b74c 623e 1bbd 4fbc 9b51 ec3e c631 583e
00000260: 9a32 453e c5fb 083f 9fbc afbc df84 90be
00000270: 15e8 cebe d0ae 18be fdfb 1f3e 6dc9 7bbe
00000280: ac13 ea3e 9b67 67bd c1dc 243e a30f 8abe
00000290: fb7b 95be 505d 06bc 9a51 87be 427a d6bc
000002a0: 7b7b aabe f4c1 a33e ede8 84be 7707 2c3f
000002b0: 8627 4abf 24b3 bbbe 9bf6 5a3f 6dc6 43bd
000002c0: 9553 903e 9bcf 05bc cb18 4cbe c9e2 5e3e
000002d0: 541f acbe 97e2 153f 2dcd ae3e 5fa3 2cbe
000002e0: fbba 123f ba2e c63e ab1b 40be 02fd b3be
000002f0: 7f85 4fbe 964f aabe d695 e03e 754b d43e
00000300: d0fe 56bf eeca aa3e 4505 173d 1d23 acbe
00000310: fb54 7b3e 4804 83be 6e5b 21bf cf7e b1be
00000320: c340 3d3f b97c 26bb 9421 28be c6b0 eebe
00000330: 8dff a9be 15aa c9bd 342c 27be b86a 5abe
00000340: 8451 0fbf 44b6 c9be 0eef d43e 500b 92be
00000350: 7f64 0e3f a75b febd 7a1d c0bb 25c9 333e
00000360: 073b 463f 91e2 51be 07ad 50bf af0e 57bc
00000370: 6b5e 56be a65d a33d 4ede 8bbd 2f77 c93e
00000380: cdea 0ebd 2612 c0bb cf2e dd3e f690 dabe
00000390: a84a 89be b893 c1be bd3b 9dbe 8551 93be
000003a0: ae32 873d 74eb 4f3d 1d85 e5be 6eaa 02be
000003b0: b99f d63e d184 e1be 2431 c2bd d728 09be
000003c0: 41af 073f 4ca2 c13e 8a33 6a3d 27be 413e
000003d0: a8ec a83e 0845 52bc 55d7 e0be 159a c13e
000003e0: d7be c13d 2f00 91be 902f 8d3d 3ac6 823d
000003f0: ad78 c23e 3313 e13e 104e 0bbf 1349 1bbf
0.5060969 0.56565094 -0.23557611 -0.5644204 -0.37940758 -0.3406918 0.57101405 -0.38861364
-0.055422626 0.0025338181 -0.06453798 -0.17798907 0.621755 -0.3200735 -0.008844611 0.1693024
-0.2802086 0.19670781 0.47191888 0.7658813 -0.81074244 -0.5892891 -0.06431313 0.078376
-0.08881074 0.21016678 -0.08998226 0.15914167 -0.06584486 -0.11932274 0.17334771 -0.02855174
0.38900495 -0.086359285 -0.43379784 -0.22472954 0.39768293 -0.1931912 -0.16673525 -0.033242136
0.26142296 -0.37011144 0.050115835 0.16239642 -0.40287837 -0.2883634 -0.46977833 0.48131418
0.48188385 0.3497793 -0.3302658 0.010701499 -0.09621779 -0.11214662 -0.22588107 0.044932395
0.2325903 -0.4743937 0.30610672 -0.02779899 -0.23052861 -0.03845011 0.26357475 0.52458644
0.21158779 -0.15492357 -0.32749212 -0.09719351 -0.30306515 -0.19868971 0.5556203 -0.044457387
0.51793665 0.1658659 -0.24003708 -0.45517087 -0.16181521 -0.3092595 0.08939714 0.38138223
0.1530904 -0.37158749 -0.5418938 0.5852236 0.58505505 -0.08885954 -0.1844103 0.30182886
-0.2258044 0.32185873 0.44265133 0.0318672 0.09523902 -0.3784759 -0.29843262 0.32234734
0.14786233 0.068894066 -0.10293377 0.09941023 -0.32763612 -0.74921817 0.16047457 -0.25965607
0.18010843 0.16190107 0.40300292 0.023924578 0.22775894 0.306792 -0.5342864 -0.53066045
0.2244237 0.2753486 0.3695696 0.16330273 -0.19876805 0.60685796 0.02217063 -0.297309
-0.09859997 -0.16379613 0.090340495 -0.41561463 -0.04821172 0.047537867 -0.65864986 -0.6284072
0.43526053 0.24118975 0.25464028 -0.40621427 -0.06578259 0.14041984 0.019673582 -0.3597236
-0.2733205 0.656242 0.0712803 -0.16119528 0.48465148 -0.1901006 -0.11311858 0.119910374
0.13390201 -0.035722665 -0.20988348 0.35849544 0.22099577 -0.012679364 0.4615601 0.21112737
0.19257584 0.5350917 -0.021452246 -0.28226373 -0.4041144 -0.14910436 0.1562347 -0.24588557
0.45718133 -0.05649529 0.16099836 -0.26965055 -0.29196152 -0.008200958 -0.26429445 -0.026181344
-0.33297333 0.31983912 -0.25958958 0.6719889 -0.7896656 -0.3666011 0.8553254 -0.047796655
0.28188768 -0.008167173 -0.19931333 0.21766199 -0.3361765 0.58548874 0.34140912 -0.16859196
0.5731656 0.38707525 -0.18760554 -0.35153967 -0.20265768 -0.33263844 0.43864316 0.4146382
-0.83982563 0.33357948 0.03687026 -0.3362054 0.24544136 -0.25589204 -0.63030136 -0.3466706
0.73926944 -0.002540393 -0.16419059 -0.46619242 -0.33202782 -0.09846894 -0.16325456 -0.21329772
-0.5598376 -0.3939687 0.41588634 -0.28524256 0.55622095 -0.12419825 -0.005862889 0.175572
0.7743382 -0.20496584 -0.8151402 -0.013126059 -0.20934455 0.079768464 -0.06829511 0.39348742
-0.034891892 -0.0058615385 0.43199775 -0.4268872 -0.2681477 -0.37808013 -0.3070964 -0.28773132
0.06601463 0.050761655 -0.4482812 -0.12760326 0.41918734 -0.44046643 -0.09482029 -0.13394485
0.5300179 0.37819135 0.057178058 0.18920194 0.32993054 -0.012833841 -0.43914285 0.37812868
0.09460228 -0.28320453 0.068938375 0.06385465 0.37982693 0.4395996 -0.5441599 -0.6065838

fc1.bias f4 [400]
00000000: 6f46 25be 9200 3bbd b7c7 0d3e 49e4 8d3e
00000010: 3f14 923e 5504 1e3e f858 a83e d613 d93d
00000020: 7385 98be b983 09bd a23a 9abd f207 31be
00000030: 065f c13d e67d 45be c6bf ffbd 70e4 563d
00000040: d7da 4c3d ff09 c13e dd12 913e fc5a f73e
00000050: de73 ca3b f273 473e 25d2 153e d248 01be
00000060: 9e0f 9e3d 7f42 b6bb 39e6 fd3d 0047 01be
00000070: e69e 8abe ca80 063e c06b a33d bc9e f4bd
00000080: 6b59 a43e 4924 02be 484f f33d 8fa9 8cbe
00000090: 0de4 ebbd f084 d4bc 89c5 e7bd c392 40be
000000a0: 147c 0d3d e113 983d 9cca 723d ff81 413e
000000b0: 8d97 a13d f760 26be a826 133e 0493 5dbe
000000c0: 609e 653d 859c 453e e230 643d 5591 32be
000000d0: fe16 b43e d58e cc3d 2406 e13b 4935 e03d
000000e0: cd09 ce3e 1b34 023d 0536 a53e 3982 4d3e
000000f0: 65d6 1a3d 5038 0e3e f45c 3ebd 10b7 b03e
00000100: d585 6a3c 3b48 713e 6c77 b1bc a4da 863e
00000110: 6a14 93bd ef00 773c 8623 733e d379 51bb
00000120: 7290 aabc 3a5b 303e e7e7 0cbe aea1 5ebd
00000130: 4936 643e a80d 053e dc1b 8a3e 718c 933d
00000140: 620b c03c e49d 7abd 918e 3e3e 4202 7bbe
00000150: cef3 a03e 353e 653c bf9b 963e 15f3 133e
00000160: ac18 e4bd b764 623d 10b7 8bbd 55fd 5bbe
00000170: 1ec9 fa3d 907f 15be ac58 4abe e347 893e
00000180: 2353 6a3d 11dc c6bc 23d3 6fbe 0bdc b7be
00000190: 264f 1b3d 0c5d 11be c1b0 de3d 7520 02bd
000001a0: c2d3 303e 4a15 663e c45e 883e f747 993e
000001b0: d99b dfbd dddf 8e3e d2ec 4b3c 4a9f 3a3e
000001c0: 45b6 5b3e c223 d7be b49e c93d ddc2 313e
000001d0: 98f6 06be d0c2 a23e 3aa5 eebd eb32 3e3b
000001e0: 2f72 c43e 8770 823e 13dc 603e b2be c5bd
000001f0: f9a9 f0bd 9daf 8c3d caf8 0a3e bd84 863e
00000200: d9b4 ff3c 3da5 0a3e 6ab1 aa3e a02c db3e
00000210: 42dd 0bbe 8a97 323e 626d e23d e273 333e
00000220: 43b1 903e 7abd 133e 6151 ab3d 66bf 1abe
00000230: c02e 553e 2287 963d 62bb 593e 2dca 023d
00000240: 43b6 813d 31a7 72be aee5 533e 3341 0fbe
00000250: 346b 803e 819f 59be 408f ad3e ec23 6b3e
00000260: 069c 7f3d 379f 743e 81e3 3dbe 4ddf 3cbe
00000270: 5d0b fe3d 81c9 ef3d b322 723e 4b8d 803d
00000280: b8c5 3e3e ec3b 9a3d f7d9 5c3e 32a9 d23d
00000290: 8fb3 8c3e 1a59 093d 5944 8dbd 1e06 b4bd
000002a0: c855 863e 7d62 f5bd cc17 11be 6b69 e138
000002b0: 753c 91bd 6d3b d03c 5b1f d33e e0b1 c4be
000002c0: 1da9 6abd eac1 463d bff3 8b3d 85cd 823d
000002d0: db03 9dbe d82d 6a3d ebf4 3e3e a27b c13e
000002e0: c881 cdbc 9b90 93be c690 463c 83ab 4abe
000002f0: 22f3 9f3e 639b c63e 0e17 5d3e 258b f3bd
00000300: 631a 3d3e a470 7b3e fa98 0a3d cff4 da3d
00000310: 217b b93e 766a 873e 826d e5bd 413d 063f
00000320: f086 8f3e fbd2 4a3e 628d 1dbe 3a8a e5be
00000330: c9c0 74be 1ba1 5c3e 0088 ecbd cbb3 933e
00000340: ecbd 493e 3e95 363e 00c4 cd3c 30fb 6abe
00000350: b7fb 28be 0559 06be 30b6 e33e 7422 ab3c
00000360: 5208 12bd 5163 593d b541 623d 2604 09be
00000370: 6a14 013e 6c0e aa3e 0097 a2be 6025 423e
00000380: c2da e5bd 6f9d 41bd d114 dabe 66fb a43e
00000390: 691f 5abe ed9c 923e d812 ea3d a4ab 5f3e
000003a0: 9fe0 77be 30b4 a43e 3864 92be c8d2 b8be
000003b0: aa4c 953e 0c59 ac3d b0c9 a3bc 35b1 18bd
000003c0: 447f f5be e63f bbbe 3c29 ff3d fe0e 0d3e
000003d0: 9184 4c3e 7175 153e 1fee 87be 782b 163e
000003e0: fdb7 c93d a146 893e 7303 873d 39fc 7d3e
000003f0: fa77 6e3e a747 a03e 279b 8e3e 4106 823d
-0.1614015 -0.04565484 0.13845716 0.2771323 0.28531072 0.1543134 0.32880378 0.105994865
-0.29789314 -0.033572886 -0.075307146 -0.17288187 0.094419524 -0.19286308 -0.1248775 0.05246395
0.05001339 0.3770294 0.28334704 0.48311603 0.006178363 0.19477823 0.14630945 -0.12625435
0.077178225 -0.005562126 0.12397427 -0.1262474 -0.27074355 0.13135067 0.07979536 -0.11944339
0.3209947 -0.12709154 0.11880356 -0.27473113 -0.115181066 -0.025942296 -0.11316974 -0.18805985
0.03454216 0.074256666 0.059275255 0.18897246 0.07890234 -0.16247927 0.14370215 -0.21638113
0.05605924 0.19297989 0.05571068 -0.17438252 0.35173792 0.099881805 0.006867187 0.10947663
0.40241852 0.031787973 0.32267776 0.20069207 0.03780212 0.13888669 -0.046475366 0.34514666
0.014314135 0.2356271 -0.02166339 0.26338685 -0.07181628 0.015075906 0.2374402 -0.0031963482
-0.02082083 0.172223 -0.13760339 -0.05435341 0.22286333 0.1299349 0.2697438 0.072045214
0.023442928 -0.061185732 0.18609072 -0.2451258 0.31436008 0.013991882 0.294157 0.14448197
-0.11137518 0.05527183 -0.06822026 -0.21483357 0.12245391 -0.14599442 -0.19760388 0.26812658
0.05720819 -0.024274858 -0.23420386 -0.35910067 0.03791728 -0.14195651 0.10873557 -0.031769235
0.17268279 0.22469059 0.266348 0.29937717 -0.109183975 0.2790517 0.012446599 0.18224826
0.21456249 -0.4201947 0.09844723 0.1735949 -0.13180006 0.31789255 -0.11652608 0.0029022049
0.38368365 0.25476477 0.21958952 -0.09655513 -0.1175117 0.06869433 0.13571468 0.26273146
0.031214165 0.13539596 0.3333848 0.42807484 -0.13658622 0.1744062 0.11056019 0.17524675
0.2826024 0.14427748 0.08365131 -0.15112075 0.20818615 0.07349993 0.21262887 0.03193109
0.06333592 -0.23696591 0.20693085 -0.13989715 0.2508179 -0.21252252 0.33898354 0.22962922
0.062404655 0.2388886 -0.18543817 -0.18444557 0.12404511 0.11708356 0.23646049 0.062769495
0.18630111 0.075309604 0.21567522 0.10286178 0.27480742 0.03353224 -0.06897802 -0.08790229
0.2623732 -0.11981676 -0.14169234 0.00010748472 -0.070916094 0.025418961 0.4123486 -0.38416958
-0.057290185 0.048524775 0.068336 0.06386856 -0.30667004 0.057172626 0.18648116 0.37789637
-0.025086299 -0.28821263 0.012119478 -0.19791989 0.31240183 0.38790426 0.21590826 -0.11891774
0.18467097 0.24554688 0.033837296 0.10691225 0.36226752 0.2644841 -0.112025276 0.52437216
0.28032637 0.19807045 -0.15385965 -0.4483202 -0.23901667 0.21545832 -0.115493774 0.2884811
0.19701356 0.17830369 0.025117874 -0.22947383 -0.16502272 -0.13119896 0.44474936 0.020890452
-0.035652466 0.05307323 0.055238444 -0.13380489 0.12605444 0.33214128 -0.3175583 0.1895957
-0.11223365 -0.04726928 -0.42594007 0.32223052 -0.21301045 0.2863535 0.114293754 0.2184282
-0.2420678 0.32168722 -0.28592086 -0.36098313 0.29160053 0.08415422 -0.019993633 -0.037278373
-0.47948658 -0.36572188 0.12459037 0.1377525 0.19972445 0.14595582 -0.2654886 0.1466502
0.09849546 0.26811698 0.06592455 0.24803247 0.23287955 0.31304666 0.27852747 0.06348849

fc2.weight f4 [300, 400]
00000000: d196 51bd 3302 1e3e 29ca 043c dd35 20bd
00000010: 2c8e 99bc 6074 29be b50f ef3d 8292 403e
00000020: 9e11 3dbe 173e c1be 01ca dbbc 476e 26be
00000030: 4ba6 d93d 27f5 373d 868f 79be 2cd1 673d
00000040: 5d37 beba 41a5 bb3c e18b 1f3d 5d3c 1abe
00000050: 102d 1c3c 972a 143e d522 133d c83d 23be
00000060: caa9 213e 378d ad3d 6544 8c3e 528c b03d
00000070: 4bad a03c 645f 44be f4d5 4cbe e72b 2d3e
00000080: 5f36 123a 88f6 0f3e 0ce5 febd 1b4d 38bd
00000090: 6532 2abd 9278 d9ba 2013 c8bd ec81 0dbe
000000a0: e44f 063e d30d f83d 914c 79bd 3c26 ec3d
000000b0: f40f a03d 6205 a83d c36d 51be 832a 033d
000000c0: 29b9 dfbc fdf0 853d 0028 063e d1dd aebd
000000d0: 0f1b 4f3d e54e 1bbe 9406 183e e592 06bd
000000e0: 2dfa 1fbd 7e3b 3d3d 5e41 f3bd b793 5b3d
000000f0: 097c 313e 62b4 953d 61b0 f83b 83f7 85bd
00000100: 60fb ab3d 1afa a23d b489 ab3d 2f9c 97ba
00000110: e5ab 9c3b c1c8 c53c 91bf d43d 927d aebd
00000120: 1169 0abe 1ef8 bc3d 4f15 2fbe 0119 003d
00000130: 6a0e 943d 748d 533d 843e 08bc 7600 db3d
00000140: 797e b83d e146 b8be a996 173e b4d0 a2be
00000150: 8473 c6bd 6a8c 223e 137e 693d 9ca0 fd3d
00000160: 851f 053d a77c 033d 9b24 163d 08fb 393e
00000170: bd40 66bd 42b9 cc3d da83 ddbd 3e69 7ebe
00000180: 1f8f 3ebb c8a2 d23d b453 3e3d c155 d8bb
00000190: 72f1 4dbd b6cd aebb c75c ea3d ba09 44ba
000001a0: 7d2d 08be e07a ab3d 4d89 eb3d 1633 b73d
000001b0: 55b7 37bd 2c39 d03d 3b9e 6dbd 24e5 d1be
000001c0: ec21 fb3b cef3 8c3d d10e 6cbd 3df3 153e
000001d0: 0092 643d eab4 55be 86ff 203e 3a6e 0bbe
000001e0: 7ad8 b63d 61d4 f83c c7f4 d83d e7e6 123d
000001f0: f3b6 39be 403b 3cbd a09f aabe f7fa 2bbe
00000200: 42a8 653d 074e e13c 2c5d cebd 59c2 973d
00000210: 226e a73d 3f40 9dbe 4270 80bd 6db0 1bbe
00000220: c3d2 41be 06d2 7fbd 2b18 03be aecc 9abe
00000230: 9b56 983c 1988 bebd 7c88 583d 4d07 97bc
00000240: 6c42 b9bd 6241 e93c 2a05 ba3d 80a4 5e3d
00000250: 4c6c 12bf 3c3f c8bd 537c 343e 2e6e 82bc
00000260: c024 d03d 28a0 fabd 32e9 b73c 9929 a13c
00000270: 172a a3be ce59 abbc ccce b5bd 2e7c 41be
00000280: 8c10 25be 8048 0f3d e0c9 823d 8a66 93be
00000290: 6b99 83be 923e 4ebd 87ea 51be 24d0 b7be
000002a0: 91a7 c53b 55b6 a939 ca02 283e aae1 1fbe
000002b0: 5b69 fdbd b975 aa3c f244 d2be e61a 45bd
000002c0: 9b71 b0be 3ed9 a3be 60af bc3d 2fc0 653c
000002d0: 3c79 d8bd 3105 85bd 513c 54ba d656 f13b
000002e0: 286c 7cbe 9a75 1c3c f91c fbbd 99f2 9f3d
000002f0: 14a5 133e 61d9 55bd 5e84 30bd a0c7 1bbe
00000300: 61c8 a63d 61df 3bbd f45f df3d a46a ad3d
00000310: c525 293c 3465 17bd 13f3 af3d 544f f23c
00000320: 68c1 2b3e 3350 ee3d 955b edbc 202f 2f3e
00000330: 20f0 a53d 5137 263d 3957 153d e2f8 3f3d
00000340: 4e58 fbbc 5041 423d 7da7 2dbd 15c1 f9bd
00000350: 2e25 4d3e 59e8 08be b5a2 513d ab8e cabd
00000360: 6ff7 a53d 635c 593e 67b6 db3b 3101 b3bc
00000370: 81bc 8bbd 49ce 1fbd ec08 e33b 041a 3c3d
00000380: 6e7c 2f3e 2180 31be 7a95 1e3e 754f aa3d
00000390: 3a01 bb3c eb11 a23d 1fae ce3d e730 cbbd
000003a0: 0baf 7a3d 2fc8 093e 1b33 f1bc 34e8 2bbe
000003b0: 8b61 0abe 1b92 e0bd fd71 1c3c 7b1f 953c
000003c0: f103 40be ec5c 72bc a6e0 64bd 9171 06be
000003d0: ffee ee3d 19e3 3cbd 0dfe bdbd 5e4d 2b3e
000003e0: bd17 67bc 231b 3cbd 709d c7bd 7246 d7bd
000003f0: c147 a93d 71fe 4cbc 8306 c5bc f008 47bc
-0.05116922 0.15430526 0.008104839 -0.039113868 -0.01874455 -0.165483 0.11672918 0.18805888
-0.18463752 -0.37742683 -0.026829721 -0.16253005 0.10627421 0.04491153 -0.24371156 0.056595966
-0.0014512349 0.022905948 0.03895176 -0.1506209 0.009532228 0.14469372 0.03592189 -0.15941536
0.15787426 0.084742 0.2739593 0.08620514 0.019613883 -0.19177014 -0.20003492 0.16911279
0.000557756 0.14058888 -0.12446031 -0.04499541 -0.041551966 -0.0016591719 -0.09769273 -0.13819093
0.13116413 0.12112012 -0.060864035 0.1153073 0.07815543 0.08204152 -0.20452027 0.032022964
-0.02730997 0.065401055 0.13101196 -0.08538402 0.050562914 -0.15166815 0.1484626 -0.032854933
-0.039056946 0.046199314 -0.11877702 0.05360767 0.17332472 0.07309796 0.0075893854 -0.0654135
0.08397555 0.07957859 0.08375874 -0.0011566932 0.0047812336 0.024143578 0.10388101 -0.085200444
-0.13516642 0.09227012 -0.17097972 0.031273846 0.07229312 0.051648572 -0.008315686 0.10693447
0.09008498 -0.35991576 0.14803566 -0.31799853 -0.096900016 0.15873876 0.057005 0.123841494
0.032500762 0.0321013 0.036656003 0.18162167 -0.056214083 0.099962726 -0.10816164 -0.24844834
-0.0029077006 0.10284954 0.046466544 -0.0066020195 -0.05027909 -0.0053345812 0.11443477 -0.0007478256
-0.13298602 0.08373046 0.115007974 0.08945291 -0.044852573 0.10167155 -0.05801223 -0.40995133
0.007663956 0.068824396 -0.057631318 0.1464357 0.0558033 -0.20869794 0.15722474 -0.13616267
0.089280084 0.030374708 0.105935626 0.035864737 -0.18136196 -0.045954943 -0.3332491 -0.16794954
0.056068666 0.027503027 -0.10076365 0.07410116 0.08175303 -0.30713078 -0.062714115 -0.1520402
-0.18928055 -0.062456153 -0.12802188 -0.30234283 0.018595984 -0.09303302 0.052864537 -0.018436098
-0.09045872 0.02847356 0.09083016 0.0543561 -0.571965 -0.09777686 0.17625551 -0.015921678
0.101632595 -0.12237579 0.022450063 0.019673156 -0.3186805 -0.020916846 -0.08877334 -0.18895027
-0.16119593 0.03498125 0.06386161 -0.2878917 -0.25702986 -0.05035264 -0.20499621 -0.35900986
0.0060319384 0.0003237004 0.16407314 -0.15613428 -0.123736106 0.020808088 -0.41068226 -0.048121355
-0.34461674 -0.3200168 0.092131376 0.014022871 -0.105699986 -0.06495131 -0.0008096146 0.007365088
-0.24650633 0.009549523 -0.122613855 0.07809944 0.14418441 -0.05220926 -0.043094985 -0.1521287
0.08143688 -0.045867328 0.109069735 0.08467606 0.010323946 -0.03696175 0.085912846 0.029578842
0.16772997 0.116363905 -0.028974334 0.1710782 0.08102441 0.040580098 0.036460135 0.046868213
-0.030681755 0.047425568 -0.042396057 -0.121950306 0.20033714 -0.13369884 0.05118056 -0.09890493
0.08103835 0.21226649 0.0067050937 -0.021851154 -0.06823064 -0.03901509 0.006928554 0.045923248
0.1713731 -0.17334034 0.15486708 0.083159365 0.022827733 0.07913574 0.10091805 -0.09921437
0.06120209 0.1345527 -0.029443314 -0.16787797 -0.13513772 -0.109653674 0.009548661 0.018203488
-0.18751504 -0.014792662 -0.055878304 -0.1312926 0.11666679 -0.046115015 -0.09276972 0.16728732
-0.014104781 -0.045924317 -0.09746826 -0.10511483 0.08265639 -0.012511835 -0.024050957 -0.012148127

fc2.bias f4 [300]
00000000: e41b aa3d 0901 6bbc e3e4 763c adff 63bc
00000010: 896c 763d 3a05 2bbd 4d42 96bc 748e 883c
00000020: 15f5 8ebd a963 883d 2f1e 2cbd fc31 583d
00000030: 7714 4ebd 4b24 053d b941 3bbd b42e 503b
00000040: bd7d f73c 47ef 863b 0322 1d3d 6324 38bd
00000050: ca34 b33d 0562 3c3d f4a8 973c 8006 183c
00000060: 10c2 3a3d 49d1 303d deed 653d 0b0c f2bb
00000070: 4d2e f1bd 3ac9 163d 5bb6 cf3c a333 dc3c
00000080: 806d ad3c 4357 48bd ddac 013e b7e3 893c
00000090: 4847 11bd 1ff0 9bbb 6f47 4d3c 40f0 123d
000000a0: 083b 7cbc d149 6e3b 1c91 d13c c9f9 1b3b
000000b0: 7ac0 c73d ac9f c43b af58 bcbb 72e0 fd3c
000000c0: b6f7 833d 488e fcbc 17db 9a3c 470c 593c
000000d0: ca7c a83c 069c 463d eebb 553d c70f 41bb
000000e0: 3261 0a3e 61f6 d5bc 4d1f b03c fa03 053d
000000f0: a690 fb3c a957 273d dca8 0a3d 22b4 33bd
00000100: be26 3cbb 3ce4 2a3c 4a5f f73c e245 fc3b
00000110: e4cd e33c 776e e83d 56e9 7cbd cb61 5e3d
00000120: a56c a3bc dbea 223c 977e 723d d877 1bbd
00000130: 5201 683d ab98 4dbc 2b3d 9bbc dccf e8bc
00000140: d14f 6abd b5b6 a43d 6365 ba3b 59a1 823d
00000150: e0e0 15bd 860d 763d b476 2d3d cd95 2c3d
00000160: 91fd 583d 56b3 843d 9cf5 2fbd 2154 36bd
00000170: b70d 17bc 989e 423d 0f42 2b3d 83ea 24bc
00000180: d602 7b3d e2e9 9bbc 1e1e b03c cc33 24bd
00000190: 12a6 f4bb 80d6 f938 0212 853d 92e5 7abd
000001a0: 706e 22bc af4a 443d 5bc9 66ba 549e c5bc
000001b0: 276c 8b3d 3c8f 573c 445a 32bd 3102 d7ba
000001c0: de79 8dbc e4aa 993d ee07 933d 7f3d 133d
000001d0: cbfc 5b3d d68e 403d d880 213d 23c9 79bd
000001e0: 9004 b93d d39c 293d 130f aa3d 28ce 153c
000001f0: a6d9 18bd 4fdb 943b 6a78 643c 7dc7 d83b
00000200: dcd5 f63d aeeb d63c 642b 543d 04f3 423c
00000210: d15c 98bc c696 2a3d cd24 453c bdee 01bd
00000220: 9053 de3c 7a77 ac3c 4f8a c03c 1022 ba3c
00000230: f748 393c c422 2e3d 53d3 153c a727 4b3d
00000240: eb3c de3c 9036 ddbc 1c1f e93c 8395 e9bb
00000250: 4424 d43b fd33 30bd b5a2 e23c 1a5a 4c3c
00000260: caa0 d33c 28a2 423d 08e0 773d 575a d93d
00000270: d51c 3c3b 1cd9 ecbc a175 bcba af0b b73d
00000280: 6a95 2e3d be08 47bd e26a 083d d33a 9a3d
00000290: 3bf7 c63d deaa 973d a69b fabb 0a25 6fbb
000002a0: 25ee a7bc 040a 293e d754 56bd cdaa ff3d
000002b0: 9eb3 113d b514 803d 277b 103d 9da7 893c
000002c0: b056 bbbc 177c 5a3c bcbf 4e3c 1b5a 743b
000002d0: 85e6 cc39 591a 643d dc0c 48bd 9201 153c
000002e0: edb7 0d3d 0108 adbb 4545 733d eb20 923d
000002f0: 5a95 883d 7e59 a43d bd5c c4bc 9e5d 8e3c
00000300: 88f5 a73c 93d7 7c3d 7a81 4bbc dd4b 84bd
00000310: cdf7 52bd 1009 88bd 0d7b 133d c5fd e83c
00000320: cb4f 36b9 3fc4 13bd b8f8 d7bc 9b6f aabb
00000330: c032 013b 8400 cc3c 9e59 84bb 08ab 303d
00000340: 358c 063d a4e2 c83c 3ee7 7c3c c539 523a
00000350: ca6a 5d3c 0784 80bc 8c5c 8b3c de2e 493d
00000360: ca16 593d ed51 143d ca74 143e 4362 2a3d
00000370: f6e0 3e3d e01b 34bd b12c 6eba a03e 40bd
00000380: 79bd 413d 01aa 863c 4f07 7bbb 7436 843b
00000390: 64ef cf3a f702 c23c 14d7 e53c 4c8c a6bc
000003a0: 7fc3 453d c589 aa3d ee04 e43b d154 2b3e
000003b0: d135 8cbd 3ab2 c33b 7681 2abd 9a35 323d
000003c0: 0bd5 10bc f389 143d 97af f0bb aa63 54bd
000003d0: f00f 7d3d d055 79bd f4fc 42bc b18e 623d
000003e0: 0564 633d 3e50 013c f443 d6bc ff30 1e3d
000003f0: b7d0 833d d330 063d 72ea 89bb cb6c c53c
0.08306101 -0.0143435085 0.015069219 -0.013915938 0.0601621 -0.04175303 -0.018342162 0.01666949
-0.069803394 0.06659634 -0.042020973 0.052782044 -0.050312486 0.032505315 -0.045716975 0.0031766118
0.030211324 0.0041178796 0.038362514 -0.044956576 0.08750303 0.045991916 0.01851318 0.0092788935
0.04559523 0.04316834 0.05613505 -0.0073866895 -0.11776409 0.036813 0.025355509 0.026880091
0.021170378 -0.048911344 0.12663598 0.016832216 -0.03546837 -0.0047588493 0.012529238 0.03587365
-0.0153949335 0.0036359916 0.025581889 0.0023800007 0.09753509 0.0060004797 -0.0057478766 0.030990813
0.064437315 -0.030829564 0.018903298 0.013247556 0.020567317 0.04848864 0.052181177 -0.0029458867
0.1351364 -0.02611846 0.0214993 0.032474495 0.030708622 0.040855084 0.033852443 -0.04387296
-0.0028709616 0.010430392 0.030196805 0.0076987604 0.027808137 0.113491945 -0.061745964 0.05429248
-0.019949267 0.009943689 0.059202757 -0.03795609 0.056641884 -0.012548606 -0.018950066 -0.028419428
-0.057205025 0.08042661 0.005688356 0.06378431 -0.03659141 0.06007149 0.042349532 0.04213505
0.052976195 0.06479518 -0.04295884 -0.044513825 -0.0092195785 0.047514528 0.041811045 -0.010065678
0.061282 -0.019032422 0.021498736 -0.04008846 -0.007466086 0.00011913199 0.06497575 -0.06125409
-0.009914026 0.047922786 -0.0008803808 -0.024123348 0.06807738 0.013156708 -0.043543115 -0.0016403851
-0.017270025 0.07503298 0.07179247 0.03594732 0.05370788 0.04701122 0.039429516 -0.060982835
0.09034073 0.041409325 0.083036564 0.00914339 -0.03731694 0.004542745 0.013944725 0.0066155777
0.12052509 0.026235428 0.051799193 0.01189876 -0.018598946 0.041647695 0.0120327 -0.03172182
0.027139455 0.021053065 0.02350345 0.02272132 0.0113089 0.042513624 0.009144622 0.049598362
0.027128657 -0.027003556 0.028457217 -0.007128419 0.0064740498 -0.04301833 0.027665475 0.012472654
0.025833506 0.047517926 0.060516387 0.10612934 0.0028703709 -0.02891212 -0.0014378318 0.08937775
0.04262296 -0.04859232 0.033305056 0.07530751 0.09715124 0.07405637 -0.0076479493 -0.0036490583
-0.020499298 0.16507727 -0.052327003 0.124837495 0.035571687 0.062539496 0.035273697 0.016803557
-0.022868484 0.013335249 0.012618955 0.0037285152 0.00039081663 0.05568919 -0.04884039 0.009094613
0.034599233 -0.005280495 0.059392232 0.07135185 0.066691115 0.08024882 -0.023970002 0.017378625
0.02050282 0.061729025 -0.012421006 -0.06459782 -0.051505852 -0.066423535 0.036006022 0.02844132
-0.00017386598 -0.036075827 -0.026363716 -0.0052012927 0.0019714087 0.02490259 -0.0040390035 0.043131858
0.032848556 0.024522133 0.015435992 0.00080194726 0.01351423 -0.015687956 0.017011903 0.04911696
0.05300025 0.036210943 0.14497676 0.041597616 0.04660126 -0.043971896 -0.0009085639 -0.046934724
0.047299836 0.016438486 -0.0038303917 0.0040348116 0.0015864191 0.023683054 0.028056659 -0.02033057
0.048282143 0.08327059 0.0069585955 0.16731574 -0.06846202 0.005972174 -0.04162737 0.04350815
-0.008839856 0.03626437 -0.0073451507 -0.05185286 0.061782777 -0.060872853 -0.011901129 0.055311862
0.055515308 0.007892666 -0.02615545 0.038620945 0.064362936 0.032761406 -0.0042088563 0.024099728

fc3.weight f4 [2, 300]
00000000: 2f45 51be cc0e 4fbe 65c1 563e 28dd b7be
00000010: b88f 9dbe fd49 b0be 2e1d 6abe c024 4cbe
00000020: 5dac 97be c854 093e ec80 9a3a dd8c 8d3e
00000030: bf33 b5be 09d5 bf3c 78f9 703e c54c b2be
00000040: b985 d5ba fcd3 0d3e 4487 863d e9e2 0d3b
00000050: b703 b23d b47b 85bc ed08 9bbd 4033 33be
00000060: 6031 35bd 0940 96be 3830 22be d381 773e
00000070: 2703 45bf bf6b dcbe ee0b e8be 2c00 bfbd
00000080: 66a0 ab3d bb00 02bf 2d5f 993d d772 253c
00000090: 0f79 5cbe fe6f f2be bb30 2d3e dcd6 c2bd
000000a0: ec31 a3be ce8c 36be 0198 a03d 7f23 e0be
000000b0: 0467 453d 9922 553e da74 853e c64c 243e
000000c0: d4ca 023e a008 5fbe 705f db3e dadc a83e
000000d0: c8c6 e7be 1eaa cd3d 7b97 c1bd c1ba a83e
000000e0: 2aa7 9b3d 6ba6 423e aca9 1fbe c16e bdbe
000000f0: c692 33bf 08fe d7bb 2f04 8dbe da70 5cba
00000100: 8910 a6be 7e73 a83e f8b8 27be 9709 573e
00000110: 7618 06bf 7769 9c3d b657 19bf 9194 28bf
00000120: a3d0 a8be b4e1 afbe 98f6 aa3d 3e8d 83be
00000130: 9c74 d0bd 8c5d cbbd ff03 95be 4292 37be
00000140: 5bda 873e 3e63 873b 356f 50bd 4457 263d
00000150: 6c81 d4bd 2d69 0bbf 314e d53d 36a1 043e
00000160: f3bd c43c 8d76 45bf f42c dc3e b5b4 b7be
00000170: b023 673d 13a8 32be ff86 61be 0d63 a5be
00000180: 24bc b1be 3a71 063e eec8 96bd 3852 f13c
00000190: dda1 a83e d026 b0be add1 23be d2c3 383e
000001a0: 457e 0abe b41c b5be a00e 81be e88e 993e
000001b0: 86ec 4bbb 7475 a7be 5375 543f 9138 dc39
000001c0: 1083 49be 416e b4be dc10 8dbe e431 e8bd
000001d0: 3c1a 94bd b699 1fbe 2b69 07bc 08f6 1f3e
000001e0: dd1a eb3d 4f1c 95be ad29 573d 4317 61be
000001f0: d9a7 7dbf eaf5 92be f039 103e 8cbf 39be
00000200: b6ff ed3d 736b 35bf a862 2a3d f86b 55be
00000210: fd17 b73a 90f3 01bf 910c 91be 89dc f4be
00000220: cba8 cabe 23c8 10bf b208 47ba 3fdb 113e
00000230: 52e9 6a3d 3d86 1a3e aeb3 bcbe 8ba2 913d
00000240: d610 70be 6559 d43b 852b ea3d fcdc 62be
00000250: 3049 e8be 41e4 4dbe 165e 05be e56f a63e
00000260: 3e37 14be 86e6 c0bd a9d7 7fbe add4 a73d
00000270: e84e fe3d c92f 9e3e 5690 473e 174b 44be
00000280: 267f bebe 913b 5cbe 3af8 a3bd 7aad a83d
00000290: dc71 093e e679 283d fc90 edbe 5433 01bd
000002a0: d60a 4d3e 302a eb3d e6c0 9c3e 8875 c33d
000002b0: af88 7f3e 5dd7 033e bfe4 96be abc0 91bd
000002c0: bd93 d93a 3902 c9be 1c22 473e e79c 35bf
000002d0: 17db a43a e1ba 9cbc dd1e a4be 14bb 903e
000002e0: c5e9 5d3d bb1f 9b3d d82c 25bd 57d1 a33d
000002f0: 3ff1 ab3d 98fd a33d f925 73be 2d45 1fbf
00000300: 62ab 423d 347e ad3d 657c 25bf 175c dbbe
00000310: 7d4d 0a3e b517 55be 41b9 2d3e e5cc 7dbe
00000320: 438b 3bbe c7e5 c5be 010f 0a3d e53b 79be
00000330: b980 bdbe a29d 3a3e 2f05 abbe 682c d5bd
00000340: f882 08bf deed 143e 9c07 9fbe 2f45 97be
00000350: 354d 87be a0d8 ac3e 8c6e 67be 2122 61be
00000360: a135 dd3d e304 fb3e f4c6 a93d 7820 19be
00000370: bb8d 85be 049e febe 452e 70be 9cdf e93e
00000380: 4295 073f 0fc9 a5be 983a 07bf 3714 bc3e
00000390: 6be3 e3bd dccc 09bc dbcb 0bbe 74b2 f6bc
000003a0: 07d5 d7bd c3cc 24be 52b1 88be fbe7 f53d
000003b0: 8c20 00bf eda5 543e b798 11bb 4f83 73bc
000003c0: 3492 72be 025d d3be d9f3 8ebe eb26 523e
000003d0: 7b0d e73d c01d dfbe b36b d5bc b3ab d2bd
000003e0: 2228 dfbe 2fbc fcbe eab7 85be cf01 3ebe
000003f0: 0d1f 373d c4eb bdbc 475e a3be b7d4 50be
-0.20436548 -0.20220488 0.20972212 -0.35910916 -0.3077371 -0.3443145 -0.22862694 -0.19935894
-0.2962369 0.13411248 0.0011787689 0.27646533 -0.35391042 0.023417013 0.23532665 -0.34824196
-0.0016290463 0.13850397 0.065687686 0.0021650142 0.08692115 -0.016294338 -0.07570062 -0.17500019
-0.04423654 -0.2934573 -0.15838706 0.24170618 -0.76957935 -0.43050954 -0.45321602 -0.09326205
0.08380203 -0.50782365 0.074888565 0.010098181 -0.21530555 -0.47351068 0.1691312 -0.095136374
-0.31874025 -0.1782715 0.078414924 -0.4377708 0.048193946 0.20813979 0.26065713 0.16044912
0.12772685 -0.21780634 0.4284625 0.32980996 -0.45268846 0.10042213 -0.09452721 0.32954982
0.076002434 0.19008796 -0.15592068 -0.3699856 -0.70145833 -0.006591562 -0.27542254 -0.000840915
-0.3243449 0.32900614 -0.16379154 0.20999752 -0.52381074 0.07637303 -0.5989946 -0.65851694
-0.32971677 -0.34351885 0.08347815 -0.25693697 -0.101784915 -0.09929952 -0.2910461 -0.17926887
0.2653378 0.0041317036 -0.050887305 0.040610567 -0.10376248 -0.5445736 0.104153045 0.12952122
0.024016356 -0.7713402 0.43003047 -0.35880056 0.05643052 -0.17446928 -0.22024153 -0.32302132
-0.34713852 0.1312913 -0.07362543 0.02945815 0.32935992 -0.34404612 -0.15997954 0.1804345
-0.1352473 -0.3537346 -0.2520647 0.2999184 -0.003111632 -0.32706797 0.8299152 0.00042003815
-0.19678903 -0.35240367 -0.27551925 -0.11337641 -0.07231566 -0.1558598 -0.00826482 0.15621197
0.11479733 -0.2912316 0.05252998 -0.2198153 -0.9908424 -0.28703243 0.14084601 -0.18139476
0.116210386 -0.7086708 0.041597992 -0.20841968 0.0013968941 -0.5076227 -0.283299 -0.47824505
-0.39581904 -0.56555384 -0.0007592543 0.14243792 0.057351418 0.1509027 -0.36855835 0.07111081
-0.23443922 0.006480383 0.11434082 -0.22154611 -0.45368338 -0.20106603 -0.13024172 0.32507244
-0.14474198 -0.09418969 -0.24984612 0.081948616 0.12417394 0.30895832 0.19488654 -0.1916927
-0.37206382 -0.21507098 -0.0800633 0.08236213 0.1342234 0.041131876 -0.46399677 -0.03154309
0.20023665 0.11482656 0.3061592 0.09543902 0.24954484 0.12875123 -0.29471394 -0.071168266
0.0016599816 -0.39259508 0.19446605 -0.7094254 0.0012577501 -0.01913208 -0.32054797 0.2826773
0.054178018 0.075744115 -0.04032597 0.07998913 0.083956234 0.080073535 -0.23744954 -0.6221493
0.047526725 0.08471337 -0.64642936 -0.42843696 0.13506122 -0.20809825 0.169652 -0.24785192
-0.18314843 -0.3865187 0.033705715 -0.24339254 -0.3701227 0.18224195 -0.33402392 -0.104088604
-0.5332484 0.14543864 -0.31060493 -0.2954497 -0.26426092 0.33759022 -0.22600764 -0.21985675
0.108012445 0.49027166 0.082899004 -0.14953792 -0.26084694 -0.4972993 -0.2345515 0.45678413
0.52962124 -0.32379958 -0.5282378 0.36734173 -0.11127361 -0.008410659 -0.13651983 -0.03011439
-0.105386786 -0.16093735 -0.26697785 0.120071374 -0.5004966 0.2076642 -0.002221627 -0.014862849
-0.23688585 -0.41281897 -0.27920416 0.20522659 0.11281868 -0.43577385 -0.026052332 -0.10286655
-0.43585306 -0.49362323 -0.26116878 -0.18555377 0.044707347 -0.02318371 -0.31907865 -0.20393644

fc3.bias f4 [2]
00000000: 4aff b43d 35c4 d9bd
0.08837755 -0.10633127
