OurCode/ReacherPyBulletEnv-v0/actor_ddpg.pt (torch_old, 500637 bytes, 6 tensors)

fc1.weight f4 [400, 9]
00000000: 2e8f e93e ae16 0d3f c928 2cbe ee70 09bf
00000010: 4156 b6be 7764 b8be 5e48 0c3f a865 cbbe
00000020: 08ce 823c 635c 3ebc 4c26 b3bc 9667 18be
00000030: 16f8 123f 536c afbe ea40 033d 025e 153e
00000040: 9e3c 84be ddb3 3b3e bf78 fd3e 6e8e 383f
00000050: 342c 4ebf bccc 0cbf 4b9d 51bd 46db a13d
00000060: ef90 6ebd 8030 5e3e 1b18 88bd d193 153e
00000070: 86f7 6bbd f4c8 04be f36c 173e b642 35bd
00000080: f95d cb3e dbb0 87bd c358 e0be f1e4 5ebe
00000090: 9b8a bd3e f0f7 36be cf3f 0ebe d531 5cbd
000000a0: e3fb 773e f63c bdbe df22 543d 39cf 0f3e
000000b0: 4271 d1be 9242 85be 4921 f6be 70d5 ec3e
000000c0: 29bf ea3e 544e b33e a611 acbe 9a5e 253c
000000d0: 4752 ebbd afa7 17be 61ff 4cbe 8fa4 863d
000000e0: 2927 473e ae92 00bf c747 9f3e 6d47 0abd
000000f0: b6d0 85be cbcd 93bd 85c2 953e b377 063f
00000100: 2468 7f3e e7e3 18be ba09 a3be cec9 c7bd
00000110: 3237 95be ae95 58be 405d 083f 6a7a 53bc
00000120: 28f9 093f f7a6 5e3e 6d2a 5bbe 9275 f6be
00000130: d280 0cbe 5a99 96be b8db e23d 7258 c93e
00000140: 28a8 f13d 6003 c3be c45f 00bf 58e3 0a3f
00000150: 3bd4 0f3f cc94 dabd 5e1a 2ebe 3603 a43e
00000160: a4f5 78be 67b6 883e 38b7 e43e 753c 813d
00000170: 858f b43d 71e3 ccbe 18cb 8fbe d9db a23e
00000180: 878f 213e fa5e a83d 8b6a a9bd 0a5f 603d
00000190: d269 adbe c6cc 2fbf 1f9e 103e 3076 8abe
000001a0: cc48 183e 2484 1c3e 9ba7 b53e 113c 263c
000001b0: bd62 4b3e 3ba0 a43e 169a ffbe 27bd 05bf
000001c0: 6911 5d3e d20c 853e bd89 b13e 0ae6 013e
000001d0: cd95 57be 4263 063f 8908 1b3d fa02 4cbe
000001e0: 63bc 35be 6a0b 29be 9b48 933d 31b3 dabe
000001f0: 7875 49bd 01e7 973d 7ffe 20bf 7460 21bf
00000200: 7e3a ca3e facd 7d3e a873 5e3e 63cf debe
00000210: 90dd b4bd e95c 103e 22f6 203d 6790 bebe
00000220: c440 9bbe cf2e 353f 05e7 c93d 3e8e 0cbe
00000230: fbe1 f93e 619a 26be 9bff b0bd 3601 903d
00000240: 6481 ea3d 5563 b6bc c649 3abe b692 ba3e
00000250: 44b6 5b3e 609b 12bd 4ebe e73e bf8b 593e
00000260: 2f10 373e 15aa fa3e 4509 3dbd e12a 6ebe
00000270: 8bf7 bcbe 6877 1bbe 14e5 253e 9fd9 75be
00000280: 86ef e63e 75cc 94bd cfca bf3d 0f3a 87be
00000290: 00cd 49be fc68 32bd fcef 8fbe d25e abbc
000002a0: 86fb afbe 9e37 983e 5236 89be ad50 2b3f
000002b0: ce19 42bf 40b0 bcbe 28e1 543f c2ac 98bd
000002c0: ff9b 8e3e df38 7d3b c8b7 70be 5347 613e
000002d0: c9dd a7be 8c53 073f a28e a53e 93ba babd
000002e0: 6694 0e3f 5e2d d13e d534 72be b4a9 b0be
000002f0: 8075 f3bd d7b1 a3be 24b0 d03e f1f1 d73e
00000300: c007 49bf 80e5 b53e 354f 123d 3a8b 9bbe
00000310: 27d3 733e a781 95be cb2c 20bf 07e6 babe
00000320: 7654 3e3f 4ddd 213d 4e36 26be 3daa f2be
00000330: fbd6 95be e4ae bdbd 8126 2dbe f287 58be
00000340: 9dcd 04bf e6ae b7be 0f67 c43e 2d85 96be
00000350: 47a6 113f ce5f eabd 0a20 a43c 6a3f 203e
00000360: 6dee 3f3f 0616 42be f9ec 41bf 12d2 6abd
00000370: 35e2 48be 3e9d 7d3d bbd8 bcbd 53fe c53e
00000380: 307e fabc 9471 71bc 927a ce3e 6ac4 d8be
00000390: d4c4 75be 0faf c0be 97fc 98be 6d7e 9abe
000003a0: 9d42 983d acb6 573d ee5d d7be 6897 ecbd
000003b0: b710 d73e d1b6 ddbe a53c c3bd 5948 f1bd
000003c0: 8a69 093f f098 c63e 994f 543d 6427 203e
000003d0: 60c1 a33e f80f 233d 44b6 e0be 3df7 bf3e
000003e0: f790 e83d 67a4 90be e63b 773d 773e 553d
000003f0: 3fb2 bd3e c6e1 cb3e f0cf 01bf b994 11bf
0.4561705 0.5511273 -0.16812433 -0.5368794 -0.35612682 -0.3601415 0.54797924 -0.39725995
0.015967384 -0.011618706 -0.021868847 -0.14883265 0.574098 -0.34262332 0.03204433 0.14586642
-0.25827497 0.18330331 0.49506184 0.7209233 -0.805362 -0.549999 -0.051175397 0.07903151
-0.05824369 0.21698189 -0.06645223 0.14607169 -0.057609104 -0.12967283 0.14787655 -0.044253074
0.39720133 -0.066255294 -0.4381772 -0.21767022 0.3701981 -0.17868018 -0.13891529 -0.05375846
0.24217181 -0.36960572 0.05179107 0.14043893 -0.4090672 -0.26027352 -0.4807227 0.4625659
0.4584897 0.35020697 -0.33607215 0.010093356 -0.114903025 -0.1481006 -0.20019294 0.06574356
0.19448532 -0.50223815 0.3110945 -0.033759523 -0.26135796 -0.07216986 0.2924997 0.52526397
0.2494207 -0.14930688 -0.31843358 -0.09755288 -0.29143673 -0.21150848 0.5326729 -0.012907604
0.5389581 0.2174338 -0.21402903 -0.48136574 -0.13721016 -0.29413873 0.11077064 0.3932529
0.117996514 -0.38088512 -0.50146127 0.5425315 0.56183213 -0.10672912 -0.17002246 0.320337
-0.24312454 0.26701662 0.44671035 0.063103594 0.08816437 -0.40017274 -0.28084636 0.31808355
0.15777408 0.0822124 -0.082722746 0.054778136 -0.33869797 -0.68671834 0.14122818 -0.27043295
0.1487152 0.15284783 0.35479435 0.010146157 0.19861884 0.32153496 -0.49922246 -0.5224175
0.21588673 0.25986344 0.34675398 0.12685409 -0.21053238 0.52495205 0.037849937 -0.1992301
-0.17747645 -0.1650826 0.07191583 -0.42714837 -0.049184293 0.074171074 -0.6288833 -0.630378
0.3949775 0.24785605 0.21723807 -0.43517599 -0.08831322 0.14097942 0.03929723 -0.37219545
-0.3032285 0.7077455 0.098585166 -0.13726136 0.48805222 -0.16269828 -0.08642503 0.07031481
0.114504606 -0.022264162 -0.18192205 0.36440057 0.21456248 -0.03579271 0.45262378 0.21244715
0.17877267 0.48957887 -0.04615142 -0.23258545 -0.3690761 -0.15182269 0.16200668 -0.24008797
0.45104617 -0.072655596 0.093648545 -0.26411483 -0.19707108 -0.043557152 -0.2811278 -0.020919237
-0.34371585 0.29729933 -0.26799256 0.66919976 -0.75820625 -0.36853218 0.8315606 -0.07454826
0.2785339 0.0038638634 -0.23507607 0.21999864 -0.32786396 0.5286186 0.32335383 -0.091176175
0.5569519 0.40854925 -0.23652966 -0.34504473 -0.11887646 -0.3197162 0.40759385 0.42176774
-0.7852745 0.35526657 0.03572007 -0.3037966 0.23811017 -0.2920048 -0.6256835 -0.36503622
0.7434763 0.03951769 -0.16231653 -0.47395507 -0.2926558 -0.09261873 -0.1690922 -0.21145609
-0.5187624 -0.35875624 0.38359877 -0.2939848 0.56894344 -0.114440545 0.020034809 0.1564919
0.74973184 -0.18953714 -0.75752217 -0.057329245 -0.19617541 0.061917536 -0.092210256 0.38670596
-0.030577749 -0.014736552 0.4032789 -0.42337352 -0.24000865 -0.3763356 -0.2988021 -0.3017458
0.074345805 0.052664444 -0.4206385 -0.11552316 0.4200494 -0.4330354 -0.095330514 -0.11781377
0.53676665 0.38788557 0.051833723 0.15640026 0.3198347 0.03981015 -0.43889058 0.37493315
0.11355775 -0.2825043 0.060359858 0.052061524 0.37050053 0.3982069 -0.5070791 -0.5686756

fc1.bias f4 [400]
00000000: ab04 26be 8697 86bd 88ab 133e ff7c 8b3e
00000010: e38d 9a3e f8f6 203e f4f5 a03e f4bb e53d
00000020: 8441 8fbe 9e18 eebc 9835 8dbd 53fe 47be
00000030: aa29 ea3d f586 45be c21a 1abe f1ec 3e3d
00000040: e830 153d ef25 c33e 8a27 923e 7f75 f23e
00000050: f9d1 67bc 9fc1 353e 02f4 fe3d 75a0 01be
00000060: 4b42 c73d 787a 0abd 754a e83d e115 efbd
00000070: 7ce2 63be ff29 c13d 3064 9a3d 539d e6bd
00000080: 1fad 9b3e bc86 e5bd 68cf f63d f2b6 7cbe
00000090: a1ec 0dbe 614f b2bc f156 f1bd 960c 57be
000000a0: 68d6 903d d806 993d 0f5e 1e3d 94a1 433e
000000b0: 038b 003e 0f6a 44be 5236 f73d d023 4cbe
000000c0: 1454 483d 9e83 5f3e d5a8 733d 90a6 23be
000000d0: 8364 9f3e f447 f93d 4a83 acbb 5c2f fa3d
000000e0: 449d c93e 6655 753d dc46 a73e ad77 3c3e
000000f0: e6c3 0b3d 1af4 e13d 46f6 4fbd 1386 ae3e
00000100: 20ec 913c 708a 753e abf2 1abd dec8 883e
00000110: f05a 9abd 48ed 173d 7cd7 6f3e c695 863c
00000120: 80d6 9dbc 1df1 323e 2505 bdbd 9f1d 78bd
00000130: 57f3 583e 07b5 1d3e 7b9e 8c3e bb4c b23d
00000140: a537 633c e7f5 60bd 9ee6 443e 22df 7bbe
00000150: 0b4c 983e 0b5c c03c 5dd5 863e f417 0f3e
00000160: 60ea b0bd 79e4 923d 0f84 92bd b39e 5dbe
00000170: 8a33 173e 57e1 1ebe 437b 5dbe 0f04 983e
00000180: 6fbc 043d f36c 01bd 3793 87be 7f1f aabe
00000190: df73 5c3d 73d4 34be 3ebe 983d 5821 72bd
000001a0: c82f 233e ccef 603e 0d07 803e 5377 933e
000001b0: b7fa e6bd b8c2 8f3e f20a 473d a9f3 463e
000001c0: 0cf4 743e f8ef e2be d5dd cc3d b212 323e
000001d0: 4b84 0bbe 9844 a03e 9949 0bbe a0ff 963c
000001e0: dc1b c23e 5ad3 873e fa05 563e 86de acbd
000001f0: 4666 e6bd 7a50 8c3d 89cf 053e 2314 753e
00000200: 864e 443d 9231 ec3d acbd a83e cebc ce3e
00000210: 1807 1abe 63f1 093e efae d53d 605c 363e
00000220: 99ea 943e 7801 103e 38e5 fc3d 2b53 05be
00000230: 0e50 4d3e 326a 8d3d b960 3e3e bd23 6c3d
00000240: 5474 3b3d 5fea 83be 79b1 553e ce5f 05be
00000250: e89c 833e 86a7 48be 4f04 b23e fc44 6a3e
00000260: bbe3 693d eb53 703e 8923 55be 863d 43be
00000270: e800 d13d 6f92 0b3e 5b58 763e 4f5e 8e3d
00000280: ef70 3a3e 94d8 8b3d cc78 613e 94a2 063e
00000290: 7ff4 933e 899d 5f3d b549 b4bd 5a4c 62bd
000002a0: e2fc 7c3e 5dfa 0ebe 6689 0abe a217 1a3d
000002b0: 68e8 90bd dd50 383d 1cfc c43e 7491 b3be
000002c0: b1fd 73bd bb28 813d 5c26 b73d 3d6f 4d3d
000002d0: 433d 95be db74 853d 46eb 223e d084 c03e
000002e0: 35e9 53bd f2a0 89be 47c4 e93c 8bdc 45be
000002f0: 2de6 993e 3628 c53e 9694 683e dc03 dfbd
00000300: 9ec2 4a3e 8b47 6b3e adae 693c 94fc fa3d
00000310: a573 bf3e 4ef3 863e e266 e8bd 1f26 093f
00000320: 5cd5 9a3e 32fe 5e3e 32b3 3cbe 081d f3be
00000330: a467 7dbe 5576 683e 9d55 c2bd 6e53 923e
00000340: 4ad6 483e dedf 3b3e f7de 263d 48f7 69be
00000350: 0984 2bbe f048 19be 7651 e13e 24b4 473d
00000360: e5f8 8fbd c69d b43c 2df1 6b3d 7e24 01be
00000370: f7da fa3d 2702 a63e dcdf 9abe 4bfb 423e
00000380: e0ed e3bd 4275 25bd 668c dbbe 3024 a63e
00000390: 5d92 54be 875b 963e c797 0c3e cf60 763e
000003a0: 3b06 75be 9849 a33e c5da 80be 463f b2be
000003b0: ba6a 963e 4d21 db3d 6786 aabc c3b6 013c
000003c0: 2bd3 f1be 5ba0 c2be eebb 003e a4c3 123e
000003d0: cfa0 563e 7167 073e 637f 87be f261 323e
000003e0: 3ec2 ab3d b98e 853e f50c b63d c8fd 873e
000003f0: 83a0 5f3e 1053 a53e ebe0 843e 79ce c93d
-0.16212718 -0.065718696 0.14420903 0.27243802 0.30186376 0.15719211 0.31437647 0.1121749
-0.27979672 -0.029064473 -0.06894988 -0.1953061 0.11433728 -0.19289763 -0.1504927 0.046612684
0.036423594 0.3811488 0.2854579 0.47355267 -0.0141491825 0.17749642 0.124488845 -0.12658866
0.09729441 -0.0338082 0.113423266 -0.11674095 -0.22254366 0.09431838 0.075386405 -0.11260476
0.30405518 -0.11207339 0.12051278 -0.24679163 -0.13859798 -0.021766366 -0.11784161 -0.21000895
0.07072145 0.074720085 0.03866392 0.19104606 0.12553029 -0.19181083 0.12070908 -0.19935536
0.04890831 0.21827552 0.059487183 -0.15981507 0.31131372 0.12171927 -0.0052646743 0.12216064
0.39377797 0.059895895 0.3267125 0.18405028 0.03412237 0.11032887 -0.050771974 0.34086666
0.017812788 0.23978591 -0.037829082 0.2671575 -0.07536876 0.037091523 0.23422045 0.01642884
-0.01926732 0.1747479 -0.09229497 -0.060575124 0.21186577 0.15401088 0.2746466 0.087060414
0.013868247 -0.05492201 0.19228598 -0.24596837 0.29745516 0.02348139 0.26334658 0.13973981
-0.086384535 0.07172484 -0.071540944 -0.2164257 0.14765754 -0.15515648 -0.21629052 0.29690596
0.032406267 -0.031598043 -0.26479504 -0.33227155 0.05382144 -0.17659168 0.07458161 -0.05911383
0.15936196 0.21966475 0.2500538 0.28801975 -0.11278289 0.28078246 0.048594423 0.19428886
0.23921221 -0.44323707 0.100032486 0.17389944 -0.13624685 0.31302333 -0.13602294 0.018432438
0.3791188 0.26528436 0.20900717 -0.084408805 -0.11249976 0.06851287 0.1306745 0.23933463
0.04792645 0.11532892 0.32957208 0.40378422 -0.15041769 0.13470988 0.104337566 0.17808676
0.29085234 0.1406306 0.123484075 -0.13020007 0.2005007 0.06905021 0.18591584 0.05765127
0.045765236 -0.25764748 0.20868482 -0.13024828 0.25705647 -0.19595155 0.34768912 0.22877878
0.057101946 0.23469512 -0.20814337 -0.19066438 0.10205251 0.13630079 0.24057142 0.06951582
0.18207143 0.068284184 0.22018737 0.13147956 0.28897473 0.054593597 -0.08803121 -0.055248596
0.24705842 -0.13962694 -0.13528976 0.037620194 -0.07075578 0.044998992 0.38473594 -0.3507191
-0.05956811 0.06306597 0.08942863 0.050154913 -0.291483 0.06516429 0.15910062 0.37601328
-0.051736075 -0.26880604 0.028535975 -0.19322412 0.30058423 0.3850724 0.22712931 -0.10889408
0.19800803 0.2297651 0.014262837 0.12255207 0.37392917 0.26357502 -0.11347748 0.53573793
0.30240905 0.21776655 -0.18427733 -0.47483087 -0.24746567 0.2270139 -0.09488986 0.28579277
0.19612995 0.18347117 0.04073998 -0.22848237 -0.16749586 -0.1496923 0.44007462 0.04875578
-0.07029895 0.022047888 0.05760305 -0.12611577 0.122487955 0.32423517 -0.30248916 0.19041173
-0.111293554 -0.04039503 -0.42880553 0.32449484 -0.20758958 0.29366705 0.13729773 0.24060367
-0.23928158 0.31892085 -0.25166908 -0.348139 0.293783 0.10699711 -0.020816041 0.007917109
-0.4723142 -0.38012967 0.1257169 0.14332443 0.20959781 0.13223054 -0.26464376 0.17420176
0.08386658 0.2608545 0.0888919 0.26560807 0.21838574 0.32289934 0.2595285 0.09853835

fc2.weight f4 [300, 400]
00000000: ee1c 98bb 2f3a 1e3e fb4a 333c c250 4bbd
00000010: 0151 61bc fdc1 19be b48f f73d 2faa 363e
00000020: 2b65 46be bed4 91be de5e d5bc f84f 07be
00000030: 549a eb3d 1642 c03c 1929 61be 55c1 543d
00000040: eaca c63c dbe2 ce3c e62d e53c 4dd8 16be
00000050: c5c0 d1bb bd3d 133e 8132 433d ce36 22be
00000060: d283 043e 2991 903d 8be9 8a3e 256c 923d
00000070: b590 fb3c 6209 37be c11d 3ebe d777 2b3e
00000080: 48b3 24bb 5e36 113e 61b3 cbbd 49dd 58bd
00000090: 64cb efbc 3e63 943b 3bd3 f9bd 7a89 0abe
000000a0: 0645 143e f1a5 013e 99f3 b9bc 32d0 e03d
000000b0: 3f2e 8d3d 4dd3 8d3d d208 41be 5831 4d3d
000000c0: e5a0 49bd b6da 893d f8c7 083e 13be b5bd
000000d0: 240b 193d e45b 08be ccc0 ff3d cd69 63bc
000000e0: 0bfc 04bd 5485 313d 3a21 ddbd 10c6 613d
000000f0: b570 333e 414a 9d3d 8ba9 ed3c 1da2 5bbd
00000100: 632a c13d 62a9 ca3d 841c aa3d 95fc 9d3b
00000110: 5747 23bc 4c01 203d 5a43 dc3d 3e73 02be
00000120: 34de ebbd e021 f13d a50a 5fbe aa88 103d
00000130: 36f5 8e3d 3399 823d 7383 32bc 53cf 133e
00000140: e410 e33d dabb bdbe 0d8a 153e 4d46 84be
00000150: b57c dabd b47f 2a3e 77bc 553d 0fd8 e83d
00000160: cfb1 583d 6fd7 243d dd8d 593c 93b5 3c3e
00000170: 7abb d6bc 0d1c 013e 81dc edbd 654a 69be
00000180: 2848 153d d2c0 e33d afdb 583d 3038 973b
00000190: 230e a0bb 9125 af3c 79de f03d 3b1e 7a3b
000001a0: df6f 0fbe 628f c03d dae6 e83d 6fe3 ba3d
000001b0: 70e2 133c 41ff f23d b0f6 88bd 96fd c3be
000001c0: 0d50 0a3c 4a83 3c3d 0008 5bbc 56a1 1a3e
000001d0: 3bdd 6e3d 575d 29be 0a1f 403e f1f9 03be
000001e0: 7372 bd3d 0da0 003d 1bde bc3d 4d3c ca3c
000001f0: d46d 10be abb3 67bd c0f3 99be 9a43 2cbe
00000200: f487 823d dc32 2a3d 2570 c8bd 912b b13d
00000210: 8035 a83d e49d 9bbe 3571 76bd 2fe4 22be
00000220: 0b9b 42be 6cb8 7fbd d076 e1bd ff35 b1be
00000230: 1288 cc3c e055 c1bd 02c7 723d 3180 dfbc
00000240: a2cb 90bd 3951 f03c c9a2 e33d 3c5c 1e3e
00000250: 436d 0cbf 37fd 03be d7b7 3f3e ff14 99bc
00000260: add3 db3d 5c48 f2bd 51fa c43c e00e b7bb
00000270: d0a4 92be c9f2 1fbc 9ebd 93bd 20e1 3cbe
00000280: c41d 3fbe 5073 803d e24b 913d b79c 95be
00000290: 6b3b 81be 8057 31bd e374 48be e560 a5be
000002a0: ae7a a83c 1b1c 6b3c f0c1 213e d215 31be
000002b0: cab9 8cbd 860b af3c 4148 c2be 2185 8bbd
000002c0: 637d 97be 1dd2 59be b77c b23d e2e1 433d
000002d0: 3bd4 08be 9cd7 8abd c5b3 e4bb 9ebb c43c
000002e0: 30ac 85be 4f2c 64bc f88d f3bd e1ef 5f3c
000002f0: 38fc 0f3e 0bc9 88bd ea6d 4bbd 5003 1abe
00000300: 62ef a93d fb13 0ebd dcce bf3d cc58 ac3d
00000310: 87cf ef3b cb94 5abd bc4b b13d 77f8 063d
00000320: ebb7 2c3e 8c1d c73d 27d7 b9bd d1ab e33b
00000330: c628 c43d ecc8 d33c 7461 243d b266 183d
00000340: bfb5 ecbc bfb0 463d 73e5 8cbb f03b b4bd
00000350: cf5b 233e fe57 23be 53c0 783d 557e b3bd
00000360: 4339 c43d 1c37 633e 970d 7bbc 22a0 61bd
00000370: ed0b 9abd 4949 07bd c83c b139 962d 803d
00000380: f000 1a3e d2ea 20be f7f3 093e d399 a03d
00000390: 64e8 973c 3ab8 a63d 4369 dd3d b7a0 c6bd
000003a0: 06f8 eb3d 3747 113e dca6 fdbc b204 13be
000003b0: f56c 25be 73e4 b4bd 5587 01bd 35dd 13bc
000003c0: 2358 19be e37c 81bd 53f9 8bbd 136e 03be
000003d0: 8c53 ec3d b08c fdbc ab4b c1bd b643 313e
000003e0: f063 80bc 7938 12bd 3cf8 41bd 2e0c 7fbd
000003f0: aff7 b03d b126 f6bb 1b45 a1bc 174d 683b
-0.0046421206 0.15451883 0.01094317 -0.049637564 -0.013752223 -0.15015407 0.12087956 0.17838357
-0.1937453 -0.28482622 -0.026046213 -0.132141 0.11504045 0.023469012 -0.21988334 0.05194219
0.024266679 0.025254657 0.027975988 -0.1473095 -0.0064011537 0.1437902 0.047655586 -0.15841219
0.1294091 0.07058937 0.27131304 0.07149533 0.03070865 -0.17874673 -0.18566038 0.16744934
-0.0025131274 0.14180896 -0.09946323 -0.05294541 -0.029271789 0.004528432 -0.12198492 -0.13529006
0.14479455 0.12660958 -0.022699164 0.1097721 0.06893586 0.06925068 -0.18851021 0.050095886
-0.049225707 0.06731169 0.13357532 -0.088741444 0.03736414 -0.13316303 0.12487945 -0.013880205
-0.03246693 0.043340042 -0.10797353 0.055120528 0.17523463 0.076801784 0.029011508 -0.0536214
0.09431913 0.098955885 0.0830622 0.00482137 -0.009965739 0.039063737 0.10755034 -0.12739274
-0.11516991 0.11774039 -0.21781404 0.035286583 0.06980364 0.06376877 -0.010895598 0.14434557
0.11087206 -0.37057382 0.14603443 -0.25834885 -0.10668317 0.16650277 0.052181687 0.11369335
0.052903946 0.040244516 0.013278452 0.1842864 -0.026212443 0.12608357 -0.116143234 -0.22782286
0.036445767 0.11120762 0.05294388 0.0046148524 -0.0048844977 0.021380218 0.11761183 0.0038164991
-0.14007519 0.09402348 0.113721564 0.09125411 0.009026155 0.11865092 -0.06687677 -0.38279408
0.008441937 0.046023645 -0.013368607 0.15100607 0.05831645 -0.16539513 0.1876184 -0.12888314
0.09250345 0.031402636 0.09222051 0.024686957 -0.14104396 -0.05656783 -0.3006878 -0.16822663
0.06373587 0.04155241 -0.09787015 0.08650888 0.08213329 -0.30393898 -0.060166556 -0.15907358
-0.19004457 -0.062431738 -0.1100899 -0.34611508 0.024967227 -0.094402075 0.05927182 -0.027282806
-0.0707009 0.029335605 0.11115033 0.15464872 -0.5485422 -0.12889563 0.18722473 -0.01868677
0.10733733 -0.11830208 0.024045141 -0.00558649 -0.28641367 -0.009762474 -0.07213901 -0.18445253
-0.18663698 0.06271994 0.070945516 -0.29221126 -0.25240645 -0.043296337 -0.19575839 -0.32300487
0.02056631 0.014349963 0.15796638 -0.1729348 -0.06871374 0.0213678 -0.3794575 -0.06812502
-0.2958785 -0.21271558 0.08715194 0.04782284 -0.1336221 -0.067794055 -0.006979438 0.024015244
-0.2610793 -0.01392658 -0.11892313 0.013668031 0.14061058 -0.06678971 -0.04966537 -0.15040326
0.08297612 -0.034687024 0.09365627 0.08415374 0.0073184404 -0.053364556 0.08657023 0.0329518
0.16867034 0.097224325 -0.0907424 0.0069479723 0.095780894 0.025852643 0.040132 0.037207313
-0.028895257 0.048508402 -0.0042998134 -0.08800495 0.15952991 -0.15951535 0.06073029 -0.0876433
0.09581234 0.22188991 -0.015323064 -0.055084355 -0.07521806 -0.033028875 0.00033805356 0.06258695
0.1503942 -0.15714577 0.13471971 0.0784184 0.01854343 0.08140607 0.10811093 -0.09698623
0.11521916 0.14187323 -0.030963354 -0.1435726 -0.16154845 -0.08832636 -0.031623203 -0.009024908
-0.14975028 -0.063226484 -0.06834664 -0.12834959 0.11539373 -0.030950874 -0.09438261 0.17310986
-0.015672654 -0.035698388 -0.047355875 -0.062267475 0.08640992 -0.0075119366 -0.019686272 0.003544634

fc2.bias f4 [300]
00000000: e32f b83d feff 8abc 3479 6b3c 10ab 84bc
00000010: d234 643d 7126 0ebd ab10 b2bc 4055 a93c
00000020: d90d 85bd 04d0 793d 2f1e 2cbd fb07 443d
00000030: 8147 51bd d96d 113d dd5c 2abd 0884 5ebb
00000040: bd7d f73c 0b5d a13b 4716 2e3d 6324 38bd
00000050: 47cd ad3d a942 2f3d 1d10 793c 3683 eb3b
00000060: 54a5 3e3d 9e5b 203d a00e 793d 0e3a 91bc
00000070: dfd9 e1bd 2a32 203d 369e a13c 8fce ba3c
00000080: e7e1 f63c 3f82 48bd 0cc3 fd3d 2b07 a43c
00000090: 0ce0 1bbd 09f8 97bb 7428 803c 8479 223d
000000a0: 765b 4dbc de38 483b 3225 c03c 9b79 063a
000000b0: 7e15 c13d 688e 92ba 3f80 a4bb 1c24 0b3d
000000c0: 0049 833d 4a52 07bd 7240 513c c3f4 9f3c
000000d0: f845 ab3c 68a1 663d 15da 543d aeb0 dd39
000000e0: 5b61 073e d2ab d6bc bd56 2b3c d092 0b3d
000000f0: c8b4 c63c 4392 0a3d ceda 023d 22b4 33bd
00000100: b1d9 b3ba 20a7 7c3c e860 c63c 01c6 ae3b
00000110: 031a e03c 76d2 e23d d142 5bbd bef1 6e3d
00000120: 9be3 e2bc eec8 aa3b c6f9 663d 818d 17bd
00000130: 1445 5e3d c013 0bbc f523 dfbc 1a15 07bd
00000140: 0458 60bd 7335 ab3d 021a 9f3b 940c 913d
00000150: 9214 09bd f5e1 5d3d 2db7 2a3d 14a9 2b3d
00000160: c53e 4b3d 7721 733d 9470 1fbd 6808 2cbd
00000170: 5802 91bc abc8 5d3d 5f72 323d ba89 3abc
00000180: 670d 703d 71e5 a3bc ddb2 a73c 696e 2bbd
00000190: 7b91 42bb 8cac f8bb 85f1 8a3d 9e0b 7bbd
000001a0: b087 17bc 3bb0 253d db79 d1b9 0a92 cdbc
000001b0: b7a0 913d 63ae d13b 1c02 38bd 3802 d7ba
000001c0: 326f 93bc a3a2 753d 8293 8f3d 7e55 fb3c
000001d0: 09a0 533d 03a3 413d 7364 123d 9bf9 70bd
000001e0: 8c44 b53d 8204 123d b2d0 a33d da64 833c
000001f0: 7b85 2ebd e1ce ce3b 35e8 a03c 2499 293b
00000200: 9e73 f13d 0520 e43c 29c9 463d 7ba3 483b
00000210: d15c 98bc a767 303d e202 b33b 04f9 0dbd
00000220: 852b bf3c 5c37 0d3c 4f8a c03c a4e0 143d
00000230: e833 2f3c b9bd 2c3d c921 9f3b f84d 3f3d
00000240: f218 ec3c 9036 ddbc 0e4a fe3c 76f6 62bc
00000250: fa22 3a3b 824f 1ebd 243a e83c cb97 583c
00000260: d67d bd3c 4768 5b3d acee 853d eaa0 d33d
00000270: a0b0 5cbc ff0b 08bd 898f 14bb d20b ad3d
00000280: 6d07 233d e2bb 4bbd 745c 063d 8ebf 943d
00000290: 6a08 c53d 93fe 903d f1ab 88bc 50a1 5d3a
000002a0: cddc 94bc 6858 263e b85c 73bd 7e08 fa3d
000002b0: bd61 223d a791 7c3d f3bc 0d3d d59e 893c
000002c0: b056 bbbc d91d 153c 0260 2e3c 6a84 043c
000002d0: 85e6 cc39 68af 783d c276 53bd 52eb 283b
000002e0: 2cdc 003d b537 873a 8f94 673d e74a 8c3d
000002f0: 6f73 873d 46b8 ae3d 2e80 aebc 81ef a43c
00000300: 9901 cc3c 61df 713d 24ab 8fbc dd7f 7ebd
00000310: 6aa0 49bd 97a9 86bd e7ee 073d 28f8 de3c
00000320: 6dc9 373c 6e60 27bd ecdb e6bc 2387 11bb
00000330: 49aa 843b 1b5b bb3c 0361 40bb 3164 303d
00000340: 75d3 f53c 72a5 093d 19db 643c e715 e8bb
00000350: 1c14 473c 5c69 83bc 3d5a 8a3c e5f6 463d
00000360: 0f94 553d 1ffc 213d cab0 113e 4ce3 0a3d
00000370: ec57 1a3d 8331 75bd 45f9 07bc a6e6 20bd
00000380: 4592 0f3d 2258 063c 79e6 a8bb b914 8b3b
00000390: 5933 70bb 00fe e73c 9e8a 9b3c 14bd 7bbc
000003a0: 1fa2 5a3d 3ce9 9e3d 4c20 e938 a4af 283e
000003b0: 7420 89bd fa7e 76b9 7681 2abd 9a18 313d
000003c0: e0ba 53bc 3ea3 083d 2d2e 18bc 0890 62bd
000003d0: 10ea 6d3d 80d5 57bd 942b 9ebc 7d2b 803d
000003e0: e593 5c3d 4b8f 2d3a e69a d4bc ba5b f73c
000003f0: f920 943d 8545 083d 1768 1cbc feeb 793c
0.08993509 -0.01696777 0.014372159 -0.01619485 0.055714436 -0.03470463 -0.021736464 0.020670533
-0.06496782 0.060989395 -0.042020973 0.047859173 -0.051093582 0.03550515 -0.041592468 -0.0033953208
0.030211324 0.0049244217 0.042501714 -0.044956576 0.08486419 0.04278818 0.015201596 0.0071872724
0.046544388 0.039149873 0.060804963 -0.017727878 -0.11027884 0.03911034 0.019728761 0.022803573
0.030137016 -0.048952337 0.12390718 0.02002295 -0.038055465 -0.0046377224 0.01564429 0.039666668
-0.012534013 0.0030551474 0.023455236 0.0005129815 0.094279274 -0.0011181356 -0.005020171 0.033969983
0.06410408 -0.03303746 0.012771713 0.019525891 0.020907387 0.056306273 0.05196579 0.0004228404
0.13220732 -0.026204977 0.010457692 0.03407556 0.024256125 0.033830892 0.03194695 -0.04387296
-0.0013721493 0.015420705 0.02421613 0.0053336625 0.027356153 0.110752985 -0.053530518 0.058336012
-0.027696421 0.005211941 0.056390546 -0.037000183 0.054265097 -0.0084885955 -0.027238825 -0.03297911
-0.05477144 0.08359804 0.0048553953 0.07082477 -0.033466883 0.054170568 0.041678596 0.041909292
0.04962041 0.059358086 -0.038925722 -0.042000204 -0.017701313 0.05414645 0.043566104 -0.011385376
0.05860653 -0.020006867 0.02047103 -0.041853342 -0.0029688764 -0.0075889286 0.067843474 -0.061290376
-0.009248659 0.04045127 -0.00039954376 -0.02509405 0.07110732 0.0063989623 -0.044923887 -0.001640386
-0.017997358 0.059969556 0.07010557 0.030680414 0.051666293 0.0472746 0.035740327 -0.058831792
0.08850965 0.03564883 0.0799879 0.0160393 -0.042607766 0.006311283 0.019641975 0.0025878632
0.1178963 0.0278473 0.048531685 0.003061502 -0.018598946 0.0430676 0.00546299 -0.034661308
0.023336181 0.008619156 0.02350345 0.036347046 0.010693528 0.04217312 0.0048563224 0.046705216
0.028820489 -0.027003556 0.031041171 -0.013852706 0.0028402195 -0.038650043 0.028348036 0.013219784
0.023131292 0.053566243 0.06539664 0.10333426 -0.013469845 -0.033214565 -0.0022668561 0.0844952
0.039802004 -0.049739726 0.032803014 0.07263099 0.096207455 0.07079806 -0.01668355 0.00084545184
-0.018171692 0.16244662 -0.059414595 0.12208651 0.03964399 0.061662342 0.034604024 0.01679937
-0.022868484 0.0091013545 0.010643007 0.008088211 0.00039081663 0.060714155 -0.05162693 0.0025775027
0.031459972 0.0010316285 0.05653816 0.06850224 0.06613814 0.08531241 -0.021301355 0.020133736
0.024903106 0.05905092 -0.01753766 -0.06213366 -0.04922525 -0.065753154 0.03318682 0.02721794
0.011217457 -0.040863447 -0.028181039 -0.0022205792 0.00404862 0.02287059 -0.0029354698 0.0430643
0.030008057 0.033605047 0.013968253 -0.007082689 0.012150791 -0.01604145 0.016888732 0.0485753
0.052143153 0.039547082 0.14227596 0.033908173 0.037681505 -0.05986167 -0.008299177 -0.039282463
0.035051603 0.008199723 -0.0051544276 0.0042444137 -0.00366517 0.028319359 0.018986996 -0.015364904
0.053377267 0.0775933 0.000111163215 0.16473252 -0.06695643 -0.0002350769 -0.04162737 0.043236353
-0.012922972 0.033358805 -0.009288353 -0.05531314 0.058084548 -0.052693844 -0.019307889 0.06258295
0.05385198 0.00066207786 -0.025952768 0.030195106 0.072328515 0.033269424 -0.009546301 0.015254019

fc3.weight f4 [2, 300]
00000000: 65c6 46be ba20 50be 29eb 493e 7f1b bebe
00000010: 6e26 9cbe f2e0 a2be 08c6 4ebe 132c 46be
00000020: 7a72 80be 295f 033e ec80 9a3a ea14 8c3e
00000030: 764f adbe 91cc 483c bd35 663e bc16 a9be
00000040: b985 d5ba 8486 063e 1536 8c3d e9e2 0d3b
00000050: fa33 af3d 3069 08bd 3d38 afbd 5a26 31be
00000060: b1b6 13bd 9d13 90be 3d39 1ebe 340c 613e
00000070: 1edb 41bf 9fc1 d7be 0573 dcbe a892 aabd
00000080: 392b b73d b3fd cfbe e7c4 963d 533d f93b
00000090: d3be 54be 2369 d9be 0067 313e 9df7 cabd
000000a0: 9970 97be e4bf 2dbe 1b2e 963d 0236 d1be
000000b0: 41ae 413d a9f4 263e 45aa 803e 4805 123e
000000c0: 43dc 013e b89e 46be 76c7 d33e d85f 9e3e
000000d0: 74a0 ddbe c0b5 ae3d eaa3 c0bd 714b ab3e
000000e0: 22fc 983d 3f6a 373e 10c8 1ebe 7be6 bdbe
000000f0: 19c0 2cbf a13a a0bc 1662 73be da70 5cba
00000100: 1c66 a0be cc8d 933e 692b 11be 1246 493e
00000110: 7c4d 08bf ac08 9a3d 0e9a 1cbf de47 27bf
00000120: 803c 97be 8ba5 a7be aab2 a73d db0b 71be
00000130: da8f c8bd c398 f4bd eb25 83be c45f 2abe
00000140: 54a4 8b3e d0df 803b 76c8 38bd ec6d 573d
00000150: e1e2 d5bd 1de7 04bf 0c9b d23d ecd2 033e
00000160: 0bf0 b63c bc0a 44bf 201a b83e 3069 a9be
00000170: 2a2b 713d 72e0 2abe 4052 59be 3123 9fbe
00000180: 78ca a8be a0b6 0e3e e83b 39bd cbdd 463d
00000190: a63a a53e f17d 98be 9539 24be a123 363e
000001a0: 1925 0dbe 9b63 aebe 61a2 81be 8c7e 8e3e
000001b0: 2efb 44bc 087d a9be feb4 463f ed25 dc39
000001c0: 59b0 4ebe f234 c4be 50f5 88be a2ab c7bd
000001d0: 8488 87bd 2598 0ebe c7f2 97bc a253 0e3e
000001e0: c4c6 e93d 0abb 90be acba 523d 5e3b 61be
000001f0: 3355 76bf d4b5 8abe d7d6 083e 50b5 34be
00000200: a36c ec3d 4ab8 28bf bb2f 263d 1757 45be
00000210: fd17 b73a 2586 fbbe e636 89be 5ce1 ecbe
00000220: 2ba8 adbe 4abe 08bf b208 47ba 36e6 df3d
00000230: 004b 203d 3b85 1c3e 4b86 afbe 3469 8e3d
00000240: 80ec 6bbe 6559 d43b 7f9b fb3d 6bee 49be
00000250: fb0f ddbe 2030 3ebe 97c9 ecbd e648 773e
00000260: 4921 1fbe c737 c3bd b395 82be aea9 a53d
00000270: 1fdd 1a3e 1980 9a3e aa4a 463e c9b6 4abe
00000280: a221 bdbe 6e8e 4fbe 83f8 a6bd 9e7a a53d
00000290: 7d88 083e f207 223d 225f ddbe 81d5 38bd
000002a0: 4a22 4c3e 2ea2 e93d 244f 993e 0181 c13d
000002b0: b244 743e c008 033e 4357 89be a0fb 9dbd
000002c0: bd93 d93a 0bfa c7be 6754 3b3e 6c58 1cbf
000002d0: 17db a43a d6d2 a6bc 2f35 98be 9c62 873e
000002e0: 508f 593d a86d aa3d ee2c 21bd b69a a13d
000002f0: 8716 973d bdc7 993d 0ff1 74be af14 1bbf
00000300: b01e 033d e9b2 aa3d 3c3f 1ebf c232 d1be
00000310: 1ef6 1b3e 038c 41be 7951 9b3d 69b9 7abe
00000320: f020 04be e195 c2be a296 bc3c 57fd 7abe
00000330: a82d b5be f88a 333e 21bd a7be e407 ccbd
00000340: 8da8 04bf d315 083e d7d4 9cbe 6021 96be
00000350: c601 80be f227 9d3e 8248 6fbe de8f 64be
00000360: 3c47 db3d 850c d43e 8387 a73d e6ad 33be
00000370: 937f 72be 5b0a e1be 1573 6dbe 190c d93e
00000380: 0a33 063f a47e 9ebe eabe 02bf c6e9 b53e
00000390: 69eb cdbd d759 dabc ad6b 0dbe bd89 58bc
000003a0: 5edc e3bd 68dd 17be 3711 87be 24de f33d
000003b0: 0737 fdbe 6ef6 3a3e b798 11bb 9234 74bc
000003c0: 306a 6ebe 4fbf ccbe 1a47 89be 88bc 483e
000003d0: e65b dd3d 4c9d cdbe 0f3f 28bd d475 ebbd
000003e0: 815d d4be 2dfb e9be 8444 a5be a7cf 41be
000003f0: 2898 5f3d d45f 90bc 2c65 9abe 44f1 59be
-0.19411619 -0.20324984 0.19718613 -0.37130353 -0.3049807 -0.31812245 -0.2019273 -0.1935275
-0.2508734 0.1282927 0.0011787689 0.27359706 -0.33849686 0.012255804 0.22481437 -0.33025157
-0.0016290463 0.13137251 0.06846253 0.0021650142 0.085548356 -0.03330344 -0.085556485 -0.17299786
-0.0360629 -0.28139964 -0.15451522 0.21977311 -0.7572497 -0.4213991 -0.43056503 -0.08328754
0.08943791 -0.40623245 0.07361775 0.0076061874 -0.20775919 -0.42463025 0.17324448 -0.0991051
-0.29578093 -0.16967732 0.07333013 -0.40861517 0.047285322 0.16304268 0.25129905 0.14259827
0.1268168 -0.19396484 0.41363114 0.30932498 -0.4328648 0.0853076 -0.09406264 0.33455995
0.074699655 0.17911623 -0.15506005 -0.37089905 -0.6748062 -0.019559206 -0.23767886 -0.000840915
-0.31327903 0.2881912 -0.14176716 0.19655636 -0.5324323 0.07521185 -0.6117257 -0.65344036
-0.29538345 -0.32743487 0.08188374 -0.23539679 -0.097930625 -0.119431995 -0.25614867 -0.16638094
0.2727381 0.0039329305 -0.04511305 0.052595064 -0.10443664 -0.5191515 0.10283479 0.12873429
0.022331258 -0.7657888 0.35957432 -0.33088064 0.058879055 -0.16687182 -0.21222782 -0.31081536
-0.3296697 0.13936853 -0.045223147 0.048551362 0.32271308 -0.29783586 -0.16037591 0.17787029
-0.13783683 -0.34060368 -0.25319198 0.27830923 -0.0120227765 -0.33103204 0.7761992 0.00041989927
-0.20184459 -0.38321644 -0.2674966 -0.09749533 -0.06617835 -0.13925226 -0.018548382 0.13899091
0.11414865 -0.282677 0.051447555 -0.21995303 -0.96223754 -0.2709185 0.13363205 -0.1764729
0.11544158 -0.659062 0.040572863 -0.19271503 0.0013968941 -0.49125782 -0.26799697 -0.46265686
-0.33917364 -0.5341536 -0.0007592543 0.10932581 0.039134026 0.15285198 -0.34282145 0.0695366
-0.23039436 0.006480383 0.12285518 -0.19719855 -0.43176255 -0.18573046 -0.11561888 0.24148902
-0.15540041 -0.09532123 -0.25504836 0.080890045 0.15123414 0.30175856 0.1936442 -0.1979629
-0.36939722 -0.20269176 -0.081528686 0.08080028 0.13333316 0.03955836 -0.43236643 -0.04512549
0.19934955 0.114078864 0.29943192 0.09448434 0.2385433 0.12796307 -0.26824388 -0.07714009
0.0016599816 -0.39057955 0.18293916 -0.6107242 0.0012577501 -0.020364206 -0.29728076 0.2644242
0.05311519 0.083216965 -0.03934949 0.07890837 0.073773436 0.075088 -0.23920082 -0.60578436
0.032011688 0.08334906 -0.6181524 -0.40859038 0.15230605 -0.18901066 0.07583899 -0.24484791
-0.1290319 -0.38004974 0.023021046 -0.24510704 -0.35386395 0.17533481 -0.3276148 -0.099624425
-0.5181969 0.13289575 -0.30631134 -0.29322338 -0.25001353 0.30694538 -0.23367503 -0.22320506
0.10706946 0.41415802 0.08180144 -0.17546806 -0.23681478 -0.43953213 -0.23188432 0.42392042
0.5242163 -0.30955994 -0.5107256 0.35529917 -0.100546665 -0.026654167 -0.13810606 -0.013216433
-0.11126016 -0.14830554 -0.2638032 0.11907604 -0.49456045 0.18258068 -0.002221627 -0.014905112
-0.23282695 -0.39989707 -0.2681206 0.19603169 0.10808544 -0.4015907 -0.041075762 -0.11497083
-0.41477588 -0.45699444 -0.32278836 -0.1892687 0.054588467 -0.01762382 -0.30155313 -0.21283442

fc3.bias f4 [2]
00000000: 241f b63d 80a2 d0bd
0.08892658 -0.101872444
