OurCode/ReacherPyBulletEnv-v0/actor_ddpg.pt (torch_old, 500637 bytes, 6 tensors)

fc1.weight f4 [400, 9]
00000000: 18ae e63e 3933 7c3e 5fb2 18be 49fa aabe
00000010: 9b4e 84be a088 bebe d8ca f23e 4b61 89be
00000020: 4fb9 8f3d 4373 503e 9d1d 313e 64ba 8abe
00000030: 3262 ad3e 568c 81be 32ea e23d f88c 083e
00000040: b701 57be 845d d73d 6655 813e 1a7d ff3e
00000050: 46ea 08bf 829f 8cbe 884b e9bd d53f e23d
00000060: 11bb c3bd 28c7 be3e 5185 17be b3a9 093e
00000070: 32c2 8abd e99b 6dbd be2d e03d 711f 98bd
00000080: f031 c13e 4540 3a3d 5e4c b8be 9bf5 10be
00000090: e51f 9e3e 36fa 2abe c14d 90bd 4bb2 e53b
000000a0: e1aa 793e b9c4 9fbe 3415 eb3c d28b 183e
000000b0: 862a cbbe f785 3bbe 334a a0be 6752 483e
000000c0: 180d 3b3e e45d b33e d084 a5be f011 d1bb
000000d0: 11c5 37be a858 dabd 7c8f b0be b95f 0cbd
000000e0: ddcf 843e db39 ecbe 6314 9d3e 33c6 81bd
000000f0: 1b5c aabe a4da 81bb 3a00 ba3e dbaf 0c3f
00000100: ecea 743e 042e 623c 4f26 3ebe fd0e 01be
00000110: 7ddb 51be dff9 48be 7ace 923e b31c 0f3e
00000120: 3410 a83e 1627 b33e de38 61be 82fb bdbe
00000130: 6ef2 8cbe db85 85be 3d9b cb3d 9072 ab3e
00000140: 7608 0e3d a52d 74be 931f aebe 80d4 cf3e
00000150: 0b13 a33e e74c 1d3c 6540 18be afde 573e
00000160: bce4 90be 8b59 933e b1b8 9f3e 1b39 41bd
00000170: 231f 1d3e 4767 0fbe f83b 9dbe 008f 953e
00000180: bb20 8c3d d2f2 373d 998f f6bd 7314 953d
00000190: 8b12 3cbe 9eeb 13bf 1a41 a63d b8ef 95be
000001a0: 2a18 5e3e f370 1d3e 9ef9 833e 4124 04be
000001b0: 21ab e6bd 9510 863e 6fec 28be b10e aebe
000001c0: 368f 9a3d feca 863e 2d05 923e 7980 f33d
000001d0: 599b 90be 61a1 813e 097f 0fbd 4c1c 81bd
000001e0: a1d9 12be 7b60 37be b1fa f1bc c31b 9ebe
000001f0: ccff f93d e63f 153e 370f efbe cc7c 0abf
00000200: 8c51 573e a177 dbbd 03a0 3d3e 99ee e9be
00000210: 2eaa 8fbd a3b0 683e e7c3 e63d 0bcc d1bd
00000220: dfb7 a1be 6c23 a33e 2ef0 bbbc aa07 92bd
00000230: 3cc7 f73e 8aa0 34bd 9eb8 ccbc 03bb 4d3c
00000240: 4ddf 573e e88f 163e d78d 52be c440 8a3e
00000250: f3c3 8b3d 9d83 673d 027f e93e fe21 4d3e
00000260: 5296 0c3e 886c 463e 24be ddbd a4f5 b1bd
00000270: 11e7 5dbe e3c2 01be 3804 7b3e f5a1 73be
00000280: 2e47 cb3e 5b62 38be c6ff 1d3d e2cb 38be
00000290: cac4 c3bd 03e4 dabd 4ebc a0be be57 6ebc
000002a0: 067e 4abe ac27 613e c807 99be 573b 093f
000002b0: e3e6 dfbe 21bc 8bbe 49f9 ca3e 7a34 84bd
000002c0: f5f8 8d3e 1d34 ca3d 0a13 8fbe 617f 933e
000002d0: e262 5cbe e1d9 ba3d 0345 393e b345 a13e
000002e0: 53f2 143f befc 543e 95fe 29be eefb 6ebe
000002f0: a239 5dbe d9f7 b6be 288f 7c3e 07a6 8d3e
00000300: fb22 c5be 7dad b33e 6deb 123d ed59 86be
00000310: 1577 5b3e 78c1 a7be 30f0 96be 37c8 4dbe
00000320: 7564 a83e 58cb b1be e32a 56be 6e19 eebe
00000330: e609 4cbe 4d7d 963d f7b9 aebd c700 7abe
00000340: dba9 cfbe 5cae 38be b4f0 613e 457f 8dbe
00000350: 0bc7 f93e 5f22 19bd 0c26 023e 8369 6a3e
00000360: 8914 f73e 1dfe 35be 32ec 07bf 7ae9 44be
00000370: a63f 68be c850 0b3d c2f3 0d3b 310e e23d
00000380: 7dfe 39bd a61e 8fbb 37b4 c53e e6f7 c1be
00000390: a4af 80bd f7b3 c1be 947c 21be 3d39 69be
000003a0: 03a3 263e 7cc2 3c3e e565 94be 4d66 d6bc
000003b0: ada1 fa3e 8db3 0dbf aae7 223d bd8c 10be
000003c0: 879c d33e b2ce 9f3e d33f 7ebd b8d8 56bd
000003d0: ebca 223e fe5d 053e 8ff8 b6be ff1a 8d3e
000003e0: 2d86 7d3d 67a9 e1bd 0dc2 b23d be3c b5bc
000003f0: dc6e b63d e8df e83e 9607 1fbe 9989 f0be
0.45054698 0.24628915 -0.14911793 -0.33394077 -0.2584122 -0.37213612 0.47420382 -0.2683204
0.07017767 0.20356469 0.17296453 -0.2709533 0.3386398 -0.2530238 0.110798255 0.13335025
-0.20996748 0.105158836 0.25260466 0.49900132 -0.5348247 -0.27465445 -0.113913596 0.11047331
-0.095571645 0.3726132 -0.1479695 0.13443641 -0.06775321 -0.058010016 0.10946225 -0.07427872
0.37733412 0.04547145 -0.35995764 -0.14156191 0.3088371 -0.1669701 -0.070460804 0.0070097796
0.24381591 -0.31204775 0.028696634 0.14897087 -0.3968088 -0.18312822 -0.3130661 0.19562684
0.18266714 0.3503257 -0.3232789 -0.006380312 -0.17946269 -0.10661441 -0.3448447 -0.034270976
0.25939837 -0.4613789 0.30679616 -0.063366316 -0.33273396 -0.0039628316 0.36328298 0.54955834
0.2391774 0.013804916 -0.18569301 -0.12603374 -0.20493884 -0.19626568 0.28673154 0.13975792
0.32824862 0.34990758 -0.2199435 -0.37105948 -0.2752871 -0.26078686 0.09941719 0.33485842
0.034676038 -0.23845537 -0.34008464 0.40591812 0.31850466 0.0096008545 -0.14868315 0.21081041
-0.2829951 0.28779253 0.31195596 -0.0471736 0.15343909 -0.14004241 -0.30709815 0.29210663
0.0684218 0.044909306 -0.12039108 0.07279291 -0.18366449 -0.577814 0.08117886 -0.29284453
0.21688905 0.15375118 0.2577638 -0.12904455 -0.11263109 0.26184526 -0.16496442 -0.33995584
0.075468466 0.26326746 0.28519574 0.118897386 -0.2824352 0.25318435 -0.03503326 -0.06304225
-0.14340831 -0.17907898 -0.029538484 -0.30880556 0.122069925 0.14575157 -0.46691296 -0.54096675
0.21027201 -0.10716177 0.18518071 -0.45689848 -0.07014881 0.22723632 0.11267834 -0.10243996
-0.31585595 0.31862962 -0.022941675 -0.07130368 0.4839419 -0.044098414 -0.024990376 0.012556794
0.21081276 0.14703333 -0.2056192 0.27002537 0.06824484 0.056522 0.45604712 0.20032498
0.13729218 0.19377339 -0.10827282 -0.0868943 -0.21670176 -0.12672 0.24513328 -0.2379225
0.39702743 -0.1800627 0.038574003 -0.18046525 -0.09559019 -0.10688021 -0.31393665 -0.014547287
-0.19774637 0.2198779 -0.2988875 0.5360617 -0.4373084 -0.27291968 0.39643314 -0.064553216
0.27729002 0.09873221 -0.27944213 0.2880812 -0.21522096 0.09123588 0.18092732 0.3149849
0.5818226 0.20799538 -0.16601022 -0.23338291 -0.21604016 -0.35735968 0.24663985 0.2766573
-0.3850325 0.350933 0.03586905 -0.26240483 0.21432145 -0.32764792 -0.29480124 -0.20095907
0.32889143 -0.3472545 -0.20914797 -0.46503776 -0.19925651 0.07348118 -0.08531564 -0.24414359
-0.40559277 -0.18035263 0.22064477 -0.2763616 0.4878467 -0.037386294 0.12709826 0.22891812
0.48257855 -0.17772718 -0.5309478 -0.19229689 -0.2268053 0.034012586 0.0021660184 0.11037863
-0.045408715 -0.0043676673 0.38614056 -0.37884444 -0.06283501 -0.37832615 -0.15770179 -0.22775741
0.16273122 0.18433565 -0.2898399 -0.026171828 0.48951474 -0.553521 0.039771713 -0.14116187
0.41330358 0.31212384 -0.062072586 -0.052452773 0.1589772 0.13024136 -0.3573651 0.2755966
0.061895538 -0.11018639 0.087284185 -0.02212369 0.089078635 0.45483327 -0.15530238 -0.4697998

fc1.bias f4 [400]
00000000: aeba 8dbe 899d 6cbd 11c8 fdb8 c0b7 923e
00000010: b30d a03e 5ca5 fc3d 7dc7 873e 1af1 563e
00000020: fbd9 77be 1ed5 173d 5fa7 6dbd ec12 31be
00000030: c32b cb3d 6814 e6bd 582c 00be b0b9 333d
00000040: c2b0 183c 1b43 b13e 63fa 843e 70d0 e73e
00000050: 7663 003d b7e0 963d b08d a83d 0515 0cbe
00000060: b289 5a3e 50ce 15be c465 423d 85c1 51be
00000070: c6f2 81be 522b ea3d 7d08 713d b151 a1bd
00000080: e815 a63e 2243 8ebb 5d17 3a3d 27e7 65be
00000090: 9e3d f6bc 503e 94bd 7a36 0fbe 2b39 95be
000000a0: 5cb4 8c3d 094e 543d 3f45 4e3c 4176 673e
000000b0: 41de 333e 411c 8bbe 4ac1 163e 0781 8c3b
000000c0: cf13 dcbb 86be 893e bcae 7c3d 4c06 56be
000000d0: 073a 8f3e 5d92 e93c 9b38 a4bd 0154 243e
000000e0: d13f aa3e 55a5 d93d bdfc 773e 2d5e 503e
000000f0: 8ef6 40bd 17a5 203e ff04 52bd d55d bd3e
00000100: f8b2 0e3d ba15 6a3e e46e d63c 3779 8b3e
00000110: f3e2 26be e9bb 20bb 0d9f 6a3e 5dc0 9fbd
00000120: 0437 4c3d 4413 543e ca47 7dbd 5bc0 84bd
00000130: dac0 143e 1d63 673e 39c9 ce3e f279 1bbc
00000140: c317 57bd dc33 dfbd ee89 093e 00bd f4bd
00000150: 3a77 853e 897b 9dbd 6021 8a3e fd4c 043e
00000160: 6f28 543d 53d6 423d a7bb cd3d 15c0 3cbe
00000170: 3ede 7a3d f7bd c4bd af65 60be 5a1d 9e3e
00000180: f38d febc d62c afbd 713c a1be e55b acbe
00000190: 9940 143e efba 16be 30e4 0a3d 2c17 483c
000001a0: 5089 3b3e d12a e73d 35a7 833e 662c 923e
000001b0: 44cd 3abe b0a8 853e 7bf3 763d 449d 853e
000001c0: 4ccf 533e 3c0c c3be f41a 603e fe03 3e3e
000001d0: 6ffb 28be 7149 963e f5f8 4cbe c23a 83bd
000001e0: bb53 bf3e bd5c 8b3e 1235 803e ca61 4cbd
000001f0: 44e6 06be 5fba 61bd f919 df3d ecc9 813e
00000200: 99ac 173e 976e d03d 3aee a23e 85b6 b73e
00000210: 89e5 fdbd e04c dabd 2451 433d d682 f53d
00000220: dcad 363e c58b 1c3e d9d4 443e b2c0 dbbd
00000230: a840 3d3e be4b d83d 7ad0 333e 2d2c 163e
00000240: dd48 9b3d 3590 22be cf0e 573e 469f 5ebe
00000250: 6b94 703e c4e9 05be cd18 8d3e bb75 253e
00000260: 2d3a 793d 624e 6c3e a538 00be 2623 d7bb
00000270: 1be5 853e 9e04 1e3e 9fa4 6e3e 600e 71bb
00000280: e768 ed3d b9ac 443e ff7e 953e d8df 183e
00000290: 6fea 733e 8598 423d f766 f5bd eff4 dfbd
000002a0: 24ce 813e 114d 19be 3a9e 0ebe 4737 a3bb
000002b0: 4062 32be 77e3 d7bb 562d 723e b451 4fbe
000002c0: 3e06 dcbd defb 033d 333f 713d 3663 6fbb
000002d0: 8601 79be eaab 2a3e 5f2f e33d c0a1 cd3e
000002e0: bfda 0fbe 3969 83be ea8c 4c3d 5eef 2abe
000002f0: f0b7 893e 53dd b13e 299f b63e a973 01be
00000300: f10f 733e a53b 5b3e 6628 23bd 8157 843d
00000310: 1ee9 643e 303c 6e3e 0b7a 6bbe aa37 003f
00000320: 7c92 a13d 0c10 053e 6e4b 40be a079 e4be
00000330: b3cd 6abe 6dd3 4d3e 0a7c 07be 7167 603e
00000340: d2cc 783e fb69 4e3e bb15 48bc 8cf2 d7bd
00000350: 8d04 eebd 0ce1 28be 72ab be3e 6093 e03d
00000360: 8b25 e3bd 4547 cbbd c600 d03d a5c9 03be
00000370: 71db ad3d e9a0 a63e 59be 40be 15a7 4e3e
00000380: 29c9 38be e053 36be 4c2a b6be 3b4c 9e3e
00000390: 08df 10be 8c38 803e 3a3f a43d 4a93 833e
000003a0: 17c8 7ebe 8192 c13e 90be 85be 9703 88be
000003b0: 9a23 873e 0156 123e 4583 e3bd 2214 91bc
000003c0: a942 cabe 19bc bfbe d630 193c a1a1 923e
000003d0: 2133 2f3e c39b 053e 17ee 59be 9ea2 983e
000003e0: 3fb5 413c 1fba 6d3e 7a06 2d3d ff9a 613e
000003f0: c25e 613c 43a0 933e af42 873e 5f78 033e
-0.27681488 -0.057767425 -0.000121012454 0.28655815 0.31260452 0.12336227 0.26519385 0.2099041
-0.24204247 0.03706848 -0.058020946 -0.17292374 0.09920456 -0.11234361 -0.12516916 0.043878257
0.009319486 0.3462151 0.2597228 0.45276213 0.031344853 0.0736708 0.0823015 -0.13679893
0.21341589 -0.14629483 0.047460333 -0.20483978 -0.25380534 0.11434044 0.058845986 -0.078769095
0.32438588 -0.004341499 0.045432437 -0.22451459 -0.030058678 -0.07238448 -0.13985625 -0.29145178
0.06870338 0.051832233 0.012589752 0.22603704 0.17565252 -0.27169994 0.14722171 0.004287842
-0.0067162286 0.2690317 0.061690077 -0.2090084 0.2797396 0.028512174 -0.08018609 0.1604767
0.33251813 0.10627238 0.24217506 0.20348425 -0.047110133 0.15687977 -0.051274296 0.3698565
0.034838647 0.2285985 0.026175924 0.27240917 -0.16297512 -0.0024526066 0.22912236 -0.07800362
0.049857154 0.20710474 -0.06183604 -0.064820014 0.14526692 0.22596402 0.40387896 -0.009489523
-0.052512895 -0.10898563 0.13431522 -0.119501114 0.26067525 -0.07689578 0.26978588 0.12919994
0.051796373 0.047567677 0.100455575 -0.18432648 0.061247103 -0.096065454 -0.21913789 0.30881768
-0.031073546 -0.08553474 -0.31491426 -0.3366386 0.14477767 -0.14719747 0.033909023 0.012212556
0.183141 0.112874635 0.25713506 0.28549498 -0.18242365 0.2610526 0.060290795 0.26096547
0.20684546 -0.38095272 0.21885282 0.1855621 -0.16502164 0.29352906 -0.20016845 -0.064076915
0.3736857 0.2721919 0.2504049 -0.049897946 -0.13173777 -0.055109378 0.10893626 0.25349367
0.14811935 0.10177343 0.31822377 0.3588144 -0.12397296 -0.10659194 0.047684804 0.119878456
0.1783976 0.15287693 0.1922182 -0.10730113 0.18481696 0.10561322 0.17559996 0.14665289
0.07582257 -0.15875323 0.21001743 -0.21740445 0.23494117 -0.13077456 0.27557984 0.16158192
0.060846496 0.23076776 -0.12521608 -0.0065654693 0.26151356 0.15431449 0.23304985 -0.003678225
0.11592274 0.19206513 0.29198453 0.1492914 0.23819898 0.047508735 -0.119825296 -0.10935389
0.25352585 -0.14970805 -0.13927546 -0.004980955 -0.17420292 -0.006588395 0.23650107 -0.20246011
-0.10743378 0.03222262 0.058898162 -0.003652764 -0.24316987 0.16667143 0.1109302 0.40162468
-0.14048289 -0.25666216 0.049939074 -0.16692874 0.26898146 0.3473917 0.35668305 -0.12641777
0.2373655 0.21409471 -0.03983345 0.064620025 0.22354552 0.23265147 -0.22995774 0.50084937
0.07889268 0.12994403 -0.18778774 -0.44624043 -0.2293003 0.20100184 -0.13230911 0.2191446
0.24296883 0.20157616 -0.012212212 -0.10544309 -0.11621962 -0.16492099 0.37240177 0.109656096
-0.11091145 -0.09925703 0.101563975 -0.1286989 0.08489121 0.3254464 -0.18822612 0.20180924
-0.18045487 -0.17805433 -0.35579145 0.30917534 -0.1414758 0.25043142 0.08019872 0.2569831
-0.24881016 0.37807086 -0.2612195 -0.2656524 0.2639435 0.1429062 -0.11109022 -0.017709795
-0.39503983 -0.37448195 0.009350022 0.28638938 0.17109348 0.130477 -0.2128223 0.29811567
0.011822998 0.23215531 0.042242505 0.22031783 0.013755502 0.28833207 0.26418063 0.12838887

fc2.weight f4 [300, 400]
00000000: 626d ea3d 4068 053e b93c 1fbd 8ec6 0cbc
00000010: 6186 7bbd 4839 b7bd 741d a43d 7339 4c3d
00000020: 1710 8ebe a243 5dbe d380 913c 8f69 32bd
00000030: 80c8 6c3d d3b3 623b 9750 e3bd 3d8d a63d
00000040: 9103 37bc 0584 c33c d192 053d 96f9 36bd
00000050: 3e08 25bd c226 843d f42d 5e3d ff0c 8abd
00000060: 8c69 4a3d c291 08bd 482a 243e 0edc 153b
00000070: da5d 683d 473a f5bd 476e 46be 4014 db3d
00000080: 1364 313c f6d6 563d 929a b7bd 5b70 7abb
00000090: 270f 7f3d f01f 903d b196 8cbd 48ae 2ebe
000000a0: e967 073e c83c 16bd 7a79 90bd b811 d33d
000000b0: 758d 723b d7bb fb3b ff27 23be e01d 4c3e
000000c0: f524 9e3d f5c5 2d3d 38b1 053e 9e6f b83c
000000d0: a9bd b03d 4a6e 1ebd 1492 ef3d f2d0 c13d
000000e0: 0b74 02bd bddf 9c3d aeaf 96bd afdd 763d
000000f0: 4955 6d3d 84d0 513c ab7e bf3d 72f0 debc
00000100: f15a 013e 537e e13d 9f6b b03d 638d 353c
00000110: 15ed eabc 4166 d23d 6098 9cbc 90e1 603d
00000120: c2e5 773d 1937 813d c3b7 f4bd 5dce 49bc
00000130: 4703 643d 6924 a1bd 917a 443d b166 903d
00000140: 9606 063d 004e 50be 3fd3 273e c985 ffbc
00000150: 5373 a0bd fc14 293e d769 603d c704 033e
00000160: e29f 393d adf6 443d 75f5 1cbc db90 313e
00000170: c839 243d d610 4e3e 615a 7d3c 029a 97be
00000180: da89 3a3d c0ff 893d 5fb3 0cbd 7bd1 c0bc
00000190: ca2c 203d 7506 8fbb 8891 e33d 5e92 a53d
000001a0: 4202 58bd 59e2 b43d a5aa 993d 934b 663d
000001b0: 07d2 d23d 37e4 933d 8a06 02bd d213 6dbe
000001c0: fb35 3a3d f458 0fbd fb27 b3bc 7482 f33d
000001d0: 4bba a6bc 0ba0 21be b185 783e ca3d dfbc
000001e0: 24d5 3b3d 0d8d 303c d0af ab3d 05ce 253d
000001f0: f628 023d 9169 b1bc e678 dcbd 1e92 a8bd
00000200: b4f1 20bd bcd7 c23d 6433 aebd a8b2 e13c
00000210: 6fa0 e63d 96b5 20be b7b7 99bc 1f28 0bbe
00000220: 13e0 eabd 2900 f6bc 112f e5bd 5f46 78be
00000230: 620f 0dbd e4c3 8fbd 24fe ab3d 2f6e 83bc
00000240: 4a7e 19bd 83eb 67bc c7f3 3e3d 1867 4f3e
00000250: 3c7d debe 50b5 983d 1b03 9f3d 4b2f 1d3d
00000260: 5fd6 183e cb5f a1bd fd3e 813c 87ec 99bc
00000270: 3166 56bd 5e95 5bbd d612 c73b 9d73 98bd
00000280: a4f6 99bd f3f0 9e3d 5c6f fe3d edb7 25be
00000290: c4d8 4cbe b20f 72bd d622 4ebe a293 f4bd
000002a0: 10bf 993d f82f 25bd bd79 ac3d 8260 97bd
000002b0: 01d4 40be ca6d 053d 72e2 44be 6cf3 01be
000002c0: 806b aabd c0cd b1bd bed1 763d fe85 9d3d
000002d0: 2a70 23bd 1403 9d3c 4c01 e439 3608 0ebd
000002e0: bd32 0ebe 6caf 91bd 8b07 33bd 86d9 893d
000002f0: f63c 973d 97eb fcbc bb62 83bc 9704 05be
00000300: 808a 733d 8a7a 88bd 21b0 a33c d5a8 843d
00000310: d7da febb 1fd9 d2bb 6a3c 913c bcdb 143d
00000320: 547e 023e 4451 cb3c 3288 70bd bb66 75bd
00000330: 3c0d 2b3e cfaa 963c d698 ee3d 5b99 1d3d
00000340: f6b4 af3c 2970 c33a 977a 633b 78f0 113b
00000350: f9eb 863d affb b8bd 2823 683d 48d2 dbbd
00000360: e05f e83d b5bb 5a3e 84c5 9ebb cb92 57bc
00000370: 9951 e9bd 74c8 b8bc 4dad bfbc 2f29 c33d
00000380: b801 083e e9a5 1fbe 69fd 35bd 9ea5 9b3d
00000390: e7df 533c 2f9b c63d 9032 a33d 8de8 a5bd
000003a0: bf71 523e 4ded 003e 7761 6e3d 1c16 153e
000003b0: 8575 eabc 8efc b7bd b98e b9bd 956e 353c
000003c0: 3935 c0bd a384 953d a2bc 3fbd 851c 60bd
000003d0: 17b6 b33d 54f8 0d3d cca6 323b 6510 ea3d
000003e0: d309 c1bc 1924 cabc 4c24 68bd 69d4 a4bd
000003f0: c3e2 ae3d 27bb 60bc 3050 98bc 5513 88bc
0.11446644 0.1302805 -0.03887627 -0.008592261 -0.06140745 -0.089464724 0.0801343 0.049859475
-0.2774665 -0.21607831 0.017761623 -0.0435577 0.0578084 0.0034592047 -0.11099356 0.08132408
-0.011170284 0.023866663 0.03261072 -0.044671617 -0.040291063 0.06452705 0.054243043 -0.0674076
0.049417064 -0.03334213 0.16031754 0.0022866759 0.05673013 -0.11974006 -0.19378005 0.10697222
0.010827082 0.052451096 -0.08965029 -0.0038213942 0.06227031 0.070373416 -0.068646796 -0.1705867
0.13223232 -0.03667906 -0.0705442 0.10306114 0.0037010584 0.0076823044 -0.15933226 0.19933271
0.07721893 0.042425115 0.13055885 0.02251416 0.08629925 -0.0386794 0.11697784 0.09463681
-0.03184895 0.07659862 -0.07357727 0.060270008 0.057942662 0.012806062 0.09350332 -0.027214263
0.12632348 0.110104226 0.08614277 0.0110810725 -0.028677503 0.1027341 -0.019115627 0.054902613
0.06052185 0.06309337 -0.11949112 -0.012317267 0.055667188 -0.07868273 0.04796845 0.07050837
0.032721125 -0.20342255 0.16389178 -0.031191723 -0.07834496 0.16511911 0.054788437 0.12794791
0.04531849 0.04808681 -0.009580006 0.17340414 0.040094167 0.2012361 0.015463443 -0.29609686
0.04554162 0.067382336 -0.03435075 -0.023537388 0.039105214 -0.0043647834 0.11111742 0.08084558
-0.05273653 0.08832235 0.07503251 0.056224417 0.10293966 0.07221263 -0.031744517 -0.23152092
0.045461636 -0.03499694 -0.02186965 0.11890116 -0.020352503 -0.15783708 0.24269749 -0.027251143
0.045857564 0.010775817 0.08383143 0.04047968 0.031777345 -0.021656783 -0.10765247 -0.08230995
-0.039293006 0.09513804 -0.08505896 0.02755101 0.11261069 -0.1569427 -0.01876436 -0.13589524
-0.1146852 -0.030029373 -0.11190618 -0.24245594 -0.0344385 -0.07019785 0.08398083 -0.01604375
-0.037473954 -0.014155271 0.046619203 0.20254171 -0.4345492 0.074564576 0.07764264 0.03837518
0.14925526 -0.07879599 0.015777105 -0.018789543 -0.05234355 -0.053609245 0.0060752435 -0.074439265
-0.07517746 0.07760801 0.12423584 -0.16183443 -0.20004565 -0.059097 -0.20130476 -0.11942221
0.075071454 -0.04032895 0.08421657 -0.07391454 -0.18830873 0.032575406 -0.19227007 -0.12690514
-0.08321285 -0.08681822 0.06025862 0.076915726 -0.03990189 0.019166507 0.00043488515 -0.0346758
-0.13886543 -0.07113537 -0.043708365 0.067309424 0.07384674 -0.030874057 -0.01603829 -0.12990032
0.059458256 -0.066639975 0.019981446 0.06477515 -0.0077775526 -0.0064345743 0.017729003 0.036342368
0.12743503 0.024819024 -0.058723636 -0.059912425 0.16704267 0.018391995 0.11650245 0.03847633
0.021448594 0.0014910746 0.003471052 0.0022268575 0.06587977 -0.0903238 0.056674153 -0.10733467
0.11346412 0.21360667 -0.004845323 -0.013157557 -0.11392517 -0.022556521 -0.023398066 0.095293395
0.13281906 -0.15590633 -0.044431124 0.07599948 0.0129318 0.09697568 0.079686284 -0.08100996
0.20551203 0.12590523 0.05819842 0.14559215 -0.02862049 -0.08983718 -0.09060425 0.011073728
-0.093851514 0.07300689 -0.046810754 -0.0547147 0.08774965 0.034660652 0.0027260063 0.11428908
-0.023564255 -0.024675416 -0.05667524 -0.080483265 0.08539345 -0.013716496 -0.018592924 -0.01661078

fc2.bias f4 [300]
00000000: bfb1 ab3d 480d 17bd 682f da3c b068 60bc
00000010: 69b2 ad3c fac8 b9bb cc8b f2bc 97d5 c9bb
00000020: 5023 31bd dbc6 543d 2405 22bd b2ee 25bb
00000030: be4f 02bd abc8 f33c 184c 4fbd ad7d c9bb
00000040: bd7d f73c 37ba 29bc 2d91 e23c 6324 38bd
00000050: 23c8 7e3d bfdc 253d 732c c43c db7f 093c
00000060: 5ed1 a13c 10fb 183d 86c4 463d 9d05 38bd
00000070: ebd6 9ebd 6e88 b4ba 7e50 343d 5177 943c
00000080: 5da9 923c 7468 5cbc 53af d23d 87fd 7d3c
00000090: aa3e dcbc bb5d 75bc d9ea 90b9 1f32 4d3c
000000a0: 34fc a8bc 7ab6 70bc 64b2 973c 10c9 d1bb
000000b0: 062c 9f3d 8b01 87bc 962e e4bc b918 453d
000000c0: 7e08 143d 0e2e ecbb 0d96 12bb 8e30 5c3c
000000d0: 19b0 fc3c 0347 403d 008a c03c 7f43 b6bb
000000e0: 72e5 e33d 0f44 31bd 6ba2 073d 6f9f 063c
000000f0: 4292 b63c be04 c63c 7f41 d63c 22b4 33bd
00000100: fd36 cdbc 5600 0e3d 3880 ca3c fd58 f73c
00000110: 2e04 59bb e237 b73d 4525 12bd afe0 3a3d
00000120: 2180 98bb c0e2 083c 1fc5 0d3d 6c92 21bd
00000130: ea75 473d 0563 65bc 92df c0bc 69e1 25bd
00000140: 1859 5abd 9f65 603d 9d31 0f3c 1f79 553d
00000150: d06a c5bc c81a 623d d909 753c b7d2 643c
00000160: 44e3 1b3d 8277 753c bbce cbbb ad89 e5bb
00000170: 1448 b0bc d329 013d b7ab 363d b4cb 4d3b
00000180: 151d 283d f8c0 28bd 3dfa 973c 4641 6ebd
00000190: 73b5 24bd 409b a13a 92ac 3c3d de51 1cbd
000001a0: 4b86 e9bc fdd9 413d 43db 443c d427 39bd
000001b0: db51 553d 1a83 bcbc 8a30 8bbd 80bd f639
000001c0: 414d 12bc 5e46 ac3d 24ca 343d 9bf9 e83c
000001d0: 5240 3b3d cd0c 563d 24b5 e03c cea0 57bd
000001e0: db14 7d3d b781 b23c 8cb9 7f3d eb27 17bb
000001f0: 38ac 6abd 40e0 0f3d dd93 df3c 54c6 4fbc
00000200: c384 be3d d322 4e3c 9527 073d 0a89 36bb
00000210: fba2 90bc bc35 523b 98c6 a63c 8082 10bd
00000220: 6c99 3b3d 10bf 253d aacd d83c fb3f c63c
00000230: f367 ac3c e676 793d 8a1c ad3b 31b2 d83c
00000240: bd97 043d 9036 ddbc 527c 973c 9a89 dcbb
00000250: bed9 903c a9df e4bc 1756 0b3d a89d 8c3c
00000260: 55d1 503c 681a 1b3d 05e0 623d c731 a73d
00000270: 68b8 e53c aa34 18bd 8ed6 aabc cb1e 823d
00000280: fe7a d13c 1549 dbbc 096a a63b 41a0 4f3d
00000290: aca2 8a3d 9897 633d 68cf 13bc c2bb 3cbc
000002a0: 6a6e 37bd e00f 0d3e 8525 8dbd b9a3 ca3d
000002b0: dba4 f93c ecdb 083d 0d9d c53c 5b02 083c
000002c0: b056 bbbc 38e6 58ba d857 c93c 8ca5 463d
000002d0: 85e6 cc39 438c 3e3d 8bea 1ebd e695 1f3c
000002e0: af68 633c ec45 823c e18b 483d d3fd 3f3d
000002f0: d4e2 033d 06ab 9a3d 2516 15bd 4a97 aa3b
00000300: bc7e c63c 9917 163d 6518 903b 4acf a5bd
00000310: 069c cebc 9b98 42bd 98de 003d e6f7 003d
00000320: 5984 903c 53f2 cabc c139 27bd 9e85 d5bc
00000330: ea2d 9a3c 9730 ce3b 38bd 1fbc e8fe 063d
00000340: 6347 3f3c c453 76bc d354 dcbb f404 07bd
00000350: e3e5 d43b 61b8 cf3a 250a cabb 4adc ed3c
00000360: 7a15 cd3c 6306 1c3d ff01 f63d b524 1f3d
00000370: b607 0c3d a23a b2bc 1d57 edbb 1ea8 5c3c
00000380: 0659 0abb 9c6b a3bc b998 a33b 897d fbba
00000390: d334 62bc ab90 a23c 52d3 533b f3da 0abd
000003a0: 29a9 553c 22d9 2e3d 5949 00bc 7aee 0e3e
000003b0: 68cb 3cbd bbf1 bbbb 7681 2abd 0893 023d
000003c0: 0cc8 80bc 25a6 3dba 8001 4bbc ab86 2ebd
000003d0: 3dcb 293d 560c bbbc 0959 1abb 97f1 853d
000003e0: cf58 223d 46a0 bd3b 253e 28bd cbda 8f3b
000003f0: aeed 4c3d 9dea bb3c 8261 0b3a 6913 503b
0.08383512 -0.0368779 0.026633933 -0.013696834 0.021203237 -0.00566971 -0.029607676 -0.006159495
-0.043246567 0.051947456 -0.039555684 -0.0025319275 -0.03181433 0.029758772 -0.050609678 -0.006149015
0.030211324 -0.0103593385 0.027657116 -0.044956576 0.062202584 0.040493723 0.023946976 0.0083922995
0.019753154 0.037348807 0.048527263 -0.04492723 -0.07755836 -0.0013773569 0.044022076 0.0181233
0.017903024 -0.013452638 0.10287347 0.01550234 -0.02688535 -0.01497596 -0.00027640795 0.012524157
-0.020628072 -0.014691943 0.01851768 -0.0064021423 0.07772069 -0.016480228 -0.027854245 0.04811928
0.03614091 -0.0072076386 -0.002236727 0.013439311 0.030845689 0.046942722 0.023503304 -0.0055622454
0.111277476 -0.043277796 0.03311388 0.008216723 0.022286538 0.024172183 0.026154278 -0.04387296
-0.025050635 0.03466829 0.024719343 0.0301938 -0.0033114064 0.08946206 -0.035680074 0.04562443
-0.004653946 0.008354843 0.034611817 -0.03944628 0.048696436 -0.014000659 -0.023544107 -0.04049817
-0.053307623 0.054784413 0.008739856 0.052117463 -0.024098784 0.05520132 0.014955961 0.013966254
0.038058534 0.014982106 -0.0062197126 -0.0070049376 -0.021518745 0.031534027 0.044597354 0.0031401934
0.04104336 -0.041199654 0.01855194 -0.05816772 -0.040212106 0.0012329593 0.046063013 -0.038164012
-0.028506419 0.04732703 0.012015167 -0.045204 0.052080017 -0.023011733 -0.067963675 0.00047061965
-0.008929552 0.08411859 0.04413809 0.028439334 0.045715638 0.0522583 0.027430125 -0.05264359
0.061787467 0.021790368 0.06243281 -0.0023064564 -0.057293147 0.03512597 0.027292186 -0.012681562
0.09302666 0.012581545 0.032996733 -0.0027852678 -0.01765584 0.0032075485 0.020358369 -0.035280704
0.04580061 0.040465415 0.026465256 0.02420043 0.02104566 0.060904406 0.005282943 0.026452156
0.03237127 -0.027003556 0.018491898 -0.0067302706 0.017681953 -0.02793868 0.03401765 0.01716502
0.012745221 0.03786698 0.055389423 0.08163791 0.028042033 -0.0371596 -0.02085426 0.063535295
0.025571343 -0.026768247 0.0050785583 0.05068994 0.067693084 0.055564493 -0.0090216175 -0.011519374
-0.044783033 0.13775587 -0.06891922 0.09894509 0.030474117 0.03341286 0.02412274 0.008301343
-0.022868484 -0.00082740514 0.02457802 0.04849772 0.00039081663 0.046520483 -0.038797896 0.009740328
0.013879939 0.015902482 0.048961524 0.046872925 0.032198742 0.075521514 -0.03639807 0.0052060233
0.024230354 0.0366436 0.0043974393 -0.08096178 -0.025220882 -0.047508817 0.031462282 0.031486414
0.017641233 -0.024773752 -0.040826563 -0.02606469 0.018820722 0.0062924135 -0.009749703 0.03295794
0.011674735 -0.01503462 -0.006723979 -0.032963708 0.006497131 0.0015847796 -0.00616576 0.029035706
0.025034655 0.03809203 0.120120995 0.038853366 0.03418704 -0.021756474 -0.0072430507 0.013467817
-0.002111019 -0.019948773 0.004992571 -0.0019187193 -0.01380654 0.019844374 0.0032322002 -0.033900212
0.013040819 0.042687543 -0.007829987 0.13958159 -0.04609242 -0.0057356036 -0.04162737 0.0318785
-0.01572039 -0.00072345353 -0.012390494 -0.042608898 0.04145359 -0.02283303 -0.0023551604 0.0654022
0.039635476 0.0057869283 -0.04107489 0.004390096 0.050031357 0.02293902 0.0005316959 0.003174985

fc3.weight f4 [2, 300]
00000000: f667 20be 6cb2 3abd 44a6 e03d e277 19be
00000010: d427 b8bd 8c4a 3dbe f2d8 edbd c081 07be
00000020: db74 ddbc 2a19 d2bc dc7f 9a3a 3aca 073e
00000030: 01b1 2fbe 3291 3dbc f1a9 ee3d 7314 4cbe
00000040: b985 d5ba cc75 a73d f3f5 a63c e9e2 0d3b
00000050: dcb9 5f3d 59be 81bb 01d1 bbbd fb70 eabd
00000060: 9303 ecbc 8d97 64bd a959 debc 101e e13d
00000070: 0b99 e5be 64e7 a5be 10fc 1bbe 2732 54bd
00000080: 2521 d53d febd 12be 897c 303d ba1f 26bc
00000090: d108 16be e26b bbbd 700a ed3d e7db aabd
000000a0: a78c bbbd 20cd 79bd 0787 473d b5ca 4bbe
000000b0: d988 8c3c df47 10bc f750 363e fb2a 8d3d
000000c0: 623b b23d 36e9 c6bd 0512 b83d 119f 013e
000000d0: a8a7 96be 046a 9a3b 369a 2cbd 6341 4e3e
000000e0: 087c 393d 92b7 df3d 7b3d b7bd 6824 71be
000000f0: dece 18bf c19b 42bd c964 a3bd da70 5cba
00000100: f896 e6bd dc27 153e 291f bebd 9b2f 9c3d
00000110: ec28 afbe 4798 343d 15cb 8cbe 5111 d0be
00000120: 53ae babd 7429 17be 7918 4c3d 52eb 8ebd
00000130: 6a94 06bd 9743 3cbd 0324 a0bd 14ef 45bc
00000140: 786d 453e 94c8 66bc 7dfc 41bd 4a29 43bc
00000150: 2fd5 903c ab1e dfbe cb78 863d 6f2b ba3d
00000160: fccf acbb 7a86 d6be 7cfe 103b cf40 2abe
00000170: 0596 c5bc 08cb afbd 60a5 2fbe d646 41be
00000180: f3e2 10be 8c8a b83d f95d dfbc 6d1c 403c
00000190: 4f98 0e3e 6046 1bbe 09ba 8bbd 6e1e 513d
000001a0: ce53 77bd 390d 2abe 665b b1bd e124 f63d
000001b0: 1357 ec3b 509d 5cbe 5932 163e 9909 21bb
000001c0: fdd0 96bd 6dd3 2cbe ba4b ecbd 5e06 07bd
000001d0: 3777 943c bf3b 83bd 6e0f 913d 8283 143d
000001e0: ada9 a13d 4695 f3bd 4c60 bc3c c4f1 90bd
000001f0: 265d fabe 8dd8 ccbd df61 843d 106a a2bd
00000200: fdbf a53d a74b cbbe 6bfe 3a3c 07e7 e2bd
00000210: fd17 b73a 9624 7dbe 1a53 2dbe 2c08 99be
00000220: fcd1 bcbe 7d2b 47be 444d 41ba d60b d9bd
00000230: 508c 24bd 1608 3cbb f62c 38be cf0b 213d
00000240: dd0f b8bd 6559 d43b bee2 aa3d 2d95 71bd
00000250: 2c7d b6be 0a36 8cbc 01fb 94bd ffa1 103e
00000260: 6a9e 90bd 2966 30bd 9e95 40be 7af0 473d
00000270: a8e6 efbc e69c 123e f644 cb3d a6ea 83bd
00000280: 5448 a1bd 90c3 88bd 2be0 9bbd f593 483d
00000290: a367 c43d 88c2 2e3c 118a 2dbe aa3b 84bd
000002a0: a26a f73d 98ee a33d 4b00 583e 9efa 7a3d
000002b0: 2d4f de3d cafc b63d c3ef 04be b1c8 83bd
000002c0: bd93 d93a 86ec 72be 9178 eb3d ddb4 36be
000002d0: 17db a43a 45ec d1bc 58d9 6ebd 7e32 393e
000002e0: d2e9 bf3c 01d5 113d b4a4 80bd 0749 503d
000002f0: b078 3f3d 731a 77bb ef33 d2bd 651a f2be
00000300: 7d0c 6237 586b 5b3d 7ec6 f1be 35c5 94be
00000310: 0950 c63d a3d4 dfbd 8d78 3f3d 6f2d 10be
00000320: 5d0f 18bd f152 1ebe b42d bd3c 82c4 53be
00000330: 769f 4ebe 819d f43d 942e 02be 5261 d5bd
00000340: 955f 02be 0538 ba3d 05e4 8dbe 99c6 1bbe
00000350: daaa 4dbe 9f85 073e a287 47be 4c20 e0bd
00000360: c49d 8d3d 6696 573d 0f70 503d 03b7 01be
00000370: 025c 97bd 8520 11be ba5e 0bbe ccd2 4b3e
00000380: f0b3 a53e a9cd 21be 192f 4ebe bea8 843e
00000390: 378f a0bd dfad 99bd f756 c4bd 839d 21bd
000003a0: 3e04 cebc bfa4 7cbd 5807 2cbe 4372 ad3d
000003b0: 24db 80be 0065 a23d b798 11bb 394a 2ebc
000003c0: 8cf0 cdbd b2c1 8ebe 2f9b 04be bdcc b03d
000003d0: 09bc 783d 4bc3 60be 16f8 44bd effa b2bd
000003e0: e2f5 03be ce2e 56be a0d9 04be aaab a2bd
000003f0: 7838 8e3c a95b 1cbd aa55 0cbe cff0 b3bd
-0.15664658 -0.045580313 0.10969213 -0.14987138 -0.089919716 -0.18485469 -0.11613645 -0.1323309
-0.02703326 -0.025646765 0.0011787373 0.13260737 -0.17157365 -0.011570262 0.116535075 -0.19929676
-0.0016290463 0.08176765 0.02038095 0.0021650142 0.05462061 -0.003959459 -0.09170724 -0.114473306
-0.028810298 -0.055808593 -0.027142363 0.10992062 -0.44843325 -0.324031 -0.15232873 -0.05180564
0.104067124 -0.14330289 0.043087516 -0.0101394 -0.146518 -0.091514364 0.115742564 -0.08342724
-0.09157687 -0.060986638 0.048712756 -0.19901545 0.017155098 -0.008806198 0.17804323 0.068929635
0.087027326 -0.0971245 0.08987812 0.12658335 -0.29424787 0.004712345 -0.042139255 0.2014213
0.0452843 0.10923685 -0.08947273 -0.23549044 -0.59690654 -0.04751182 -0.079782076 -0.000840915
-0.11259264 0.14565986 -0.09283287 0.076262675 -0.34210908 0.044090535 -0.2749869 -0.4063821
-0.09115281 -0.14761907 0.049828026 -0.069784775 -0.032856382 -0.045962896 -0.07819369 -0.012080926
0.1928004 -0.0140859075 -0.047359932 -0.0119117 0.017679779 -0.43578085 0.06566008 0.090903156
-0.005273817 -0.41899472 0.002212434 -0.16626285 -0.024119386 -0.08583647 -0.1715293 -0.18874678
-0.14149074 0.09010801 -0.02726649 0.011725527 0.13925289 -0.15163565 -0.06822593 0.05105441
-0.060382657 -0.16606607 -0.08660011 0.12018753 0.0072125285 -0.21544385 0.14667644 -0.002457237
-0.0736408 -0.16877528 -0.11537881 -0.032965057 0.018123252 -0.0640788 0.07083021 0.036258228
0.07893691 -0.11893706 0.022995137 -0.07077363 -0.48899192 -0.10002241 0.0646398 -0.07930386
0.080932595 -0.39706156 0.011413197 -0.11079221 0.0013968941 -0.24720988 -0.16926232 -0.29889047
-0.36878955 -0.19450183 -0.0007373879 -0.10597961 -0.040172875 -0.0028691343 -0.17985901 0.039317902
-0.08987401 0.006480383 0.08344029 -0.058980156 -0.35642374 -0.017115612 -0.07274438 0.14124297
-0.07061465 -0.043066178 -0.18807074 0.04881332 -0.02928479 0.14317665 0.09925263 -0.0644124
-0.078751236 -0.066779256 -0.07611116 0.048969228 0.0959008 0.010666497 -0.169472 -0.064566925
0.120808855 0.080044925 0.21093862 0.061274163 0.10854945 0.089349344 -0.12982087 -0.06434763
0.0016599816 -0.23723039 0.114976056 -0.17842431 0.0012577501 -0.025625357 -0.058312744 0.18085667
0.023426924 0.035603527 -0.06281415 0.050850894 0.046745956 -0.0037704974 -0.10263812 -0.47285762
1.3473557e-05 0.053569168 -0.4722175 -0.29056707 0.09683234 -0.10929229 0.046745826 -0.14079832
-0.037124027 -0.15461327 0.023093082 -0.2068043 -0.20178017 0.11944104 -0.1271308 -0.10418953
-0.12731774 0.09092716 -0.27713028 -0.15212478 -0.20084706 0.13234566 -0.19485334 -0.1094366
0.06914857 0.052633666 0.050888117 -0.1266747 -0.07390596 -0.14172561 -0.13610354 0.19904631
0.32363844 -0.1580111 -0.20135154 0.2590999 -0.07839816 -0.075038664 -0.095869 -0.039456856
-0.025148507 -0.06168055 -0.16799676 0.08469059 -0.2516719 0.079294205 -0.002221627 -0.010637813
-0.10055646 -0.27882153 -0.12949823 0.08632801 0.0607262 -0.21949498 -0.048088156 -0.08739268
-0.12886766 -0.20916292 -0.12973642 -0.079428986 0.01736091 -0.03817335 -0.13704553 -0.08786165

fc3.bias f4 [2]
00000000: a062 6c3d b027 afbd
0.057711244 -0.08552492
