DataShared/results/Reacher-v2_buffer_td3_final/bcq_actor_target_tmp.pt (torch_old, 507032 bytes, 6 tensors)

l1.weight f4 [400, 13]
000000 34 c0 0b be 7d 0a 9f 3e 5e e4 28 be 56 4b 1f 3d
       -0.13647538 0.3106269 -0.16493365 0.038890205
000010 c9 4f 50 bd a0 f1 44 bf 84 d7 fe 3c ed 6f 12 3d
       -0.05085734 -0.7693119 0.031108625 0.035751272
000020 a8 90 4d be b8 06 c5 3e 34 a9 ab bd af 96 30 3f
       -0.20074713 0.38481688 -0.08381882 0.68979925
000030 cb 57 f0 3e dd 30 fa be a7 28 69 be d2 ae 89 3e
       0.4694198 -0.48865405 -0.22769414 0.2689119
000040 97 57 03 bf 3a 4e 72 3f 69 78 c6 be b3 36 0c bd
       -0.51305526 0.94650614 -0.3876374 -0.034231853
000050 c1 3b 25 3d e2 93 8e be 66 4c 0a 3f 80 86 54 3e
       0.04034019 -0.278472 0.54022825 0.20754433
000060 ba 5a aa 3e e5 bf 54 c0 a0 3a c2 bd cd dd e8 bd
       0.33272344 -3.3242123 -0.09483838 -0.1137043
000070 74 6f dc bd c0 2b f0 3b be a3 ac be 06 39 51 3e
       -0.107634455 0.007329434 -0.33718675 0.20431909
000080 81 4b 89 3c c6 60 a6 3b a1 a2 37 bf aa a7 ae 3e
       0.016759636 0.0050774543 -0.71732527 0.34112293
000090 3d c9 25 be 31 58 f3 40 55 db b6 be a7 e5 1f be
       -0.16190048 7.6045156 -0.35714212 -0.15614949
0000a0 36 ce 17 be c4 f0 1a 3c 39 f1 3b bd e7 34 09 3f
       -0.14824757 0.009456817 -0.045884345 0.5359635
0000b0 98 ed 54 3c 32 75 a1 bc 37 95 21 3c da 93 f8 3e
       0.0129961 -0.019709203 0.009862236 0.48550302
0000c0 12 97 a9 bd 40 f6 23 bc 9b 90 c3 40 02 4e 0b 3f
       -0.082807675 -0.010007441 6.111402 0.54415905
0000d0 ac 67 07 bf 78 09 51 be 7b 3c 00 3f 6f 70 af bd
       -0.52892566 -0.20413768 0.50092286 -0.08566367
0000e0 18 7f 9a 3e 4a 03 c1 bf 9c f3 b7 3c bc 14 4d bd
       0.3017509 -1.5079129 0.02245503 -0.050068602
0000f0 7d 2c 81 3f 2a 11 88 bf 62 3b 28 be 8a 08 86 40
       1.0091702 -1.0630238 -0.16428903 4.1885424
000100 b3 c5 14 be 67 22 e9 bd 28 d5 aa 3d 07 3f 92 bc
       -0.14528541 -0.11383515 0.083414376 -0.01785232
000110 18 c9 f0 bd 8e ae f1 3e 1f 64 0c 3f 6b 5f 23 3d
       -0.117571056 0.47203487 0.5484027 0.03988592
000120 55 a5 99 3b c6 e3 69 3f df a7 ae 3e 56 98 7a 3e
       0.0046888986 0.9136318 0.3411245 0.24472174
000130 6a 3d 44 bf 4e 29 96 c0 5d 36 14 3e 6e 81 59 3d
       -0.7665621 -4.692542 0.14473863 0.05310195
000140 79 ff b4 bc 4a e9 38 bd f8 64 27 bf ba 4c 3b 3e
       -0.022094475 -0.045144357 -0.6538844 0.18290988
000150 99 99 37 3c bd 8d 31 3c 2c 06 85 bf 77 2a 67 3e
       0.011206054 0.010837016 -1.0392509 0.22574793
000160 d4 6e da 3d 9a 08 0d c1 48 1f 74 3f 26 57 fb bd
       0.1066567 -8.8146 0.9536023 -0.122724816
000170 77 35 3f be 82 a4 c7 3c 45 c4 6d bd 77 6a 10 bf
       -0.18672739 0.024370436 -0.058048505 -0.5641245
000180 05 7c 4b bf 25 68 69 3a a6 44 28 3c 46 55 e6 be
       -0.79486114 0.00089037634 0.010270273 -0.44986933
000190 cf 51 6e bf 60 5e 3f 3e 36 46 b4 c0 a0 91 b2 c0
       -0.9309358 0.18688345 -5.6335707 -5.5802765
0001a0 1c 06 01 bf e4 f7 0f bd 69 24 de bd f5 0e 9b be
       -0.5039995 -0.035148516 -0.108467884 -0.3028485
0001b0 ba e2 e3 3f 49 dc dc 3e a2 a3 51 3c fa 62 d8 bb
       1.7803566 0.43136814 0.012795361 -0.006603596
0001c0 da eb 62 bf ef 58 33 bf 2e a1 42 3e 11 db d4 be
       -0.8864113 -0.70057577 0.19006798 -0.41573384
0001d0 6e 93 23 bf 7b 03 10 3d 9a 0d 77 3e f3 98 3e bc
       -0.63896835 0.03515957 0.24126282 -0.011633146
0001e0 d9 d7 1a 3e 7c df c8 3e 98 52 21 3e 6c 1c a1 bc
       0.15121402 0.39233005 0.15754163 -0.019666873
0001f0 0c 24 d9 bb 3b 6b 99 bf ce 20 af 3e e6 57 0a be
       -0.0066266116 -1.1985849 0.34204715 -0.13510093
000200 48 5b 39 c0 8a 50 4f c0 21 07 b5 bc 0c ce be 3d
       -2.8961964 -3.2392907 -0.022098126 0.09316644
000210 af f6 27 be 65 9f 13 3e 12 40 80 3f 86 2d 61 be
       -0.16402696 0.14416273 1.0019553 -0.21990022
000220 2d 27 1b 3d 58 81 39 bd 16 f3 97 bf f0 43 90 3f
       0.037879158 -0.045289367 -1.1871059 1.1270733
000230 15 83 86 3e 1d 3d 17 40 db 9f 6e 40 b3 a0 71 be
       0.26271883 2.363105 3.7285068 -0.23596458
000240 a0 44 33 be 75 6a 12 bd 67 6a 31 bc 5d 6b 9f bc
       -0.17506647 -0.035746057 -0.010828591 -0.019460374
000250 6d 93 8a 3e 37 9b a6 3a 15 f9 9a bc be fb 2e bf
       0.27065602 0.0012711053 -0.0189176 -0.6835288
000260 f5 f6 05 bf 3a c0 1b 3e cd be 95 3f 5e ab 25 3f
       -0.5232995 0.15210047 1.1698853 0.6471461
000270 69 5d d5 bd db f1 a3 3d 12 c8 ec bc a3 c2 9f 3d
       -0.10418207 0.08005115 -0.028903995 0.07800796
000280 b1 29 4a 3d 74 dc 41 3c 75 88 f2 3b 44 d3 7e 3b
       0.049356166 0.011832345 0.007401521 0.0038883248
000290 db 4e 38 3e 4b 26 36 be 5c 04 01 be 0e df 6c 40
       0.17998831 -0.17788045 -0.12599319 3.7011142
0002a0 64 93 f9 be ad 86 f3 3c 2d 17 6b bd d2 ff 5e 3d
       -0.48745263 0.029727304 -0.05739515 0.054443188
0002b0 35 53 27 bd f4 88 a6 3f dc 38 a1 be 6b 4a 02 3e
       -0.040850837 1.3010545 -0.31488693 0.127237
0002c0 8d 88 f3 bc cc f5 4f bf fd a1 5e be 1a 81 65 be
       -0.029728198 -0.8123443 -0.21741481 -0.2241253
0002d0 19 34 1e c0 dd 42 21 40 50 a7 31 3e b5 49 b1 3d
       -2.4719298 2.519706 0.17348981 0.086566366
0002e0 e6 75 c3 bd 00 a7 de bc 46 a9 3a bf bd 30 9a 3d
       -0.09543972 -0.027179241 -0.7291454 0.07528827
0002f0 6f f6 93 bc 38 3f 50 3c 5d 67 37 bf d0 61 ce 3d
       -0.018061845 0.012710385 -0.71642095 0.1007725
000300 00 55 48 be 9a 9f f3 3f 61 c7 84 c0 89 60 c8 bd
       -0.19563675 1.9033082 -4.1493382 -0.097840376
000310 28 51 30 3e 7c 5b 85 3d 91 ce 54 bd 17 7c b3 3f
       0.17218459 0.0651159 -0.05195481 1.4022244
000320 b9 89 5d bf 72 84 64 3b e6 58 9d 3c d0 22 c8 bf
       -0.86538273 0.0034868983 0.01920743 -1.5635624
000330 e5 a1 15 3f 20 c9 46 3e 90 d1 47 bf 24 0d 01 40
       0.58450156 0.1941266 -0.7805414 2.016427
000340 94 64 31 bc 7a 95 fd bc 2f b0 fb 3c bd 50 f9 3c
       -0.010827202 -0.030955065 0.03072366 0.030434007
000350 d3 7a d6 3d 2f 91 de bd 7e 2b d8 bb a9 35 04 bc
       0.104726456 -0.10867535 -0.0065969815 -0.008069434
000360 dd 71 99 3e 74 2d b0 be 4a 55 65 3e 70 1a 19 c0
       0.29969683 -0.34409678 0.22395816 -2.3922386
000370 4c ac d5 40 a5 73 46 be 31 36 4f 3e 44 b9 fc bd
       6.6772823 -0.19380052 0.20235516 -0.12340024
000380 a6 38 11 be 05 79 6b 3f f1 b9 46 3f 1b 63 43 3b
       -0.14181766 0.91981536 0.77627474 0.002981371
000390 4f c3 e1 3c 3e 9d 6b bf cb a6 3a 40 2e 40 6a 3e
       0.02755895 -0.9203681 2.9164302 0.22876045
0003a0 13 ee 0f 40 08 1d 62 40 2a 4b 9a bb 4c 89 ed bb
       2.248906 3.533022 -0.0047086673 -0.007249033
0003b0 dd bb 40 bb ef 92 18 3c f5 e7 c7 3d c3 4b 90 bd
       -0.002940885 0.009312375 0.09761039 -0.070457004
0003c0 fe dc 50 bc c6 3a cc bb 51 b6 8a 3e 37 a4 39 bc
       -0.012748001 -0.0062325923 0.2709222 -0.011330656
0003d0 96 36 12 3e bf bb fb be 4a ab be 40 12 38 6e bd
       0.14278635 -0.49166676 5.9584093 -0.05815894
0003e0 71 65 25 3e b7 3a eb bd e3 c5 ab 3e df df ff 3d
       0.16151978 -0.11485808 0.33549413 0.12493872
0003f0 2f e6 17 3f 17 97 33 38 39 e6 07 3d 11 6f 96 bf
       0.5933561 4.281764e-05 0.03317854 -1.1752645

l1.bias f4 [400]
000000 ed 58 81 bf 03 7e c8 bf a9 1c 78 3f 80 de e6 be
       -1.0105263 -1.5663456 0.9691873 -0.4509163
000010 11 0b 69 be 65 25 ce bf ac 01 35 3f 99 a8 51 bf
       -0.22758128 -1.6105162 0.70705676 -0.81897885
000020 b8 8b b3 bf 32 41 c6 bf ff 4c 8a bf e3 c1 66 bf
       -1.4027014 -1.5488646 -1.0804747 -0.901396
000030 cf 3f 93 bf 95 9a b6 bf 44 13 6f bf 57 13 a0 bf
       -1.1503848 -1.4265925 -0.9338877 -1.2505902
000040 55 e2 2a bf 3e 29 ca bf 6c 6f af bf 28 bf 8d bf
       -0.66751605 -1.5793836 -1.3705878 -1.1073961
000050 79 f1 c0 bf 8a b6 a7 bf b5 61 2b bf 55 d0 8d bf
       -1.5073692 -1.3102582 -0.66945964 -1.1079203
000060 7c f9 6c bf 29 91 5e bf 26 13 19 bf 3e 47 98 bf
       -0.9256818 -0.86940247 -0.59794843 -1.1896741
000070 a8 e0 94 bf 87 d0 ad bf 20 41 a1 bf 63 e4 c3 bf
       -1.163106 -1.3579262 -1.2598 -1.5304073
000080 3f 40 ba bf b8 91 8a bf 46 ec 9f bf 95 22 82 bf
       -1.4550856 -1.082572 -1.249398 -1.0166804
000090 e5 2f 8f bf 8b 9c b8 bf 65 c1 96 bf eb ac 10 bf
       -1.1186491 -1.4422773 -1.1777769 -0.5651385
0000a0 c1 3a ca bf 10 76 13 bf 8f cf a6 bf 10 3a c1 bf
       -1.579918 -0.57602024 -1.3032092 -1.5095844
0000b0 17 54 a9 bf ef a8 ae bf 7a d2 d4 bf d1 54 c8 bf
       -1.3228787 -1.3645304 -1.6626732 -1.5650884
0000c0 a8 03 bf bf da 39 d6 bf 8a 93 c2 bf 61 c6 c6 bf
       -1.4922991 -1.6736405 -1.5201275 -1.552929
0000d0 db 4e 88 bf 32 83 5f bf c0 fe ba bf 19 80 02 bf
       -1.0649065 -0.87309563 -1.4608994 -0.5097671
0000e0 5e 95 98 bf 8c 3c 7b bf 66 4b 99 bf 9c 1f 8f bf
       -1.1920583 -0.9813926 -1.1976135 -1.1181521
0000f0 68 96 b2 bf 2e ad 43 bf e4 a2 9e bf 36 b1 c4 bf
       -1.395215 -0.76436126 -1.239346 -1.536658
000100 34 1e 8d bf 65 56 91 bf 0f 0d a3 bf d8 49 cb bf
       -1.1024842 -1.135449 -1.273836 -1.588191
000110 f1 59 dd be ce ff 9f bf bf 7e ae bf 53 06 44 bf
       -0.43232682 -1.249994 -1.363243 -0.7657215
000120 70 40 35 bf 78 33 b0 bf 62 fc 9a bf b6 be 9e bf
       -0.7080145 -1.3765707 -1.2108271 -1.240195
000130 1a 70 85 bf 12 06 94 bf a2 3e 4f bf 2c 75 0e bf
       -1.0424836 -1.1564353 -0.80954945 -0.5564754
000140 15 12 82 bf e8 c9 8f be ce 28 95 bf 25 46 61 bf
       -1.0161768 -0.2808373 -1.1653078 -0.8799766
000150 84 55 49 bf 90 d1 96 bf 5c 04 53 bf 91 62 0a bf
       -0.7864611 -1.1782703 -0.82428527 -0.5405665
000160 40 fc c4 bf 05 17 1d bf af 2e a0 bf 26 01 9c bf
       -1.538948 -0.6136325 -1.2514247 -1.218785
000170 67 38 60 bf 46 23 9b bf 12 45 d4 bf 21 b4 36 3f
       -0.87586063 -1.212014 -1.6583579 0.71368605
000180 98 fb 95 bf cf 31 a0 bf 1d 48 9f bf 1f 86 b9 3f
       -1.1717405 -1.25152 -1.2443882 1.4494056
000190 ee 53 9f bf 45 f9 c1 bf 01 ca c8 bf ef 0c af bf
       -1.2447488 -1.5154196 -1.5686647 -1.3675822
0001a0 c7 6b 22 bf 84 75 20 bf b1 eb a3 bf b8 0b a8 bf
       -0.63445705 -0.62679315 -1.2806302 -1.3128576
0001b0 ae 67 bd bf 0d c7 84 bf 46 b9 9b bf e6 cd e3 bf
       -1.4797266 -1.0373245 -1.2165916 -1.779721
0001c0 e2 59 d6 bf b6 d6 aa bf 35 e4 85 bf c0 44 7d bf
       -1.674618 -1.3346775 -1.0460268 -0.9893303
0001d0 72 fd d4 bf ff 31 ab bf 79 30 94 bf 24 e7 8c bf
       -1.6639845 -1.3374633 -1.1577293 -1.1008039
0001e0 7b d6 72 bf e2 ad 8f bf c2 e6 a7 bf 33 35 6c bf
       -0.9485852 -1.122494 -1.3117297 -0.92268676
0001f0 1a e3 37 bf f5 b2 9e bf c0 72 b0 bf 51 c5 48 bf
       -0.71830904 -1.2398363 -1.3785019 -0.7842608
000200 1a c4 21 bf 91 e0 93 bf 44 e5 86 bf c5 fa 8e bf
       -0.6318985 -1.1552907 -1.0538716 -1.1170279
000210 02 2d 04 c0 27 47 a1 bf 4e 03 95 bf e4 4e 97 bf
       -2.065247 -1.2599839 -1.1641634 -1.182095
000220 93 22 1a bf 45 a6 8c bf ed 5c 2b bf 00 05 bb bf
       -0.60209006 -1.0988241 -0.6693867 -1.4610901
000230 76 22 a2 bf 77 3c a2 bf 17 51 a0 bf 07 45 a5 bf
       -1.2666767 -1.2674702 -1.2524747 -1.291169
000240 82 98 a2 bf e5 be 94 bf 26 9e 9f bf 81 58 2b bf
       -1.2702792 -1.1620756 -1.2470138 -0.6693192
000250 69 0d cd bf c6 38 0e bf a7 a0 b7 bf d6 f1 96 bf
       -1.6019717 -0.5555538 -1.4345902 -1.1792552
000260 10 f4 a0 bf ea 30 5e bf 3b e3 9d bf 3e 57 2b bf
       -1.2574482 -0.86793387 -1.233497 -0.66929996
000270 f6 8b 9b bf a6 03 9a bf af 3d aa bf d1 85 33 bf
       -1.2152088 -1.2032363 -1.3300074 -0.7012606
000280 fe 3f 94 bf ee 0b 92 bf de e1 9e bf 7c c3 b0 bf
       -1.1582029 -1.1409891 -1.2412679 -1.3809657
000290 e6 23 91 bf 4a 96 61 bf bb 7d 48 3e d5 41 af bf
       -1.133908 -0.8811995 0.19579212 -1.3691965
0002a0 02 11 52 bf ec e5 6e bf 73 95 8c bf 2a 04 ab bf
       -0.820572 -0.9331958 -1.0983108 -1.3360646
0002b0 10 b4 b5 bf 28 73 bb bf 0e 65 91 bf 81 d3 9e 3e
       -1.4195576 -1.4644518 -1.1358964 0.3102074
0002c0 b6 9b 47 3f fe 5e 93 bf 86 94 1e bf c9 30 6f bf
       0.7797197 -1.1513364 -0.6194538 -0.93433815
0002d0 fb 44 79 bf 84 f2 12 3f 78 54 b7 bf 9b 98 37 bf
       -0.9737088 0.574013 -1.4322653 -0.7171723
0002e0 08 ae 3e bf ef 46 b6 bf 7e af 90 bf ce 07 a5 bf
       -0.744843 -1.4240397 -1.1303556 -1.2893007
0002f0 66 de 9c 3f 10 de c7 bf d5 4a 84 bf fd 0b a1 bf
       1.2255371 -1.5614643 -1.0335337 -1.2581784
000300 98 8a bb bf d1 57 db bf b2 6a 58 bf 30 03 28 bf
       -1.465167 -1.7136174 -0.84537804 -0.65629864
000310 9f 86 a8 bf 7c 2d 0e bf 75 b7 81 bf cf 64 a4 bf
       -1.3166083 -0.55538154 -1.0134112 -1.2843264
000320 d6 0f cb be e4 a0 78 bf 4d d6 19 bf 99 0a c2 bf
       -0.3966052 -0.971205 -0.6009262 -1.5159484
000330 f0 f6 ba bf 25 82 f1 be 6c 16 7f bf 02 ed 57 bf
       -1.4606609 -0.47169605 -0.9964359 -0.8434602
000340 da 26 d8 bf f2 06 9a bf 3d 94 87 bf d5 72 8e bf
       -1.6886857 -1.203337 -1.0592114 -1.1128794
000350 4c 4b 70 bf 23 46 9e bf 0a 0f f9 bf 21 73 d5 be
       -0.93864894 -1.2365154 -1.9457715 -0.416894
000360 bc c0 f1 bf 67 17 aa bf 1b 16 aa bf ea 6a 51 bf
       -1.8886943 -1.3288392 -1.3287996 -0.8180376
000370 29 9d a6 bf 3e 29 b3 bf 0b 6e af bf 36 8f 7f bf
       -1.3016711 -1.3996961 -1.3705457 -0.998279
000380 df 15 8c bf 94 1b 76 bf aa 51 bc bf 59 e9 c2 bf
       -1.0944175 -0.9613583 -1.4712422 -1.5227462
000390 db 2f 1c bf 5e b9 92 bf 04 ea 94 bf e3 9c e8 bf
       -0.6101052 -1.146282 -1.1633916 -1.8172878
0003a0 26 1a 9c bf bd fd 04 c0 17 63 b3 bf a7 d0 bb bf
       -1.219548 -2.077987 -1.4014615 -1.4673051
0003b0 c8 ac b0 bf be d6 97 bf 3e ca 97 bf f2 90 07 bf
       -1.3802729 -1.1862409 -1.1858594 -0.52955544
0003c0 28 7e b5 bf b4 ba f5 bf d2 a7 82 be de 17 af bf
       -1.4179125 -1.9197602 -0.25518662 -1.3679159
0003d0 a2 e3 e9 bf 4c 4b 70 bf 30 e8 85 bf e3 c4 59 bf
       -1.8272593 -0.93864894 -1.0461483 -0.8506605
0003e0 90 12 b9 bf f3 51 a2 bf 8f 19 a3 bf ca 53 0b c0
       -1.445879 -1.2681259 -1.2742175 -2.176989
0003f0 85 a1 87 bf 5f d7 a6 bf cf b0 91 bf 8a ef 5e bf
       -1.0596167 -1.3034476 -1.1382083 -0.8708426

l2.weight f4 [300, 400]
000000 75 0b 8d bc d5 38 07 be a5 92 0a bd 09 02 45 bd
       -0.017217377 -0.13205273 -0.033831257 -0.048097644
000010 e3 45 ea bc 9d 34 0c bd 8a f4 59 bd 3d 37 8a ba
       -0.028597778 -0.034229863 -0.053211726 -0.0010545027
000020 53 93 61 bd 60 13 4f bd 16 65 a2 bd 33 43 f2 bc
       -0.05507214 -0.050555587 -0.07929437 -0.029573059
000030 48 6d 49 bd 7d c2 91 bd 74 dc 7f bc 7d 75 89 bd
       -0.049176484 -0.07117174 -0.015616525 -0.06711862
000040 f5 5a 86 bd dd 16 12 3d e8 85 bb bd b4 18 77 3c
       -0.065603174 0.035666335 -0.091564 0.015081573
000050 4c fa f0 bd bb c5 ec bc 7f 5c a2 bc 16 5b 2c bc
       -0.1176649 -0.028902879 -0.019819496 -0.010519763
000060 9e 17 ae bc de 38 1d bd 24 bd 05 3d 71 b2 d4 3c
       -0.021251496 -0.03838431 0.03265108 0.025963994
000070 aa 7d 65 bd 09 42 4b 3d 3f c8 a8 bb df 59 24 bd
       -0.056028046 0.049623523 -0.0051508243 -0.04012477
000080 f1 8f 47 3c 9e 5d 9a bd 0c 3c 7e bc c3 6d 67 bd
       0.012180314 -0.07537387 -0.015517246 -0.05650116
000090 ac ee 80 bd 6d cf 99 bd 2e 6b 18 bd 05 f3 08 bd
       -0.06295523 -0.075102665 -0.03721159 -0.033434886
0000a0 63 43 60 bd 01 61 cd bc 7c e7 76 bd 8c 51 70 bd
       -0.054751765 -0.02507067 -0.060279354 -0.05867152
0000b0 13 2f e0 bd a7 b4 ae bb f7 eb 24 bc d9 6f cd 3c
       -0.10946479 -0.005331594 -0.010066024 0.025077747
0000c0 88 e6 ba bd cd 11 9d bd 5b 9b 7e 3d c4 0c 73 3c
       -0.091260016 -0.07669411 0.062159877 0.0148345865
0000d0 ae b0 1b bd 34 b4 74 ba 41 9e c8 bd c8 79 b0 3a
       -0.03801029 -0.00093347137 -0.097958095 0.0013464028
0000e0 c3 3f f7 39 75 d6 99 3d 2a 8d 58 bd b6 de a1 bd
       0.00047159017 0.075116076 -0.052869 -0.07903807
0000f0 6f a2 ad bd 8b 8d ff 3b 1e 8a 1d bc b0 7a 3d ba
       -0.084782474 0.0077988557 -0.009615449 -0.00072280597
000100 26 af 18 bd bb 61 ec bd 30 95 43 bd 29 93 57 bc
       -0.03727641 -0.11542078 -0.0477497 -0.013157644
000110 27 8d a6 bc 5e fc a4 3b c5 e9 95 3a 85 7f 95 bb
       -0.020330979 0.0050349673 0.0011437467 -0.0045623207
000120 bc 0f 82 3d 8e dd ac bc ef a7 aa bd 9e 6d 28 bd
       0.06350657 -0.02110174 -0.08332812 -0.041120164
000130 5a 1d a9 bd 35 65 96 bd 9d 4c 88 bd 40 9f cc 3c
       -0.082575515 -0.073435225 -0.06655238 0.02497828
000140 f3 da e0 bc da 31 e8 3c 33 aa 65 bc cd 94 1c 3b
       -0.027448153 0.028344084 -0.014017629 0.0023892403
000150 3e de 9c bd 10 67 46 3c 5f 14 3a bb 25 b2 0b bd
       -0.07659577 0.012109533 -0.002839349 -0.03410544
000160 84 3b ff 3b fb 37 74 3c 24 a6 0d bd 76 a5 1d ba
       0.0077890772 0.014905925 -0.034582272 -0.00060137303
000170 61 4b 4e bd d3 db 70 bb 3f ac b5 bd c7 c9 ab bd
       -0.050364856 -0.003675212 -0.08870744 -0.08388095
000180 ba 54 6a 3d fd 9f 1d 3d 51 54 5f 3c 76 7c a8 ba
       0.057209708 0.038482655 0.013630942 -0.0012854475
000190 78 f8 bd bd e3 dc ee bd c5 67 81 bd b3 c3 e7 3c
       -0.09275907 -0.116632245 -0.063186206 0.028291559
0001a0 a4 be 72 bc 19 44 4d bd f4 d2 72 bd e6 4b 1b bd
       -0.01481596 -0.05011377 -0.05928321 -0.03791418
0001b0 20 90 b5 bc 74 bb f8 bc 25 f0 89 ba f8 4c b2 bd
       -0.02216345 -0.030362822 -0.0010523839 -0.08706087
0001c0 31 44 44 3d 1e 99 27 3d 7e 97 ad bd 6d a8 13 3c
       0.047916595 0.04091751 -0.084761605 0.009012324
0001d0 70 27 ce bc d6 1c ad bc 50 d1 46 bd 80 b8 34 bd
       -0.02516529 -0.021131914 -0.04853946 -0.044121265
0001e0 47 85 2c bc 80 ca b1 bd 24 d8 8d bd fb 1e 74 bd
       -0.010529823 -0.08681202 -0.06925991 -0.059599858
0001f0 9b f1 60 bd 92 c0 67 3c 5f eb 2b 3c a4 cc f8 bc
       -0.054917913 0.014145033 0.010493129 -0.030371018
000200 7f 76 a6 bb 43 c4 7c 3d e7 c3 b9 3b a0 af 4f bd
       -0.005080044 0.061710607 0.0056691053 -0.0507046
000210 34 3c 08 bc b5 37 0f be 4f 41 2c bd 0f 89 38 3d
       -0.008315135 -0.13986094 -0.04205447 0.045052584
000220 30 08 ce bc 66 11 2b 3d e1 4e dc bd 0c 7e 73 bd
       -0.025150388 0.04176464 -0.107572325 -0.05944638
000230 47 ce 3d bd 83 53 e2 bc 0f 1c 2d bd 64 3b f2 ba
       -0.0463393 -0.027627712 -0.042263087 -0.0018480835
000240 3f 96 28 bd 2c c5 f0 bc c7 6f ba 3a 07 6d af bd
       -0.04115891 -0.029390894 0.0014223986 -0.08565717
000250 15 11 17 3d 20 eb 43 3d 29 ba c4 bd 85 55 9c 3d
       0.036881525 0.047831655 -0.0960582 0.07633499
000260 5c 2e 73 3c f3 74 71 3c 47 fe b5 3c 95 13 88 bd
       0.014842596 0.0147373555 0.022215975 -0.0664436
000270 26 7e 9c bd fe 3f 94 bc d5 b1 90 3d 96 74 95 bd
       -0.076412484 -0.01809692 0.07065169 -0.07297628
000280 ff b7 b2 bd 22 81 dd bc 2c 8b 82 bd 96 a6 2e 3b
       -0.08726501 -0.027039114 -0.06374201 0.0026649586
000290 25 3f 81 bd bd e2 95 bc 01 bf ce 3c f7 c7 2a bd
       -0.06310872 -0.018296594 0.025237562 -0.041694608
0002a0 46 61 99 bc b1 2f d6 bc 15 cd 80 3c 33 e0 75 3c
       -0.018723141 -0.026145788 0.01572279 0.015007067
0002b0 02 9b d4 bc cf 2c 25 bd 5b 0b 7d 3c fb 20 63 bd
       -0.02595282 -0.040325936 0.015444602 -0.055451375
0002c0 6d 23 0c be 16 bf 13 be 17 40 a4 bc 9a 37 66 3d
       -0.13685389 -0.14428362 -0.020050092 0.05620537
0002d0 56 3f 21 3c 07 07 a7 bd f5 88 0f 3d f1 f7 d7 3c
       0.009841761 -0.08155637 0.03504272 0.026363345
0002e0 4f 9a 32 bc ed 68 8f bd 41 a3 43 bd 36 a5 9c bd
       -0.010901048 -0.07002435 -0.047763113 -0.07648699
0002f0 f7 ba a8 bd 81 24 d5 bc fe 8b 98 3b a1 f2 c8 3c
       -0.08238786 -0.026018383 0.0046553602 0.024529757
000300 95 44 04 bd 6e a6 24 3d d1 d2 cc bd 16 ba 18 3d
       -0.032291967 0.040197782 -0.100011475 0.03728684
000310 e7 a0 2a bd fe 20 15 bd 53 49 e5 ba 6d 1a 01 3d
       -0.041657355 -0.036408417 -0.0017493166 0.031519342
000320 6c 78 02 bc 4e cd 1d bd 23 ed fd 3c d3 38 ee bd
       -0.007963281 -0.038525872 0.030996865 -0.11631932
000330 cf 21 ab bd fd 4a 8e 3c 9c 74 79 bd a2 ee 51 bc
       -0.08356058 0.017369742 -0.060902223 -0.012813242
000340 e5 d9 94 bc ee 6d 23 bd 63 5f ec bc 7d d8 85 bc
       -0.018170306 -0.03989976 -0.028854078 -0.016338581
000350 65 a3 82 bd 16 e7 1d bd 26 f6 a1 3c ff 55 ba bd
       -0.06378821 -0.03855046 0.019770693 -0.09098434
000360 da 6b d6 3c a9 58 ce 3c 3a d8 52 bd 4d c7 05 bc
       0.026174475 0.02518876 -0.05147574 -0.008165193
000370 5d 3a 0a 3c 5e bd 22 3d 1b 50 e4 bc e5 b6 85 bd
       0.008436766 0.039731376 -0.027870229 -0.06529025
000380 12 c3 58 bd 71 ee ca bc 0e ba 9b 3d 12 e9 da bd
       -0.05292041 -0.0247719 0.076038465 -0.10688986
000390 67 e0 2e bd 99 ef 58 bc fe 31 27 bd b0 db 4a 3c
       -0.042694476 -0.013240718 -0.04081916 0.012381479
0003a0 3a 47 e6 3c 04 d8 80 bd 17 25 35 bc d4 3f 8a bc
       0.028110135 -0.06291202 -0.011056206 -0.016876139
0003b0 b8 29 bb 3c 9b 8d f9 3c f7 e2 b2 3c 62 c8 67 3d
       0.022847041 0.03046303 0.02183674 0.056587584
0003c0 47 17 b6 bc a3 3b 73 bd 53 55 63 bc c6 65 2b 3c
       -0.022227896 -0.059383046 -0.013875323 0.010461276
0003d0 23 70 fd bb 65 d7 8a bc f8 d0 b5 3d 03 ce f1 3c
       -0.007734315 -0.016948411 0.08877748 0.02951718
0003e0 f5 39 98 bd 40 e1 41 3d 6e f9 ab bb 26 02 80 bd
       -0.074329294 0.047333956 -0.00524824 -0.0625041
0003f0 f9 6d d2 bc 91 5d 52 3c 6d 72 03 bd 82 e2 df bc
       -0.025687205 0.012839691 -0.032091547 -0.027329687

l2.bias f4 [300]
000000 0d c3 8d bd 71 d9 c1 bc 3b 94 ee bc 3e d8 9d bc
       -0.069219686 -0.023663254 -0.029123416 -0.019268151
000010 e2 1b 58 bd 86 46 12 be 1d 80 8e bd e6 62 13 be
       -0.052760966 -0.14284715 -0.069580294 -0.14393196
000020 f2 e5 5a bd 49 a7 8e 3d ea 46 52 bd 67 b7 20 bf
       -0.05344195 0.06965501 -0.05133716 -0.6277985
000030 b9 5d c3 be ae c1 94 be 51 cb c7 3b 96 ac 94 bd
       -0.38157442 -0.29054016 0.0060972353 -0.07259481
000040 b5 d7 85 bd 1e 62 93 bd 64 53 87 bf 0e 1c 94 bc
       -0.065352835 -0.07196449 -1.0572324 -0.018079784
000050 fa 9c 5f bd 35 3b 64 bf e8 9d 6c bf 25 65 83 bd
       -0.054593064 -0.8915284 -0.92428446 -0.06415776
000060 5d f2 67 bf 41 6b 44 bd ae 77 98 bd af fa 2e 3f
       -0.9060419 -0.047953848 -0.07444702 0.6835126
000070 66 57 97 bf 21 ab 56 3c 87 5f 2b be 92 86 e0 bd
       -1.1823547 0.013102324 -0.1673566 -0.10963167
000080 fb 82 56 be df c6 2f bf 95 db cc bf fb 0d 62 bd
       -0.20948403 -0.6866283 -1.6004511 -0.055189114
000090 f2 7a d7 bd d1 d3 2b 3d 1f d8 a9 bd 4c f1 b1 bd
       -0.10521497 0.04195005 -0.08293175 -0.08688602
0000a0 f7 ea a0 bc d7 f4 22 bd 5c bd 70 bd ec bf 8d bd
       -0.01964329 -0.03978428 -0.058774337 -0.06921372
0000b0 bc 17 89 be 7d 7c 8c bd ee 39 06 3f 54 14 72 bd
       -0.2677592 -0.06859682 0.52432144 -0.059101418
0000c0 18 35 4c bf d6 8d 96 bc 50 b3 99 be 59 9e 0a be
       -0.79768515 -0.01837818 -0.30019617 -0.13536967
0000d0 e8 96 b4 bc d5 97 0c bd e0 ec 31 bd 40 da 3e be
       -0.022044614 -0.034324486 -0.043438792 -0.18637943
0000e0 8f 07 a6 bd 1d 5a 8c bd a9 d5 ce bd 25 a4 85 bc
       -0.081069104 -0.06853125 -0.10099346 -0.016313622
0000f0 5a 2a 10 3d d5 83 87 bc 4f 9f ad be d7 c4 d0 3e
       0.03519664 -0.016542355 -0.33910605 0.40775177
000100 7a 51 66 3e b1 d1 d4 bd bd 4e 1d bf 66 70 c5 be
       0.22492018 -0.10391558 -0.6144827 -0.38562316
000110 be 2a 23 3c d6 ca 10 be 7d 83 8f bd cf d7 41 be
       0.009958921 -0.14139876 -0.07007501 -0.1892998
000120 bd 4e 04 be 7a 80 51 be 5d db 04 bd 5c 6e f9 bc
       -0.12920661 -0.20459166 -0.032435764 -0.030448131
000130 b5 62 8c bc fa 0a 56 bd 2d fc 84 bd 16 83 1d bf
       -0.01713691 -0.05225656 -0.06493411 -0.61528146
000140 7b eb f1 bc 41 9d 44 bb a0 4c 3a bd 5b 1e fe 3d
       -0.029531231 -0.0030000957 -0.04548323 0.124081336
000150 de 4b 1e be 54 9e 74 bd 89 8a 41 be c5 22 19 be
       -0.15458629 -0.059721306 -0.18900503 -0.1495467
000160 da 1b 47 be ae 54 22 bf 80 61 36 be f8 7e 01 3f
       -0.19444218 -0.6341046 -0.17810631 0.50584364
000170 35 b7 80 bd f8 b2 3a bd 48 af 3e be 62 2e 57 bc
       -0.06284944 -0.045580834 -0.18621552 -0.013133617
000180 2c 2f f0 be ff 9c 5b be 26 b6 1b bd ba e4 d2 be
       -0.4691099 -0.21446608 -0.038015507 -0.4119013
000190 99 d7 c3 bd 24 fd f2 bd 5b 20 7d be 7f c2 2a be
       -0.09562606 -0.11864689 -0.24719374 -0.16675757
0001a0 c0 d1 35 bb 48 17 b6 bd 54 58 08 be 2b d4 61 bd
       -0.002774343 -0.08891159 -0.13314945 -0.05513398
0001b0 29 34 ba 3e e3 a2 e7 be d8 4a 36 bc be 14 96 bd
       0.3636792 -0.4524146 -0.011126243 -0.07328175
0001c0 43 e3 e2 bd e3 64 e9 be dc 12 94 be 50 8d 30 be
       -0.11078503 -0.45584783 -0.2892064 -0.17241406
0001d0 a4 f9 7d bd 8a 51 2c be cd 64 8b bc ba 3c 55 be
       -0.062005654 -0.1682798 -0.017015839 -0.20823947
0001e0 2d 8b 82 bd 36 fd 1e bd 93 9b 31 bf cf 5f 76 bd
       -0.06374202 -0.0388157 -0.6937801 -0.060149964
0001f0 c6 35 ca be 26 8a 9a bd 7e ac 9d bd d9 c0 4c bd
       -0.3949415 -0.07545881 -0.07698916 -0.0499886
000200 56 de 93 bd 6c d1 8f bd 5d e8 86 bd 66 40 9f bd
       -0.072201416 -0.07022366 -0.065872885 -0.07775955
000210 c6 32 27 3c a9 cc f0 bf e5 6a 01 bd 78 dc b1 bd
       0.010204976 -1.8812457 -0.031596083 -0.08684629
000220 ce 27 2a be 66 c6 91 bd 2e 9a 5c 3d 60 98 3d bc
       -0.16616747 -0.071179196 0.053857975 -0.011571974
000230 63 b8 2e bf 4a c8 18 be 45 11 05 bd 5b 97 ee bc
       -0.682501 -0.14920154 -0.032487173 -0.029124906
000240 c8 1f bf bd cb 15 e2 bd a7 72 a0 bd e6 f8 93 bd
       -0.09332234 -0.11039313 -0.07834368 -0.07225208
000250 68 2f bf bc 4f 0d 24 be 98 54 c4 3b 2a 3c 59 bd
       -0.023338035 -0.16020702 0.0059915297 -0.053035893
000260 25 09 8a be ea fc d5 bc 21 51 a5 bc 7b 37 f2 be
       -0.26960102 -0.026121575 -0.020180287 -0.47307953
000270 e2 96 d0 bc be 38 a5 be 2a 18 8b be e7 85 22 bc
       -0.025462572 -0.32269853 -0.27166873 -0.00991962
000280 69 a5 d5 be c7 84 aa bd b6 d7 9e bd 31 33 4b bc
       -0.4172776 -0.083261065 -0.07755987 -0.012402342
000290 15 ca 0d be 2c 56 0f 3c ea 7d 1f bf 85 0d 8f bd
       -0.1384662 0.008748572 -0.62301505 -0.069850005
0002a0 9e 56 97 bd 72 c0 5a bd d0 77 5d bf 21 18 49 bd
       -0.07389568 -0.053406186 -0.86510944 -0.049095277
0002b0 e5 ed 99 3c 33 e7 78 3b c6 0c 40 3e d1 5a 47 bd
       0.018790195 0.0037979602 0.18754873 -0.048670594
0002c0 1b 11 e2 bc 32 60 50 bd 0e fe 18 bd 01 c8 40 bd
       -0.027596047 -0.05087299 -0.03735166 -0.04706574
0002d0 48 15 c7 3a 61 55 44 bd e0 8f 4d 3c c8 74 b5 bd
       0.0015188837 -0.047932986 0.0125465095 -0.08860165
0002e0 ec ec 79 bd 2e 4a 11 bd 30 41 b8 bc c4 64 75 bd
       -0.061016962 -0.035471134 -0.022492021 -0.05991055
0002f0 ac b6 01 3c 4b 5d 6d bc c4 7d 4d be e6 e6 59 bf
       0.0079170875 -0.014487575 -0.20067507 -0.8511795
000300 8d a1 84 bd c3 3b a6 be e3 ea 88 bf 7d 96 10 39
       -0.06476126 -0.3246747 -1.0696682 0.00013788971
000310 47 4e 9e be b3 b6 e5 bb df 66 a6 bd d6 ed 9f bd
       -0.30919096 -0.007010305 -0.0812509 -0.078090355
000320 8c f8 c7 bd 96 3b 12 bd a6 28 81 bf 17 83 94 be
       -0.097642034 -0.035701357 -1.009053 -0.29006264
000330 55 69 59 bf 65 97 04 bf 06 d6 aa be a8 dd c8 3e
       -0.8492635 -0.5179351 -0.33366412 0.3923161
000340 27 e0 2d bf 8f c4 ac bd 62 62 df be 7e a6 9e bd
       -0.67920154 -0.08435928 -0.43629748 -0.077465996
000350 cb 48 89 bf b4 09 06 bc 9b d0 31 3e 85 49 85 bd
       -1.072534 -0.008181024 0.17364733 -0.06508163
000360 11 9e 5c bf b2 7a 6f bd 43 68 88 3d 1f 3e fc be
       -0.8617869 -0.05846662 0.06660511 -0.49266145
000370 ac 9a f5 be 30 c5 3b bb e7 a7 59 3e d6 98 90 bd
       -0.47969568 -0.0028651468 0.21255456 -0.07060401
000380 6f 1e 2a be f3 c6 f4 39 a3 b4 fc bd de 9c 1d bd
       -0.16613172 0.00046687535 -0.12339141 -0.03847968
000390 76 58 15 bd b5 68 0b bd 2f 87 a4 bd d9 d9 4c bd
       -0.036461316 -0.034035403 -0.08033597 -0.050012443
0003a0 08 7a 31 bd 68 a3 34 bd 4f 8c 2c bd 7d 3d 0a bd
       -0.04332927 -0.04410115 -0.042125996 -0.033750046
0003b0 d2 df 83 be 95 b9 16 bd 2d 9a 8c bd e8 0e ba bd
       -0.257567 -0.03679808 -0.06865344 -0.090848744
0003c0 7b cc 2c 3e 08 db 68 be 6c f1 bf bd 4f 53 47 be
       0.16874878 -0.22739804 -0.093722194 -0.19465373
0003d0 cb 0d f4 3b de ad 96 be e5 1c 8e bd 94 20 f1 bd
       0.0074479333 -0.29429525 -0.06939105 -0.11773792
0003e0 6e 31 12 be b8 4c 08 3e f5 7a 89 bd c4 58 53 3f
       -0.14276668 0.13310516 -0.06712905 0.8255732
0003f0 96 a2 1e bd 6d 75 0f be 70 71 91 3d 7c a7 f0 be
       -0.038729273 -0.14009638 0.071017146 -0.4700278

l3.weight f4 [2, 300]
000000 a3 c7 7d bc 4c af 09 bc e4 80 8e 3d 96 eb 2f 3d
       -0.015489492 -0.00840361 0.06958178 0.04294928
000010 bd 59 17 3d 93 6d 80 3c aa fe 5c be e0 fd 43 3c
       0.036950815 0.015677249 -0.21581522 0.011962384
000020 a0 4b 36 3d a3 5b b8 bd 5d 09 0e bc 2c ea 87 bf
       0.044505715 -0.09001853 -0.008669225 -1.0618339
000030 3d df 07 3d f0 4f 41 3e 95 99 13 bc 82 78 e0 3b
       0.03317188 0.1887815 -0.009008785 0.006850303
000040 cf 75 b6 bc 6c 79 86 3c 87 b9 35 be b9 51 c5 3b
       -0.022272972 0.01641532 -0.17746554 0.006021705
000050 3a cb d0 bc ee f9 ea 3e 8a 7a 35 c0 9c f6 f4 3c
       -0.025487531 0.45893806 -2.8356042 0.029902749
000060 26 ed dc 3e f2 a6 58 3c c6 a7 20 bc 6b c3 95 3d
       0.4314968 0.013223397 -0.009805625 0.07312664
000070 25 2a 91 3d 89 cc cf 3c 47 a2 a3 be bb ff 73 bc
       0.070881166 0.025366085 -0.31959745 -0.014892514
000080 c7 c3 ac 40 2b 4f f3 bf d5 27 40 40 90 ce bb bc
       5.3988986 -1.9008535 3.0024312 -0.022925645
000090 58 c3 bd 3a 8b 18 c6 3c 01 0b d3 3b bf 75 a4 3d
       0.0014477773 0.024181625 0.0064405208 0.08030271
0000a0 38 d6 4a 3b 91 47 5e bc 6e c6 27 3d 6f 3d 29 3d
       0.0030950438 -0.013566867 0.04096072 0.041318353
0000b0 46 1c 98 3d de a0 14 3c da 75 18 be 9d ee 06 bd
       0.07427268 0.009071557 -0.14888707 -0.032942403
0000c0 16 22 4a 3f 71 4e 54 bc 27 40 48 40 09 06 9a 3e
       0.7895826 -0.012958155 3.1289155 0.3008273
0000d0 46 40 ab bc 9b b5 6a bd ff 63 27 bc 86 13 27 be
       -0.020904671 -0.0573021 -0.010216712 -0.16316041
0000e0 75 9e 9a 3c d0 d8 b2 bc f9 71 c9 bc e6 6f 2e 3d
       0.018874386 -0.0218319 -0.02459048 0.042587183
0000f0 3d 13 c5 3c 54 66 75 3d 01 7a cd 3e 24 c7 2a 3e
       0.024057025 0.05991204 0.40132144 0.16677529
000100 ec 50 8f 3d b4 a7 74 bd d9 ea c5 bd 06 8a 10 3e
       0.069978565 -0.059730247 -0.09663934 0.14115152
000110 69 f5 d0 bc 9d d8 92 bd 61 06 cd bb 2b 89 4e 3e
       -0.025507646 -0.07170222 -0.006256864 0.20169513
000120 ea 26 68 bd 09 5e d7 bc bd 79 01 3d bf 81 3a bb
       -0.056677736 -0.026289957 0.03161024 -0.0028458682
000130 d2 cd d1 3c cd 36 02 bc 39 29 52 bc d8 f8 b2 3f
       0.025610838 -0.007947636 -0.012827211 1.3982191
000140 82 57 1b be 7e a1 23 3d af 5d ad 3b 15 68 15 be
       -0.151701 0.039948933 0.005290709 -0.14590485
000150 c6 40 2d be fb 0f 6a 3d ff 13 ac bd b5 a3 96 3d
       -0.1691924 0.057144146 -0.084022515 0.073554434
000160 0c b5 b1 bf e5 bd 08 40 39 71 5f 3e ca e8 64 3e
       -1.3883376 2.1365902 0.21820535 0.22354427
000170 91 45 d6 3c b6 9c 93 bc 03 53 e0 3f 34 7f 01 bd
       0.026156219 -0.018019062 1.7525333 -0.03161545
000180 05 ad 1c 3e c5 9d 18 bb cc 02 fa 3c 41 6e 50 be
       0.15300377 -0.0023287397 0.030518912 -0.20354559
000190 4c e6 84 3c af 46 35 bd 10 8f 75 bf b8 21 b4 bd
       0.016223095 -0.044256862 -0.9592142 -0.08795494
0001a0 71 4a 5d bc 7f 5f 2e bb c3 d6 e2 bd 07 82 b8 3b
       -0.013506518 -0.0026607213 -0.11076119 0.005630735
0001b0 69 30 57 be db 0f 76 bd 86 85 14 bd c5 25 8c 3b
       -0.21014561 -0.060073715 -0.03626015 0.0042769634
0001c0 34 56 0c be 45 61 19 3e 29 7f 4e be c6 b6 aa bd
       -0.13704759 0.14978512 -0.20165695 -0.083356425
0001d0 9e cb 90 3d f6 c4 bd bd 6d b1 9e 3c 92 0b 68 bd
       0.07070087 -0.09266083 0.019371713 -0.05665166
0001e0 90 16 b0 3b 91 34 c4 bc 10 ef 0f 3e a6 6d 62 3c
       0.0053737834 -0.023950847 0.14056039 0.013820088
0001f0 c1 5c 12 3e 13 49 e4 bb 99 3c c8 3b 28 64 ca bb
       0.14293195 -0.006966719 0.0061107394 -0.0061764903
000200 e7 86 26 bc 9e 91 9e bf 6d ee 18 bd 20 fe c4 bc
       -0.010163999 -1.2388189 -0.037336756 -0.024046957
000210 ce 88 1e bb d1 9a d7 3e 96 f4 a1 bc 76 fd 9f 3b
       -0.0024190429 0.42110303 -0.019769948 0.00488251
000220 ef ab ba 39 99 b0 d6 3b 81 e2 b9 bc 83 b0 78 3d
       0.00035604785 0.006551814 -0.022691013 0.06071521
000230 fe f1 da bd 8f 3b f9 38 19 c4 59 3c 8f 44 80 3c
       -0.106906876 0.00011884339 0.013291382 0.015657691
000240 3d c4 98 bc d4 24 82 bc 27 c4 a1 3c 34 fe 89 bc
       -0.018648261 -0.015886702 0.019746853 -0.016844846
000250 0f 48 ae bc 6e 9b 2a 3c bc 96 f8 bb 1b f7 f6 3c
       -0.021274595 0.010413034 -0.0075863283 0.030147126
000260 c4 82 f0 bc ee 5d 2e 3b 4d 52 95 3e b0 8b b6 bb
       -0.029359229 0.002660628 0.29164353 -0.0055708513
000270 16 7b af 3d 00 c5 56 c0 52 b8 41 3f 1a f5 55 bc
       0.08568399 -3.355774 0.75671875 -0.013058925
000280 25 aa 84 3c d6 b2 14 be 39 b4 58 3b 9d 76 01 3c
       0.016194412 -0.14521345 0.0033066405 0.007901815
000290 b0 e3 38 bf e2 ff e4 bb fd df d1 3e 00 4a bc bc
       -0.72222424 -0.0069885114 0.40991202 -0.022984505
0002a0 bd 17 09 bd d4 d3 82 3b 76 d5 26 c0 ac 6c 85 3c
       -0.033469904 0.003992537 -2.6067786 0.01628717
0002b0 f7 81 3e 3d bf 5c 3c bc f3 69 96 be 17 db b8 3c
       0.046510663 -0.011496722 -0.29377708 0.022565408
0002c0 d4 13 89 3c 69 b4 c6 3c db 21 f3 3c 7b 26 e0 ba
       0.016733088 0.024255948 0.02967923 -0.0017101312
0002d0 9e dc a2 bc 2e 03 21 3d 22 a6 db bc 9d 64 1d 3c
       -0.01988059 0.039309673 -0.026812617 0.009606508
0002e0 81 56 55 bc df 6f 31 3d bf 9d ad bc d6 4a 9d bd
       -0.013021112 0.04331958 -0.021193383 -0.076802894
0002f0 52 45 d5 bc 4e 67 15 3f e5 38 6a 40 84 73 d0 be
       -0.026034031 0.58360755 3.6597226 -0.4071313
000300 36 40 18 3c e2 d7 05 c0 a7 85 ab be ea 98 ee 3c
       0.009292653 -2.0913014 -0.33500406 0.02912565
000310 d1 93 8c be 89 65 5c bd 20 3c c3 bb c6 91 ac bc
       -0.27456525 -0.05380777 -0.005958095 -0.021065604
000320 00 55 0f 3e c3 95 71 3d 80 6e 9c be eb b6 4c be
       0.13997269 0.058980715 -0.30553055 -0.19991653
000330 6a c0 f8 bc 8d 54 95 bd 2a 61 d7 3c 43 1f 9f 3c
       -0.030365188 -0.072915174 0.026291449 0.019424086
000340 9c c8 84 bd 77 7b 24 bc 84 a7 86 be f2 f2 dc 3c
       -0.06483576 -0.010039202 -0.2629968 0.026971314
000350 49 6d 68 3f 70 d2 be 3f ff bd 3b 3e c2 f2 ee bb
       0.90791756 1.490797 0.18334197 -0.0072921226
000360 84 15 7d 3e fd e3 1a 3d a7 40 cb 3e 13 f8 b3 3f
       0.24715239 0.037815083 0.39697763 1.4060081
000370 26 68 28 3e 6c e0 79 bb bf e2 ec 3e cb 4a 6e 3c
       0.1644598 -0.003812815 0.46266744 0.014544199
000380 ac 51 7d 3a c9 0d c2 3c 02 01 dd 3d b8 8b b3 3c
       0.0009663354 0.023688214 0.10791208 0.021917209
000390 d6 47 11 bc 7f f0 33 3d 5c bc 85 bb 08 d4 bb 3c
       -0.008867225 0.043930527 -0.004081292 0.022928253
0003a0 e9 e5 c4 3c 3b 07 60 bd 47 05 b9 3c 94 08 0e 3d
       0.024035411 -0.054694396 0.022585524 0.03467615
0003b0 af 32 53 3f fe 96 92 3c 9f c7 b2 3c 87 a2 24 3d
       0.8249921 0.017894264 0.021823702 0.04019406
0003c0 27 a9 b2 3e 8c 71 1d 40 c3 32 12 3d 5e 13 8d be
       0.34894678 2.4600554 0.03569294 -0.27553838
0003d0 df dc 3c 3b 66 1c 25 3d 5e 30 2d bc 45 21 93 3c
       0.0028818173 0.040310286 -0.010570614 0.0179602
0003e0 c4 84 f8 3c 8f cb 02 3c 87 ce 25 3d 38 39 b0 3f
       0.030336745 0.007983102 0.040480163 1.3767462
0003f0 fe 0c 10 ba 48 ac 4b bd f9 5c 4c be 81 7d c2 3e
       -0.00054951 -0.049724847 -0.19957341 0.37986377

l3.bias f4 [2]
000000 7b 68 48 3e ea 7b 3d be
       0.19571106 -0.185043
