DataShared/results/Reacher-v2_buffer_td3_final/bcq_actor.pt (torch_old, 507034 bytes, 6 tensors)

l1.weight f4 [400, 13]
-0.13647266 0.31062114 -0.16493127 0.038890213 -0.05085699 -0.7693002 0.031108957 0.035751127
-0.20074649 0.38481265 -0.08381882 0.6897892 0.46941683 -0.4868097 -0.22712633 0.26733372
-0.5084171 0.94284594 -0.3855241 -0.032703795 0.03944948 -0.27584887 0.5370348 0.20754433
0.33426368 -3.321462 -0.09124319 -0.13191599 -0.108434014 -0.0096448 -0.33242044 0.19273321
0.012351219 -0.0022074336 -0.7226924 0.33077556 -0.16190048 7.5953436 -0.3578611 -0.14314817
-0.1428922 0.011982364 -0.046741668 0.5462009 0.021654798 -0.01859231 0.011705456 0.49474165
-0.086674266 -0.010007441 6.112254 0.54059666 -0.5268908 -0.20132995 0.49163738 -0.10332181
0.29612416 -1.5205185 0.005476656 -0.066211835 1.0150589 -1.0847528 -0.16428903 4.190333
-0.14856501 -0.12223383 0.07870123 -0.03650483 -0.121232614 0.4775749 0.5528468 0.015817344
-0.019310178 0.90823764 0.31028992 0.24472174 -0.78210056 -4.6875367 0.14754301 0.05173273
-0.016305787 -0.05343205 -0.6471336 0.19312933 0.0040316726 0.010291917 -1.0369639 0.21671712
0.1066567 -8.813115 0.9588784 -0.12854855 -0.18238792 0.023972953 -0.057261765 -0.5693362
-0.79206616 0.0019052903 0.015937423 -0.4566931 -0.9378549 0.18688345 -5.6397233 -5.578818
-0.50398827 -0.035148136 -0.10846715 -0.3028426 1.7803352 0.431367 0.01279535 -0.0066035977
-0.88639855 -0.7005721 0.19006798 -0.41573244 -0.63896114 0.04230398 0.22233027 -0.023989333
0.15870178 0.39410034 0.17126028 -0.0347882 0.01139752 -1.1953028 0.32652098 -0.13510093
-2.9177694 -3.237243 -0.030956114 0.09393888 -0.16290517 0.14891186 0.9825676 -0.21924143
0.030373827 -0.048516605 -1.1841902 1.1215048 0.26271883 2.37415 3.7349887 -0.23596314
-0.17506872 -0.03574596 -0.01082846 -0.01946023 0.27066067 0.0012711099 -0.018917354 -0.68352264
-0.5233075 0.15210047 1.1698692 0.647135 -0.10232843 0.08503616 -0.027811369 0.07809162
0.046317082 0.008023151 0.0049600215 0.005875024 0.18159288 -0.17060567 -0.12599319 3.7076995
-0.48889056 0.024556758 -0.059651382 0.042059146 -0.043840062 1.3021026 -0.32193136 0.11974131
-0.029590683 -0.8191613 -0.22323596 -0.2241253 -2.4637053 2.515504 0.1686331 0.08950642
-0.090200044 -0.01463931 -0.7342787 0.078950524 -0.011015607 0.006845801 -0.71436596 0.11883155
-0.19563675 1.8961858 -4.1463423 -0.09784153 0.17218477 0.06511472 -0.051954415 1.4022057
-0.8653786 0.003486883 0.019207465 -1.5635394 0.5844984 0.1941266 -0.78053284 2.0164227
-0.007087677 -0.0243266 0.04953668 0.039624844 0.10253042 -0.0948162 -4.8390066e-05 -0.006535325
0.3096444 -0.33704585 0.22395816 -2.3930552 6.683809 -0.19371267 0.20254982 -0.123259634
-0.14166337 0.9198258 0.77616847 0.0033538523 0.028234748 -0.92031354 2.9165447 0.22876045
2.248798 3.533083 -0.008196739 -0.007213384 0.008146868 0.008680799 0.09997333 -0.07516618
-0.012068364 -0.011502735 0.2661533 -0.012728915 0.14278635 -0.4889227 5.960963 -0.07298383
0.15943997 -0.117844306 0.31969023 0.1157488 0.5831524 0.0055584926 0.02674194 -1.1782814
00000000: 7dbf 0bbe bc09 9f3e bee3 28be 584b 1f3d
00000010: 6b4f 50bd dcf0 44bf 36d8 fe3c c66f 123d
00000020: 7d90 4dbe 2a06 c53e 34a9 abbd 0696 303f
00000030: 6757 f03e 1f3f f9be ce93 68be f7df 883e
00000040: a027 02bf 5a5e 713f 6a63 c5be 6af4 05bd
00000050: c795 213d 103c 8dbe 1d7b 093f 8086 543e
00000060: 9c24 ab3e d592 54c0 b6dd babd fc14 07be
00000070: a712 debd 3905 1ebc 0333 aabe db5b 453e
00000080: c45c 4a3c 97aa 10bb 5e02 39bf 6a5b a93e
00000090: 3dc9 25be 0e0d f340 9239 b7be 6f95 12be
000000a0: 5552 12be ad51 443c 3174 3fbd d2d3 0b3f
000000b0: 6765 b13c e64e 98bc 3ec8 3f3c c74e fd3e
000000c0: 4782 b1bd 40f6 23bc 9697 c340 8b64 0a3f
000000d0: 51e2 06bf 7029 4ebe e5b7 fb3e 639a d3bd
000000e0: 969d 973e 5aa0 c2bf 8575 b33b 129a 87bd
000000f0: 73ed 813f 2ed9 8abf 623b 28be 3517 8640
00000100: 6d21 18be bb55 fabd 1c2e a13d 1786 15bd
00000110: ce48 f8bd b384 f43e 5e87 0d3f 6093 813c
00000120: 6130 9ebc 4382 683f 52de 9e3e 5698 7a3e
00000130: be37 48bf 4d00 96c0 8415 173e b3e5 533d
00000140: b793 85bc 91db 5abd 8caa 25bf b2c3 453e
00000150: 1f1c 843b 6e9f 283c 3cbb 84bf 18eb 5d3e
00000160: d46e da3d 8502 0dc1 0e79 753f 3ba2 03be
00000170: e6c3 3abe ed62 c43c 508b 6abd 04c0 11bf
00000180: d9c4 4abf efba f93a 338f 823c aed3 e9be
00000190: 4217 70bf 605e 3f3e 9d78 b4c0 ad85 b2c0
000001a0: 6005 01bf 7ef7 0fbd 0624 debd 2f0e 9bbe
000001b0: 06e2 e33f 23dc dc3e 96a3 513c fe62 d8bb
000001c0: 04eb 62bf b158 33bf 2ea1 423e e2da d4be
000001d0: f592 23bf f046 2d3d 8caa 633e 4785 c4bc
000001e0: b882 223e 85c7 c93e db5e 2f3e 127e 0ebd
000001f0: aabc 3a3c afff 98bf c22d a73e e657 0abe
00000200: bcbc 3ac0 fd2e 4fc0 ad97 fdbc 0763 c03d
00000210: 9dd0 26be 5a7c 183e 8d89 7b3f d380 60be
00000220: 88d2 f83c 59b9 46bd 8b93 97bf 788d 8f3f
00000230: 1583 863e 13f2 1740 0e0a 6f40 52a0 71be
00000240: 3745 33be 5b6a 12bd da69 31bc 0f6b 9fbc
00000250: 0994 8a3e 5f9b a63a 91f8 9abc 57fb 2ebf
00000260: 7bf7 05bf 3ac0 1b3e 46be 953f a4aa 253f
00000270: 9191 d1bd 7027 ae3d abd4 e3bc 80ee 9f3d
00000280: fbb6 3d3d 8973 033c ad87 a23b 4683 c03b
00000290: 7cf3 393e 41b3 2ebe 5c04 01be f34a 6d40
000002a0: dd4f fabe 412b c93c 0255 74bd 3646 2c3d
000002b0: a391 33bd 4cab a63f 30d4 a4be ef3a f53d
000002c0: 2968 f2bc 8eb4 51bf f897 64be 1a81 65be
000002d0: 59ad 1dc0 04fe 2040 28ae 2c3e 244f b73d
000002e0: cdba b8bd b7d9 6fbc b0f9 3bbf d0b0 a13d
000002f0: ce7a 34bc be52 e03b b0e0 36bf f55d f33d
00000300: 0055 48be 37b6 f23f d6ae 84c0 2461 c8bd
00000310: 3451 303e de5a 853d 27ce 54bd 7a7b b33f
00000320: 7489 5dbf 3084 643b f958 9d3c 0f22 c8bf
00000330: b0a1 153f 20c9 463e 00d1 47bf 120d 0140
00000340: be3f e8bb 9448 c7bc f9e6 4a3d a94d 223d
00000350: 78fb d13d ff2e c2bd 70f6 4ab8 4826 d6bb
00000360: b689 9e3e 4691 acbe 4a55 653e d127 19c0
00000370: c3e1 d540 9d5c 46be 3869 4f3e 8c6f fcbd
00000380: 3410 11be b479 6b3f fab2 463f 4ecc 5b3b
00000390: 8f4c e73c ab99 6bbf aba8 3a40 2e40 6a3e
000003a0: 4eec 0f40 081e 6240 9d4b 06bc 405e ecbb
000003b0: 717a 053c e939 0e3c d1be cc3d baf0 99bd
000003c0: 63ba 45bc f875 3cbc 3f45 883e f08c 50bc
000003d0: 9636 123e 1354 fabe 35c0 be40 8c78 95bd
000003e0: 3b44 233e 5b58 f1bd 70ae a33e b50d ed3d
000003f0: 7a49 153f 0424 b63b ea11 db3c edd1 96bf

l1.bias f4 [400]
-1.0105274 -1.5697445 0.9725948 -0.45092857 -0.21226658 -1.618868 0.70505655 -0.81357104
-1.4027032 -1.534098 -1.07305 -0.90139663 -1.1462202 -1.4367902 -0.93954647 -1.2506121
-0.6616847 -1.579472 -1.3691229 -1.1188648 -1.5086763 -1.3107612 -0.66430324 -1.1079258
-0.9370196 -0.87814516 -0.59795314 -1.1896887 -1.1698086 -1.3579313 -1.2711229 -1.5310354
-1.4669237 -1.0795277 -1.2494206 -1.0213464 -1.1186551 -1.4408357 -1.1777716 -0.58055544
-1.5799171 -0.5614151 -1.3032184 -1.5095618 -1.3228792 -1.3645494 -1.6626724 -1.5650957
-1.4923049 -1.6736476 -1.5201803 -1.5529362 -1.0665058 -0.8731012 -1.4609022 -0.5118305
-1.1920613 -0.97099954 -1.1976181 -1.1168865 -1.3952254 -0.7838207 -1.245792 -1.5267506
-1.1024712 -1.1408271 -1.2738491 -1.5881729 -0.43052515 -1.2499967 -1.3632424 -0.7664414
-0.7080216 -1.3765718 -1.2275897 -1.240213 -1.0404649 -1.1511279 -0.8059109 -0.55656224
-1.0161885 -0.27757317 -1.1653291 -0.88484526 -0.8010489 -1.179518 -0.83230585 -0.54138726
-1.5374625 -0.6159131 -1.2514324 -1.2188021 -0.8709733 -1.2120278 -1.6583617 0.7203889
-1.1831793 -1.2515222 -1.2502874 1.447624 -1.2447692 -1.5155152 -1.5686644 -1.3675869
-0.63670635 -0.6366464 -1.2736409 -1.3030146 -1.4833353 -1.0373309 -1.2165939 -1.7863575
-1.6746361 -1.3293071 -1.0460297 -1.0068368 -1.6639987 -1.3350724 -1.1626958 -1.0773982
-0.95498323 -1.1261955 -1.3124359 -0.92269194 -0.7140544 -1.2373271 -1.378503 -0.784269
-0.62501526 -1.1650041 -1.0418309 -1.1170328 -2.068125 -1.260005 -1.1641716 -1.1698277
-0.60887337 -1.0976901 -0.6594852 -1.4610891 -1.2595943 -1.2674706 -1.2523594 -1.2911797
-1.2489281 -1.1622268 -1.2470188 -0.6676719 -1.6019924 -0.5592585 -1.45005 -1.179261
-1.2609519 -0.8679444 -1.2273011 -0.6716933 -1.2152205 -1.2073265 -1.3300072 -0.6987235
-1.1582135 -1.1409918 -1.2412686 -1.3717979 -1.1339287 -0.85676605 0.19964956 -1.3734697
-0.82057333 -0.92047226 -1.09863 -1.333333 -1.4195598 -1.464465 -1.1298546 0.30680248
0.7833581 -1.151341 -0.61945605 -0.93355954 -0.96740144 0.5728599 -1.4322742 -0.7152879
-0.75009626 -1.4240215 -1.1303622 -1.2882218 1.2262706 -1.5614471 -1.0335461 -1.2525381
-1.4651818 -1.7134856 -0.84814906 -0.642869 -1.3166097 -0.56386733 -1.0134165 -1.2843406
-0.39813384 -0.97120535 -0.59955317 -1.5155712 -1.4606665 -0.46341774 -0.99485815 -0.84346867
-1.6868799 -1.2034038 -1.0592209 -1.1128935 -0.93865544 -1.2428468 -1.9220338 -0.4103438
-1.8887161 -1.3288405 -1.3296436 -0.818948 -1.2971723 -1.3998897 -1.3614814 -0.9922007
-1.0909798 -0.9613588 -1.4719536 -1.49652 -0.6084485 -1.1462833 -1.1571901 -1.817305
-1.2195576 -2.0780113 -1.4014374 -1.4695754 -1.3909432 -1.18626 -1.1858759 -0.5227982
-1.4179229 -1.9197612 -0.254535 -1.3679092 -1.8502195 -0.9386589 -1.0547917 -0.8428533
-1.4458786 -1.2623689 -1.2805524 -2.1769438 -1.0596325 -1.3034571 -1.1381438 -0.87084484
00000000: f658 81bf 63ed c8bf f9fb 783f 1ce0 e6be
00000010: 695c 59be 1137 cfbf 967e 343f 3146 50bf
00000020: c78b b3bf 535d c4bf b459 89bf eec1 66bf
00000030: 58b7 92bf bee8 b7bf 1e86 70bf 0f14 a0bf
00000040: 2b64 29bf 232c cabf 6b3f afbf f636 8fbf
00000050: 4e1c c1bf 06c7 a7bf c70f 2abf 83d0 8dbf
00000060: 84e0 6fbf 1fce 60bf 7513 19bf b847 98bf
00000070: 4abc 95bf b1d0 adbf 28b4 a2bf f8f8 c3bf
00000080: 28c4 bbbf f72d 8abf 04ed 9fbf 7bbb 82bf
00000090: 1730 8fbf 4e6d b8bf 38c1 96bf 489f 14bf
000000a0: b93a cabf e6b8 0fbf dccf a6bf 5239 c1bf
000000b0: 1b54 a9bf 8ea9 aebf 73d2 d4bf 0e55 c8bf
000000c0: d903 bfbf 163a d6bf 4595 c2bf 9dc6 c6bf
000000d0: 4383 88bf 8f83 5fbf d8fe babf 5307 03bf
000000e0: 7795 98bf 6d93 78bf 8d4b 99bf 23f6 8ebf
000000f0: bf96 b2bf 79a8 48bf 1d76 9fbf 906c c3bf
00000100: c71d 8dbf 9f06 92bf 7d0d a3bf 4049 cbbf
00000110: cb6d dcbe e4ff 9fbf ba7e aebf 8135 44bf
00000120: e740 35bf 8133 b0bf a921 9dbf 4dbf 9ebf
00000130: f42d 85bf 2958 93bf 2d50 4ebf dd7a 0ebf
00000140: 7712 82bf 121e 8ebe 8129 95bf 3885 62bf
00000150: 8a11 4dbf 72fa 96bf ff11 55bf 5b98 0abf
00000160: 92cb c4bf 7bac 1dbf f02e a0bf b501 9cbf
00000170: 1bf8 5ebf ba23 9bbf 3245 d4bf 686b 383f
00000180: 6b72 97bf e131 a0bf 6b09 a0bf be4b b93f
00000190: 9954 9fbf 67fc c1bf ffc9 c8bf 160d afbf
000001a0: 30ff 22bf 42fb 22bf aa06 a3bf 2fc9 a6bf
000001b0: eedd bdbf 42c7 84bf 59b9 9bbf 5da7 e4bf
000001c0: 7a5a d6bf bc26 aabf 4de4 85bf 07e0 80bf
000001d0: e9fd d4bf a7e3 aabf 37d3 94bf 2fe8 89bf
000001e0: c879 74bf 2d27 90bf e6fd a7bf 8a35 6cbf
000001f0: 45cc 36bf bc60 9ebf c972 b0bf dac5 48bf
00000200: 0001 20bf db1e 95bf b75a 85bf eefa 8ebf
00000210: 295c 04c0 d847 a1bf 9303 95bf eabc 95bf
00000220: 20df 1bbf 1c81 8cbf 06d4 28bf f804 bbbf
00000230: 633a a1bf 7a3c a2bf 504d a0bf 6045 a5bf
00000240: e0dc 9fbf d9c3 94bf 509e 9fbf 8cec 2abf
00000250: 160e cdbf 912b 0fbf 3d9b b9bf 06f2 96bf
00000260: df66 a1bf 9b31 5ebf 3418 9dbf 18f4 2bbf
00000270: 588c 9bbf ad89 9abf ad3d aabf 8bdf 32bf
00000280: 5740 94bf 050c 92bf e4e1 9ebf 1397 afbf
00000290: 9324 91bf 0555 5bbf ef70 4c3e dbcd afbf
000002a0: 1811 52bf 12a4 6bbf e89f 8cbf a8aa aabf
000002b0: 23b4 b5bf 9773 bbbf 139f 90bf 3715 9d3e
000002c0: 288a 483f 245f 93bf ac94 1ebf c2fd 6ebf
000002d0: 9fa7 77bf f2a6 123f c354 b7bf 1c1d 37bf
000002e0: 4f06 40bf 5646 b6bf b5af 90bf 74e4 a4bf
000002f0: 6ff6 9c3f 80dd c7bf 3d4b 84bf 2b53 a0bf
00000300: 148b bbbf 7f53 dbbf 4c20 59bf 1093 24bf
00000310: ab86 a8bf 9c59 10bf a2b7 81bf 4665 a4bf
00000320: 33d8 cbbe eaa0 78bf 517c 19bf 3dfe c1bf
00000330: 1ff7 babf 1745 edbe 06af 7ebf 90ed 57bf
00000340: aeeb d7bf 2309 9abf 8d94 87bf 4b73 8ebf
00000350: b94b 70bf 9b15 9fbf 3405 f6bf 9518 d2be
00000360: 73c1 f1bf 7217 aabf c331 aabf 93a6 51bf
00000370: be09 a6bf 962f b3bf 0645 aebf dd00 7ebf
00000380: 3aa5 8bbf 9c1b 76bf fa68 bcbf f88d bfbf
00000390: 48c3 1bbf 69b9 92bf ce1e 94bf 739d e8bf
000003a0: 771a 9cbf 23fe 04c0 4d62 b3bf 0c1b bcbf
000003b0: 6d0a b2bf 5ed7 97bf c8ca 97bf 1ad6 05bf
000003c0: 7f7e b5bf bcba f5bf 6952 82be a617 afbf
000003d0: fed3 ecbf f34b 70bf 6a03 87bf 3cc5 57bf
000003e0: 8d12 b9bf 4e95 a1bf 24e9 a3bf 0c53 0bc0
000003f0: 0aa2 87bf afd7 a6bf b2ae 91bf b0ef 5ebf

l2.weight f4 [300, 400]
-0.017217375 -0.13205282 -0.03383136 -0.04809772 -0.02859777 -0.03423011 -0.053212106 -0.0010545101
-0.055072807 -0.050555516 -0.07929366 -0.029572947 -0.04917596 -0.07117025 -0.015616649 -0.0671194
-0.065603614 0.035666235 -0.0915647 0.015081729 -0.1176659 -0.028903186 -0.019819751 -0.010519609
-0.021251366 -0.038384277 0.03265058 0.025963902 -0.056027804 0.049623825 -0.005150903 -0.04012488
0.012180369 -0.075373985 -0.015517334 -0.056501273 -0.0629544 -0.075102426 -0.037211772 -0.033435065
-0.054752145 -0.025070958 -0.06027953 -0.05867154 -0.1094657 -0.005331601 -0.0100661805 0.025077937
-0.0912604 -0.07669368 0.062159613 0.014834675 -0.038010404 -0.00093347917 -0.09795824 0.0013464211
0.00047158875 0.07511471 -0.05286958 -0.079036616 -0.08478275 0.007798808 -0.009615548 -0.00072280853
-0.03727679 -0.115421206 -0.04774916 -0.013157478 -0.02033102 0.0050348965 0.0011437362 -0.004562282
0.06350573 -0.02110142 -0.0833289 -0.04111979 -0.08257489 -0.07343444 -0.06655357 0.024978101
-0.027448338 0.028343905 -0.014017704 0.002389202 -0.07659673 0.012109486 -0.0028393003 -0.034105606
0.007789122 0.014905787 -0.034581814 -0.0006013809 -0.050365243 -0.0036751924 -0.08870708 -0.08388198
0.057209205 0.038482137 0.013630793 -0.001285441 -0.09275922 -0.11663298 -0.063187025 0.028291546
-0.014816035 -0.050113942 -0.059283793 -0.037914418 -0.022163628 -0.030363033 -0.0010523838 -0.08706189
0.04791711 0.04091745 -0.084761314 0.009012313 -0.02516499 -0.021131812 -0.0485388 -0.04412195
-0.010529986 -0.08681316 -0.069258876 -0.059599373 -0.054918315 0.014144872 0.010493259 -0.030371167
-0.0050801137 0.06171054 0.0056690522 -0.050704114 -0.008315097 -0.13986373 -0.04205449 0.04505239
-0.02515032 0.041764364 -0.10757165 -0.05944646 -0.046338994 -0.027627783 -0.042263616 -0.0018480911
-0.04115952 -0.029391075 0.0014223785 -0.08565802 0.036881074 0.04783131 -0.096059 0.076334365
0.014842763 0.014737304 0.022215923 -0.06644354 -0.07641264 -0.018097103 0.07065103 -0.07297723
-0.087264724 -0.027039139 -0.06374105 0.0026649253 -0.06310912 -0.018296499 0.025237584 -0.04169471
-0.018723436 -0.026145557 0.015722822 0.015007038 -0.025953073 -0.04032643 0.01544448 -0.055451762
-0.13685481 -0.14428352 -0.020050185 0.056204718 0.009841663 -0.08155701 0.03504311 0.02636302
-0.010900968 -0.0700255 -0.04776362 -0.0764878 -0.08238885 -0.026018322 0.0046553933 0.02453009
-0.032292396 0.040197257 -0.100011714 0.037287526 -0.04165804 -0.036408644 -0.0017493176 0.03151938
-0.007963197 -0.038526043 0.030996604 -0.116319306 -0.08356086 0.017369762 -0.060902677 -0.0128132375
-0.01816997 -0.03989913 -0.028854057 -0.016338682 -0.06378901 -0.03855061 0.019770475 -0.09098396
0.02617473 0.025188942 -0.051476337 -0.008165222 0.008436766 0.039730914 -0.0278704 -0.06529072
-0.0529207 -0.024771925 0.07603889 -0.106890924 -0.04269464 -0.013240536 -0.04081845 0.012381407
0.028109945 -0.06291183 -0.011056018 -0.016876064 0.022847028 0.030462962 0.021836564 0.056587268
-0.02222782 -0.0593824 -0.013875311 0.01046121 -0.0077342815 -0.016948555 0.08877876 0.029517062
-0.07432875 0.04733339 -0.005248222 -0.06250304 -0.025687084 0.012839598 -0.03209169 -0.027329708
00000000: 740b 8dbc db38 07be c192 0abd 1d02 45bd
00000010: df45 eabc df34 0cbd f0f4 59bd 7d37 8aba
00000020: 0694 61bd 4d13 4fbd b764 a2bd f742 f2bc
00000030: bb6c 49bd b5c1 91bd f9dc 7fbc e575 89bd
00000040: 305b 86bd c216 123d 4686 bbbd 5b19 773c
00000050: d2fa f0bd 60c6 ecbc 085d a2bc 705a 2cbc
00000060: 5817 aebc d538 1dbd 9dbc 053d 40b2 d43c
00000070: 697d 65bd 5a42 4b3d e8c8 a8bb fc59 24bd
00000080: 2c90 473c ad5d 9abd 6b3c 7ebc e16d 67bd
00000090: 3dee 80bd 4dcf 99bd 5f6b 18bd 35f3 08bd
000000a0: c943 60bd 9c61 cdbc abe7 76bd 9251 70bd
000000b0: 8e2f e0bd b6b4 aebb 9fec 24bc 3f70 cd3c
000000c0: bce6 babd 9311 9dbd 149b 7e3d 230d 733c
000000d0: ccb0 1bbd bab4 74ba 549e c8bd 657a b03a
000000e0: 923f f739 bed5 993d c68d 58bd f3dd a1bd
000000f0: 94a2 adbd 258d ff3b 888a 1dbc dc7a 3dba
00000100: 8caf 18bd f461 ecbd a094 43bd 7692 57bc
00000110: 3d8d a6bc c6fb a43b 6be9 953a 327f 95bb
00000120: 4b0f 823d e3dc acbc 58a8 aabd 3a6d 28bd
00000130: 061d a9bd cc64 96bd 3d4d 88bd e09e cc3c
00000140: 56db e0bc 7a31 e83c 83aa 65bc 2894 1c3b
00000150: bfde 9cbd de66 463c 8e13 3abb 52b2 0bbd
00000160: e43b ff3b 6737 743c a9a5 0dbd fda5 1dba
00000170: c94b 4ebd 7fdb 70bb 0fac b5bd 51ca abbd
00000180: 3354 6a3d 729f 1d3d b153 5f3c 3e7c a8ba
00000190: 8cf8 bdbd 46dd eebd 3368 81bd acc3 e73c
000001a0: f4be 72bc 4744 4dbd 90d3 72bd 264c 1bbd
000001b0: 7f90 b5bc e5bb f8bc 24f0 89ba 814d b2bd
000001c0: bb44 443d 0e99 273d 5797 adbd 61a8 133c
000001d0: cf26 cebc 9f1c adbc 9fd0 46bd 38b9 34bd
000001e0: f685 2cbc 19cb b1bd 99d7 8dbd 791e 74bd
000001f0: 07f2 60bd e5bf 673c ebeb 2b3c f4cc f8bc
00000200: 1577 a6bb 31c4 7c3d 75c3 b93b 1eaf 4fbd
00000210: 0b3c 08bc 7038 0fbe 5441 2cbd db88 383d
00000220: 0b08 cebc 1c11 2b3d 864e dcbd 227e 73bd
00000230: f5cd 3dbd a953 e2bc 9d1c 2dbd a63b f2ba
00000240: e396 28bd 8dc5 f0bc 1a6f ba3a 796d afbd
00000250: 9c10 173d c4ea 433d 95ba c4bd 3155 9c3d
00000260: 0f2f 733c bc74 713c 2bfe b53c 8d13 88bd
00000270: 3b7e 9cbd 6040 94bc 7db1 903d 1675 95bd
00000280: d9b7 b2bd 2f81 ddbc ab8a 82bd 07a6 2e3b
00000290: 5b3f 81bd 8ae2 95bc 0dbf ce3c 12c8 2abd
000002a0: e461 99bc 352f d6bc 26cd 803c 14e0 753c
000002b0: 8a9b d4bc 542d 25bd d80a 7d3c 6321 63bd
000002c0: ab23 0cbe 0fbf 13be 4940 a4bc eb36 663d
000002d0: ed3e 213c 5d07 a7bd 5d89 0f3d 43f7 d73c
000002e0: f999 32bc 8869 8fbd c9a3 43bd a3a5 9cbd
000002f0: 7cbb a8bd 6024 d5bc 458c 983b 54f3 c83c
00000300: 0845 04bd e1a5 243d f1d2 ccbd ceba 183d
00000310: 9fa1 2abd 3b21 15bd 5c49 e5ba 771a 013d
00000320: 1278 02bc 7ccd 1dbd 97ec fd3c d138 eebd
00000330: f521 abbd 084b 8e3c 1675 79bd 9dee 51bc
00000340: 30d9 94bc 456d 23bd 585f ecbc b3d8 85bc
00000350: d0a3 82bd 3fe7 1dbd b1f5 a13c cc55 babd
00000360: 636c d63c 0a59 ce3c dad8 52bd 6cc7 05bc
00000370: 5d3a 0a3c e2bc 223d 7750 e4bc 24b7 85bd
00000380: 60c3 58bd 7eee cabc 47ba 9b3d a1e9 dabd
00000390: 93e0 2ebd d5ee 58bc 3f31 27bd 63db 4a3c
000003a0: d446 e63c ebd7 80bd 4d24 35bc ac3f 8abc
000003b0: b129 bb3c 768d f93c 98e2 b23c 0dc8 673d
000003c0: 1e17 b6bc f63a 73bd 4655 63bc 7f65 2b3c
000003d0: db6f fdbb b2d7 8abc a3d1 b53d c4cd f13c
000003e0: ac39 98bd a8e0 413d 47f9 abbb 9801 80bd
000003f0: b86d d2bc 2d5d 523c 9372 03bd 8de2 dfbc

l2.bias f4 [300]
-0.069219746 -0.023663376 -0.0291236 -0.01926842 -0.05276163 -0.14284945 -0.06958157 -0.14393336
-0.053442087 0.069565445 -0.051337585 -0.6278048 -0.38157585 -0.29054102 0.006097278 -0.07259607
-0.06535425 -0.07196509 -1.0572243 -0.018080026 -0.05459343 -0.8907593 -0.91917044 -0.06415855
-0.90656924 -0.04795429 -0.0744471 0.6845252 -1.1823615 0.013102146 -0.16735777 -0.10963064
-0.21159992 -0.68663 -1.608589 -0.05518911 -0.10521528 0.04117916 -0.08293307 -0.10120456
-0.01964363 -0.03978437 -0.058774326 -0.06921253 -0.26775813 -0.0685978 0.5249178 -0.059101436
-0.80143464 -0.018378478 -0.29982784 -0.13654493 -0.022044662 -0.03432505 -0.0434394 -0.18638083
-0.08107022 -0.06853256 -0.10099357 -0.016313834 0.03198622 -0.016542638 -0.33910728 0.4035232
0.22416008 -0.10391507 -0.6144795 -0.39108068 0.009958764 -0.14140104 -0.07007624 -0.18876071
-0.12920819 -0.20459312 -0.032436438 -0.03044847 -0.01713704 -0.052257255 -0.06493501 -0.6152892
-0.026809704 -0.0030001104 -0.045483317 0.12408006 -0.1545877 -0.059721254 -0.18900502 -0.14954622
-0.19006252 -0.6341002 -0.17810787 0.50443447 -0.0628498 -0.04558122 -0.18621604 -0.013133646
-0.46911377 -0.21798623 -0.038015477 -0.41190326 -0.09562626 -0.11864729 -0.24871942 -0.16675916
-0.0027743452 -0.0889128 -0.1331483 -0.055134617 0.36229396 -0.45241693 -0.011126234 -0.07328272
-0.11078631 -0.45584807 -0.29472476 -0.17241417 -0.0620061 -0.16474742 -0.01701601 -0.20824042
-0.06374292 -0.038816158 -0.6910333 -0.043693647 -0.38950536 -0.07545984 -0.07699012 -0.049988605
-0.072201535 -0.069598645 -0.06587312 -0.07776055 0.010204947 -1.8760302 -0.0315965 -0.08684638
-0.16616622 -0.071180254 0.061578073 -0.011572103 -0.6788934 -0.14998658 -0.032487836 -0.029125221
-0.09332267 -0.1103943 -0.07834362 -0.0722531 -0.023338238 -0.16020714 0.0059915227 -0.053036105
-0.2696036 -0.02612175 -0.019205924 -0.47307783 -0.025462778 -0.32127228 -0.2649867 -0.00991968
-0.4172753 -0.08326186 -0.07755983 -0.01240242 -0.1384668 0.008748527 -0.6196987 -0.069850184
-0.07389657 -0.05340632 -0.86353785 -0.04909575 0.018789861 0.0037979428 0.19204952 -0.048670657
-0.027596308 -0.050873496 -0.037352245 -0.04706607 0.0015188799 -0.047933355 0.012546447 -0.08860238
-0.061017167 -0.03547147 -0.022492064 -0.059910953 0.007917041 -0.014487746 -0.2097046 -0.847766
-0.06476155 -0.332424 -1.071303 0.00013788884 -0.30589867 -0.007010302 -0.08125199 -0.07809113
-0.09557656 -0.03570175 -1.0167316 -0.2975508 -0.84626067 -0.5179453 -0.33366248 0.38411787
-0.6792121 -0.08436055 -0.436301 -0.07746685 -1.0888085 -0.008180924 0.17331797 -0.065081894
-0.8613214 -0.058465835 0.0672795 -0.49885663 -0.47969645 -0.0028651527 0.21151838 -0.07060532
-0.16613416 0.0004668697 -0.12339049 -0.03847991 -0.036461893 -0.034036048 -0.08033684 -0.050013002
-0.043329287 -0.04410175 -0.042126685 -0.03375041 -0.2581124 -0.036797583 -0.06865348 -0.09084973
0.16792707 -0.23051308 -0.083600976 -0.19741327 0.007447924 -0.2943009 -0.06939119 -0.11773897
-0.14276879 0.12302025 -0.06712914 0.82543063 -0.038729265 -0.14009748 0.08230916 -0.470028
00000000: 15c3 8dbd b2d9 c1bc 9e94 eebc ced8 9dbc
00000010: 941c 58bd 2047 12be c880 8ebd 4463 13be
00000020: 17e6 5abd 5478 8e3d 5c47 52bd d1b7 20bf
00000030: e95d c3be cbc1 94be adcb c73b 40ad 94bd
00000040: 73d8 85bd 6f62 93bd 2053 87bf 901c 94bc
00000050: 5c9d 5fbd cd08 64bf c14e 6bbf 8f65 83bd
00000060: ec14 68bf b86b 44bd b977 98bd 0b3d 2f3f
00000070: 9f57 97bf 62aa 563c d65f 2bbe 0786 e0bd
00000080: a6ad 58be fcc6 2fbf 3fe6 cdbf fa0d 62bd
00000090: 1c7b d7bd 7bab 283d d0d8 a9bd 5644 cfbd
000000a0: aeeb a0bc f0f4 22bd 59bd 70bd 4dbf 8dbd
000000b0: 9817 89be 017d 8cbd 0361 063f 5914 72bd
000000c0: d22a 4dbf 768e 96bc 0983 99be 6fd2 0bbe
000000d0: 0297 b4bc 6c98 0cbd 83ed 31bd 9eda 3ebe
000000e0: 2508 a6bd cc5a 8cbd b8d5 cebd 97a4 85bc
000000f0: fc03 033d 6d84 87bc 789f adbe 989a ce3e
00000100: 388a 653e 6dd1 d4bd 874e 1dbf ba3b c8be
00000110: 152a 233c 6fcb 10be 2284 8fbd 7d4a 41be
00000120: 274f 04be dc80 51be 12dc 04bd 126f f9bc
00000130: fa62 8cbc b40b 56bd a6fc 84bd 9883 1dbf
00000140: 06a0 dbbc 809d 44bb b74c 3abd b01d fe3d
00000150: 3d4c 1ebe 469e 74bd 888a 41be a522 19be
00000160: c09f 42be 6454 22bf e961 36be 9e22 013f
00000170: 65b7 80bd 60b3 3abd 6baf 3ebe 812e 57bc
00000180: ae2f f0be c837 5fbe 1eb6 1bbd fce4 d2be
00000190: b3d7 c3bd 5afd f2bd 4eb0 7ebe eac2 2abe
000001a0: cad1 35bb ea17 b6bd 0758 08be d6d4 61bd
000001b0: 987e b93e 31a3 e7be cf4a 36bc 4015 96bd
000001c0: efe3 e2bd eb64 e9be 2ae6 96be 578d 30be
000001d0: 1cfa 7dbd 8cb3 28be 2965 8bbc fa3c 55be
000001e0: a68b 82bd b1fd 1ebd 8fe7 30bf 1cf8 32bd
000001f0: 3f6d c7be b08a 9abd ffac 9dbd dac0 4cbd
00000200: 66de 93bd bc89 8ebd 7de8 86bd ec40 9fbd
00000210: a632 273c c221 f0bf 556b 01bd 84dc b1bd
00000220: 7a27 2abe f4c6 91bd 4a39 7c3d eb98 3dbc
00000230: f5cb 2dbf 1596 19be f711 05bd 0498 eebc
00000240: f51f bfbd 6816 e2bd 9f72 a0bd 6ff9 93bd
00000250: d52f bfbc 570d 24be 8954 c43b 633c 59bd
00000260: 7c09 8abe 48fd d5bc be55 9dbc 4237 f2be
00000270: 5197 d0bc cd7d a4be 56ac 87be 2786 22bc
00000280: 1ca5 d5be 3285 aabd b0d7 9ebd 8533 4bbc
00000290: 3eca 0dbe fb55 0f3c 93a4 1ebf 9d0d 8fbd
000002a0: 1657 97bd 96c0 5abd d110 5dbf a018 49bd
000002b0: 32ed 993c e8e6 783b a1a8 443e e25a 47bd
000002c0: a711 e2bc ba60 50bd abfe 18bd 5ac8 40bd
000002d0: 2715 c73a c455 44bd 9d8f 4d3c 2a75 b5bd
000002e0: 23ed 79bd 884a 11bd 4741 b8bc 3065 75bd
000002f0: 7ab6 013c 035e 6dbc cdbc 56be 3107 59bf
00000300: b4a1 84bd 7b33 aabe 7520 89bf 4196 1039
00000310: c09e 9cbe adb6 e5bb 7167 a6bd 3eee 9fbd
00000320: a5bd c3bd 003c 12bd 4324 82bf 9458 98be
00000330: 8aa4 58bf 1098 04bf cfd5 aabe 19ab c43e
00000340: d8e0 2dbf 39c5 acbd d862 dfbe f1a6 9ebd
00000350: 145e 8bbf 4809 06bc 447a 313e a849 85bd
00000360: 8f7f 5cbf df79 6fbd d6c9 893d 236a ffbe
00000370: c69a f5be 49c5 3bbb 4698 583e 8699 90bd
00000380: 131f 2abe 31c6 f439 27b4 fcbd 1c9d 1dbd
00000390: 1159 15bd 6269 0bbd a487 a4bd 6fda 4cbd
000003a0: 0d7a 31bd 09a4 34bd 088d 2cbd df3d 0abd
000003b0: 4f27 84be 10b9 16bd 329a 8cbd 6c0f babd
000003c0: 13f5 2b3e 9f0b 6cbe fd36 abbd b426 4abe
000003d0: b70d f43b 9cae 96be f81c 8ebd 2121 f1bd
000003e0: fb31 12be 0af2 fb3d 017b 89bd 6c4f 533f
000003f0: 94a2 1ebd b775 0fbe b491 a83d 83a7 f0be

l3.weight f4 [2, 300]
-0.015489427 -0.008403479 0.06958132 0.042949166 0.03695035 0.015677407 -0.21581721 0.011962351
0.04450582 -0.09095769 -0.008669271 -1.0618197 0.03317197 0.18877894 -0.009008604 0.0068502626
-0.022272741 0.016415218 -0.17746472 0.0060217916 -0.025487786 0.4737139 -2.8580086 0.029903041
0.42973125 0.013223419 -0.009805434 0.07336423 0.07087969 0.025366167 -0.31960082 -0.014892353
5.3989253 -1.9008305 3.0037603 -0.02292576 0.0014477979 0.023564957 0.0064404374 0.08281365
0.0030950364 -0.013566799 0.040960256 0.04131876 0.07427341 0.009071559 -0.1481508 -0.03294295
0.7898225 -0.0129581215 3.1273918 0.3048134 -0.020904405 -0.057302374 -0.010216811 -0.16315915
0.018874187 -0.021832183 -0.024590528 0.0425865 0.023269266 0.059912052 0.40132594 0.15310316
0.06769096 -0.059730574 -0.09664061 0.13596916 -0.025507342 -0.071701735 -0.006256927 0.19806421
-0.05667765 -0.026289927 0.031610332 -0.0028458594 0.025610955 -0.007947644 -0.012827173 1.3982232
-0.1553792 0.039948296 0.00529078 -0.14590277 -0.16918935 0.057144694 -0.084023386 0.07355342
-1.3865725 2.1366026 0.21820354 0.22199608 0.026156139 -0.018019227 1.7525402 -0.03161514
0.15300116 -0.0031009407 0.03051891 -0.20354436 0.016222838 -0.044256754 -0.964447 -0.087956175
-0.013506455 -0.0026607588 -0.11076115 0.0056306734 -0.20782594 -0.060072947 -0.036260482 0.004276961
-0.13704635 0.1497827 -0.20057398 -0.08335629 0.07070177 -0.09184454 0.019371673 -0.05665096
0.0053738626 -0.023951015 0.14139794 0.0074343523 0.15526967 -0.0069668046 0.0061107688 -0.006176411
-0.010164135 -1.2354232 -0.037336007 -0.024046673 -0.0024190808 0.41708878 -0.019769823 0.0048825825
0.00035604442 0.006551751 -0.027699213 0.060714763 -0.10562453 0.00013562436 0.013291234 0.015657669
-0.018648112 -0.015886685 0.019747183 -0.01684466 -0.02127492 0.0104129035 -0.007586396 0.030147064
-0.029359281 0.0026606054 0.29259893 -0.00557088 0.08568326 -3.319497 0.7799697 -0.013058944
0.016194444 -0.14521532 0.0033066003 0.007901845 -0.72222775 -0.0069884276 0.41627353 -0.022984559
-0.03347028 0.003992452 -2.6200056 0.016286854 0.046510294 -0.011496654 -0.30685917 0.022565309
0.016732758 0.024256015 0.029678982 -0.0017101495 -0.019880353 0.039309185 -0.026812777 0.009606496
-0.013020941 0.043318916 -0.021193415 -0.07680421 -0.026034283 0.58361036 3.657762 -0.40522793
0.009292679 -2.0743124 -0.33408904 0.029125433 -0.27700457 -0.05380763 -0.005958024 -0.021065237
0.13895014 0.05898052 -0.29978162 -0.19753 -0.0389176 -0.07291492 0.026291704 0.02313764
-0.06483459 -0.010039323 -0.26299244 0.026971493 0.9059378 1.490798 0.18257183 -0.0072920755
0.24715342 0.03781461 0.40070748 1.4019523 0.1644574 -0.003812821 0.46409255 0.014544334
0.000966338 0.023688437 0.107912906 0.021917202 -0.008867221 0.043930233 -0.0040812213 0.022928333
0.024035683 -0.054694958 0.022585154 0.034676045 0.8246326 0.017894454 0.021823412 0.040194683
0.34894565 2.448811 0.03939241 -0.27191213 0.0028817758 0.040309597 -0.0105704535 0.017960094
0.030336924 0.005409058 0.04048061 1.3786777 -0.00054951577 -0.049724508 -0.2124527 0.37986913
00000000: 5ec7 7dbc bfae 09bc a780 8e3d 77eb 2f3d
00000010: 4059 173d e86d 803c 30ff 5cbe bdfd 433c
00000020: bc4b 363d 0648 babd 8f09 0ebc b5e9 87bf
00000030: 55df 073d 444f 413e d398 13bc 2b78 e03b
00000040: 5375 b6bc 3579 863c 50b9 35be 7352 c53b
00000050: c3cb d0bc a18a f23e 9de9 36c0 39f7 f43c
00000060: bc05 dc3e 0aa7 583c f9a6 20bc fc3f 963d
00000070: 5f29 913d b5cc cf3c b8a2 a3be 0eff 73bc
00000080: ffc3 ac40 6a4e f3bf 9c3d 4040 cece bbbc
00000090: 09c4 bd3a 4c0b c13c 4e0a d33b 349a a93d
000000a0: 18d6 4a3b 4847 5ebc f1c5 273d dc3d 293d
000000b0: a81c 983d e0a0 143c d8b4 17be 30ef 06bd
000000c0: cf31 4a3f 4d4e 54bc 3027 4840 8110 9c3e
000000d0: b73f abbc e5b5 6abd 6964 27bc 3113 27be
000000e0: 0a9e 9a3c 68d9 b2bc 1372 c9bc 2f6f 2e3d
000000f0: 309f be3c 5766 753d 987a cd3e 13c7 1c3e
00000100: 8fa1 8a3d 0ca8 74bd 83eb c5bd 803b 0b3e
00000110: c6f4 d0bc 5cd8 92bd e806 cdbb 58d1 4a3e
00000120: d326 68bd f95d d7bc d679 013d 9981 3abb
00000130: 11ce d13c d636 02bc 1029 52bc faf8 b23f
00000140: ba1b 1fbe d3a0 233d 485e ad3b 8967 15be
00000150: f93f 2dbe 8e10 6a3d 7414 acbd 2da3 963d
00000160: 357b b1bf 19be 0840 c070 5f3e f152 633e
00000170: 6645 d63c 0f9d 93bc 3d53 e03f e17e 01bd
00000180: 56ac 1c3e 2739 4bbb cb02 fa3c ef6d 50be
00000190: c2e5 843c 9246 35bd 00e6 76bf 5e22 b4bd
000001a0: 2e4a 5dbc 2060 2ebb bed6 e2bd 8381 b83b
000001b0: 53d0 54be 0d0f 76bd df85 14bd c025 8c3b
000001c0: e155 0cbe a360 193e 4463 4dbe b4b6 aabd
000001d0: 17cc 903d fd18 bcbd 58b1 9e3c d60a 68bd
000001e0: 3a17 b03b eb34 c4bc 9fca 103e de9b f33b
000001f0: 03ff 1e3e cb49 e4bb d83c c83b 7e63 cabb
00000200: 7987 26bc 5922 9ebf a4ed 18bd 87fd c4bc
00000210: 7189 1ebb a98c d53e 53f4 a1bc 12fe 9f3b
00000220: 79ab ba39 12b0 d63b 76e9 e2bc 0bb0 783d
00000230: ac51 d8bd 6336 0e39 7ac3 593c 8344 803c
00000240: edc3 98bc cb24 82bc d8c4 a13c d0fd 89bc
00000250: be48 aebc e29a 2a3c 4d97 f8bb faf6 f63c
00000260: e082 f0bc 8d5d 2e3b 87cf 953e ee8b b6bb
00000270: b47a af3d a472 54c0 18ac 473f 2ef5 55bc
00000280: 36aa 843c 53b3 14be 8cb3 583b bd76 013c
00000290: ebe3 38bf 2eff e4bb ce21 d53e 1d4a bcbc
000002a0: 2218 09bd 1dd3 823b 2cae 27c0 026c 853c
000002b0: 9481 3e3d 765c 3cbc a51c 9dbe e2da b83c
000002c0: 2313 893c 8db4 c63c 5621 f33c 1827 e0ba
000002d0: 1fdc a2bc ab02 213d 78a6 dbbc 9164 1d3c
000002e0: c955 55bc 2d6f 313d d09d adbc 874b 9dbd
000002f0: d945 d5bc 7d67 153f c618 6a40 097a cfbe
00000300: 5240 183c 89c1 04c0 b80d abbe 7698 ee3c
00000310: 8bd3 8dbe 6465 5cbd 873b c3bb 0191 acbc
00000320: f248 0e3e 8f95 713d fa7c 99be 4e45 4abe
00000330: 1068 1fbd 6b54 95bd b361 d73c 268b bd3c
00000340: ffc7 84bd f97b 24bc f2a6 86be 52f3 dc3c
00000350: 8aeb 673f 78d2 be3f 1cf4 3a3e 5df2 eebb
00000360: c915 7d3e 7ee3 1a3d 8829 cd3e 2c73 b33f
00000370: 8567 283e 86e0 79bb 8a9d ed3e 5c4b 6e3c
00000380: d851 7d3a 410e c23c 7101 dd3d b48b b33c
00000390: d247 11bc 30f0 333d c4bb 85bb 33d4 bb3c
000003a0: 7be6 c43c d207 60bd 8004 b93c 7808 0e3d
000003b0: 1f1b 533f 6497 923c 03c7 b23c 2ea3 243d
000003c0: 01a9 b23e 52b9 1c40 f059 213d 1138 8bbe
000003d0: 2ddc 3c3b ad1b 253d b22f 2dbc 0c21 933c
000003e0: 2485 f83c 783e b13b ffce 253d 8378 b03f
000003f0: 610d 10ba edab 4bbd 338d 59be 357e c23e

l3.bias f4 [2]
0.1968347 -0.18464863
00000000: 098f 493e 8814 3dbe
