OurCode/actor_seed_5000.pt (torch_old, 499033 bytes, 6 tensors)

fc1.weight f4 [400, 8]
00000000: b6ec 06bd b933 73be 647d 4ebe 8cef be3e
00000010: efa8 833e 8259 e5be 4384 983d 2c15 413f
00000020: 2f73 1abe 0d1c 2cbe 478a b83e 9c98 6e3f
00000030: d6a6 a13e b35e d4be c4c7 663e 728b c2bb
00000040: 9e8f cabe 0370 b9bc 498c 673e da8f 8bbe
00000050: 6ec7 493e 6d17 323d 2da6 a03e 048b 903e
00000060: f4db 37bd f602 6b3e bfe3 c33e 00cb e2be
00000070: d89c 98bc 563d f2be 2a09 893e 9b02 53bd
00000080: a94c 9a3d c912 963e 740f c63d a4a9 153f
00000090: b750 0dbd 580c a5bb 9d2f 06be 7a39 04be
000000a0: 9212 563e f102 03be dc37 a6be dde7 8abe
000000b0: 0c0a ce3e da32 7bbe 1e3a 21bf 404b 5cbd
000000c0: 18ff 69bd deda be3d de22 213f c929 acbe
000000d0: bb3f dcbd 8721 3cbe 8a73 5b3e 9dd3 77be
000000e0: fe4f e0bd 7fa2 81be a3ba e739 2c3f ba3e
000000f0: 065c 823d c4a5 073f 3d7c c13e 7c1d 2c3e
00000100: 9c84 a0be 3108 08bd 8bce c53e bbf5 2e3f
00000110: 43f0 c7be ba11 a2be 09dc 9d3e d1c3 85be
00000120: 9fbb 063e 3cd5 133e 48b9 88be 0044 183e
00000130: 7510 6dbe 61ff 873e 04a5 a73c 5fd6 af3e
00000140: 5b37 4bbe c3b5 05be 8879 46be 9b0c f83e
00000150: 7753 11be 891c 9fbe f8f7 4d3e e77e 223f
00000160: 0836 b1bb 7e4c 3fbe 4133 783f 4235 4abf
00000170: 249b 81bd 67d5 433e caac 843d 6cec c03d
00000180: 99c1 9bbe a57e af3d 3c47 773e 063b e13d
00000190: 9983 d3be 04c8 aebe acfc 9fbe 1b0a 67be
000001a0: 23b4 61be c7c5 e5bd 35b3 453e 37f1 113c
000001b0: 0360 3a3e 549a 23bf fe26 923e 5f3e 53be
000001c0: 4709 6abe 9d9a cebe b28e d63e fbd9 76be
000001d0: aedd a4be 7257 97be 9553 b1be 82d9 21be
000001e0: 8a64 1fbe 8374 2b3e e0e1 6cbe 34bc d8be
000001f0: c75d 91be 8b9a b03e 0219 883e f858 a03d
00000200: e2f7 ccbe 0b94 dd3c c141 b0be f395 d4be
00000210: ef48 4a3c 50ea e23e 07be 0f3e a71f b13e
00000220: a8d2 1fbe 90dd 34be fbe9 3abe 9118 efbe
00000230: a37e 843e 6a2b 3cbf 4640 ea3e 9119 36be
00000240: 9fc1 94be 17f4 afbe 4a73 6ebe e375 f23e
00000250: cd3f 0cbe aec9 8e3e fe6e 233f 2147 bc3d
00000260: 78f5 a3bd 3fd3 a83e 3c3a 723f 7c58 1fbf
00000270: 0a10 54bc c547 d2be bc91 74be 0bc7 c03e
00000280: 922e 093e 6ce9 30bd 5e8d 5bbe e958 17bc
00000290: 190d 78bd 7cfb 91bd 9cc4 b2be 6b7d 00bf
000002a0: e495 79be 812f 8d3e b54f f5bd 65b0 58be
000002b0: 0d4c 90be 31c5 d0be 23c5 ec3e 8658 4f3b
000002c0: 7a5c e73d 0af1 9ebe 6eb0 813e 0089 bd3e
000002d0: 685b 0cbd 2855 de3e 90ec a7be e1f5 c7bd
000002e0: 1465 3ebe 318b 863e cd20 1abe 105f dbbe
000002f0: 1e12 ad3b abd1 813e 8666 fdbe e638 debe
00000300: 6870 0fbe e7c0 b8bd b046 98bd 70de 9c3e
00000310: 7e6f c5bb c4dd c2be 1a9d 18bf 7ff6 cfbe
00000320: ef93 c0bd 9fb0 adbe ff29 053f dcb2 593e
00000330: 6cda 96be 7479 00bd e431 dc3d ed72 87be
00000340: 840e aa3e 67bc 88bd ea7c 2fbe f768 efbe
00000350: 7758 69be 6054 3b3e 4bc2 be3e 3f24 653f
00000360: 0a9d 9d3d 28cc 8b3e 6624 023e 4da0 e1bd
00000370: 191e 593e 1a53 a03e fad5 3bbf 204c 913e
00000380: 4f58 45bd 7e2a 92be 4985 80be 5e2f b5be
00000390: 2d16 483e d6db 123e 6a6d 523f abb9 933b
000003a0: afaa 983e 8c25 debd 0686 0539 0050 b03e
000003b0: 8693 7dbd 252e 043c f869 3bbe 6020 893e
000003c0: da9e a5be c002 fc3d e617 c7be 5ad3 7e3e
000003d0: f5e3 a1be 167e a23e aa9a f03d 3b4f 6fbe
000003e0: ffad 90be c033 ab3d 12ca 2bbe d5f0 813e
000003f0: 1f67 c33d 080d e23e d2b3 9ebe 39e8 893e
-0.03294059 -0.237502 -0.2016502 0.37292135 0.25714824 -0.44794852 0.07447102 0.7542293
-0.15083002 -0.16807576 0.36042997 0.93201613 0.31572598 -0.414785 0.22537142 -0.0059370333
-0.39562696 -0.02263642 0.22612108 -0.27258188 0.19704983 0.04347937 0.31376782 0.2823106
-0.044887498 0.22950348 0.38259694 -0.44295502 -0.018629476 -0.4731242 0.26764804 -0.051516157
0.07534153 0.29311207 0.09670916 0.58461976 -0.034500804 -0.005036872 -0.131041 -0.1291255
0.20905522 -0.12794091 -0.32464492 -0.27130023 0.4024204 -0.24531117 -0.62979305 -0.0537827
-0.057128042 0.09319089 0.6294383 -0.3362563 -0.10754343 -0.18372165 0.21430793 -0.24201818
-0.10952757 -0.25319287 0.0004419881 0.3637632 0.06365208 0.52987313 0.377901 0.16808122
-0.31351173 -0.033210937 0.38634142 0.68343705 -0.39050493 -0.3165415 0.30831936 -0.2612596
0.1315751 0.14436811 -0.26703858 0.1486969 -0.23150809 0.26562026 0.020464428 0.3434324
-0.19845335 -0.13057618 -0.19382298 0.48447117 -0.14191996 -0.31076458 0.20114124 0.6347489
-0.0054080524 -0.18681523 0.9695321 -0.78987515 -0.06328419 0.19124375 0.064782694 0.09420094
-0.3042114 0.085690774 0.24148268 0.10997586 -0.4131134 -0.34136975 -0.3124746 -0.22562449
-0.22041373 -0.11219364 0.19306643 0.008907608 0.18200688 -0.6390736 0.28545374 -0.20629261
-0.22855102 -0.40352336 0.41905743 -0.2410659 -0.32200378 -0.29558903 -0.3463408 -0.15805629
-0.15565696 0.16743664 -0.2313304 -0.42331088 -0.2839186 0.34492907 0.2658158 0.078294694
-0.4003287 0.027048131 -0.34425166 -0.41520652 0.01234649 0.4431939 0.14037333 0.3459446
-0.15607703 -0.17662644 -0.18253319 -0.4669843 0.25877866 -0.73503745 0.45752162 -0.1778319
-0.2905397 -0.34365913 -0.23286167 0.47355565 -0.13696213 0.27888244 0.63841236 0.09193254
-0.08005804 0.32973668 0.9462011 -0.6224439 -0.012943277 -0.4107038 -0.23883718 0.37651858
0.13396671 -0.04319136 -0.21440646 -0.009237506 -0.060559366 -0.07128045 -0.34915626 -0.5019137
-0.24373585 0.27575305 -0.119780935 -0.21161039 -0.28183022 -0.40775445 0.46244153 0.0031638457
0.112969354 -0.31043273 0.25329918 0.37018585 -0.03426686 0.43424344 -0.3279767 -0.097636946
-0.18593246 0.2627807 -0.15051575 -0.42845964 0.0052817008 0.25355276 -0.49492282 -0.43402785
-0.14007723 -0.09021168 -0.074353576 0.30638456 -0.006025254 -0.3805982 -0.5961472 -0.4061775
-0.09403216 -0.33923814 0.52017206 0.21259636 -0.29463518 -0.031365827 0.107517034 -0.2645487
0.332142 -0.0667656 -0.17137495 -0.4675977 -0.22787653 0.18293905 0.3725761 0.8950843
0.076959684 0.27304196 0.12709197 -0.11016903 0.21202888 0.313134 -0.7337338 0.2837839
-0.04817992 -0.28548044 -0.25101689 -0.353877 0.1953971 0.14341673 0.821982 0.0045082173
0.2981772 -0.10847005 0.00012733796 0.34436035 -0.061908267 0.008067642 -0.18302143 0.26782513
-0.32347757 0.12305212 -0.3888542 0.24885312 -0.3161923 0.3173682 0.1174825 -0.23370068
-0.28257748 0.0835948 -0.16776302 0.25379053 0.09541153 0.44150567 -0.30996567 0.26934984

fc1.bias f4 [400]
00000000: 78d4 98be cb53 c63d 42ff 82be 631d 6a3e
00000010: e1c2 103d e068 b4be 43f1 35be 6aaa 843e
00000020: b6ae 833e f947 503e 3592 2cbd cd3f 973e
00000030: dc2f 85be eccf 0e3e 95e4 cfbc fc82 c5be
00000040: 5417 b2bd d761 5e3d 3299 343e 99e2 a9bd
00000050: 0bc3 babe 93b2 7f3e 2ad5 663e abab f23d
00000060: a5ef ba3d 4dff 8cbe 32f8 42bc 1047 a5bd
00000070: 8598 37be f68b 433e 08e3 2abd fefa 5c3e
00000080: 715b 073e f8fe a53d 57bd c9be e922 42be
00000090: 2712 19be 887f 31bd 79a7 68be 5aa6 37be
000000a0: dd76 56be 5965 09be efc2 53be 0b27 9cbe
000000b0: c343 10bd bab6 973e d1e3 adbe 3eb8 80be
000000c0: e585 093c 3057 82be cdef 4e3e ed4e 9f3e
000000d0: 9daa fb3c 7549 5cbe 8f60 4b3e 6577 99be
000000e0: 3e7a 8ebe f3bb 243e 3e62 20bd d93b 74be
000000f0: f091 933e 5184 563d d469 5cbe 7b12 8fbb
00000100: 8f14 40be df66 843e 1279 e4bd 759f 0a3d
00000110: 1c87 7a3e a5a0 ad3e 95de c4bd c1a7 7b3d
00000120: 1ad7 383e aff2 da3d 26e1 cabe 72a7 6a3e
00000130: ef7d 97be 643b 3cbe 57f3 e73d a483 14be
00000140: 71e3 b4bc bba8 47be afe4 b1be 6cd6 77be
00000150: e001 38be 52f3 42be 880c afbd 2abe 133e
00000160: a158 44be beaa 5a3c fd4b 973e 7cbc 653e
00000170: bc34 233b 4c10 74be ee2c 923e cf99 5f3d
00000180: 6f79 2d3e 9b8f 6a3e 517a cabe 1172 22be
00000190: 27f7 46bd 93f1 dfba 8925 dcbd e4cc 633e
000001a0: 7472 95be 86fe 82be b883 c53d 6771 5b3d
000001b0: e09d 5b3c 6007 363e c525 85be e368 5fbe
000001c0: 2293 acbe 0166 0fbe 6a5b c0be f611 4b3e
000001d0: 2eef d9bd 5987 b63d 5fbf 8d3c 7adf c13d
000001e0: 32dc 523b 6f7b b13d a956 173e ced4 133c
000001f0: 9cb7 c03d 0b51 1cbe 99b3 6a3e da63 1a3e
00000200: a257 5b3e c655 94bd a8c1 edbe 56a5 923d
00000210: 8ac4 9b3e b94e c1bd ac7e 67be 9adf a0be
00000220: 635e 973e f419 ea3c 47b7 083e 883b 8abe
00000230: e689 893e 2f0b dd3d a11d 193e d42f a1bd
00000240: 4b66 98be 6a8b af3d 8566 ca3d 505f 58be
00000250: 8dc1 b43d a3fb c2bd 241e 93be f367 883e
00000260: 0545 4ebe 03fd 3a3e cc20 d2be 6a3f 8f3c
00000270: 113b e03d 15c1 b6bd 628b 7ebe 08c6 673d
00000280: bf1d fdbc 0164 8d3d 9062 9dbd bf53 b5be
00000290: 94fa 403e a9c9 c93d 4fec a33c 16ec 233e
000002a0: 3f7a b5bd 9b52 583e 6de1 c8be ad44 6d3e
000002b0: 7df1 d33d b3ba 4b3e 1d41 6fbe e3e4 71be
000002c0: d3e9 64bd d156 a3be 770b 993d 56c7 5b3e
000002d0: a9c6 86be 66b2 c13e 8ad3 fd3d a1ea 003e
000002e0: 0154 433e 6a57 bbbe e009 a83d f301 de3c
000002f0: 37f2 e5bd bb12 813e ed15 02be 16f4 33be
00000300: 09fc 00be e1ce 13bd c623 0cbe ce9d 7c3e
00000310: ebae c83d 4253 b93c cc8e ba3c b930 09bd
00000320: c5f6 aebd e927 89be e189 fb3d ee67 61be
00000330: 2264 44be 3286 8abe a7d0 30be 4b5c 2c3e
00000340: f03b 11be 8d16 a63c fe19 60bd 4ed1 1fbe
00000350: 19d3 223e 0280 c8bd f6b4 043e f9ae 073d
00000360: 7105 afbd 337b 14be 2215 69bb caa8 62be
00000370: 4844 613e 7da2 c5be 22a0 14bb 2f74 5c3e
00000380: 60b6 b4bd 6ee7 f4bb 619b 49bb 4be4 1cbe
00000390: 0977 3abe 4209 babc a2d0 3a3e 8b15 9f3d
000003a0: aa29 86bd 3402 053c 6ccf c63d cc37 7f3e
000003b0: 842d 53be 3da4 26be eacf 553d 3956 23be
000003c0: 1671 cabc 65a9 373e d71e 113e f0b3 59be
000003d0: 226f 873e c271 c23d d276 bcbe 6d93 863e
000003e0: 729b a33d 2718 8dbc 2af0 dbbd d55a a43d
000003f0: 1d80 6abe cc2e f03d 5b94 663e 113f 9b3e
-0.298496 0.09683951 -0.2558537 0.22862773 0.0353421 -0.35236263 -0.17767815 0.25911266
0.2571923 0.20339955 -0.04213162 0.29540864 -0.26013076 0.13946503 -0.025377551 -0.38576496
-0.08695856 0.054292526 0.17636564 -0.08295173 -0.3647693 0.24970464 0.22542253 0.11849149
0.0912774 -0.2753853 -0.011899995 -0.08070195 -0.17929275 0.1909636 -0.04172042 0.21580121
0.13218476 0.08105272 -0.39402267 -0.1895863 -0.14948331 -0.043334514 -0.22720136 -0.17934552
-0.2094378 -0.13417567 -0.2067983 -0.30498537 -0.035220873 0.29631597 -0.33962873 -0.25140566
0.008393739 -0.25457144 0.20208664 0.31114903 0.030721003 -0.21512397 0.19861053 -0.29973903
-0.27827638 0.16087322 -0.03915619 -0.23850955 0.2882228 0.05237228 -0.21524745 -0.0043662167
-0.18757842 0.25859734 -0.11155905 0.033843476 0.24465603 0.33911625 -0.09612767 0.06143928
0.18050805 0.106908195 -0.396249 0.22915438 -0.29588267 -0.1838203 0.1132571 -0.14503342
-0.022081109 -0.1949796 -0.34744784 -0.24202889 -0.17969465 -0.19038132 -0.08547312 0.1442801
-0.19174434 0.013346372 0.29550162 0.22435182 0.0024903258 -0.23834342 0.28549904 0.054590043
0.16940854 0.22906344 -0.39546445 -0.15863825 -0.048575547 -0.0017085545 -0.10749347 0.22246128
-0.29188883 -0.2558481 0.09644264 0.053574946 0.01340434 0.17776251 -0.26005378 -0.21817355
-0.33706003 -0.14003755 -0.37569743 0.1983107 -0.10641323 0.08912534 0.017303167 0.09466453
0.0032174704 0.08666121 0.14779152 0.009022905 0.09410021 -0.1526529 0.22920074 0.15077153
0.21420148 -0.072429225 -0.4643681 0.071604416 0.30423385 -0.09438843 -0.22606915 -0.31420594
0.295642 0.028576829 0.13351165 -0.26998544 0.2686302 0.10793149 0.14952709 -0.078704506
-0.29765543 0.08571513 0.09882835 -0.21130109 0.088259794 -0.09520652 -0.28733933 0.26641807
-0.20143516 0.18260579 -0.41040647 0.017486293 0.10948766 -0.08923546 -0.24857858 0.05658534
-0.030897973 0.0690384 -0.07684815 -0.35415456 0.18845588 0.09852917 0.020010142 0.16008028
-0.08861207 0.21125261 -0.39234486 0.23170729 0.103487946 0.19895439 -0.23364682 -0.2362247
-0.055887055 -0.31902173 0.0747289 0.2146276 -0.2632344 0.3783142 0.123938635 0.12589504
0.19075014 -0.3659013 0.082050085 0.027100539 -0.112278394 0.25209603 -0.12703677 -0.1757358
-0.12596144 -0.036085967 -0.13685521 0.24669573 0.09798988 0.022622708 0.022773169 -0.03349373
-0.08543161 -0.26788262 0.12282158 -0.22012302 -0.19178823 -0.27055508 -0.17267095 0.16832082
-0.1418302 0.020274425 -0.054712288 -0.15607187 0.1590084 -0.097900406 0.12959656 0.03312585
-0.0854596 -0.14500122 -0.0035565575 -0.221347 0.21998703 -0.3860053 -0.0022678454 0.21528696
-0.08823848 -0.0074738776 -0.003076278 -0.15321462 -0.18209471 -0.022709493 0.1824365 0.07767781
-0.065509155 0.008118201 0.09707531 0.24923629 -0.20622832 -0.1627359 0.052200235 -0.1595086
-0.024712127 0.17935713 0.1417192 -0.21260047 0.26451975 0.09494354 -0.36809403 0.26284352
0.07988633 -0.01722343 -0.10739167 0.08025137 -0.22900434 0.11727676 0.2251753 0.30321553

fc2.weight f4 [300, 400]
00000000: 9d6e 80bd eddc 90bd 7680 9c3d 947b fd3c
00000010: a322 09be 0431 f13b 7557 09be 43d7 b6bd
00000020: e2ca 1fbe ecc2 d0bd fbbb 903d 4adb 663c
00000030: 4cb3 423d 560c 6bbc 9163 16bc 4bd0 72bd
00000040: 7154 7c3d 6900 97bc 312f b7bd 88fe a53d
00000050: d1d4 943d 5aea 88bd 923b 903b 207b 6d3d
00000060: f9f0 2dbd 5582 bcbd dd75 283d 0885 fabd
00000070: 3bcc 283d 24a6 ddbd 638a 9bbd 8883 f4bd
00000080: 1296 dfbc e47b a8bd 742d 553c 105c a8bd
00000090: 2364 2f3d dd38 00be 3617 57bc b8e3 be3d
000000a0: 8f9d a6bd 2e1c 84bd 285e 913b fd80 023d
000000b0: 4419 ddbd fe50 303b b1da 673e 149d 4bbd
000000c0: 03f0 8a3c 53fc 0cbe 4670 34bd 1e81 dc3d
000000d0: 0b71 98bc 55f0 3c3d 6827 09be 1872 1a3e
000000e0: 770a 2fbe cbe6 e0bd 59cd 753c 64a2 8c3d
000000f0: 5bf1 c9bd 0d34 77bd 2db9 3dbe 2ecf 4abc
00000100: 183a b33c dda1 f1bc d7ff fdbc 5e1d 8cbd
00000110: 7e47 dbbc b956 9c3c 8354 b03d ad04 13be
00000120: 8a91 86bc 613e 3e3c 5740 19bd 7890 543d
00000130: 38c9 1ebe 3219 cdbc bc04 673c 1bf9 6a3d
00000140: 03a7 02be 432f a13d 988e 033e 4b5f 00be
00000150: 8bea dabc db00 cd3d 7a44 f4bd 91e6 55be
00000160: 81a4 043d 2b55 95bb 1b26 c4bd 9987 c6bd
00000170: 04fc 033e 7d0d ebbd 61c9 c9bd 56d3 cebd
00000180: 048f 483d c2ef 653d bc8b 71bd 6b35 e9bd
00000190: 1aea 493d 520d fabc ac53 7f3d 6b8f 32bc
000001a0: 1052 463d b6fd 0abd f74d 5ebd 0dad 5bba
000001b0: 6606 253d 126f 15bd a59b 95bc e5fb 363c
000001c0: 0d1e 39bc a8ac 00be 3a89 9e3c af34 263b
000001d0: 5a80 07bd 83a7 bdbb 6bf3 1bbe 5603 bcbd
000001e0: 1381 5cbe 1a60 12bc 4b38 e0bc 5082 46be
000001f0: 1c49 bf3d 1811 ebbd f9ab 993d 8f5f 39be
00000200: e215 92bd 8e8f c83d 993c 363c bcd9 3abc
00000210: cca6 15be b21c 8dbd 1153 f6bd 8ab8 ea3c
00000220: 5317 8cbd 3a9f ebbd ff25 45bd c024 5abc
00000230: 8a71 2ebd d6ae 09be 028b e5bd 8fd0 5bbd
00000240: ec7b 3c3b 2a16 993b 0963 ffbd 82e7 97bd
00000250: 0c3d 063e 652f acbb 61c3 9abc 9050 04be
00000260: a4d4 683c 7f65 d2bc 453b 9dbc bde5 07be
00000270: 4603 aabd 3e48 063c d77e 0abd d593 aabd
00000280: 37f8 ddbd 09d6 6c3b 07c8 7dbd 8225 c1bc
00000290: 1b4e 1ebe 1c0e 433c 1f52 92bd 7319 02bd
000002a0: 114d b63d 2666 b53c 6e16 39bd 7055 58bd
000002b0: bb5f 3abd 64f2 0f3d 75a0 673d e56b aabd
000002c0: 52d3 ecbd 2769 283d ff72 21bd c6c4 43be
000002d0: 2848 06bd 33f3 c0bc 2cb7 2ebc f7c0 32bd
000002e0: efd9 57bd 62ef 1abd 7e46 33be 82e6 b53d
000002f0: d635 833d 3b1a a0bc 8439 6a3c d73d 6cbb
00000300: fcb6 0dbe b9b8 deba 8ce2 f1bb c9ae d0bc
00000310: 876e d7bd 2cef 093d 60cf 81be db02 45be
00000320: 734d 89bd e32c b0bd 731f 80bd ae44 fbbd
00000330: dcae 963d e2f9 733c fd6d d1bd 9fcc b4bd
00000340: 5535 023c 3d0f 533d 1d32 ecbc a23d 753d
00000350: 5ecc edbd 8829 963d 52b1 53bd 7dc7 b33c
00000360: f1d6 e13d 791a 98bc 128e 373d bfdf 72bd
00000370: f325 54bd 47de d53d 01ba babc c58a 973c
00000380: cf12 5f3c 270b 60bc feae 3cbd 348e 8bbd
00000390: d31f 583d 49cb 58bd c207 5ebd 7318 293d
000003a0: 85c3 0dbd 5ae7 ed3c b968 393d 0fe6 60bd
000003b0: 2d38 14bc 2b3f 6f3d 5452 193e 1678 b23d
000003c0: 7e13 37bd 7ea9 1abe 79a6 30bb d1c2 cfbc
000003d0: 0531 69bd 4ca6 bebd e461 94bd 1549 163a
000003e0: 18e0 86bc 5174 8e3d 855d d7bb 217e 0e3e
000003f0: abb9 f73d 5952 76bd 6513 55bc 6f2f 06bd
-0.06271098 -0.07073388 0.076416895 0.030942716 -0.13392119 0.0073605794 -0.13412268 -0.08927777
-0.15604737 -0.101934284 0.070671044 0.0140903685 0.047534272 -0.014346203 -0.009179012 -0.059280675
0.061603967 -0.018432813 -0.08944548 0.081051886 0.07267154 -0.06685324 0.0044016326 0.05797875
-0.042466138 -0.09204546 0.04112803 -0.12232405 0.041210394 -0.108227044 -0.075947545 -0.1193915
-0.027293239 -0.08226755 0.013011325 -0.082206845 0.042820107 -0.12521692 -0.0131280925 0.09320778
-0.08135521 -0.06450687 0.004436273 0.031861294 -0.10795835 0.0026903744 0.22642018 -0.04971035
0.01696015 -0.13768129 -0.044052385 0.10766815 -0.01860859 0.046127636 -0.13393939 0.15082586
-0.17093836 -0.1098152 0.015002572 0.06866911 -0.09860488 -0.060352374 -0.1852767 -0.012378497
0.021878287 -0.029496128 -0.031005783 -0.06841539 -0.026767489 0.019084321 0.08609869 -0.14357252
-0.01642682 0.011611552 -0.037414875 0.05189559 -0.15506446 -0.025036428 0.01410025 0.05736647
-0.12759022 0.078703426 0.12847364 -0.12536351 -0.026723167 0.10009929 -0.11927123 -0.20888735
0.032383446 -0.004557272 -0.095775805 -0.09693832 0.12889105 -0.11477182 -0.09852863 -0.10098903
0.048964515 0.056136854 -0.05897115 -0.11387142 0.049295522 -0.03052393 0.062335655 -0.010898451
0.048418105 -0.033933364 -0.05427357 -0.00083799736 0.040289305 -0.036482878 -0.018262694 0.011168455
-0.011298669 -0.12565863 0.019352544 0.0025360992 -0.03308139 -0.005787791 -0.15229575 -0.09180324
-0.21533613 -0.008934045 -0.027370593 -0.19385648 0.093401164 -0.1147787 0.07503504 -0.18102859
-0.0713308 0.09793006 0.011122846 -0.011404451 -0.14614409 -0.06890239 -0.120275624 0.028652448
-0.06840386 -0.115049794 -0.04813194 -0.013314426 -0.042588748 -0.13445601 -0.11208154 -0.053665694
0.0028760387 0.0046718316 -0.12470061 -0.074172035 0.13109225 -0.0052546733 -0.018891992 -0.12921357
0.014210854 -0.025683163 -0.019193301 -0.13271232 -0.083014056 0.008195935 -0.03381237 -0.08328978
-0.10838359 0.0036138317 -0.06195834 -0.023577455 -0.15459482 0.011905219 -0.071445696 -0.03176255
0.08901418 0.022143435 -0.045187406 -0.052815855 -0.045501452 0.03514327 0.056549508 -0.083213605
-0.11563744 0.041115906 -0.03941631 -0.19118032 -0.032783657 -0.023553466 -0.010663789 -0.043641057
-0.052698072 -0.03782595 -0.1750736 0.088818565 0.06406753 -0.019543758 0.014295939 -0.0036047602
-0.13839334 -0.0016992308 -0.007381743 -0.025473969 -0.10519128 0.033675358 -0.25353527 -0.1923937
-0.067042254 -0.086023115 -0.062559985 -0.12268959 0.073575705 0.01489112 -0.10226057 -0.08828091
0.007947286 0.051528204 -0.02883249 0.05987323 -0.116112456 0.0733214 -0.051682778 0.02194571
0.11027325 -0.01856731 0.044813223 -0.059295412 -0.051794004 0.10442787 -0.022793772 0.018498788
0.013615324 -0.013674534 -0.046065323 -0.068142325 0.052764725 -0.052928243 -0.054206617 0.041283082
-0.03461029 0.029040981 0.045265887 -0.0549069 -0.0090465965 0.05840985 0.14972812 0.08714311
-0.044696324 -0.15103719 -0.0026954694 -0.02536145 -0.056931514 -0.09309062 -0.07245234 0.0005732936
-0.016464278 0.06955779 -0.0065724277 0.13915302 0.1209596 -0.060137127 -0.013005112 -0.03276008

fc2.bias f4 [300]
00000000: 7efd 93bd 3190 b13d 63a5 763d 6402 563c
00000010: 4eaa 06bc 6710 68bc 4aad bebc fa61 3cbd
00000020: 8db7 4c3d 3a88 e7bc bbfa c0bd de64 67bd
00000030: 4dcb 5cbd c0d2 54bc 4fa3 4dbd b371 1ebd
00000040: ae09 73bc 7242 b93c f3e2 edbc e6c7 dabd
00000050: fe94 65bd 3d1e c0bc 9c09 13bd 5767 ab3c
00000060: 00e7 d8bd 3f67 2ebd 8a9e 44bd 074a 8cbc
00000070: 1bce 5f3d 017c 293d bdea 56bc bef2 4dbd
00000080: 1099 aabd 2bff 343d 0325 bd3d b9c9 10bd
00000090: 912c e6bc 0506 07bd 6916 25bc 0e21 c5bd
000000a0: d421 f7bc d78e cf3c eda9 cdbc 9b0d b43b
000000b0: 9a09 16bd e458 cebd a59f 843d 8fc5 fb3c
000000c0: 615c fdbc b7e6 b8bc 6dac ac3d 479e 7abd
000000d0: 2268 85bd c235 0dbc 1f59 2ebc 2b30 2c3d
000000e0: 555c 373d af95 71bc 08f9 e5bc b29b 82bd
000000f0: 070a 11bc 22c0 0cbd efd1 203d b038 5abb
00000100: 0fc2 dabc eb13 bd3c fc47 35bd a9fd 063d
00000110: ffcb 773c c6e7 cebc 6095 81bd 8e64 263d
00000120: 4378 b7bd 0133 8fbd e105 82bd 4b91 733d
00000130: cf45 87bc 042a 843d 2588 d9bc 9d71 7aba
00000140: c406 2bbd 125d 9abc 99f5 52bd 9857 0d3d
00000150: bea8 443d 0b85 673b c7da 19bd 5176 cfbc
00000160: 4e26 00bd 3218 14be a773 96bc 2c9f 883d
00000170: 8faf 173c 909e fa3d 2039 58bc 201e 343d
00000180: 782f 643d b973 5f3d a850 083d bc50 fe3c
00000190: a24b 0ebc dc89 98bd e1a7 38bd 1016 5cbd
000001a0: b971 09bd 4739 1dbd 2f6c d93b 9166 d43c
000001b0: 0965 37bd cc8b abbd 304b a9ba a914 213c
000001c0: 00e8 813d 33d1 8bbd 3f6a 133d 477e e43c
000001d0: 535e e6bc 7d9b 1ebd 860b edbd 9f40 4d3d
000001e0: 47d9 ef3d 68dc 3bbd 81f9 ea3d af10 7a3d
000001f0: 4214 01bd 3562 a33c 1690 36bd 57bb 59bd
00000200: f8cb bdbc 8398 0cbd d642 f83b c7d5 62bd
00000210: 18d3 26bc 372c 9739 2917 fabc e5b3 12bd
00000220: 62f0 31bc c64d bb3c cb21 433b 0118 dfbd
00000230: 01b2 e5bc 099e 0cbd 583b 8abd c21a 79bd
00000240: 0f7f 11bd 5549 49bd 6954 afbd ab90 d1bd
00000250: 3b57 8f3c 0c28 bb3d 8621 633d 9391 32bc
00000260: 5f32 c63c 6573 3e3d b52a 133d da2c 1a3d
00000270: 872f 023d 594b 1cbd b971 ecbc 9df7 8bbb
00000280: 7fea b2bc 9c92 e2bb 4dfc a23d a5bc a4bd
00000290: 71e6 683c e187 97bc 6cc1 383d 0a2c 333c
000002a0: 1c3d ebbd 6a6c edbb 8bde 28bc 6fec 43bc
000002b0: 562e f03d 6a24 ca3c 5e87 e7bc 4df9 85bd
000002c0: 4dfc d4bc 5fe4 b03c 9528 e3bc e660 2bbd
000002d0: 06c8 abbd 6787 e03b 55f8 9e3d 3362 8bbd
000002e0: e589 013d 880e 36bd 9475 95bc 80d5 833b
000002f0: bda9 09bd b7f7 01bd 3f96 e2bc 53e9 7c3c
00000300: 83e9 9d3d 9deb 2d3d feec c3bd 0bd7 37bd
00000310: e851 1e3b dda9 ec3b 3955 c4bd 3c9a a7bd
00000320: b407 343d 2bfa 46bd a6ee 2bbd b73f 95bc
00000330: be74 fabc 559c d6ba 5a87 a23d 2dcc 58bc
00000340: 5ab3 e83d f864 bdbc 2bd8 10bc 8131 e33c
00000350: 5869 7bbc 135e 78bd afb9 de3b cafe 2c3d
00000360: 96b3 f53c 650c a4bd a085 18bb 9fdf c3bb
00000370: f8c7 12be a8e1 64bc 0ffd 0dbd 89be acbb
00000380: 3aca 62bd 8730 2e3d ac03 19bd 080f c5bd
00000390: 904b 6b3d 4c30 1e3c 2b18 d5bc 88a3 ff3b
000003a0: a49e 1ebc 7f31 4cbd 4391 e83c 4275 04bc
000003b0: b596 dd3a 8de5 b4bd 2839 84bd c5ee 31bd
000003c0: 06d5 7a3c dbf5 733b 8283 a5bd 34cd dc3b
000003d0: ff29 6dbc 3ef2 ff39 653f e03d 4ba6 edbc
000003e0: 0627 4f3c e5d4 a2bd 59e3 03bd 7c41 0bbc
000003f0: 3cd7 f6bd b8b8 a4ba c2b0 dbbc edf8 223d
-0.07226084 0.086700805 0.06021632 0.013062093 -0.008219315 -0.014164067 -0.02327599 -0.045991875
0.049979735 -0.0282632 -0.09422823 -0.05649268 -0.05390482 -0.0129897 -0.05020457 -0.03868265
-0.014833851 0.022614691 -0.029038882 -0.10682659 -0.056050293 -0.023451919 -0.035897836 0.0209233
-0.10590935 -0.042578932 -0.048002757 -0.017125143 0.054639917 0.041378025 -0.013117489 -0.050280325
-0.083299756 0.04418866 0.09235575 -0.035348628 -0.028097423 -0.032964725 -0.010076144 -0.09625445
-0.030167498 0.025336666 -0.025105441 0.005494786 -0.03663025 -0.10075548 0.06475762 0.030733852
-0.030927839 -0.02257095 0.08431325 -0.0611861 -0.065140024 -0.008618774 -0.010641365 0.042038124
0.04476579 -0.01474516 -0.028072849 -0.06377353 -0.008852488 -0.03436292 0.03926271 -0.0033297949
-0.026703862 0.023080787 -0.044258103 0.032956753 0.01512432 -0.025257003 -0.06327319 0.04062324
-0.08958485 -0.0699215 -0.063487776 0.059464734 -0.01651278 0.06453326 -0.026554177 -0.0009553673
-0.0417545 -0.018843208 -0.05150375 0.034507364 0.048012488 0.0035327103 -0.037562158 -0.025324972
-0.03128653 -0.14462355 -0.018365694 0.066709846 0.009258165 0.12237275 -0.013197213 0.043974042
0.055709332 0.05455372 0.033280045 0.031044357 -0.008685024 -0.074481696 -0.045081977 -0.053731978
-0.03355572 -0.038384702 0.006635211 0.025927814 -0.04477409 -0.083762735 -0.0012916084 0.009831586
0.063430786 -0.06827011 0.035989996 0.027892245 -0.02812115 -0.038722504 -0.115744635 0.050110456
0.11711364 -0.045864493 0.1147337 0.061051067 -0.03151346 0.01994429 -0.044571005 -0.053157177
-0.023168549 -0.034325134 0.007576327 -0.055379655 -0.010182165 0.00028833907 -0.030528622 -0.035816092
-0.010860534 0.022864234 0.002977478 -0.1089325 -0.02803898 -0.0343304 -0.067496 -0.060816534
-0.035521563 -0.0491422 -0.08561022 -0.10232671 0.01749765 0.09138498 0.055451892 -0.010898965
0.02419394 0.046496768 0.0359294 0.03764043 0.031783607 -0.038157795 -0.028862821 -0.004271461
-0.021840332 -0.00691445 0.07958279 -0.080437936 0.014215098 -0.01849741 0.045106336 0.010935793
-0.11486265 -0.00724559 -0.010306965 -0.011958226 0.11727588 0.024675567 -0.02826279 -0.06541691
-0.025999213 0.02159327 -0.027729312 -0.041840456 -0.08387761 0.0068520787 0.07762209 -0.068058394
0.031625647 -0.04444745 -0.018244542 0.004023254 -0.03360914 -0.03173038 -0.027659534 0.015436488
0.077105545 0.042461026 -0.09566687 -0.044882815 0.0024157707 0.0072223977 -0.095865674 -0.08183715
0.04395266 -0.048578423 -0.04197564 -0.018218858 -0.030573245 -0.0016373495 0.079359725 -0.013232273
0.113623336 -0.023119435 -0.008840601 0.027733566 -0.01534494 -0.06063659 0.0067970376 0.042235173
0.02999286 -0.080101766 -0.0023273006 -0.0059775854 -0.14334095 -0.013969816 -0.034665164 -0.005271737
-0.05536864 0.042526748 -0.037357017 -0.096220076 0.05744511 0.00965507 -0.0260125 0.007801477
-0.009681378 -0.04985189 0.028389579 -0.008084597 0.0016905876 -0.08832846 -0.06456214 -0.0434406
0.015309578 0.0037225399 -0.08081724 0.0067383293 -0.014475345 0.00048817875 0.109495915 -0.029009959
0.012643581 -0.07950763 -0.032199237 -0.008499499 -0.120527714 -0.0012567258 -0.026817683 0.039788175

fc3.weight f4 [2, 300]
00000000: e125 49be cccb a3be 0e9e e63d cca9 43ba
00000010: e9dd a43e 53f8 5bbf 60f7 62be 7bc3 4d3c
00000020: 90fd 7c3e b36d b3bd afb4 e4bc ce3a d1bb
00000030: a4ef 3c39 fa3e aeba 0904 3e3b 108f a33e
00000040: 52f1 163e b67a 65bd a44c 08be 3a40 a0be
00000050: 2422 593c 9041 6a3e a35c 053d e2c5 303e
00000060: 0578 e0be f85a 9d3b 30c3 1e3d 826a 56be
00000070: 81aa 963d 2049 39ba 7705 01bb 0a34 8f39
00000080: 0084 c93b 63b8 34bd 0a95 7f3d 084a 26be
00000090: fab9 3f3e 3ff2 b0ba 9e7f 283e 8050 cb3e
000000a0: 4a85 4a3e d5b4 e83e e447 6b3c 5837 a5be
000000b0: 255e 1fbe 3f46 0fbe d0cf 803d 7e23 ddbb
000000c0: 58d1 15be 7d9c 903e 41d0 52bd f05c b3be
000000d0: 2619 14bf 6020 28bf bbb2 daba 0cf2 1e3e
000000e0: 4dd1 973b 1840 4aba a8b8 f1bb 9b65 e4be
000000f0: 0261 23bb 2580 1e3c 7209 753e 8d7f 0d3a
00000100: ffee 563c da7b 10bf 545d 1c3b 8487 603c
00000110: 6892 cab9 68f4 273e 3aac aebe 7485 da3b
00000120: 4707 b6be cadb a63e 0385 ce3e 3383 e7be
00000130: d06d 993e 662a 27be 4930 3fbe 330d 803e
00000140: a0b8 9fba c0db 61bc c167 8d3d abda 63be
00000150: 8142 1d3e fc5c bdbd 0384 eabe 959c 353e
00000160: 44b3 da3e 2e47 c6be f776 e93d ee65 04bf
00000170: 677d 7ebd 3cac 933e 9d69 0a3d 88c0 88bd
00000180: 72cb 84be 03e7 883d 5e28 943a 64c0 94bc
00000190: 3145 6b3b f6eb dcbe 3304 af3b 18f6 f5be
000001a0: 6ca1 d9b9 6dfd 563e f1d9 9a3e fb95 47bf
000001b0: 31b1 0d3a af06 d7bd 02ec e63d 5343 d13a
000001c0: deba a0be e4a9 813d 0c41 ee3d 883f 02bb
000001d0: ff8b 0a3e 6252 243c 5773 cc3c 642e d2be
000001e0: 2947 af3c 58ae c4be ddda 55bd 0069 ba3d
000001f0: 1515 b03e c7bc 4f3b 7218 26bb c27f 693b
00000200: 060d 323f 6bef 9d3a ee2c bdbd 2915 7dbe
00000210: 465f 7c3e 7bbe 253b fde8 183b a6c9 02be
00000220: 76d5 1a3b 10a8 2b3e 161e a23e 2d12 24be
00000230: 1a9e 29bf 0df2 7aba a345 1ebf 06f4 f03e
00000240: 589d 0e3a c1bd 2a3d 6da5 f73d 2ef2 423c
00000250: aec2 4abe ba1e 7fbe 18a0 3cbe 67f8 9fbd
00000260: 5bd1 853e 27b7 f73d 10e0 883a b3ea 09be
00000270: b664 12ba 8be5 3b3d 7ba2 6ebb 5d52 4a3e
00000280: c80d 2d3e 6232 febd bbab 533e 71b2 43be
00000290: 49c5 163b 7ffb 98ba a0b4 a63e f638 073f
000002a0: b923 8d3d 1aaf 45bd 0a46 1fbe 7b97 e0bd
000002b0: 474b e43e 3e5c 86be 9a23 21be 8fe3 973e
000002c0: bd69 d8bb b8f9 80bd d3e6 903e 6dae dc3d
000002d0: 0f46 453c b054 27bb 02e3 f73a c946 83be
000002e0: b12b abbe 2893 d1bb 50fc 85be ca2d 9e39
000002f0: 8195 e5bb 1e19 073f b4ab c9bb 3404 01be
00000300: 845c f8bd 638d 98be f20f 083c cfd1 233c
00000310: 71d8 333e 8fa5 0bbf df9b d13c 37d2 163e
00000320: 3682 cb3d 9633 9c3d cdb2 29be 180b cc3e
00000330: 3ad0 8e3d f190 213f ea9d 3c3f 0568 cabe
00000340: 7665 71be 7049 bdbd d185 d63d e143 e73b
00000350: 3b2b f1ba 01ce a63e 38b6 383e 90f0 3fb9
00000360: 923e 933d da44 8b3e a073 51bb 454c d83e
00000370: c6a5 183f 7af2 04bb 844e 143c 4714 e8bb
00000380: abdb 8c3b 9dad f639 ac24 69be f27c a2bc
00000390: b4ef afbe 2bf4 fd3d 8781 a5be 52c3 0dbe
000003a0: 14f0 79bb af06 9aba dd97 053e 305b cdbd
000003b0: 7fcd 083e b7b2 73be 6744 853d b952 cfba
000003c0: e89a 07bf 3693 8c3a 5abf 6b3e 4635 173b
000003d0: 7bcc be3e 9919 40be b5e4 843e 010b 663e
000003e0: 646e b93d eba9 cdbd c727 b83e 7f90 153f
000003f0: aa92 1dbe 2f8d 17bf fa01 d93e 6903 e9bc
-0.19643356 -0.31991422 0.11260615 -0.00074639614 0.32200554 -0.8592579 -0.22164679 0.012558813
0.24706101 -0.08761158 -0.027918188 -0.006385184 0.0001801835 -0.0013293915 0.0028994104 0.31945086
0.14740494 -0.05602523 -0.13310486 -0.31299 0.013252769 0.22876573 0.03255905 0.17262986
-0.43841568 0.004802104 0.038760364 -0.20939067 0.0735674 -0.00070680864 -0.0019687095 0.00027313858
0.006149769 -0.044121157 0.062397994 -0.16239178 0.18723288 -0.0013499929 0.16454932 0.39709854
0.19777408 0.45450464 0.014360402 -0.32268786 -0.15563257 -0.1399164 0.06289637 -0.0067486158
-0.1463064 0.2824439 -0.051468138 -0.35031843 -0.57850873 -0.656744 -0.0016685346 0.15522021
0.004633105 -0.0007715239 -0.007376749 -0.4460877 -0.0024929647 0.009674107 0.23929384 0.00053977297
0.013118505 -0.5643898 0.0023859339 0.013704184 -0.00038637524 0.16401827 -0.34115773 0.006668741
-0.35552427 0.3258956 0.40335855 -0.45217285 0.29966593 -0.16324767 -0.18670763 0.2501007
-0.001218576 -0.013785303 0.06904555 -0.22251384 0.153574 -0.09246251 -0.45803842 0.17735513
0.42714894 -0.3872618 0.11399644 -0.5171803 -0.06213131 0.28842342 0.033792127 -0.066773474
-0.25936466 0.06684687 0.0011303534 -0.018158145 0.0035899396 -0.43148774 0.0053410768 -0.48039317
-0.00041509734 0.20995112 0.302444 -0.7796323 0.0005405127 -0.10499322 0.11275484 0.0015965499
-0.31392568 0.06331232 0.116335005 -0.0019874293 0.13529967 0.010029407 0.024957342 -0.41051018
0.021396236 -0.38414264 -0.052210677 0.091020584 0.34391084 0.0031698213 -0.002534416 0.0035629128
0.6955112 0.0012049502 -0.09237085 -0.24715103 0.24645719 0.0025290537 0.0023332231 -0.12772235
0.0023625768 0.1676333 0.3166358 -0.16022559 -0.6625687 -0.00095728115 -0.6182501 0.47061175
0.0005440316 0.04168487 0.12092099 0.01189856 -0.19800827 -0.24914065 -0.18420446 -0.07811051
0.26136288 0.120954804 0.0010442752 -0.13468437 -0.0005584465 0.045873206 -0.0036412764 0.19757982
0.16899788 -0.124119535 0.20670979 -0.19111039 0.0023005775 -0.0011671631 0.3255968 0.5282129
0.06891579 -0.048262693 -0.15554062 -0.109663926 0.44588682 -0.2624225 -0.15736237 0.296658
-0.006604402 -0.0629763 0.28301105 0.107754566 0.012040629 -0.0025532655 0.0018912258 -0.25639942
-0.3343177 -0.006395716 -0.26169062 0.00030170224 -0.0070063476 0.527727 -0.006154502 -0.1259926
-0.12127021 -0.2979537 0.008304583 0.009998753 0.17563035 -0.545495 0.02558702 0.14728628
0.09936945 0.07627027 -0.16572113 0.39852214 0.0697331 0.6311179 0.7367846 -0.39532486
-0.2357386 -0.09242523 0.10474742 0.0070576523 -0.0018399725 0.32579044 0.18038261 -0.00018304796
0.07189669 0.27200967 -0.0031959787 0.4224569 0.5962795 -0.002028613 0.009051923 -0.0070824954
0.0042986474 0.00047050128 -0.22767895 -0.01983497 -0.34362566 0.12400087 -0.32325384 -0.1384404
-0.0038137482 -0.001175126 0.13046212 -0.10027158 0.1335964 -0.23798643 0.06507187 -0.00158175
-0.52970743 0.0010725025 0.23022214 0.0023072525 0.3726538 -0.18759765 0.2595574 0.22465135
0.090542585 -0.10042175 0.35967848 0.5842361 -0.15387979 -0.59199804 0.4238432 -0.028444009

fc3.bias f4 [2]
00000000: f69f 6fbd 2c11 9a3d
-0.05850216 0.075228065
