OurCode/actor_target_ddpg.pt (torch_old, 499033 bytes, 6 tensors)

fc1.weight f4 [400, 8]
000000 8a b1 7b ba ef 74 85 be 9c a9 2c bf e6 a2 dd bd
       -0.00096013455 -0.26065776 -0.67446303 -0.10822086
000010 e5 2b a7 be 60 e9 b7 be db d5 ce 3d 87 5b 2f be
       -0.32650676 -0.35920238 0.100993834 -0.17124759
000020 66 69 5b bd fb 0b f2 bd ba 2f f4 be d7 e2 70 3f
       -0.053567313 -0.11818691 -0.47692662 0.9409613
000030 15 88 4c be f9 30 21 3e 19 62 50 bd e9 de 89 bc
       -0.19973786 0.15741338 -0.050874803 -0.016829925
000040 88 fc b3 3e 67 5c ba 3e 2c a8 99 3c 50 f0 02 3f
       0.35153604 0.36398622 0.018756948 0.5114794
000050 e6 46 d8 3d 76 5d 8d 3e c6 51 35 bf 3d 85 77 bd
       0.10560398 0.27610368 -0.708279 -0.0604298
000060 d3 b3 83 3e 2e b3 2a be c0 8c e5 3e b2 98 5b 3e
       0.25723132 -0.16669914 0.44833946 0.21444967
000070 24 ed 19 3f 54 a0 ac 3e 09 14 27 3f 35 52 9e 3d
       0.6012747 0.3371607 0.65264946 0.077305235
000080 a7 df 1a 3e 1f 87 00 bc 54 13 2d 3f 39 1b da bd
       0.15124379 -0.007844715 0.6760762 -0.106497236
000090 cf c3 7e be 38 67 07 3f 0f f1 34 be 2f 23 52 3d
       -0.24879383 0.52891874 -0.17670082 0.051303085
0000a0 c3 da 60 be c0 4e 0e 3e c5 f0 01 3e b3 e6 71 3e
       -0.21958451 0.13897228 0.12689503 0.23623161
0000b0 62 ba e9 be c2 95 8e 3e d6 42 60 bf 4a f9 61 3e
       -0.4565001 0.2784863 -0.87601984 0.22067752
0000c0 50 ad cc be fd a2 8e be 8e f5 18 be a8 92 a8 be
       -0.39975977 -0.27858725 -0.14937422 -0.3292439
0000d0 9d ef 9d be f2 5e 12 3f 54 e3 25 bf d7 3b b0 3d
       -0.30846873 0.57176125 -0.648 0.086051635
0000e0 31 78 7b be 9a e4 ec 3b 42 90 da 3e ce 78 8c 3e
       -0.24557568 0.0072294 0.42688185 0.27435917
0000f0 9f 31 e0 be aa 7e dc ba dd a6 46 3e 54 3f 58 3c
       -0.43787858 -0.0016822417 0.19399591 0.013198692
000100 5d 8e b2 3d b4 1d 35 3c 01 6f 8d bd 2a 8e eb be
       0.0871856 0.011054445 -0.06905938 -0.460069
000110 ac bf c1 3d e8 c5 8e be ee e7 16 bd 44 b3 62 3e
       0.09460387 -0.27885365 -0.03684228 0.22138697
000120 3a 62 e8 3c 93 ea 15 bd f7 be 5b be d2 01 1b 3e
       0.02836715 -0.03660066 -0.21459566 0.15137413
000130 a3 3e a4 3e 5e f5 df 3e 59 e6 11 bf 48 69 a7 bc
       0.32079038 0.43741888 -0.5699211 -0.020435944
000140 25 c7 da 3b b7 94 cb be c1 00 14 3f 9e 96 43 3f
       0.006676572 -0.39761898 0.5781365 0.764017
000150 66 87 af be 63 67 84 bd 31 e8 d8 bd a7 85 3e 3e
       -0.34282988 -0.06465032 -0.10591162 0.18605672
000160 bc 53 e4 be 92 3a 64 be b6 28 9a be fd 83 fc be
       -0.44595134 -0.22287968 -0.30109185 -0.4931945
000170 6a d1 d1 bd 38 ca 8e be 1e 54 bb 3e 8f d0 85 3d
       -0.10245021 -0.27888656 0.36587614 0.0653392
000180 0a ba 54 3e c2 d3 41 bd 74 e3 b1 3d b8 eb 53 bd
       0.20774093 -0.04732109 0.08685961 -0.05173847
000190 26 dd b0 3e ab 41 ed be bb ee 45 bf 28 4a 6e be
       0.34543723 -0.46339163 -0.773174 -0.23270476
0001a0 16 e8 d8 3c 78 d4 04 3f fe 68 11 3f c4 e1 73 3e
       0.026477855 0.518867 0.5680083 0.23816592
0001b0 55 31 eb be 7f 0b 01 bf 04 dd a3 3d ed 42 54 be
       -0.45936075 -0.50408167 0.0800114 -0.20728655
0001c0 57 89 69 bd be a3 2e be 09 ea 91 3e 85 ca 92 be
       -0.057015743 -0.1705465 0.28498867 -0.28670135
0001d0 3a 95 f0 be de 37 0a bf 0d 5b 28 bf ed 56 79 bd
       -0.4698885 -0.53991497 -0.6576393 -0.060873915
0001e0 40 6b 49 be 2a 51 7b bd 51 ae ac 3d 27 cc 50 be
       -0.19669819 -0.0613567 0.08431686 -0.20390378
0001f0 9d 54 2b 3f cf 1e bf 3e a5 4d 0c bf b3 34 75 3e
       0.66925985 0.37328193 -0.54805976 0.23945884
000200 99 ee 98 3e ad c5 7a 3e 32 e7 f5 3e ad fc 3e 3f
       0.29869536 0.2448947 0.4802795 0.746043
000210 fd d5 c5 3e bd 4b 4c be b2 68 f3 be 85 72 23 be
       0.38639823 -0.19950767 -0.47540814 -0.15961654
000220 fc 88 ef 3d f4 fb 0a bf 3d 4d 05 bf 19 48 b9 3d
       0.116960496 -0.542907 -0.5207098 0.09046955
000230 80 bd ec 3e b8 05 1e 3d 43 7a ca be 80 7d 10 3e
       0.46238327 0.038579673 -0.39546403 0.14110374
000240 7e fa f4 be a2 95 57 be a3 e8 10 3f 31 b7 c7 bd
       -0.4784736 -0.21053174 0.56604975 -0.09751738
000250 7c e6 c4 3e 16 cd 80 3e 28 09 3f 3f 51 66 45 bd
       0.38457096 0.25156468 0.74623346 -0.04819328
000260 88 df fb bd 74 75 3a be 01 48 de 3d da 28 79 be
       -0.122984946 -0.18208867 0.108535774 -0.2433199
000270 16 a4 1a 3e fb 10 c5 bc e1 18 98 be 35 19 65 3c
       0.15101656 -0.024055948 -0.2970648 0.013983061
000280 a6 2e 9c be 1c e4 35 be 96 bc 58 bd 2e 0b 5d be
       -0.3050434 -0.17762798 -0.052914225 -0.21586296
000290 c5 f1 a7 3d 48 36 c4 3e e0 f8 13 3f 0c 65 27 3e
       0.08200411 0.38322663 0.5780163 0.1634714
0002a0 73 e8 a2 be 36 1a 24 bf 79 ad 9f be 55 f6 c6 be
       -0.3181797 -0.64102495 -0.31187037 -0.3885981
0002b0 af ca a6 be d7 ed 65 be 1c 69 37 3e 93 fd 2a 3e
       -0.3257651 -0.2245401 0.1791119 0.16698293
0002c0 b4 d7 01 3e 6a 36 58 3c 4b 0c 8e 3f e2 74 f7 bc
       0.1267994 0.013196567 1.1097502 -0.030207101
0002d0 15 10 cb be 03 00 37 be 1e 5b 7b 3e ba b7 f8 3c
       -0.39660707 -0.17871098 0.24546477 0.030361045
0002e0 cd d9 ef bd 9a 68 f9 be 9f e0 1e 3e bb ae 19 bf
       -0.11711464 -0.48712617 0.15515374 -0.6003224
0002f0 57 bd 82 bc 06 9f eb be b0 2b 1f 3f ba 17 cb 3d
       -0.015959425 -0.46019763 0.62176037 0.09916635
000300 e0 9c 47 3e df 75 9b bd 78 a0 0e bf a2 08 f1 bd
       0.19493437 -0.075908415 -0.55713606 -0.11769225
000310 09 8e 9b 3d 7a 7c 84 be 5f 69 39 3f 05 06 b9 bd
       0.075954504 -0.25876218 0.7242641 -0.09034351
000320 2f ff 20 3d df cb d1 3e 46 61 d6 3e 32 a3 0c bf
       0.039305862 0.40975854 0.4187109 -0.54936516
000330 bb 8f 69 3e 89 68 dd bd 69 ad 03 3c ba 23 85 be
       0.22808735 -0.10810954 0.00803695 -0.2600382
000340 3d a8 a8 3d ed c3 88 3d df 59 3f 3f 2c 2c 09 3f
       0.08235214 0.06677995 0.7474651 0.53583026
000350 89 ee 60 bd 90 6a 26 3e db f3 d5 3e 63 77 1f 3e
       -0.054914985 0.16251588 0.4178761 0.15572886
000360 3a 49 b7 be 63 66 ed be 9b 58 17 3e ac c0 61 3d
       -0.35798055 -0.46367177 0.14779894 0.055115387
000370 87 d9 dd be 5a 44 ac 3d e6 eb 84 3c 13 52 86 3e
       -0.43330023 0.084114745 0.016225766 0.26234493
000380 5f 65 1c be 88 c6 75 3e 5c a7 15 3e 75 7a 24 be
       -0.15273045 0.24001515 0.14614624 -0.16062339
000390 45 97 f2 3c 06 cf 8c 3e 25 0b ce be 7f e9 a0 3d
       0.029613147 0.27501696 -0.40242878 0.07857036
0003a0 bb e4 c3 3d 95 f4 87 3e 86 92 f6 3e 93 c0 ce 3d
       0.09565111 0.2655379 0.48158664 0.10095324
0003b0 97 0d d3 bd 98 05 09 3e a9 8f bc 3d 4f 07 db 3e
       -0.103053264 0.1338104 0.092070885 0.42779014
0003c0 5b bc 50 3d 8f 67 12 3e a7 43 64 be a3 34 0a 3d
       0.05096088 0.14297317 -0.22291432 0.033741605
0003d0 b7 ff 8b 3e a5 9d 52 be ee d0 86 3f 6f 56 00 be
       0.27343532 -0.20567949 1.053251 -0.12532972
0003e0 1b f3 92 3e 27 ec 3c be f2 e2 10 be ba 5a 12 bc
       0.287011 -0.1844946 -0.14149073 -0.008932764
0003f0 70 62 f2 3e f1 ac c1 3e 48 e0 26 be 6f e9 1a 3e
       0.47340727 0.37827256 -0.16296494 0.1512811

fc1.bias f4 [400]
000000 11 d6 4b be 8f 90 2e bd 16 a1 bb 3e f4 c3 39 be
       -0.19905879 -0.04261833 0.36646336 -0.18141156
000010 22 ca 13 be 57 81 d0 bd df 07 2e be 83 50 e4 be
       -0.14432576 -0.101809196 -0.1699519 -0.44592676
000020 bb b3 33 3d 4f 31 60 3e 64 28 a0 3a 7a 78 1d 3e
       0.043872576 0.2189381 0.0012219069 0.1537799
000030 bc 57 84 be bc d2 5a 3d 94 eb 02 be 9c fd 3c 3e
       -0.25848186 0.05342363 -0.12785178 0.1845612
000040 16 16 3b 3e d6 96 1d be bf 62 9b 3d 2c 36 77 3e
       0.18270144 -0.1538957 0.07587194 0.24141759
000050 5f 85 33 be fc 33 c1 bd 96 51 13 3d 52 f1 8d be
       -0.17531346 -0.09433743 0.03596648 -0.27723175
000060 e0 54 71 be a2 d4 1e be 11 35 85 3e 70 0c d2 bd
       -0.23567533 -0.155108 0.2601705 -0.102562785
000070 f4 f2 a8 3e 59 04 00 3e 3d ce b7 3d 9c 6c 17 3e
       0.3299786 0.12501658 0.08974884 0.14787525
000080 9a 69 9d bc 9f 32 8a bb eb 89 6f 3e 89 62 ca be
       -0.019215394 -0.0042174603 0.23392455 -0.395283
000090 d9 aa a4 bd 72 fd df bc 9f ae b6 3c 73 ef 04 3e
       -0.08040399 -0.027342532 0.022300063 0.12981968
0000a0 49 b6 b9 3d b8 60 7a be 1c d0 c1 3d 52 21 78 3e
       0.09067971 -0.24450958 0.09463522 0.2423146
0000b0 36 15 63 bc 7e b0 d7 be 63 17 03 bf 74 b0 c2 3e
       -0.013860038 -0.4212684 -0.5120756 0.38025248
0000c0 42 ba 55 3e 97 ba b7 3d c3 9a 6d 3d 85 84 4f bd
       0.20871833 0.08971136 0.05800892 -0.05066349
0000d0 c6 b9 bd be d7 e7 dc be 66 4f e3 3c f2 87 a1 3e
       -0.37055796 -0.4314563 0.027747821 0.3154903
0000e0 e1 1b 97 bd eb 10 80 be d1 9a d1 be 3d fe 94 be
       -0.07378364 -0.25012907 -0.40938428 -0.29100218
0000f0 a6 e9 3b 3e cc b4 f2 be 24 34 d3 be 23 37 d4 be
       0.18350849 -0.47403562 -0.41250718 -0.41448316
000100 1f 8b d0 3e 82 3f 76 3e c7 fb 98 be 24 bb e6 bd
       0.4073114 0.24047664 -0.2987959 -0.11266163
000110 37 da b4 be dd e5 99 3d 5a 95 7a bb 7d 1a d7 bd
       -0.35322735 0.07514546 -0.0038235993 -0.10503099
000120 f8 de 60 3d 50 96 48 be 6a f1 89 be 26 e0 02 bf
       0.05490014 -0.1958859 -0.26941997 -0.51123273
000130 25 ff 7d be 93 7d fa 3d 62 51 8b be 1d 07 7f be
       -0.24804361 0.12230983 -0.27210528 -0.24905057
000140 23 77 f5 bd 1b aa 87 3e 67 3f ba be 81 6e 26 3e
       -0.11985614 0.26496968 -0.36376497 0.16253091
000150 b5 60 9b be 9a 29 45 be 8c 5d 07 be 0d 6d e3 be
       -0.3034722 -0.19254151 -0.13219279 -0.44419137
000160 a8 04 9e 3d fc 1a 9c bd e9 d5 a1 3d 7b 82 ce 3e
       0.07715732 -0.07622334 0.07902128 0.40333924
000170 99 33 a6 3c 45 bb 56 3e 88 b7 51 3e 24 6b ca 3d
       0.020288276 0.20969875 0.20480168 0.09883717
000180 c3 73 3a be 06 57 4d bd 9c 30 08 bf 9e 5d 5f 3e
       -0.18208222 -0.05013182 -0.5319917 0.21813056
000190 3f 3d 2a bd 51 a0 9e be e8 80 d1 be 64 44 c5 be
       -0.041562315 -0.30981687 -0.4091866 -0.3852874
0001a0 50 ed b3 3c 94 67 9c 3e c8 14 d0 3a 9f 00 fc bd
       0.021963745 0.30547774 0.0015875334 -0.12304806
0001b0 e8 2d 88 3e a1 c7 6e 3e 65 61 0d 3d 24 3c 3f 3e
       0.26597524 0.2331834 0.03451671 0.18675286
0001c0 46 3a 75 3d 99 c6 4a 3e f4 e3 dd bc 65 fb e0 be
       0.059870027 0.19802321 -0.027086236 -0.439418
0001d0 2b f4 45 be a9 00 1c be df d4 1c 3d 41 f3 b9 be
       -0.19331424 -0.15234627 0.038288947 -0.363184
0001e0 41 d8 4e 3e 18 3b a3 be 2a 51 65 3d e2 9d a2 3e
       0.20199682 -0.31881022 0.055985607 0.3176108
0001f0 0a ce 5c 3e 0f b1 f2 3d 22 18 60 3d 8a 1c 02 be
       0.21562973 0.118501775 0.054710515 -0.127062
000200 3c 9e e7 be 03 6f 85 be b0 81 a4 3d 70 ee b1 3e
       -0.4523791 -0.26061258 0.080325484 0.34752226
000210 59 69 9f bc bc 87 91 be 91 05 e6 be 66 f0 56 3d
       -0.019459413 -0.2842387 -0.44926122 0.052475356
000220 f6 52 8c be 69 ea 36 be c8 4e 55 3d 5f 6d 88 be
       -0.27407044 -0.17862858 0.052077085 -0.26645944
000230 34 5a 0b 3e f0 95 2d be ec 6f 55 be 95 b3 a6 be
       0.13608629 -0.16951728 -0.20843476 -0.32558885
000240 1b 74 a2 be 89 78 02 bd 26 27 a5 bd d8 9a 2e 3e
       -0.31729206 -0.031853233 -0.080641076 0.17051256
000250 51 94 fe be e9 1a 17 3e 63 d8 b5 bc 60 64 64 3e
       -0.4972253 0.14756359 -0.022197908 0.22303915
000260 8c 00 1e bd bd db c2 bd 73 b7 9b 3d c6 2c 25 bc
       -0.03857474 -0.09514568 0.076033495 -0.010081476
000270 3b 62 e3 bb d0 a6 17 3e ba 4b 0f bd b1 b3 73 3e
       -0.0069392 0.14809728 -0.034984328 0.23799016
000280 d3 65 9b be f1 91 24 be 4b a2 0a be 53 19 83 be
       -0.30351123 -0.16071297 -0.13538472 -0.25605258
000290 26 22 35 be 95 4a c3 3d 09 9b c2 bd 87 3e 93 be
       -0.17688808 0.0953571 -0.09502227 -0.28758642
0002a0 92 b9 d7 bd 9e 93 dc bd 3e 59 91 3e e3 f8 e0 be
       -0.105334416 -0.10770343 0.283884 -0.43939885
0002b0 2b 52 a5 be 9c c2 68 be 2c 6a 41 be 82 de bd bd
       -0.32289252 -0.22730488 -0.18888158 -0.092709556
0002c0 f1 3c ad bd 18 de 94 3e a4 73 14 be ad c5 52 be
       -0.08458889 0.29075694 -0.14497238 -0.2058322
0002d0 42 61 2d bc 9f 1a 43 3e 6c 49 2d 3d 8d a6 be 3d
       -0.01058227 0.19053124 0.04230635 0.09309111
0002e0 01 51 1d 3e 5d e8 19 3e f8 29 87 3e 2c 89 2d bd
       0.15362932 0.15030046 0.26399207 -0.042367145
0002f0 5f 0d 8c 3e 56 a7 de 3d bb 52 22 bd 53 9c 82 3d
       0.2735395 0.108717605 -0.03962968 0.06377473
000300 99 3d 9e be 98 53 b9 3d 2c 4f 4a 3e 93 c0 e5 3c
       -0.3090637 0.09049147 0.19756764 0.028045928
000310 1c 0e d0 3d be e1 49 bd 6a 04 cc bc 39 ca 89 3e
       0.10158941 -0.04928755 -0.024904449 0.26912096
000320 df c2 8f 3d e2 92 04 be 7f 3e b4 be 76 ab 9f be
       0.070195906 -0.12946656 -0.3520393 -0.31185502
000330 8c 82 31 3d 4c f3 4a 3e 72 53 85 be c4 81 4e 3e
       0.04333739 0.19819373 -0.26040226 0.20166689
000340 a2 c5 32 3d 78 99 ac 3d df 0f 80 3e ed e9 ec 3d
       0.04364551 0.08427709 0.2501211 0.11568055
000350 9d f2 ad 3d ca 4d 28 3e 72 d4 9b be 68 2a 6d 3e
       0.084935404 0.16435924 -0.3043552 0.23160708
000360 da f6 2a 3e 6a 47 a7 3d 54 7a 88 be 36 27 a3 3b
       0.16695729 0.08167918 -0.2665583 0.0049790395
000370 68 f5 33 be b9 64 d7 bd 49 56 9b bd b2 fb 25 be
       -0.17574084 -0.10517258 -0.07584817 -0.16209295
000380 35 8d 5b 3e 4a e9 6e be a6 50 7a be c1 6d 8b 3e
       0.21440585 -0.2333118 -0.24444827 0.27232173
000390 b9 cf 6e 3d 8f 4c d2 3d 76 49 35 be 9d 23 e7 3e
       0.05830357 0.10268509 -0.17703804 0.45144358
0003a0 e2 f7 6e be 6c 17 ae 3d 8c d4 ac 3d 19 34 2c be
       -0.23336747 0.08500561 0.084389776 -0.16816749
0003b0 b2 25 86 3e e0 d1 81 be 91 80 da 3d d2 a3 bb be
       0.26200634 -0.25355434 0.10669053 -0.36648422
0003c0 14 4e 7a 3e eb 3e 44 3e 7f f8 15 be 8a f5 45 be
       0.24443847 0.19164626 -0.14645575 -0.19331947
0003d0 ac 84 7f 3c 8b 8c b6 3d f8 5e a0 bd ba 1e cf bd
       0.015595596 0.08913525 -0.07830614 -0.101132825
0003e0 53 40 86 be 2b bd e6 3e 53 99 b2 be ca 13 ba be
       -0.2622095 0.450662 -0.34882602 -0.36343223
0003f0 9c 7a 8b 3d 39 ea 2d 3e d6 c6 35 bd f0 98 36 3e
       0.06810495 0.1698388 -0.044379078 0.17831779

fc2.weight f4 [300, 400]
000000 7f 9c 70 3a 38 52 54 bd f1 f0 c2 bc 26 08 1a bd
       0.0009178593 -0.051836222 -0.02379653 -0.037605427
000010 3c 34 59 bb b2 ec 28 3d c1 8b b1 3b 68 39 5e bc
       -0.0033142706 0.041241355 0.0054182713 -0.013563491
000020 46 7a db bc 05 ef 50 bd f9 80 9c 3c 02 5b 94 ba
       -0.026791703 -0.051009197 0.019104468 -0.0011318626
000030 ea 65 61 3a 15 32 3e bd 65 aa 19 bd c3 b2 15 bd
       0.0008598255 -0.04643448 -0.037516017 -0.036547434
000040 54 68 33 bc 79 7b 44 bd 62 ac 27 bd e0 14 e8 bb
       -0.010950167 -0.047969315 -0.04093588 -0.0070825666
000050 a9 23 27 3d 9d c8 bd bc c1 f2 43 3c b3 d0 bb 3c
       0.040805493 -0.023166949 0.0119597325 0.022926664
000060 b8 61 9c bb 4b 65 82 bc ca 6b 28 3d 8a d1 fc 3c
       -0.004772391 -0.01591744 0.04111842 0.030861635
000070 86 d1 b5 ba 72 f1 e9 bc 2e 76 07 3d 9e 73 ef 3b
       -0.0013871647 -0.028557513 0.03307169 0.007307484
000080 21 77 39 3d 9e 2e c9 bb f7 64 af bc 8c 51 20 b9
       0.045279626 -0.0061395904 -0.021410448 -0.00015289168
000090 1c 8a 3d bd ec cb ec bc 8b d4 9f bc e7 59 9c 3c
       -0.04627429 -0.028905831 -0.019510528 0.019085838
0000a0 a0 c6 2f 3c 16 75 0f 3c 0e 08 f0 bb 5a 1c ce bc
       0.010728508 0.008755943 -0.007325179 -0.025160003
0000b0 9e df f9 3c 47 3f a5 3c 9e 60 24 bd 84 b6 cf bc
       0.030502137 0.020171775 -0.040131204 -0.025355585
0000c0 9c 1c 05 3d f1 f0 42 bd bc 0b 47 bc d6 5a 87 3b
       0.032497987 -0.04759306 -0.012148794 0.0041307015
0000d0 aa 01 3b bd 7e 52 52 bd 48 39 26 3d 4f 86 2e 3c
       -0.045655884 -0.051348202 0.04058197 0.010652139
0000e0 4c 8d 34 3c fb 57 2a bd 90 40 f1 ba 4c b4 18 bc
       0.011020016 -0.04158781 -0.0018406082 -0.00932033
0000f0 1e 62 d2 3c 6d 74 22 3d 50 3b 09 bd 82 a0 e1 bc
       0.025681552 0.039661814 -0.03350383 -0.027542356
000100 ae 77 b5 bc a1 6c 69 bd 20 9b fa bc b2 a9 d7 bc
       -0.022151794 -0.056988362 -0.030591547 -0.026326034
000110 12 73 73 bb 6c a3 da 3c 18 c4 25 bd 05 93 35 3c
       -0.0037147445 0.026689254 -0.040470213 0.0110824155
000120 9b c3 c5 bc aa 44 0c 3b 1b db 61 bd 34 1f 2b bd
       -0.024141124 0.0021403232 -0.055140596 -0.041777804
000130 5a a4 c5 bb 1c e0 d9 bc eb 63 0c bd c4 3a 0d bd
       -0.006031555 -0.026596121 -0.034274977 -0.03447987
000140 da d2 56 bd 78 5e 09 bd 42 bf 3a bd 5e cf 1a 3c
       -0.052447177 -0.033537358 -0.045592554 0.009448854
000150 84 89 ec bc 71 ce af 3c c4 47 59 bd 76 d1 19 3d
       -0.028874166 0.021460744 -0.053046957 0.037553273
000160 6e 47 3f bd 6a 0b f4 bc 1f 83 37 bd e8 a4 41 bb
       -0.04669898 -0.029790599 -0.04480278 -0.0029547755
000170 e1 a5 01 3d 02 4f 96 3c 72 61 1e bd 88 d5 a6 3c
       0.031652335 0.01834822 -0.03866715 0.020365492
000180 bc d1 97 bc 9b 78 20 3d 6b b5 57 bd 62 90 ba bc
       -0.018532626 0.03917752 -0.052663248 -0.022773925
000190 2c 1d c8 3b b1 b5 d5 3c 61 c8 14 3c a7 ce 11 bd
       0.006106993 0.026087614 0.009080977 -0.03559747
0001a0 4e 09 ae 3c 3c 21 0e bd a4 e0 0e 3d 40 e1 a6 3b
       0.021244671 -0.034699664 0.034882203 0.00509277
0001b0 3c 28 db 3c e4 de a9 bc 6b 6a 32 bd f9 02 15 3d
       0.026752584 -0.020736165 -0.04355852 0.036379788
0001c0 39 e5 42 bd 41 1b d6 bc dd 4d c9 3c 8f ea d4 bc
       -0.047581885 -0.026136043 0.02457326 -0.025990753
0001d0 30 93 c2 3c 01 c2 26 bc fa ed f4 3c db f8 33 bd
       0.023751825 -0.01017809 0.029898632 -0.0439385
0001e0 c8 77 26 3d da 70 bc ba 13 8e d9 3c be b6 f8 bc
       0.040641576 -0.0014376894 0.026557004 -0.030360576
0001f0 ba 46 fd bc 08 86 b0 3c f5 8f f6 bc 63 a0 29 3c
       -0.030917514 0.021548286 -0.030097941 0.010353181
000200 67 2c 92 bc 4f 36 11 bd 0a 2a 15 bd f5 ab e3 bb
       -0.017843438 -0.035452183 -0.036417045 -0.006947989
000210 1c 3a a0 3c 03 b8 fd bc da 47 03 3d 0c 07 a2 3a
       0.019558959 -0.030971533 0.032050945 0.0012361719
000220 6d fe ee 3a b0 09 1d 3d 60 75 54 bc 71 24 cc bb
       0.0018233784 0.038339317 -0.0129674375 -0.00622993
000230 c1 f2 43 bc dd b2 06 3d 8d 18 3f 3d cd 7a 10 bd
       -0.0119597325 0.03288542 0.046654273 -0.035273362
000240 56 67 2c bd f9 1b 5f bc ab c1 0c bd d7 c6 11 bc
       -0.042090736 -0.013617509 -0.034364384 -0.008897505
000250 39 5c c4 3c 05 bc ee 3c 47 d8 12 3d 55 0e ed bb
       0.023969756 0.02914239 0.03585079 -0.0072343745
000260 51 e6 ba 3c 66 6c c0 3c 17 7c dc bb e6 17 52 bd
       0.022814902 0.023489188 -0.00672866 -0.051292323
000270 15 fd 86 3c 6d f3 77 3c 6c d0 bd ba b4 30 c8 3b
       0.0164781 0.015133721 -0.001448167 0.0061093215
000280 9d 6c 22 bc 40 97 08 bd 89 92 d5 bc 54 a0 0d bd
       -0.009913591 -0.03334737 -0.02607085 -0.03457673
000290 65 29 6f bb dd 85 a3 bc 6b 32 d8 3c 5c 4f 77 3b
       -0.003649318 -0.019961292 0.026391229 0.003773651
0002a0 8a 48 fe 3c 3d e8 2c 3d 5c 5b f5 3c 57 07 e7 bc
       0.031040449 0.042213667 0.02995079 -0.028201742
0002b0 86 32 49 bd 8a 52 a7 bc fe 83 06 3b 3e 70 a4 3c
       -0.04912045 -0.0204251 0.002052545 0.020073052
0002c0 1a 53 ea bc c6 ab 8f bc f3 66 bd 3c 0c e0 bd 3c
       -0.028604079 -0.017537963 0.02312038 0.023178123
0002d0 1c 02 c6 bc f0 9a 26 3d 56 d3 36 3d d7 16 af 3b
       -0.024170928 0.040675104 0.04463514 0.005343299
0002e0 d4 d8 8e 3b 10 5b 30 3c d6 33 23 bd cd fd 0f 3b
       0.004359344 0.0107638985 -0.039844356 0.0021971345
0002f0 53 be 4f 3c 48 ee 80 3a b3 47 3d 3c 91 59 82 3c
       0.012679654 0.0009836638 0.011552739 0.01591185
000300 4a b0 a7 bb b4 95 85 bc 08 52 80 3a 61 ca e9 3c
       -0.005117451 -0.016306736 0.0009790072 0.028538885
000310 d5 c3 6e 3c 21 e9 c2 bc f9 a7 80 bc f7 8c 9a bc
       0.014573057 -0.023792805 -0.015705096 -0.018866045
000320 08 2b 1c bc 64 bc 16 bd 90 e2 80 bc 3c b5 03 3d
       -0.009531744 -0.036800757 -0.015733033 0.03215526
000330 cb 92 0c bd 95 ca 84 bb d7 b7 f0 3b 5c 0a 51 3b
       -0.03431968 -0.00405247 0.007346134 0.0031897044
000340 1a 4d eb 3c a8 02 42 bd bf 70 4b 3c 39 28 94 3c
       0.028723288 -0.047365814 0.0124170175 0.018085586
000350 eb 63 0c bd b4 07 0f 3d bd 16 3e bd 70 06 0a 3d
       -0.034274977 0.034919456 -0.046408404 0.033697546
000360 e4 cd 33 bd 33 3e 74 3c 5f 62 09 3d b6 c3 36 3c
       -0.043897524 0.014907408 0.03354108 0.01115506
000370 08 f8 39 3c 0f 28 07 bd c6 83 a4 3c 71 a1 4c bd
       0.011350639 -0.032997187 0.020082366 -0.04995865
000380 af 65 38 3c 19 1f 3a bd 5f fe d2 ba 0f 6d 2d bb
       0.011254712 -0.045439813 -0.0016097537 -0.002646271
000390 15 d1 aa bc 75 94 c7 bc cf 65 04 3d f8 37 4c 3c
       -0.020851651 -0.024362782 0.032323655 0.012464516
0003a0 f2 5c cd 3b 02 c3 f4 3c d3 e4 0c 3d 2d 7c 06 3d
       0.0062671835 0.029878143 0.03439791 0.032833267
0003b0 89 e2 f2 bc 99 9b 13 bd 51 53 cc bc 8b 91 4e bd
       -0.029649036 -0.03603706 -0.024942072 -0.05043177
0003c0 99 09 f3 bc 5e e6 0f bd 30 2c 30 3d de 9b 11 3c
       -0.029667662 -0.035131805 0.04301089 0.008887259
0003d0 dd d6 c7 bc fa ae 4d bd 69 36 82 3c ef 02 c0 3c
       -0.024394447 -0.0502157 0.015895085 0.023438899
0003e0 5c f9 5a 3b 8f c9 ef bc b7 3a 38 39 11 77 1d bd
       0.003341279 -0.029270915 0.0001756948 -0.03844363
0003f0 a5 a2 35 3c 12 56 ff 3c 2b 88 04 bc b9 6c 93 bb
       0.011086141 0.031168971 -0.008089106 -0.0044990447

fc2.bias f4 [300]
000000 90 c1 9b bc b5 af c5 3d 73 8f ae 3c 83 a8 db 3d
       -0.019013196 0.09652654 0.021308636 0.107255004
000010 3d cf 12 3d 56 74 78 bd f8 c8 b2 bc 02 65 53 3d
       0.03584217 -0.06065782 -0.021824345 0.05161
000020 fe 1e c9 bd 33 b4 b1 3d 67 17 93 3d 22 68 c2 3d
       -0.098203644 0.086769484 0.07182198 0.09492518
000030 a9 7b 6e 3d 3d bc 50 bd f3 67 49 bd 65 10 01 bd
       0.0582234 -0.050960768 -0.0491714 -0.031509776
000040 c7 44 c7 bd e0 1a b1 bc a5 ed 5a bc c8 3d 54 3c
       -0.09729915 -0.02161926 -0.013362323 0.012954183
000050 bc 03 85 bd 27 9f 46 3d a6 57 10 bc 97 71 08 3d
       -0.06494853 0.048491623 -0.0088099595 0.033311453
000060 27 e7 97 bd d6 68 b0 bc 92 d0 72 bc 80 61 d4 bc
       -0.07417136 -0.021534365 -0.014820235 -0.025925398
000070 61 21 aa bd 85 23 7b 3d 2f e8 90 bd 25 82 f7 bd
       -0.08307148 0.06131317 -0.070755355 -0.1208537
000080 63 10 ba bd 61 b2 a6 bc de c2 b0 bd 52 ea b4 bd
       -0.09085157 -0.02034873 -0.08630918 -0.088337556
000090 38 d8 b5 3c 63 dd 0b bd 25 3f 88 3d c2 8f 62 3c
       0.022197828 -0.034146678 0.06652669 0.01382822
0000a0 86 c2 ab bb f8 3e 5e 3d 32 22 d4 3d c0 4c 0a 3c
       -0.005241695 0.05425927 0.10358085 0.00844115
0000b0 cd ab 8f 3d 23 35 17 3e 7b 68 45 bd b2 a0 77 3c
       0.0701519 0.14766364 -0.048195343 0.015113996
0000c0 a3 87 b3 3d 91 04 8d bd 96 75 96 3d 5c 87 7f 3d
       0.08766105 -0.068856366 0.073466465 0.062384948
0000d0 d2 dc b8 3d da c5 0a be 2d 80 ce 3d e5 7e 7f 3d
       0.09026493 -0.13552037 0.10083041 0.062376875
0000e0 32 0e cb bd 88 6f 48 3d f0 60 c9 bd a5 57 8e 3d
       -0.09914817 0.04893449 -0.098329425 0.069503106
0000f0 cf 55 a7 bc 9b ec d5 bd 0b 8c a9 3d ed 87 8b 3c
       -0.020426659 -0.104455195 0.08278664 0.017032588
000100 d5 6c a0 bd c4 73 c9 bc dd a3 77 3d 6b 17 c7 bd
       -0.07833258 -0.024591334 0.060459007 -0.097212635
000110 46 12 8f bc 1e d4 5b bc 64 3f 1a 3e 79 42 e0 3b
       -0.017464768 -0.013417272 0.15063244 0.0068438617
000120 21 91 a2 3d 1f 74 94 bd 72 ef 94 bd de a7 8f bd
       0.079378374 -0.07248711 -0.07272233 -0.0701444
000130 ae a0 6e be 6a 52 ec 3c 16 bb a7 3c df bb 05 bd
       -0.23303482 0.028847892 0.020474952 -0.03264987
000140 ea 82 83 3d b5 5a 72 3d 84 f4 3c bd a2 b5 39 bd
       0.06421454 0.059168536 -0.046131626 -0.045339234
000150 cd 5e a3 3c ec 4d be bc 4d c5 8e bd 3b 80 9f bb
       0.019942665 -0.023230515 -0.06971226 -0.004867581
000160 63 fa af bc 1b 36 7d bd 29 ec 34 3d 51 a7 c3 bb
       -0.021481698 -0.061819177 0.044170532 -0.0059708734
000170 d3 78 82 bd 6e 23 b2 bd fd 98 11 bc a1 b0 0f bd
       -0.06370702 -0.08698164 -0.008886573 -0.035080556
000180 90 6e 07 3d ef 83 05 bb 2b 6e 36 3d c6 f9 9e 3c
       0.033064425 -0.0020372828 0.044538658 0.01940621
000190 61 8f 39 3d 05 7d 28 3d 39 a3 5f 3d a4 fe 04 3d
       0.045302752 0.041134853 0.05459902 0.032469407
0001a0 1c 09 f9 3c ff 10 0e 3e dd a2 05 3d 74 51 56 3d
       0.030399852 0.13873671 0.03262602 0.052323774
0001b0 cf e6 59 bd 67 13 87 3d 62 37 c2 3d 60 d8 eb 3c
       -0.05319863 0.065954976 0.0948322 0.0287897
0001c0 94 4c 25 3d 53 73 2a 3c 4f 78 20 39 f6 77 e2 3c
       0.040356234 0.010403472 0.00015303608 0.027645092
0001d0 d5 53 0a bd bf df 67 3c 41 35 21 3d a2 4e a7 bc
       -0.033771355 0.014152466 0.039357428 -0.020423237
0001e0 99 50 9d 3d 9a e3 33 bc 1a c9 9d bd c3 26 24 3d
       0.076813884 -0.010979557 -0.07704373 0.04007603
0001f0 ee ae c7 3a 44 e3 49 3d ca 23 9d 3d 17 a7 e7 3c
       0.0015234628 0.049289003 0.07672842 0.028277917
000200 6a a2 8c 3c 5e 20 bf bd a8 19 e6 be fc 01 14 3c
       0.017167289 -0.093323454 -0.4494145 0.009033676
000210 5e 79 21 bd 79 b0 46 3d 77 b3 a6 3a de 96 99 bb
       -0.039422385 0.04850814 0.001271828 -0.004687174
000220 b2 43 8e 3c 57 d9 07 bd f8 22 e0 bc f0 a8 cc 3c
       0.017366264 -0.033166256 -0.027360424 0.0249829
000230 47 22 81 3c 9a 29 22 bd bc e8 8c bd 5a c1 06 bd
       0.015763415 -0.039590456 -0.06880328 -0.03289924
000240 d4 33 8a be e6 65 c0 3d ac 8e 8d 3d 4c a2 10 3e
       -0.26992667 0.093944356 0.06911978 0.14124411
000250 03 2f b2 3c 7f b9 80 3d 68 80 7f 3c 7c 31 6d 3b
       0.021750933 0.062853806 0.015594579 0.0036192825
000260 3e d7 88 3d 2d 57 5d 3d 1b f1 f1 3d aa f6 5d 3d
       0.06681679 0.054038215 0.11813565 0.054190315
000270 5b 6d 75 bd 03 16 e4 3c d3 33 bf bd ca ee 27 bd
       -0.059918743 0.027842527 -0.093360566 -0.04099921
000280 c9 ce 40 3d c7 74 75 3d 42 f3 15 bc 82 b9 82 3d
       0.047072206 0.05992582 -0.009152235 0.06383039
000290 73 9e a1 3d 22 4c 30 3b 78 6c c5 3d f6 ae 86 bd
       0.0789155 0.0026900847 0.096398294 -0.0657634
0002a0 4e a7 c1 bd f2 1e 74 bd 4d fe 8d 3c 2d 92 fb 3c
       -0.09455739 -0.059599824 0.017333174 0.03070935
0002b0 36 81 1e bd 48 60 8a 3c 58 5d 34 bd 17 1e 17 3c
       -0.038697444 0.016891614 -0.044034332 0.009223483
0002c0 eb 53 a3 bb ff 27 99 bd 11 bf 91 3d 9f ff 85 bb
       -0.004984369 -0.07478332 0.07116521 -0.0040893103
0002d0 6a 8e f1 bc ca 0a 15 bd b7 b5 a4 3d c6 e5 a4 bb
       -0.029486854 -0.036387242 0.08042472 -0.005032274
0002e0 02 cd 9d bc 5c 84 68 3d f6 19 37 bd 14 59 8b bd
       -0.019262794 0.056766853 -0.044702493 -0.068041
0002f0 9c f0 b9 3d 8c 15 4c 3c 1c 64 2e 3c 17 b7 b2 3c
       0.09079096 0.012456309 0.010643985 0.02181582
000300 f7 87 45 3c 27 b0 a3 bc f8 0a 84 bd 0a 9f 6d bc
       0.012056342 -0.019981457 -0.064474046 -0.01450325
000310 03 fb ce bb 0f 17 11 bd 78 cb 3d 3c ba e1 82 3d
       -0.006316544 -0.03542238 0.011584155 0.0639071
000320 22 32 2c 3d 20 29 cd 3c 87 c5 c3 3c b3 6a a6 3c
       0.042039998 0.025044024 0.0238979 0.02031455
000330 b1 13 bd 3c 2f 99 47 3b a5 22 89 3d 9b df 32 bd
       0.023080679 0.0030456295 0.06696061 -0.043670278
000340 f2 40 03 be 5f 3b d4 bc 5a b4 08 3e af 4c 1f 3c
       -0.12817743 -0.025907217 0.13350049 0.009722873
000350 eb b3 90 3d f7 78 98 bc 3c 3c ad 3d 25 dc 4e 3d
       0.07065567 -0.018612368 0.084587544 0.050502915
000360 d4 fd 35 bd d6 ab 80 3d dc 68 89 bc 24 36 4a 3d
       -0.044431522 0.06282775 -0.016773634 0.04936804
000370 c9 48 79 bd 21 b8 83 3c 55 df de 3b 44 4a 7e 3d
       -0.06086043 0.01607901 0.0068015256 0.062082544
000380 74 b5 f3 3b 48 8c 09 3c fc 6a f5 bc 26 e6 ad 3c
       0.0074374024 0.008395262 -0.02995824 0.021227907
000390 f0 b7 a9 3d 2b 77 a2 3c b6 d3 bd 3d 9b 6c 98 3c
       0.082870364 0.019832214 0.09268896 0.018606475
0003a0 c3 64 a1 b7 ff 36 da 3c 67 5b 4a bd 8b 1f c5 bd
       -1.9239616e-05 0.026637552 -0.049403574 -0.09625157
0003b0 1b cc 04 3d 99 33 d1 3d b1 f2 22 be 0d d3 64 bd
       0.032421213 0.102149196 -0.15912892 -0.055865336
0003c0 74 30 91 bc 07 34 4a bc 27 ca 40 bd 69 2b 29 bd
       -0.0177233 -0.012341506 -0.047067787 -0.041301165
0003d0 42 cd 9f 3d 57 6e 79 be 4d 42 8f bc bf 06 d7 3d
       0.07802822 -0.24358498 -0.01748767 0.104993336
0003e0 8b 3c 5a 3d e3 41 0a 3e 20 fc b5 3c 73 5b 1f bd
       0.053280395 0.13501696 0.02221495 -0.038905572
0003f0 6d ae 51 be 02 67 0a bd 78 bb f2 3c 12 ff 94 bc
       -0.20476694 -0.033789642 0.029630408 -0.018188033

fc3.weight f4 [2, 300]
000000 24 59 3e bb 18 6b 1a be df 89 96 3e 64 b5 93 be
       -0.0029044831 -0.15079916 0.29402062 -0.28849328
000010 61 f5 4a 3e 0c 79 ab 3e 61 59 89 3e 99 9e c7 3d
       0.19820167 0.3349079 0.26826003 0.09747047
000020 e5 78 65 3d 15 62 78 be ee a0 84 bd a2 65 92 be
       0.056023497 -0.24256165 -0.064760074 -0.28593165
000030 55 e6 eb be d4 0d c6 bb a9 9e e6 be f1 f1 93 3e
       -0.46074167 -0.006044129 -0.45042923 0.28895524
000040 5e 74 e1 be 84 c4 6a be bb d3 6c bb 68 34 72 bf
       -0.44034094 -0.22926527 -0.0036136943 -0.94611216
000050 55 8b 1e 3f 6e 63 9a 3d 40 97 08 3b 72 d4 ca 3d
       0.61931354 0.07538496 0.0020842105 0.09903802
000060 ba f3 34 be b6 8c 2c be 77 78 22 bf 32 de be 3e
       -0.176711 -0.16850552 -0.63465065 0.37278897
000070 1b d0 8c 3e 0c 5f c2 be f5 22 65 3f 80 2d 0a bc
       0.27502522 -0.3796314 0.89506465 -0.0084337
000080 ab c1 9b bc 3e aa 53 3f 2f 7f c5 be 31 34 c8 3e
       -0.019013247 0.82681644 -0.38573596 0.3910232
000090 03 9a c2 3e f9 54 71 3e db 85 a6 3e cc 2b e5 3e
       0.38008127 0.23567571 0.32524 0.44759977
0000a0 54 e7 6d bc a1 ef e7 3e 03 c5 0f 3e 42 63 1f bc
       -0.014520485 0.4530001 0.14039998 -0.009728255
0000b0 18 27 95 be 88 7a 50 3e 89 31 da bc 30 fb fd be
       -0.2913139 0.20359242 -0.026634948 -0.49605703
0000c0 de c6 68 3e 6b be 0d bf 06 5f 22 be 44 1e c1 be
       0.22732112 -0.5536868 -0.15856561 -0.37718403
0000d0 6b 67 30 bf 16 ae b7 bf 07 ec 0e bf ec 9a 10 3e
       -0.68907803 -1.4350002 -0.558289 0.14121598
0000e0 2a 02 3c bd 51 8e 8e be 2f 27 af be c2 0a 8b 3e
       -0.0459005 -0.27842954 -0.34209582 0.27156645
0000f0 2b a3 3e be ec 8d 05 bf d9 f4 0a 3e c4 15 04 bf
       -0.18616931 -0.5216968 0.13569964 -0.5159571
000100 48 aa 8a be dc 37 1e 3e 48 e5 a5 be ae 57 4f 3e
       -0.2708304 0.15450996 -0.3240149 0.20248291
000110 3c be d8 3b 8a 8c 56 bb 46 a5 90 be 29 1e e3 bd
       0.0066144746 -0.0032737576 -0.28251094 -0.11089737
000120 80 1d eb 3d 53 0a 12 3f f6 5f b7 be 78 69 00 be
       0.11480236 0.57047004 -0.358154 -0.12540233
000130 a6 e1 5c 3e d0 51 a6 bd b4 6d 1d be 65 fc 57 be
       0.21570453 -0.08121073 -0.1537388 -0.21092375
000140 8d a3 4d 3e 82 f9 55 bd 5a a3 52 3e 46 64 82 be
       0.20081921 -0.052239902 0.20570126 -0.25467128
000150 d0 14 4c 3f 59 79 9e bf 34 36 20 3f b7 b2 4c 3e
       0.7971926 -1.2380782 0.6258271 0.1999005
000160 fe 8c 33 3f fd fb 15 3e 60 60 d5 3d 23 91 eb 3e
       0.7013701 0.14646907 0.10418773 0.46009168
000170 76 ef db 3e e9 5c aa 3e 55 a5 5e be aa 30 88 3e
       0.42956132 0.3327401 -0.21742757 0.26599628
000180 30 47 d3 3e 4a a8 78 3c 04 6c f6 3d 71 b9 d7 be
       0.4126525 0.015176842 0.12032321 -0.42133668
000190 c5 94 e1 be 81 8a 9a 3d 43 4c 00 bc fb 36 cb 3e
       -0.44058815 0.07545949 -0.007830682 0.39690384
0001a0 28 bd 29 bf c6 24 7a be a7 af 1b 3e 4c 83 70 be
       -0.66304255 -0.2442809 0.15203725 -0.23487586
0001b0 8f 24 1f be 45 a8 ad bc 62 89 83 be 65 07 7c be
       -0.1554129 -0.021198401 -0.25690752 -0.24612196
0001c0 7d 79 1c bf a4 54 ed 3a 05 bd a2 3e d4 80 02 3e
       -0.61122876 0.001810689 0.31784835 0.12744457
0001d0 8e d4 4b 3d ed 4c c7 3d 43 3e 17 be 99 75 7d be
       0.049763255 0.09731469 -0.14769845 -0.24751891
0001e0 48 62 ea 3d 95 e9 92 bf cb aa cf be 20 68 7e be
       0.11444527 -1.1477534 -0.40559992 -0.24844408
0001f0 54 46 ce 3e 9a b4 15 bf 5b 22 b7 3d 16 7f 66 3e
       0.4028803 -0.584787 0.089421 0.22509417
000200 56 6c 24 be d7 50 de be 01 9e 38 bf b2 c6 62 be
       -0.16056952 -0.4342105 -0.72116095 -0.22146109
000210 24 44 d6 3e 7c 90 10 3e 45 4c f7 3e 7f 3b 5d 3b
       0.41848862 0.14117616 0.48300377 0.0033757386
000220 f0 96 9d be ab 70 8e be a3 2f a3 be 39 34 0b bf
       -0.3077922 -0.27820334 -0.3187228 -0.5437656
000230 2c a5 38 3f e1 98 71 3f c4 7f b3 bd f2 1c ae 3e
       0.7212703 0.943739 -0.08764604 0.3400646
000240 e6 6b 14 bf 5d d1 95 3d a0 37 84 3e 46 6d 45 bf
       -0.5797714 0.073153235 0.25823689 -0.77119863
000250 b4 70 4a 3e 8e 60 8b 3e 9a 16 a4 3e e1 08 ea be
       0.19769555 0.27222103 0.32048494 -0.457099
000260 42 51 0a 3f 35 17 d8 3d 26 97 06 3c ae 9b b0 be
       0.5403024 0.105513014 0.0082147475 -0.34493774
000270 b8 31 5e be 67 e3 eb 3d 85 74 03 bf cb cc bb 3e
       -0.21698654 0.11517983 -0.5134967 0.36679682
000280 42 10 cf bd 4e 95 f0 3d ee 00 58 3f 72 f2 8e 3e
       -0.10110523 0.117472276 0.8437642 0.27919346
000290 c8 21 c7 3d bb 07 c9 bd 68 1f 3c bd 8f 06 42 bf
       0.0972324 -0.098159276 -0.04592839 -0.7579126
0002a0 3c 52 75 bd 6b 43 4e bf f4 d2 25 3e 7a 33 a8 be
       -0.059892878 -0.8057162 0.16193753 -0.32851774
0002b0 1e 7f f8 be d0 cf 25 b9 eb cf ab 3e a2 94 92 be
       -0.48534483 -0.00015813042 0.33557066 -0.28629023
0002c0 4f 33 08 3f 5a a5 ad 3e 17 0a 4d be 3a 34 86 3d
       0.5320329 0.33915216 -0.2002338 0.0655293
0002d0 e7 fc 99 3e 69 ee 38 bc 15 94 6e be 9d ea 2e bf
       0.30075762 -0.01128731 -0.23298676 -0.6832674
0002e0 3e 4f bf ba e8 5e 82 3e c5 2f c1 3e e2 d0 2d 3f
       -0.001459576 0.25463033 0.37731758 0.67896855
0002f0 de f8 61 3f 62 a2 e5 be af 1c 0b 3e 0c 51 04 3f
       0.88270366 -0.4485045 0.1358516 0.5168617
000300 a0 58 3b bd 4f 3b be 3e a5 2d 0d bf f6 f0 a2 3e
       -0.045738816 0.37154624 -0.55147773 0.31824464
000310 0f 13 67 bc 3e 81 9a 3b 43 dd b9 be bc 06 63 3e
       -0.014103665 0.004715114 -0.36301622 0.22170538
000320 2a 90 ef 3e 92 81 70 3e 9c 5e 30 3e 31 03 f4 3c
       0.46789676 0.23486927 0.1722359 0.029786678
000330 ad 42 16 bf 2f 95 01 3f cc 1a f6 bd c5 8b 78 be
       -0.5869549 0.5061826 -0.1201683 -0.24272068
000340 53 49 3c 3e c3 7a 36 bf e2 d2 35 bc 5d fb b8 3b
       0.18387346 -0.7128107 -0.011097642 0.005645199
000350 9e 12 19 3d ed b8 fc bd ec 23 0e be 8f ff 25 3d
       0.03737127 -0.12339959 -0.1388089 0.040526923
000360 8a 40 15 bf e7 ca 9e 3e e1 c7 8d be 58 35 bb 3c
       -0.58301604 0.31014177 -0.27691558 0.022852585
000370 b3 b8 da be db cb 43 3f 5f 72 b6 bc 7f c2 43 be
       -0.4271904 0.76482934 -0.022271333 -0.19117163
000380 d0 c0 23 bf 5a c9 0b 3e 32 c6 eb 3a 70 08 df be
       -0.63966084 0.13651028 0.0017988144 -0.43561125
000390 f8 20 f4 3e 39 1e 37 bf 2f 3b 93 be 12 f0 b3 bd
       0.47681403 -0.7153049 -0.2875609 -0.08786024
0003a0 82 2b fc bd 41 8b 12 3e 20 34 e8 ba 58 ee 9c bd
       -0.12312986 0.14310934 -0.001771573 -0.07662648
0003b0 8c 4d 19 3e 4b 67 26 3e 62 10 f9 3e f0 21 1e 3e
       0.14970988 0.1625034 0.48645312 0.15442634
0003c0 50 8b 37 3b 6a ec 9f be 75 33 34 bc 10 75 ce be
       0.002800662 -0.31235057 -0.010998596 -0.40323687
0003d0 03 cd 29 bc aa 6d 45 3f d4 de 0d bb fe ae 17 be
       -0.01036382 0.7712046 -0.0021647708 -0.14812848
0003e0 b7 5b 31 3e 70 19 cb be e1 95 c8 be 4f 03 2f 3f
       0.17320143 -0.39667845 -0.3917685 0.68364424
0003f0 1a a7 b1 3e ac 42 68 3e af 9d 92 39 aa c9 60 3a
       0.346978 0.22681683 0.00027964773 0.0008574972

fc3.bias f4 [2]
000000 4c c0 8b 3d 26 cb a5 bc
       0.06823787 -0.02023847
