OurCode/actor_ddpg.pt (torch_old, 499033 bytes, 6 tensors)

fc1.weight f4 [400, 8]
00000000: a1b9 6e3d ff3d 4ebe 1842 88be 31b0 9cbc
00000010: 7db6 a3be 655d a6bd 059c ac3e 4613 54be
00000020: 2b35 e3bd 6cc6 33be 6f76 4fbe 064a 103e
00000030: d9c0 24be c050 fd3d 0e0e edbd 6ea1 1fbe
00000040: db69 e8bd c9ea cebd 09ee 1d3e 6711 db3d
00000050: 844e 513e bf92 5e3e cce3 8fbe bc71 8abe
00000060: decb 193e 3726 8cbe b5c3 643e c733 e03d
00000070: 9dfa a43e 96ab e23d 1cb6 393e 6774 253e
00000080: ac60 273d 8b1d f2bd 437a b03e 0ed9 fb3d
00000090: d6db 8bbe f365 913e b430 d6bd f586 86be
000000a0: 81a4 febd 73d6 6f3e cabf 9b3e a3b0 433e
000000b0: a9b6 aebe ef72 8b3e 4f2c c1be ea9e 0a3c
000000c0: cdc1 a2be 1370 49be d631 523d 65ff 36be
000000d0: 0963 6bbe a174 d63e 52e1 80be 58f7 843e
000000e0: 73ef debd 0367 133e 3090 1dbd 32fd 2bbd
000000f0: ef27 94be 3377 e1bd 301f a93e 8471 263e
00000100: a787 e83d c13a 193d 76c3 62be 2945 94be
00000110: 6a88 82bd 067c b1be 8caf 8bbd 0a30 863e
00000120: 8f31 7ebc 2dd4 a4bd 40c5 93be 8a1d 3ebe
00000130: 5301 60bd fa47 8b3e 071b 4fbe 65b1 52be
00000140: 8bee 993e b942 d4bd 822a 4b3e e605 c93e
00000150: f82e 82be 2e7b 013e de2c 833d abeb 1e3e
00000160: a6ca 9bbe ee55 a6bd 6ca5 96be 4598 96be
00000170: 3ab5 10be b3ae 05bd 94ad d43d e337 bbbd
00000180: 8fde 163e e89f dcbd bf12 f03d 31ac ee3c
00000190: 2704 6f3e 30e0 a1be fffb b1be 8ba9 343e
000001a0: 512b 0ebe c904 b53e 7810 c43e 520d 02be
000001b0: c842 25be e863 82be 62c4 2abe 7565 c0be
000001c0: 7656 bbbd 01ed 51be a8d7 3c3e 6404 b0be
000001d0: c307 b4be bab2 adbe 96f3 a4be 7cc1 0ebd
000001e0: 03ad b5be f1c2 60be a652 333d febf 81be
000001f0: 9b9e a33e 3255 353e d4f0 3f3e 0727 4eba
00000200: d22b 5a3e 4e15 233e 6900 b43e 8c6c 9a3e
00000210: d3ed 853e ad66 84be d88f bcbe aee5 963d
00000220: 75e5 b43e e8f3 9cbe 66ab b4be 0241 a1be
00000230: 9b0a a63e 7627 32be 2bde 97be f810 953e
00000240: bc8d b2be d17f a5bd 301d a83e 9857 93bb
00000250: cc95 203e 8e7a b4bd b19b 113e aefe f2bd
00000260: 32b2 57be 321c 8abe 86b0 7d3e b32c cbbd
00000270: 83f1 463e f430 be3d 1204 49be 0cc7 09be
00000280: 2896 91be 98b2 20be 7f09 af3d 3396 b3bc
00000290: 99eb 0b3d 9172 b43e f868 0b3e 673d 063e
000002a0: 5f04 a2bc 436d afbe 0afd 51be 8bd4 adbe
000002b0: 2e9a 45be 8bef d6bd 8f5a 42be 214d 6d3e
000002c0: 46af ae3e 9109 693e 644a 183e e516 9b3e
000002d0: a3c1 393c 4610 4d3d 6689 a4bc dcfd 153e
000002e0: bade 5c3e a803 1ebe 111a 143e 66d4 94be
000002f0: 7785 563e 5159 c1be 0e15 bd3d b8c8 993d
00000300: 87ae 033e 8ca8 11be 4c75 8b3c 68c8 9b3d
00000310: 3896 523e 9559 9abe adc7 d43d 03d2 67be
00000320: d211 9a3b 2414 c03e 949c 963e 523f 8cbe
00000330: c64a 463e 51d4 9abe 84fd 8b3d 5c71 12be
00000340: cce6 dbbc cfbb 2dbd 046d 813e 1e4f a53e
00000350: 75d9 1cbe 39e8 c6bb 62d5 a23e efea b53b
00000360: 4afa 32be d799 8fbe 6eb2 1e3d c2e8 913c
00000370: 3212 9dbe 9688 d7bc 72f0 953e f509 bc3d
00000380: dc24 45be 5c08 4d3e 1e1b 863d 8576 2ebd
00000390: 750f b7bc 4cb8 983e 33ef 1dbe 6a87 3bbe
000003a0: cbbc 023e 3259 983e e0af 22bd 2eab 8e3e
000003b0: 18d9 073d 0f99 85be 6294 e3bc ba3d 653e
000003c0: 2898 c43d 8384 403e 1783 12be 22aa ab3d
000003d0: 22c7 383e 0336 72be 36e3 a03e 362a 95be
000003e0: b7df c43d 1331 c0be 4cf1 3fbe 3cec 963d
000003f0: 7a77 af3e 1585 013d fbd1 1c3e f741 5cbe
0.0582825 -0.20140837 -0.26612926 -0.019126983 -0.31975165 -0.08123282 0.33712783 -0.20710477
-0.11094125 -0.1755616 -0.20260023 0.14090738 -0.1608919 0.123689175 -0.11574946 -0.15588924
-0.11348315 -0.101033755 0.15422834 0.106966786 0.20440108 0.21735667 -0.28103483 -0.27039897
0.15019175 -0.27372906 0.22340281 0.10947376 0.32222453 0.11067884 0.18135875 0.16157685
0.040863678 -0.11822041 0.34468278 0.12297259 -0.2731616 0.28398094 -0.10458508 -0.2627484
-0.124337204 0.2342165 0.3041976 0.1911035 -0.34123734 0.27236125 -0.37729117 0.00846074
-0.31788483 -0.19671659 0.05131706 -0.17870863 -0.22986998 0.41885856 -0.25171906 0.25969958
-0.10885515 0.14394765 -0.038467586 -0.041989513 -0.28936717 -0.110090636 0.33031607 0.1625424
0.11353999 0.037409548 -0.22144875 -0.28959015 -0.06373675 -0.34664935 -0.06820592 0.26208526
-0.015514745 -0.08048282 -0.28861427 -0.18565956 -0.054688763 0.2720335 -0.20225154 -0.20575483
0.30064806 -0.10364289 0.19840434 0.39262313 -0.2542646 0.12644646 0.06405042 0.15519588
-0.30428046 -0.081218585 -0.29423082 -0.29413047 -0.14131632 -0.03263731 0.1038467 -0.09141519
0.14733337 -0.10772687 0.117223255 0.029134842 0.23341428 -0.31616354 -0.3476257 0.176428
-0.13883711 0.35355213 0.38293815 -0.12700394 -0.16138756 -0.25466847 -0.16676477 -0.37577406
-0.091473505 -0.20500566 0.18441641 -0.3437835 -0.35162172 -0.3392542 -0.3221709 -0.03485249
-0.3548356 -0.21949364 0.04377999 -0.2534179 0.31956944 0.1770828 0.18744212 -0.0007864092
0.21305779 0.15926096 0.35156563 0.3016094 0.26158008 -0.25859585 -0.36828494 0.07368027
0.35331312 -0.30654836 -0.35287017 -0.3149491 0.32429966 -0.17397866 -0.29661688 0.2911451
-0.3487376 -0.0808102 0.32834768 -0.004496526 0.15682143 -0.08812438 0.14219548 -0.118649825
-0.2106407 -0.26974636 0.2477437 -0.09920635 0.19428067 0.09286681 -0.19630459 -0.13454837
-0.28434873 -0.15693128 0.08546733 -0.021922207 0.03416023 0.35243657 0.13614261 0.1310936
-0.019777475 -0.34263048 -0.20506683 -0.3395122 -0.19297096 -0.10494908 -0.18979858 0.23173954
0.34118098 0.22757556 0.14872128 0.30290905 0.0113376705 0.050064348 -0.020085048 0.14647621
0.21569338 -0.15431082 0.14463069 -0.29068297 0.2094935 -0.37763456 0.092325315 0.07508987
0.12859546 -0.14224452 0.017023705 0.07606584 0.20565116 -0.3014647 0.10389648 -0.22638707
0.0047018314 0.37515366 0.29416335 -0.2739206 0.19364461 -0.3024011 0.06835464 -0.14301056
-0.026843451 -0.042415436 0.25278485 0.32286924 -0.15317328 -0.0060701636 0.31803423 0.005551688
-0.1747829 -0.28047058 0.038744383 0.017811183 -0.30677944 -0.026310246 0.29285008 0.09181587
-0.19252342 0.2002272 0.06548141 -0.042593498 -0.022346238 0.29828107 -0.15423279 -0.18313375
0.12767331 0.2975555 -0.03971851 0.27864975 0.03316602 -0.26093337 -0.027780715 0.22386828
0.09599334 0.18800549 -0.1430782 0.0838206 0.18044713 -0.23653416 0.31423348 -0.29133767
0.09612983 -0.3753744 -0.18744391 0.07369277 0.3427084 0.031621058 0.15314476 -0.21509539

fc1.bias f4 [400]
00000000: d62d 0fbe 00bc ccbd a71e cabd 6bbf 93be
00000010: 9d74 82be 4bf4 cdbb 657b b4bd e133 9ebe
00000020: 77db 8f3d 9b41 333e e523 973e 1b42 973e
00000030: 8284 a3be 0517 e5bd af25 26be 4a28 d83c
00000040: 00db c63d 7df2 a83d 638a 523e 5f65 1d3e
00000050: 3f0f 1cbe efeb 503e c02e 803e 34a6 633d
00000060: 31dc 9abe 4482 42be 03b0 1a3e 92f5 a43d
00000070: d891 943e 3ecb 203e 5704 0a3e 6f74 30bd
00000080: dd87 613e 6066 0ebe 90c7 3b3e ec05 2cbe
00000090: bad4 fdbc 9407 6b3e 9789 263e 2f5c 8cbd
000000a0: 9200 a33c c65e c8bd ddbe 0e3e 1c23 423e
000000b0: 38dc db3d 4f42 c9be 08b6 72be 9f7f 4b3e
000000c0: 6ef4 8cbd 5057 5b3e 76b1 803e 2d8b b5bd
000000d0: 8818 4bbe 7e5a a1be 2dc3 0e3e 3510 073e
000000e0: c8ac 93bd 8116 d3be 4ad7 5dbe 0f1d 21bb
000000f0: df24 383e 486e f2bd 32a4 85be 080e 32be
00000100: ae3c 9b3e e150 093e 3add 9cbe e370 81be
00000110: c90a 92be 1e3e 723d 27db fbbd 1657 233c
00000120: bd6e 83bd 2e7d a9be 06d9 83be 24c0 87be
00000130: f21d 44be d27b 163d 00a6 20be d741 debc
00000140: 001a 49bd f401 a93e 3ce3 30be 3059 a23e
00000150: af87 92be dd67 95be a966 cb3d 122b 28be
00000160: c5b9 313e dea2 30be 8b71 8f3e 8a0c b23e
00000170: 0ab1 503d c726 063e 19c9 a83e 270c 553e
00000180: e34f 8ebe eb9f 13bc 09be 98be 894c 833e
00000190: 8e01 75bd 06b5 3b3c 5e1b 4bbe 3cc7 3bbe
000001a0: 5a13 c93c 92fb 8e3e cb56 29be 7f8d b93c
000001b0: c3a3 9f3e 7db8 953e afbd d8bd f2e6 ac3e
000001c0: 83ef df3d cca0 9d3e c666 dcb9 077b 95be
000001d0: 9777 d2bd bc2d bf3d 77a9 123e 40cb adbe
000001e0: 13e1 7f3e ef56 9fbe 052a 403e 76e7 b23e
000001f0: cbda b43d e554 c7bd eb38 353e d4dd 3bbe
00000200: 3520 90be 753d 68be 3dc8 293e cb2f 8a3e
00000210: cc90 083d 6cc7 aabe 3994 c3be 78f9 cabd
00000220: ebe3 353e 1bb6 5abe 281b b83d ee2b 41be
00000230: dfc9 853e 7508 1ebd e7a0 fabd bec4 9ebe
00000240: 524d 78be ff94 f53c 8dd9 b63d 5cba 3f3e
00000250: 52ac 9abe 2599 dd3d da66 2c3c fcd8 563e
00000260: d294 c8bd 6b77 203e c473 023e 7c98 1f3e
00000270: 4750 19be 5bd8 e33d 9887 dbbd f5de f73d
00000280: eb8b 5bbe 4cc5 95be e796 a4be 532b 2ebe
00000290: 9336 ccbd c97c ad3d a139 eabb a9b5 3bbe
000002a0: 85bb be3c 8305 bcbd 7eb1 5e3e fbb8 8cbe
000002b0: 551a 0ebe 54de 9bbe 369a b03d c495 9ab9
000002c0: 1c40 bdbc 30a2 aa3e e0a0 10be 5c34 45bd
000002d0: ceb5 cf3d 0e95 943e 1af9 803e 0e3f 563d
000002e0: 638a f4bd 778c db3d 018b 3f3e 3e7a 63bc
000002f0: 6073 4d3e 2c50 993e 9076 16be 0248 bdbd
00000300: 5e21 aabe 8936 133e a9b2 7e3e eb48 aabd
00000310: 124b a53d 2ef4 f83d 17bd e43c 8e9e 933e
00000320: 7513 493c e327 aabe 0657 98be 5645 d8be
00000330: 9937 7bbc 0ca6 013e 9f6d d4bd d5ba a43e
00000340: 10f0 e0bd 1206 9e3d 4146 a93e 6a7c 3f3e
00000350: 2c5b ae3c 764f ac3e b227 60be eef7 0f3e
00000360: 7720 643e fd60 26be e40d c2be 2b5d 0d3e
00000370: 45bd 2cbe 6181 51be 27c3 b53d 1a11 7dbe
00000380: fcf8 9c3e 3a82 c23c 4d24 c4bd 4af0 853e
00000390: fa98 593d 1b47 723d ca27 50be 2a13 a53e
000003a0: 1efd 09be f33c 903e 8d42 f2bb 8c5a 333e
000003b0: 7306 803e 5654 81be 3643 94be d854 d2be
000003c0: 498f 973e 5002 a63e f3c9 11be f08b 39be
000003d0: b837 203d 20aa 343e d516 9b3d 0d5a 9dbd
000003e0: 71e5 86be 9162 8e3e 797f 87be 6872 b6be
000003f0: 3383 22be d60c 7c3d ba2c f83d bedf 223e
-0.13982329 -0.09996796 -0.09869128 -0.28856978 -0.25479594 -0.0062852255 -0.08812598 -0.30898955
0.070242815 0.17505495 0.29519573 0.29542622 -0.31937033 -0.11186031 -0.16225313 0.026386399
0.0970974 0.08249376 0.20560603 0.15370701 -0.15240191 0.20402502 0.25035667 0.055578426
-0.30246118 -0.18995005 0.15106206 0.08054651 0.2901752 0.1570253 0.13478218 -0.04307979
0.22024484 -0.1390624 0.18337846 -0.16799134 -0.030985225 0.2295211 0.16263424 -0.0685352
0.019897733 -0.097837016 0.13939996 0.18958706 0.10735363 -0.39308402 -0.23702252 0.19872902
-0.06882559 0.21420026 0.25135392 -0.08864436 -0.19833577 -0.31514353 0.13941641 0.13189776
-0.0721069 -0.41228107 -0.21664158 -0.002458397 0.17982815 -0.11837441 -0.26101834 -0.17388165
0.30319732 0.13409759 -0.30637532 -0.25281438 -0.28523853 0.05914127 -0.12297659 0.009969493
-0.06417606 -0.33103317 -0.25751513 -0.2651378 -0.19152048 0.036739178 -0.15688324 -0.027131004
-0.04909706 0.33009303 -0.17274183 0.3170867 -0.28619143 -0.29180804 0.0993169 -0.1642268
0.17356022 -0.17249629 0.28016314 0.34775192 0.050950088 0.1310073 0.32965925 0.20805417
-0.27795324 -0.009010295 -0.29832485 0.2564433 -0.059815936 0.011456734 -0.19834659 -0.1833772
0.02454536 0.27926308 -0.16537015 0.022650478 0.31179628 0.29242316 -0.10583054 0.33769947
0.10934355 0.3078674 -0.00042038242 -0.29195425 -0.10276716 0.09334895 0.14322458 -0.3394413
0.24988203 -0.31121013 0.18766029 0.34942216 0.08830794 -0.09732989 0.17697494 -0.1834634
-0.28149572 -0.22679694 0.16580291 0.26989588 0.033341214 -0.33355272 -0.38199022 -0.09910864
0.17762725 -0.2135853 0.08989555 -0.18864414 0.26130578 -0.038582284 -0.12237721 -0.31009477
-0.24248245 0.029978273 0.08928213 0.18723434 -0.30209595 0.108202256 0.010522569 0.2098121
-0.0979401 0.15670554 0.12739474 0.15585512 -0.1497203 0.11125251 -0.10719222 0.121030726
-0.21440093 -0.29252088 -0.3214638 -0.17008714 -0.09971347 0.084710665 -0.007147983 -0.18331017
0.023282776 -0.09180739 0.21747395 -0.2748488 -0.13877232 -0.3044306 0.086231634 -0.00029484753
-0.023101859 0.33326864 -0.14123869 -0.048145637 0.10142098 0.2901997 0.2519005 0.052306227
-0.11940458 0.10720151 0.1870537 -0.013884125 0.20063543 0.2994398 -0.14693666 -0.0924225
-0.33228582 0.14376272 0.24872841 -0.08314689 0.08070959 0.121559486 0.027922196 0.28831905
0.012272705 -0.33233556 -0.29753894 -0.422404 -0.01533308 0.12660998 -0.10372471 0.32173792
-0.10983288 0.077160016 0.33061412 0.18699804 0.021283709 0.33654374 -0.21890143 0.14059421
0.2227801 -0.16247936 -0.37901223 0.13805072 -0.16869076 -0.2045951 0.08875113 -0.24713555
0.3065871 0.023743737 -0.09577236 0.26159889 0.053124405 0.059149843 -0.20327678 0.32241184
-0.13475463 0.281715 -0.0073931874 0.1751501 0.2500492 -0.25259656 -0.28957528 -0.41080356
0.29601505 0.3242364 -0.14237194 -0.18119788 0.039115638 0.17643023 0.07572714 -0.076831914
-0.26346925 0.27809575 -0.2646444 -0.3563416 -0.15870361 0.06153568 0.12117906 0.15905663

fc2.weight f4 [300, 400]
00000000: cbf1 fb3b f64c a9bd 7fe2 1bbd d8fb 6dbd
00000010: 173b b73b 0a40 4d3d 217b 813b fea0 d239
00000020: 2cf5 02bd d036 9abd 5840 ba3c 9d14 e6bb
00000030: 8d6f e8bb 6448 33bc c14f 83bc c6eb 21bd
00000040: 1058 623d 23c9 a3bd 3946 fdba c893 f03c
00000050: a78d 313d 304a 0cbd 7424 273d 8a4f 1e3c
00000060: 373c 45bd bee8 f1bb 4dc2 883d 9dd1 1c3d
00000070: 8f2b f8ba 8ad6 d3bc 2c31 e43c 3dac a8bc
00000080: ac12 3c3d 8c6d 8d3a cb6a 893c b852 13bd
00000090: cc8d 69bd 33d5 e8ba f9a3 50bc 3170 3d3d
000000a0: 9029 153d 2847 aeba 4d59 8fbc 0206 a2bc
000000b0: 51aa 233d f2ef 833d 8ba6 87bd d41c 9abc
000000c0: 01a4 603d c6d4 f9bc 02ee 473c 50b6 0d3d
000000d0: 6946 11bd df2e a2bd 50af 7e3c 638b 403c
000000e0: a6b0 8fbc 25bc 8cbc 5f17 b03c cf56 a1bb
000000f0: f6c0 c03b 5623 db3c fd07 39bc a261 ed3b
00000100: 6b19 96bc 6732 2abd ed19 55bb d60a 21bd
00000110: cca6 3d3d f499 1e3d 5da3 adbc 7d00 5bbc
00000120: 723d bebd 20cb 893c ac18 acbd f597 1abd
00000130: 5a6f 28bc 9bbd 04bd ad0f 993c ce16 39bd
00000140: e933 cabd 089c 8ebc 23d9 6fbd 5d80 04bb
00000150: 17ec c1bc 770d b8bc 5c50 61bd 50ca 943d
00000160: 6c4a 28bd 12cc ccbc 2316 3ebd bf2a e73c
00000170: a165 403d d7b3 bb3d 4fda d6bc ce53 d2b8
00000180: 60e5 36bd cfdb e43c 3f72 a2bd c44a 4cbc
00000190: 87aa 9fbb 4b63 273d a1f5 193c 4a7a e0bc
000001a0: abe4 753c ec17 09bd 07db 423d a680 92bb
000001b0: b801 183c fb40 afbc 0962 3dbd 92fd 693d
000001c0: 5250 6fbd 2ed4 b1bb 6c5c 9dba 1cc9 efbc
000001d0: d378 013d 58ea 543b 48e0 d83c 7ec4 1dbc
000001e0: 1456 fe3b 2d6d d4bb 3e75 213d 5de6 d7bc
000001f0: 9d35 30bd f5dc c1bb aea3 1ebd 5513 4b3d
00000200: b759 18bc da35 8cbd 387c 06bd 2ec1 29bc
00000210: 2802 4a3d 6000 3cbd be52 813c 36ad 73bb
00000220: c41c 59bb 147e b93c a627 e1bc 5481 65bc
00000230: 0055 7b3c 6907 bdbb ee55 6e3d 367e 10bd
00000240: 9af8 403d 2877 fbbc 52e7 bd3c 6c80 1cbd
00000250: aae2 fc3c 3e5e 993d 8f6a d93d e4af 4bbc
00000260: ed5c 5c3d 6a26 c33c fccf 24bc e5f2 33bd
00000270: a9c0 d0bb 4e51 c93c 1de5 2fbb 01d8 803b
00000280: fc97 fcbc ad99 26bd e226 0abd ea46 b9bc
00000290: a056 b83b 4291 f0bc 9519 823d e5b2 403c
000002a0: 4bbc 4fbc 8a68 613d f849 bf3d 2d20 2fbd
000002b0: e160 99bd 51e5 4c3c 778a 993c c2e3 4f3d
000002c0: dbc1 48bd 5632 81bc fec3 3e3d 3523 673c
000002d0: 95d4 ddbb 2a64 bd3c 62c3 7b3c 07b2 2d3d
000002e0: 8cb7 fbbb 138a 3fbc fe89 7d3c 4caa a13c
000002f0: 9429 26bb c30d 583b d6ed a33d 820f 293d
00000300: d846 143c 8a0c 30be ae2d efbc 755b 713c
00000310: 9f29 953d 2733 64bd c257 fcbd 1259 243d
00000320: c43f 4c3b 5e22 debd 3b3a 0cbd 8eef 0e3d
00000330: 070d 62bc d7b4 833c 4b76 983b 170b 943a
00000340: 17c1 1438 6132 1cbc 606e 14bc cb7d 423d
00000350: 7f7f f9bd 3af7 743d 46c1 18be c78e 7c3d
00000360: c9de 55bd cf5b aebb 4442 f43c f9cc cabc
00000370: b2a0 173d b193 10bd 69f5 443d 9fa4 1bbd
00000380: c758 1d3c e46e 2abc 2649 983c 2db9 f0bc
00000390: 4bad eb3b 2a9e 8abb 823c 163d 646b cf3c
000003a0: b700 b23c 4af2 433d e645 553d 4d66 4f3d
000003b0: d901 08bd 8931 77bd 6c12 9cbc 7bd8 36bd
000003c0: cd4c 03bd 95fb 073d 0f1d 823d 2ced 0b3c
000003d0: 48ae fcbc 17e5 c4bc 5cf6 bdbb 424f 153d
000003e0: 21fc 8e3b 49d8 31bc 1f4c 023d 480a d5bc
000003f0: 811b 71bc 14aa 123d 4af4 18bd 1a17 ab3c
0.007688736 -0.08266632 -0.0380578 -0.058101505 0.005591761 0.0501099 0.0039514457 0.0004017427
-0.031972095 -0.07529986 0.02273576 -0.0070215003 -0.007093376 -0.010942552 -0.01602924 -0.03953149
0.055259764 -0.07997348 -0.0019323296 0.029367343 0.04334798 -0.03425044 0.04080625 0.009662518
-0.04815313 -0.0073824814 0.06677685 0.03828584 -0.001893388 -0.025859136 0.027855478 -0.020589942
0.045916244 0.0010790094 0.016774556 -0.03596756 -0.057019994 -0.0017763734 -0.012734407 0.046249572
0.03641659 -0.0013296353 -0.017498637 -0.019778255 0.03995735 0.0644225 -0.066235624 -0.018812574
0.054843906 -0.030496966 0.012202742 0.034597695 -0.03546754 -0.07919096 0.015544727 0.011751982
-0.017540287 -0.017179558 0.02149552 -0.0049236785 0.0058823777 0.026750248 -0.011293408 0.0072443048
-0.018322667 -0.041551974 -0.0032516674 -0.039316975 0.046301648 0.03872104 -0.021196062 -0.013366816
-0.092890635 0.01682049 -0.08403143 -0.037742574 -0.0102804545 -0.032407384 0.018684233 -0.045187764
-0.09873182 -0.017408386 -0.058556687 -0.0020218112 -0.023672147 -0.022467358 -0.055008277 0.072651505
-0.0410866 -0.024999652 -0.04640783 0.028218625 0.04697192 0.09165161 -0.026227145 -0.0001002919
-0.044652343 0.027936844 -0.07931947 -0.012468997 -0.0048726234 0.040866178 0.009396941 -0.027402062
0.015008132 -0.03347008 0.047572162 -0.0044709025 0.0092777535 -0.02139329 -0.04623607 0.05712659
-0.05842621 -0.005426905 -0.0012005693 -0.029270701 0.031609368 0.0032488313 0.026474133 -0.009629367
0.007761726 -0.0064827413 0.03941845 -0.026354963 -0.04301988 -0.0059162327 -0.038730316 0.049578983
-0.009298733 -0.06846209 -0.032833308 -0.010360999 0.049318463 -0.045898795 0.015786525 -0.00371821
-0.0033128718 0.022643127 -0.027484726 -0.014007885 0.01534009 -0.0057687056 0.058187418 -0.035276614
0.047112085 -0.030696467 0.023181591 -0.03820841 0.0308698 0.074886784 0.106160276 -0.012432072
0.05379956 0.023822028 -0.010059353 -0.043932814 -0.006370623 0.024574902 -0.0026839443 0.0039319997
-0.03083419 -0.0406739 -0.033728488 -0.022616822 0.005625561 -0.02936614 0.06352536 0.011761402
-0.01267917 0.055031337 0.0934028 -0.042755295 -0.07489181 0.012505845 0.018742783 0.050754316
-0.049013 -0.015771072 0.04657363 0.014107515 -0.0067697265 0.023119051 0.015366407 0.04240611
-0.0076817926 -0.011690634 0.015474794 0.019734524 -0.0025354372 0.0032967187 0.08004348 0.041274555
0.009050094 -0.17192283 -0.029196586 0.014731278 0.07283329 -0.055712845 -0.12321426 0.040124007
0.0031165937 -0.10846399 -0.03423522 0.034896426 -0.013797051 0.016077442 0.0046527735 0.0011294809
3.546578e-05 -0.009533496 -0.009059519 0.047483247 -0.12182521 0.059806086 -0.14917478 0.0616596
-0.052214418 -0.005321003 0.029816754 -0.024755942 0.037018485 -0.0352971 0.048085604 -0.03799879
0.009603686 -0.010402415 0.018589567 -0.029385174 0.007192289 -0.0042302804 0.0366788 0.025319763
0.021728856 0.047838487 0.052068613 0.05063467 -0.033204887 -0.060349975 -0.019051753 -0.044640046
-0.032055665 0.03319891 0.06353199 0.008540433 -0.030844823 -0.02403502 -0.0057971906 0.03645254
0.004363552 -0.010854789 0.031810876 -0.026005879 -0.01471603 0.03580673 -0.037342347 0.02088504

fc2.bias f4 [300]
00000000: f9ab 84bc de27 433d 64d7 a93c d2db f63c
00000010: be7d bb3c 234e 47bc d153 2abc 29fb 20bc
00000020: 0055 bebc 6cee f13c d405 203d 004f d53c
00000030: 8110 2b3d 29dc 95bd 7649 fe3b 310b b1bc
00000040: 73b3 d8bc 96b5 033d e243 27bc 19e0 01bd
00000050: 64a5 473b d682 8a3c e6a0 8ebb 5226 afbc
00000060: 74e8 19bd 8571 bebc 8af2 4d3d b0e7 5b3d
00000070: ddd3 243c 448a 873b 6cba 30bc 1d74 28bd
00000080: f55e 63bb 2401 19bd 1d6f e9bc 0a91 debc
00000090: 00e8 edb7 3c37 1d3c bcb9 2d3d 15e7 ff36
000000a0: a1c4 18bc 0f8f b7bb 9161 be3c 2e24 eb3c
000000b0: d571 6d3c a64b f53c 4fbf 0fbc ae6f b63c
000000c0: 741b dfbb 03db 36bd 2eeb 253b c810 443d
000000d0: 035b e03c 86ce c7bc 0ebf d33c 3ff7 efbb
000000e0: 4825 d6bc 2f70 ae3c 7137 4ebd 84e9 f33c
000000f0: 8696 293b 66fe 42bd c4fc 143d ad98 05bd
00000100: 503f 213d 9a96 febc 26b6 ff3c b63a 0cbd
00000110: 89f2 f23c c20c 58bb ff84 303d e94d 19bd
00000120: f593 f4bb f3db 20bc 850f a8bc 3aae e3bc
00000130: eec8 75bd d9c0 0c3d f9c4 e23c 431f cf3b
00000140: b26b c93c 07ec 013c 3f30 e33c d6a1 6dbb
00000150: ca7b 983c d9e9 343d 1f96 3c38 c832 31bd
00000160: d5cb 68bc d608 0c3c c723 683d 56fc 10bc
00000170: ef26 40bc 3523 bdbb 74b5 95bc 45ae 50bd
00000180: 80a8 d2bc 3051 553d ca20 a03c 3cc7 203d
00000190: cf9c 373d da7c 4dbb 6208 37bc 8545 6dbd
000001a0: 2dbf 263d 8d66 1e3d 1f4e 2c3d cde0 023d
000001b0: 9d80 bfbc 6743 e63c cbf8 413d 8c35 2f3d
000001c0: 7a35 323d 7a3b 103d a38f 8e3c 4a94 533d
000001d0: a2d0 c0bc 2dfc c1bb 76ce 2abd 5641 013d
000001e0: d9d7 363c bba8 3c3c ebbe d5bb c1da 4abc
000001f0: 3c53 d43c 9e08 b53b 1e52 283d 305b 0d3d
00000200: d719 753c 5e51 40bd 0baa 1bbc bfe0 bcbc
00000210: a0a3 4b3c 83c9 45bc 73e4 753c bf44 dbbb
00000220: ca29 483d f554 e6bc 3756 e7bc 75e7 153d
00000230: 9444 25bc 791b f3bc 243f 93bc 8149 e0bc
00000240: 079e 0fbd 0c51 2ebb d94c 3c3d 92ed 6e3d
00000250: 201d 933c 0eb7 893b a466 b1bc d21d 1c3d
00000260: d6d1 9fbc 9512 383d 1ca7 d53c 2984 c63c
00000270: 17f9 893c 0779 6e3c 8f36 30bd baff aaba
00000280: 895a 153d 52dc 2fbd 427c 01bd d5fd 0dbc
00000290: 1020 fbbc bce6 fe3c fffa 053d 11b3 c2bb
000002a0: e157 3dbd 1308 1ebd 5bd1 19bd ed43 ea3c
000002b0: ee32 9abc bafe 973c 31c8 2abd 63a5 f7bb
000002c0: 5659 553c 15ba 92bc fecb 413d b27c 32bd
000002d0: 4ca5 c2bb dc4c 00bd e700 283d edbf 27bd
000002e0: e16c 64bc 8807 483c e86e ddbc d908 34bd
000002f0: 1a68 0a3d 8c1e 1f3c 13ae 4abd 6b38 333d
00000300: b39d 1dbc a786 df3b 1727 84bb 11ed f3bc
00000310: 6b21 8c3c a50b b5bc 0156 be3c 2102 783c
00000320: c47a 463c ed9d 32bd bcd1 6b3a d145 abbc
00000330: 7205 28bd 0510 14bd ea95 2a3d 0232 873c
00000340: cbc2 d5bb 3b5b 133d dac4 443d 4e25 eb3b
00000350: 929a f33c 4c3f 0d3c f3dd 0b3d 922d 803b
00000360: b4f2 f73c 9042 bb3b 2357 c83b 7d90 02bd
00000370: 165a 023d 4124 d43c 3427 52bd f482 173d
00000380: 7635 4f3b 2de1 36bd d820 03bd 89d2 2c3d
00000390: 2f59 833a 7e80 1bbc cdca 303d 90a7 313d
000003a0: 0f46 873c f395 fb3b a25b 56bd 6b89 b43a
000003b0: d227 2cbd 1225 a03c ba23 16bd 2649 10bd
000003c0: 7430 91bc e303 b7bc 566a 42bd 4872 0b3c
000003d0: 493d 183d a4a5 5fbc 2e86 ccbc 3db7 cd3b
000003e0: 8023 30bb e5b9 2c3d a1ac cbbc 8106 2ebc
000003f0: bd2c ddbc d05d d4bc c8d2 103d b8aa 77bc
-0.016195284 0.047645442 0.020732589 0.030134115 0.022887107 -0.012164625 -0.01039596 -0.009825506
-0.02323389 0.029532634 0.039068058 0.026038647 0.041763786 -0.07317383 0.007760222 -0.021611782
-0.026452756 0.032155596 -0.010209056 -0.031707857 0.003046357 0.01690809 -0.0043526767 -0.021380577
-0.0375752 -0.02324749 0.05028013 0.05368775 0.010060278 0.0041363556 -0.010786634 -0.04112636
-0.003469405 -0.037354603 -0.028495366 -0.02716877 -2.8360635e-05 0.009595688 0.04241346 7.6264937e-06
-0.009324224 -0.0056017707 0.023239883 0.028703775 0.014492472 0.029943299 -0.008773639 0.02227005
-0.0068086926 -0.04464246 0.002531718 0.047867566 0.027387148 -0.02439047 0.025847938 -0.007323175
-0.026140824 0.021293728 -0.05034584 0.029774435 0.0025877072 -0.047605895 0.03637387 -0.032616306
0.03936702 -0.031077672 0.031214785 -0.03423568 0.029656665 -0.0032966589 0.043095585 -0.037427817
-0.007463927 -0.009818065 -0.020515213 -0.027793039 -0.060006075 0.0343636 0.027681815 0.0063208654
0.024587486 0.007929808 0.027732966 -0.0036259792 0.018613715 0.044168327 4.4962504e-05 -0.04326132
-0.014208754 0.0085470285 0.056674745 -0.008849224 -0.0117280325 -0.0057720193 -0.018275 -0.050947446
-0.025715113 0.05207938 0.019546885 0.039252505 0.04482728 -0.0031354935 -0.011171432 -0.057927627
0.040709663 0.03867202 0.04206669 0.031952668 -0.023376757 0.028108312 0.047356408 0.042775676
0.04350803 0.03521297 0.017402476 0.05165509 -0.023536984 -0.0059199543 -0.041700803 0.03155645
0.0111598605 0.011514838 -0.0065230033 -0.012381257 0.025918595 0.005524709 0.041093938 0.03451079
0.014959774 -0.046952598 -0.009500991 -0.023056386 0.012429148 -0.01207197 0.01500808 -0.006691545
0.04886798 -0.028116683 -0.028239353 0.036597688 -0.010087151 -0.029676186 -0.017974444 -0.0273788
-0.035062816 -0.00265986 0.045971725 0.058332033 0.017958224 0.00420273 -0.021655388 0.038114376
-0.019509237 0.044939596 0.02608066 0.02423294 0.016842408 0.014555222 -0.04302078 -0.0013046183
0.036463294 -0.042934723 -0.031612642 -0.008666475 -0.030654937 0.031115882 0.03271007 -0.0059417565
-0.046226386 -0.03858192 -0.037553173 0.028596843 -0.018823113 0.01855408 -0.041694824 -0.0075575574
0.013021788 -0.017910996 0.047313683 -0.04357595 -0.005940115 -0.0313233 0.041016486 -0.04095452
-0.013941974 0.012208827 -0.027030423 -0.04395375 0.033790685 0.009711873 -0.049482416 0.043754976
-0.009620118 0.0068214717 -0.00403298 -0.029776128 0.017105779 -0.02210028 0.02323437 0.015137226
0.012114231 -0.04360764 0.00089957914 -0.020907314 -0.041020818 -0.03614809 0.041646875 0.016503338
-0.0065234653 0.035975676 0.048039295 0.007176078 0.02973679 0.008621048 0.034147214 0.0039116824
0.030267097 0.005714722 0.006113903 -0.031876076 0.031824194 0.025896193 -0.05130692 0.03699012
0.0031617559 -0.044648338 -0.032013744 0.04219297 0.0010021086 -0.009491084 0.043162156 0.04337269
0.016512899 0.0076777874 -0.05233348 0.0013773864 -0.042030163 0.019548927 -0.036655165 -0.03522601
-0.0177233 -0.02234072 -0.04746469 0.0085111335 0.03716782 -0.013650332 -0.024966326 0.006277947
-0.0026876628 0.04216947 -0.02486259 -0.010621668 -0.026998872 -0.02592364 0.035357267 -0.015116386

fc3.weight f4 [2, 300]
00000000: cd2b 08bc 32fe 4ebd 5653 aabd 063f 86bc
00000010: a394 19bd 499c 283c 8cc9 043c 279f 233c
00000020: 528f 0b3c 55ac 8d3b 6e1e aebc d416 653b
00000030: 4226 23bc 1822 723d af61 bd3b 04b6 9bbc
00000040: c3ee 2bb8 5257 68ba 1de2 fbbb 44d7 5ebb
00000050: 9deb 2bbb b467 e8bc bf7a 13bb 76ee 333d
00000060: 5fd3 04bc f9cf 52bc 09d7 91bd e622 5ebd
00000070: 6e84 303d 334d 52bd c44a 72bb 0d4d 8bbd
00000080: 411c a1bb 2f60 463d 613b 203c 9a80 b33a
00000090: 6053 083b 0c4d 57bd 9187 333c 7864 673a
000000a0: 03df 023d 6692 18bc 80dc bdbc fe3b e83a
000000b0: 12d3 f23a aed0 00bc c169 37bd a448 8e3a
000000c0: c69f 3f3c e2c3 cfbb 78dd a8b8 4403 b2bc
000000d0: e2af 2abb 123c 4d3b 8670 46bd 9048 eebc
000000e0: 02eb 5b3d 5c61 54bd 8529 2abc d69d 4e3c
000000f0: cc8a 6fbb db59 303b 4e40 e63b 3665 1a3c
00000100: 86cc d2bc ec7a 79bc df8a 1dbb 45c7 cfbb
00000110: 3856 6cbc 7603 faba da65 37bc 4ef2 89bc
00000120: f6b7 7dbd 92e8 113d 9344 da3b 7998 80bd
00000130: d75b 24bd 6fc3 e3bb 876e 273c 1bb0 433c
00000140: dfea b7bd e281 2cbc 30df 7abc 5937 043d
00000150: 80f6 b83c 931c 5abc a78d 013d 0e90 23bc
00000160: 3d15 9b3c 5d22 48ba a061 ca3c 9510 483a
00000170: 27ed 383c b324 83bd beca 5fbc a8e2 7aba
00000180: c4e6 4f3b 119a 89bb 3d64 2bbb a799 01bd
00000190: 7e8d 85bc 813a 86bb 5fc4 a33c 4a75 a63d
000001a0: 450d 033d 38d8 033c 1217 5cbc 7ff0 cbbc
000001b0: 4555 ba38 f199 cbbc 07d2 1a3c 9035 5cbc
000001c0: afe3 113c 1442 2c3a 98ae 1abb 6761 533c
000001d0: ae0a dabb 63bf 473c 1e07 863c 4d52 b5bc
000001e0: 4512 bc3c d814 083c 7f78 d3bc 3d1b 623c
000001f0: c76d e6bb 6d0e dcbb f44b 4c3c 56ed 04bd
00000200: 9b9a 8b3d 9cc0 5d3c 2d8b 4cbc a15e 6abd
00000210: 69a2 20bd 4c23 1fbd de85 3f3c c854 f73b
00000220: 3350 4fbc 44e8 ffbb 2b81 71bc d49b 69bb
00000230: b98f abba 7ac5 903c de71 f2bb 25f2 993c
00000240: eeaf 523b e544 adbb 4cdc 633b fc98 72bc
00000250: 8e91 7a3c ff82 04bc 075f 02bc a349 753b
00000260: f7ac 23bd 5e83 1dbc 7029 85b9 3240 833c
00000270: 9b27 43bc d0ca 9e3c 7800 1b3c 11c1 b73c
00000280: e20f 7d3b 1b21 e23d 6f93 f6bb b186 d3bc
00000290: 1093 c13b 4a9d a03c ef4f 893d 9d8d 3bbc
000002a0: 8f58 8339 730c b2bb 0ac1 9ebb 433e babb
000002b0: c62f c6ba 6c95 c33a 23b0 a33b f30f cd3b
000002c0: e33c be39 c6f7 63bc 59c8 1bbd f4c6 09bb
000002d0: 54e2 36bb 0313 39bc fd6c 8bbc cf28 ebbc
000002e0: 48f8 9b3a bcc8 6cba 7406 44bd 16ce f13b
000002f0: 0587 b9bb 7af0 133c e4a3 c1bb bde6 b9bc
00000300: 374c 88bc 9271 9bbc 45ef d4bc 5e1a 033c
00000310: a06d b7bc 3934 ff39 5bab 06bd c734 62bb
00000320: 4dc5 fdbb a841 d5bc c351 08bd 9cc8 a3bb
00000330: 7bff a1bc b3ba 563d d2de 25bc d21e 3fbb
00000340: 5dee fe3a fa24 793b 60ca 92bd 28f4 683c
00000350: 2ca5 14bd 2f36 f3bc cb0a ff3a 19b1 ed3b
00000360: c166 143d 8892 a53c 1227 113c 70af d2bc
00000370: 0ec0 843b ede2 793a 989b 03ba eab7 013d
00000380: 085a c0bb 00d6 f737 9657 05bb d8a1 aebb
00000390: c7c0 013b bcf0 30bc 4992 56bc bc40 313d
000003a0: 142f 79bc 4e59 8fbb 10b4 baba cc19 263b
000003b0: 6be5 1638 0ed1 013b 6ee2 92bb aee6 6f3b
000003c0: 508b 373b 0466 f3bb 316c 413a 8341 aa3c
000003d0: 1e82 8e3c 43bd f63c 9864 8f3c 6333 e6bc
000003e0: aee7 a23b a1f8 22bb cd39 913b b1eb ad3a
000003f0: 5818 0fbb d87c 643c 757b ce39 12f4 a1ba
-0.008311224 -0.05053539 -0.08316676 -0.016387474 -0.037495267 0.010291168 0.008104693 0.009986675
0.008518057 0.004323522 -0.021254744 0.0034956234 -0.009957852 0.059114546 0.005779467 -0.01900769
-4.099194e-05 -0.00088631094 -0.007686867 -0.003400282 -0.0026232966 -0.028369762 -0.0022503582 0.043928586
-0.008107035 -0.012866967 -0.07121093 -0.0542325 0.043095045 -0.051343154 -0.0036970833 -0.06801806
-0.004916698 0.04843157 0.009779782 0.0013694942 0.0020801648 -0.052563712 0.0109576145 0.00088269217
0.03195096 -0.009312248 -0.023176432 0.0017718074 0.0018526039 -0.007862253 -0.04477859 0.0010855389
0.011695808 -0.0063404897 -8.052116e-05 -0.021730073 -0.0026044776 0.0031316322 -0.048447154 -0.029087335
0.053690918 -0.05185066 -0.010385876 0.012610873 -0.0036551235 0.0026909027 0.0070267087 0.009423545
-0.02573229 -0.015227061 -0.0024039072 -0.0063408935 -0.014424853 -0.0019074518 -0.011193717 -0.016839173
-0.061943017 0.035622187 0.0066610067 -0.06279082 -0.040126648 -0.0069507877 0.010219223 0.011943842
-0.08980345 -0.010529013 -0.015312001 0.032279346 0.022578478 -0.013312477 0.03162923 -0.009983076
0.018931026 -0.0007634515 0.024704754 0.00076318654 0.01128701 -0.06403484 -0.013659177 -0.00095705176
0.003172324 -0.0041992743 -0.0026152276 -0.031640675 -0.01630282 -0.0040963297 0.019991098 0.0812784
0.031995077 0.008047156 -0.013433235 -0.02489495 8.885054e-05 -0.024853678 0.0094494885 -0.013440505
0.008904382 0.00065711257 -0.00236026 0.0129016405 -0.006654105 0.012191626 0.016360816 -0.02213397
0.02295793 0.008305751 -0.025814293 0.013800439 -0.0070321294 -0.006715587 0.0124692805 -0.032452904
0.06816598 0.013534691 -0.012484354 -0.05721915 -0.039217386 -0.03885202 0.011689631 0.0075479485
-0.012653398 -0.0078096706 -0.014740269 -0.003564586 -0.0013089097 0.01767229 -0.007398828 0.018792221
0.003214832 -0.005287754 0.0034768758 -0.014806982 0.015293492 -0.0080878725 -0.007957227 0.0037427924
-0.039959874 -0.00961384 -0.0002539861 0.016021822 -0.011911298 0.019383818 0.009460561 0.022430928
0.0038614203 0.110414706 -0.0075248997 -0.025821062 0.005907424 0.019606251 0.06704699 -0.011447337
0.00025052248 -0.005433613 -0.0048447894 -0.0056836917 -0.0015120439 0.001492185 0.0049953624 0.006258005
0.00036284988 -0.013914054 -0.038032863 -0.0021023126 -0.0027905898 -0.011296037 -0.017019743 -0.028705982
0.0011899555 -0.00090325973 -0.047857717 0.0073793037 -0.0056618475 0.009029502 -0.00590943 -0.022693032
-0.016637905 -0.018975053 -0.025992999 0.008001892 -0.02239114 0.000486763 -0.03287826 -0.003451632
-0.0077444674 -0.026032284 -0.0332811 -0.0049982797 -0.019775143 0.052424144 -0.010123925 -0.0029162657
0.00194497 0.0038016425 -0.07167506 0.014218368 -0.036290333 -0.029688923 0.0019458173 0.0072537777
0.036230806 0.020211473 0.008859413 -0.02571842 0.004051215 0.0009532411 -0.00050204387 0.031669535
-0.0058701076 2.9544346e-05 -0.0020346395 -0.005329352 0.0019798742 -0.010799583 -0.013096401 0.043274626
-0.015208978 -0.0043746596 -0.0014244337 0.0025344966 3.597645e-05 0.0019808444 -0.004482559 0.0036606002
0.002800662 -0.0074279327 0.00073784875 0.020783192 0.01739603 0.030119544 0.017504022 -0.028100675
0.004971466 -0.0024867433 0.004431939 0.0013269094 -0.0021834578 0.013945781 0.00039383364 -0.0012356064

fc3.bias f4 [2]
00000000: fcd6 613d 88d9 27bd
0.055136666 -0.04097894
