OurCode/actor_ddpg.pt (torch_old, 499033 bytes, 6 tensors)

fc1.weight f4 [400, 8]
00000000: 7327 9bba c791 85be b81e 2cbf 51cd dcbd
00000010: 6a58 a7be 0561 b8be 73b1 d83d 81ce 2cbe
00000020: 077e 6abd f595 f9bd 5676 f2be 17db 703f
00000030: f606 4cbe 9b94 213e 7ab6 62bd 30b5 86bc
00000040: 5cef b33e 194f ba3e 145c 883c 7fd5 023f
00000050: 248a d63d 4053 8d3e 169c 34bf d4e8 7fbd
00000060: a750 833e f477 2bbe ddf6 e33e f5b3 5a3e
00000070: 45ac 1a3f 2ef2 ab3e 89bf 253f 6b47 a63d
00000080: 0bcd 193e 1fa7 11bc 5793 2c3f b1e3 d9bd
00000090: 7ab8 7cbe 0f59 073f f2f3 33be de47 4e3d
000000a0: c7fd 5fbe 872a 0f3e 2b72 013e c7a4 703e
000000b0: 1e10 eabe d346 8f3e bd6e 5fbf 057c 623e
000000c0: d92f cdbe ab25 8fbe 5be1 17be 7862 a8be
000000d0: 7fd1 9cbe 90ca 113f 100b 26bf d7c5 b43d
000000e0: 55fb 7bbe 2d65 dc3b 512c db3e 5b65 8e3e
000000f0: 80d4 dfbe 9d9b 0e3b 92ae 443e 391d 1c3c
00000100: f049 b23d 0efe 323c 5ca3 8abd 33c9 eabe
00000110: 64f9 c13d 0309 8fbe a235 17bd ccbf 623e
00000120: 10bc e33c cc3c 18bd 520a 60be dea6 1b3e
00000130: 2ca8 a33e ce80 e03e 2610 11bf abc2 9ebc
00000140: ee78 cf3b 47c1 cbbe 2997 133f f63a 433f
00000150: 0858 afbe d3da 80bd 5a6e dfbd 32a5 403e
00000160: 3601 e5be 5096 65be c355 99be 5866 fbbe
00000170: 6582 cdbd d2d4 8fbe be8a bc3e d3b3 853d
00000180: 10d9 553e 9f53 3dbd 6d1c ae3d 0c46 60bd
00000190: b365 b13e ae58 ebbe 099d 45bf a1b9 74be
000001a0: 4813 df3c 6305 053f 79c3 113f bf6b 733e
000001b0: 9261 ebbe 5f66 00bf 575a a33d 6c08 55be
000001c0: 4b23 5ebd e8c9 2bbe f6f4 8f3e 70cf 93be
000001d0: e4cf f0be b32c 0abf 6ba7 28bf e1c0 72bd
000001e0: 28cb 48be c8d1 78bd 4f85 ad3d 3b30 50be
000001f0: a18f 2b3f 1345 be3e 97d5 0bbf 29e1 733e
00000200: 9a6c 983e 08c2 793e 1fd3 f63e 40a9 3f3f
00000210: 0eea c43e 0a85 4bbe baa7 f2be 52c1 26be
00000220: 50bd ef3d a0f4 0abf 54b4 05bf 6bdb b93d
00000230: bc29 ed3e 7afd 123d 3ee9 c8be 8e1b 113e
00000240: 4b53 f5be 7048 58be ca8a 103f e554 c5bd
00000250: f916 c53e ebc0 803e 3965 3e3f b4ed 42bd
00000260: d0d1 fcbd 60ee 3abe 9067 df3d ad2e 77be
00000270: 2e05 1a3e 60c0 cfbc c346 98be fa98 763c
00000280: 9259 9cbe 963a 36be f8b7 52bd 14dd 5cbe
00000290: 4009 a93d d06a c53e 289d 133f f4c9 263e
000002a0: f2fb a1be b6a3 23bf 2f49 a1be c876 c7be
000002b0: ad69 a6be 436b 66be 8c75 3a3e cda4 2b3e
000002c0: 6cd7 fd3d 197e 293c 8ae3 8d3f 73ba d0bc
000002d0: 3321 ccbe b4b9 3dbe 383c 813e c716 043d
000002e0: 2bae edbd fadc f8be 14e2 203e 0d9a 19bf
000002f0: b76d 83bc d0ca ebbe a771 1f3f cdb5 c83d
00000300: 2757 463e 8fff 9dbd ca9e 0ebf d8d0 f0bd
00000310: db17 9a3d cc2b 84be 4db6 383f c981 b6bd
00000320: 2885 223d 2bfc d13e b227 d63e 951d 0dbf
00000330: 9318 683e 0681 ddbd 8c89 d83b ac0d 84be
00000340: fdf5 a93d c911 8a3d c787 3d3f 8f31 093f
00000350: 0e27 5dbd 1de4 243e 825c d63e ae6a 1f3e
00000360: 6ae6 b6be 6703 edbe 97a5 163e fa5f 673d
00000370: d99e ddbe dab1 a73d 61ab 913c 4f51 873e
00000380: acd3 1cbe e656 753e c811 163e 811a 25be
00000390: c4b0 f33c bb67 8b3e e3b8 cdbe 157b a43d
000003a0: 1a0b c43d 00fe 873e ba6f f53e 8c3f ce3d
000003b0: 77bc d0bd d5ee 073e 1110 b93d 6c92 dc3e
000003c0: d2db 4e3d 11ef 113e 6983 63be 497b 063d
000003d0: ebb1 8b3e bf2c 55be 38be 863f c2f7 fabd
000003e0: 06d9 923e c11e 3dbe 773e 10be 782f 00bc
000003f0: 8f17 f23e 1d86 c13e 2711 26be 812a 1b3e
-0.0011837318 -0.26087782 -0.67234373 -0.107813485 -0.32684642 -0.3601152 0.10580721 -0.1687565
-0.057249095 -0.12186805 -0.47355908 0.94084305 -0.1992453 0.15779345 -0.055349804 -0.016443819
0.35143554 0.36388472 0.016645469 0.5110702 0.10475567 0.27602577 -0.7055067 -0.0624779
0.2564747 -0.16744977 0.4452428 0.2135771 0.6041911 0.33583206 0.64745384 0.08119091
0.15019624 -0.008889942 0.6741232 -0.10639132 -0.24679747 0.5287027 -0.17573527 0.050361507
-0.21874152 0.13981067 0.12641208 0.23500358 -0.4571542 0.27983722 -0.8727835 0.22117622
-0.40075567 -0.27958426 -0.1483206 -0.32887626 -0.30628583 0.5694971 -0.6486063 0.088267975
-0.24607594 0.0067259283 0.42807248 0.27811703 -0.43716812 0.0021760233 0.19207218 0.009528452
0.08705509 0.010924829 -0.067694396 -0.45856628 0.094713956 -0.27936563 -0.036916383 0.22143477
0.027799636 -0.037167355 -0.21878937 0.15200374 0.31964242 0.4384827 -0.56665266 -0.019379934
0.0063315546 -0.39795896 0.5765253 0.7626184 -0.3424685 -0.062917374 -0.1090972 0.18813017
-0.44727486 -0.22420621 -0.29948243 -0.4910152 -0.100346364 -0.28092057 0.36824602 0.065284394
0.20883584 -0.046222325 0.085015155 -0.054754302 0.34647903 -0.45966095 -0.7719274 -0.23898937
0.027230874 0.51961344 0.5693889 0.2377157 -0.45972878 -0.50156206 0.07976215 -0.20803994
-0.054232877 -0.1677624 0.28116578 -0.288692 -0.47033608 -0.53974456 -0.6588046 -0.059265975
-0.19608748 -0.060746938 0.08472692 -0.20330898 0.67016035 0.37162074 -0.5462279 0.2381636
0.29770356 0.24390423 0.48207948 0.7486763 0.3845982 -0.19874969 -0.4739359 -0.16284683
0.1170603 -0.5427952 -0.52228284 0.09075054 0.46320903 0.035886265 -0.3924045 0.14170668
-0.4791511 -0.21121383 0.56461775 -0.09635333 0.3849409 0.25147185 0.74373204 -0.047589973
-0.12344706 -0.18254995 0.10908425 -0.24138899 0.15041038 -0.025360286 -0.29741487 0.015051121
-0.30537087 -0.17795786 -0.051444978 -0.2156871 0.082537174 0.38558054 0.57661676 0.16287977
-0.31637532 -0.6392168 -0.31501147 -0.3895781 -0.325025 -0.22501855 0.18208903 0.16762085
0.12394604 0.010345005 1.1085064 -0.02547953 -0.3986908 -0.18527871 0.25241256 0.032248285
-0.116054855 -0.48606092 0.15711242 -0.6000069 -0.016043527 -0.4605317 0.62282795 0.09800301
0.19369183 -0.077147596 -0.5571104 -0.11758584 0.07524081 -0.25814664 0.7215317 -0.08911473
0.03967777 0.410127 0.4182716 -0.55123264 0.22665624 -0.10815625 0.0066081937 -0.2579168
0.08298872 0.067416735 0.74035305 0.53591245 -0.053992324 0.16102643 0.41867453 0.15568039
-0.35722667 -0.46291658 0.14711605 0.056488015 -0.43285254 0.08188219 0.017781915 0.2642922
-0.15315121 0.2395893 0.1465522 -0.16123392 0.029747374 0.27227578 -0.4018012 0.080312885
0.0957243 0.26560974 0.47936803 0.10070714 -0.10192197 0.13274701 0.090362675 0.4308046
0.050502606 0.14251353 -0.22218098 0.032832418 0.27284178 -0.2081785 1.05268 -0.12254287
0.286812 -0.18468763 -0.14086328 -0.007823817 0.472836 0.37797633 -0.1621748 0.15152933

fc1.bias f4 [400]
00000000: fd0f 4cbe 5ca5 3dbd bc93 bb3e aa88 3abe
00000010: b8db 14be 36c8 cebd 790d 2fbe af91 e4be
00000020: 5a2b 333d ec9b 5f3e 0be4 653a 761b 1c3e
00000030: 57c7 83be f7e7 5d3d d611 00be bc9c 3d3e
00000040: 8912 3a3e d87b 1dbe 26fb 993d d9bb 763e
00000050: c6db 33be a583 bdbd 23a3 073d 1466 8dbe
00000060: 2e99 72be 9b72 1ebe 0988 853e ed82 d0bd
00000070: ecba a83e 8617 003e abdd b63d f138 173e
00000080: c61e 8ebc a1ea 73bb c6a7 6f3e 274a c9be
00000090: c177 a3bd bdd5 d5bc 28ea ba3c 65e4 043e
000000a0: fe6d ba3d c071 79be 5407 bf3d 57c7 753e
000000b0: c4b7 52bc 4013 d8be 76c7 02bf f3b9 c23e
000000c0: 3682 563e 93e6 b33d 9cb2 6a3d aae3 4fbd
000000d0: 65fa bdbe 2bf3 dcbe b4c7 e23c 6cc9 a13e
000000e0: 0267 96bd c41e 7cbe e593 d1be 48ae 95be
000000f0: b96f 3c3e 9577 f3be 0f1d d3be 9b7e d3be
00000100: 9ba7 d03e 9074 753e f055 99be 5ad2 e6bd
00000110: 6eed b4be 2793 983d 8320 8ebb 3bcb d6bd
00000120: a71f 5f3d e2b7 48be 74a4 8abe 5567 03bf
00000130: 8f97 7bbe f1a6 f93d 323f 89be 76db 7fbe
00000140: c2b7 f4bd bdfd 863e ccc1 b9be b74f 273e
00000150: bcc3 9bbe f62b 45be 2a46 04be 2cf5 e2be
00000160: d669 9b3d e0d1 9ebd 640d a23d 6913 ce3e
00000170: de93 ad3c caad 563e 42a5 533e cc26 ca3d
00000180: 1070 3cbe 4540 50bd b971 08bf 7c7b 5f3e
00000190: f35b 2dbd 7834 a0be 8db0 d2be 5d49 c6be
000001a0: fe15 b53c 4551 9c3e 9b4a ea3a bb51 f7bd
000001b0: 3d04 883e cd77 6f3e fae7 0a3d d99e 3e3e
000001c0: ea98 793d ee62 483e 1feb d7bc f094 e0be
000001d0: ceb1 4bbe 5b51 1dbe 6775 193d 8371 b9be
000001e0: d664 4e3e cb35 a2be 325a 713d 1f56 a23e
000001f0: f9bc 5d3e 8cb5 f13d 6fdb 613d edd5 01be
00000200: 1ca9 e8be 3a76 86be 6d83 a53d d8ee b13e
00000210: 4c79 8cbc b241 91be 97f5 e5be 404d 543d
00000220: 7172 8bbe 0604 37be a3a2 523d d141 87be
00000230: c774 0b3e bdc4 2ebe fdd1 53be 4ab5 a5be
00000240: 1708 a3be b9ca 02bd 3fe1 a8bd fbe5 2e3e
00000250: c4e6 fdbe a8e7 153e 6350 bbbc 6201 653e
00000260: b5d4 1dbd f6a0 bbbd 5bb0 9b3d f0a3 37bc
00000270: 8b3e fdbb 575f 1b3e f61f 0dbd fc90 733e
00000280: 7bba 9bbe 2e1c 24be 8c94 07be 4d50 83be
00000290: 1c48 36be 7a8f c63d 4ca2 bebd a470 93be
000002a0: 1db4 d1bd 229f debd aa7c 913e 1f4f e1be
000002b0: 3b24 a5be 905b 68be 4258 40be 22d4 bebd
000002c0: 2ab9 acbd 57f8 943e 45a1 15be ca14 58be
000002d0: 662a 28bc 946e 423e e501 303d e521 c43d
000002e0: 808e 1b3e 2595 193e be3d 873e a132 30bd
000002f0: ca40 8b3e 376f e13d 0e9b 28bd d8f4 813d
00000300: 3967 9ebe 0c9b b93d 28fd 4a3e ba99 de3c
00000310: ae73 d03d 6bf6 43bd 9add ccbc a7fc 883e
00000320: 8da9 8f3d d89c 05be 7893 b3be 94a6 9fbe
00000330: a38c 343d 1f93 4a3e 6c86 85be 33cf 4d3e
00000340: 868e 363d 8d9a ab3d fa88 803e 1e94 e73d
00000350: 9fb9 a63d 750f 293e 9706 9bbe 2ceb 6d3e
00000360: af8b 2a3e ca60 a83d ceae 88be 49f5 9a3b
00000370: 4712 34be 43d2 dabd 3f03 9ebd fe3d 28be
00000380: f9af 5b3e 06c8 6dbe c73f 7abe 2742 8b3e
00000390: 59b4 6e3d 8183 cf3d 22fe 33be e5fc e63e
000003a0: 96cd 6fbe 5eee b03d aa01 ad3d a756 2ebe
000003b0: 6009 863e a3fd 81be 8ef1 d73d c974 bcbe
000003c0: 1d80 7a3e af48 453e e2ca 17be d5cd 45be
000003d0: 4f5f 723c dc4f b43d 191e 9ebd 5a21 d2bd
000003e0: fead 85be 0a90 e63e 90cb b2be 86b4 babe
000003f0: 935f 8b3d 032f 2e3e a826 3bbd 699b 353e
-0.19927974 -0.046300277 0.3663615 -0.18216196 -0.14536941 -0.10096781 -0.17094983 -0.44642398
0.043742515 0.21836823 0.0008769638 0.1524485 -0.25738022 0.054176297 -0.12506804 0.1851682
0.18171133 -0.15379274 0.07518606 0.24095096 -0.17564306 -0.09253625 0.033114564 -0.27616942
-0.23691246 -0.15473406 0.2608035 -0.10181222 0.3295511 0.12508973 0.089289986 0.14767815
-0.017348658 -0.0037218707 0.23403844 -0.39314386 -0.079818256 -0.026102895 0.022816733 0.1297775
0.091030106 -0.24359798 0.093275696 0.24001823 -0.012861196 -0.42202187 -0.51085603 0.38032493
0.20948109 0.08784213 0.05729924 -0.050754227 -0.37105098 -0.43154272 0.027683116 0.31598985
-0.07343866 -0.24621111 -0.40933147 -0.2923453 0.18401994 -0.4755217 -0.41233107 -0.4130753
0.40752873 0.23970246 -0.29948378 -0.1127059 -0.35337394 0.07449942 -0.004337372 -0.10487982
0.054473545 -0.19601396 -0.27078593 -0.5132955 -0.24569534 0.12190045 -0.26806027 -0.24986061
-0.119491115 0.26365462 -0.36280668 0.16339003 -0.3042277 -0.19255051 -0.1291739 -0.44327676
0.07588546 -0.07754874 0.0791271 0.40249184 0.021188673 0.20964733 0.2066851 0.09870681
-0.18402123 -0.050842542 -0.53298527 0.2182445 -0.042324018 -0.3129003 -0.41150323 -0.38727847
0.022105213 0.30530754 0.0017875017 -0.12076136 0.26565734 0.23385544 0.033912636 0.18615283
0.060936846 0.19568989 -0.026357232 -0.4386363 -0.19892046 -0.15363066 0.03746548 -0.36219415
0.20155653 -0.31681666 0.058923908 0.3170633 0.21654119 0.118022054 0.05514091 -0.12679262
-0.4544152 -0.26262075 0.08081708 0.34752536 -0.017147683 -0.28370434 -0.44913933 0.051831484
-0.2723575 -0.17872629 0.051424634 -0.264174 0.13618766 -0.17067237 -0.20685573 -0.32364875
-0.3184211 -0.031931613 -0.08246087 0.17079918 -0.49590123 0.14639151 -0.02286548 0.22363809
-0.03853293 -0.0916156 0.076019965 -0.011208519 -0.007728403 0.15173088 -0.03445431 0.23785776
-0.3041571 -0.16026375 -0.1324026 -0.25647202 -0.17800945 0.09695335 -0.093082994 -0.28796875
-0.10239432 -0.10870196 0.28415424 -0.44005677 -0.32254204 -0.22691178 -0.18783668 -0.09317805
-0.08433755 0.29095718 -0.146123 -0.2110168 -0.010264015 0.18987495 0.042970557 0.09576777
0.15191078 0.149983 0.26414293 -0.043017033 0.27197868 0.11007541 -0.041163497 0.06345528
-0.30938128 0.09062776 0.19823134 0.027172912 0.10178314 -0.047842424 -0.025008012 0.26755258
0.07014761 -0.13048112 -0.35073447 -0.31181777 0.044079434 0.19782685 -0.26079118 0.20098571
0.044569515 0.083790876 0.25104505 0.11307548 0.08140873 0.16509803 -0.30278465 0.23234242
0.16654848 0.08221586 -0.26695865 0.0047289473 -0.17585097 -0.106846355 -0.07715463 -0.16429898
0.21453847 -0.23220834 -0.24438392 0.27198908 0.05827746 0.10132504 -0.17577413 0.45114818
-0.23418269 0.08639215 0.08447583 -0.17025243 0.26179028 -0.25388822 0.1054412 -0.3680785
0.24462934 0.19266008 -0.14823487 -0.193168 0.014793231 0.088042945 -0.077205844 -0.102602676
-0.26109308 0.45031768 -0.3492093 -0.36465853 0.06805339 0.17010121 -0.045691162 0.17735066

fc2.weight f4 [300, 400]
00000000: 2899 703a 5354 54bd d5f2 c2bc 7709 1abd
00000010: 2636 59bb e8e8 283d 7f87 b13b 793b 5ebc
00000020: 467b dbbc fdf1 50bd a580 9c3c 215b 94ba
00000030: b962 613a 8231 3ebd 2ba7 19bd b0b5 15bd
00000040: 0269 33bc 2379 44bd f9ac 27bd f316 e8bb
00000050: e321 273d f3c8 bdbc 3ff0 433c 1ed2 bb3c
00000060: 3e62 9cbb 3266 82bc 6b6a 283d 88d1 fc3c
00000070: 78d3 b5ba b4f2 e9bc 2d75 073d 8072 ef3b
00000080: 1977 393d dd2e c9bb 0363 afbc c352 20b9
00000090: 9689 3dbd 83cd ecbc 1cd5 9fbc 6d58 9c3c
000000a0: d4c2 2f3c 7276 0f3c 1904 f0bb 491e cebc
000000b0: b0de f93c cc3b a53c ec5f 24bd 39b6 cfbc
000000c0: da19 053d 62f2 42bd 120c 47bc a957 873b
000000d0: 9e02 3bbd 7452 52bd 3d38 263d de82 2e3c
000000e0: a089 343c f654 2abd 9442 f1ba 07b3 18bc
000000f0: 1462 d23c 8e73 223d 883b 09bd 3f9d e1bc
00000100: c579 b5bc 476c 69bd 7e9b fabc e7ab d7bc
00000110: 9374 73bb 7ba2 da3c 1bc7 25bd 4790 353c
00000120: 71c5 c5bc b941 0c3b a0dc 61bd b31c 2bbd
00000130: 6da1 c5bb dcdf d9bc af64 0cbd 0a3e 0dbd
00000140: bed3 56bd 935f 09bd adc1 3abd 02cc 1a3c
00000150: f08a ecbc 36d0 af3c c549 59bd 6dd2 193d
00000160: b448 3fbd a20b f4bc d883 37bd 0aa8 41bb
00000170: 25a5 013d 794c 963c af64 1ebd fad1 a63c
00000180: 31cf 97bc c376 203d 24b5 57bd 6d90 babc
00000190: 9c1b c83b 39b5 d53c cac5 143c 76cc 11bd
000001a0: a608 ae3c a823 0ebd 6edc 0e3d 92de a63b
000001b0: 5426 db3c eede a9bc 406b 32bd 1700 153d
000001c0: e8e6 42bd 521c d6bc d449 c93c 43e9 d4bc
000001d0: 5e8f c23c 96c4 26bc b2ec f43c c2f6 33bd
000001e0: 8175 263d 9c6e bcba 428d d93c e8b8 f8bc
000001f0: b848 fdbc a384 b03c 3e91 f6bc 0c9c 293c
00000200: 292b 92bc 5736 11bd 702a 15bd 7aab e3bb
00000210: 363a a03c 6bb8 fdbc 4144 033d 8c04 a23a
00000220: 34fc ee3a 4808 1d3d 4276 54bc 9925 ccbb
00000230: d8f0 43bc 71af 063d ea15 3f3d 5779 10bd
00000240: 3e68 2cbd ce1d 5fbc 91c1 0cbd b7c9 11bc
00000250: 3a5b c43c a0b9 ee3c a9d6 123d 390f edbb
00000260: 53e3 ba3c 7d6b c03c c57d dcbb b318 52bd
00000270: d2f8 863c 3aef 773c 5bcd bdba 942d c83b
00000280: 7268 22bc 6699 08bd 4f93 d5bc 52a2 0dbd
00000290: 9c26 6fbb 2683 a3bc 4132 d83c 364b 773b
000002a0: 9744 fe3c 2de6 2c3d 145e f53c 7007 e7bc
000002b0: 5234 49bd 8152 a7bc a086 063b 2e6f a43c
000002c0: db54 eabc 8eac 8fbc 7163 bd3c 7ade bd3c
000002d0: ae03 c6bc 8e99 263d 64d0 363d f013 af3b
000002e0: 4ed5 8e3b 9456 303c c936 23bd 1cfd 0f3b
000002f0: 5cbc 4f3c 5bea 803a 1e44 3d3c 4857 823c
00000300: 03b2 a7bb 8893 85bc d24f 803a 47c8 e93c
00000310: 1fc2 6e3c 14ea c2bc 6ea9 80bc 1e90 9abc
00000320: a32d 1cbc 9dbc 16bd 1fe1 80bc 52b7 033d
00000330: a992 0cbd 43ca 84bb d6b4 f03b 9409 513b
00000340: e049 eb3c 8f03 42bd 9c6c 4b3c 0727 943c
00000350: ef65 0cbd 2305 0f3d 8216 3ebd 3f04 0a3d
00000360: 9ecd 33bd 0341 743c 4c60 093d 88bf 363c
00000370: def5 393c bb29 07bd 1c82 a43c 0fa4 4cbd
00000380: 3a64 383c dd1d 3abd 0301 d3ba 506f 2dbb
00000390: 8fd2 aabc 8994 c7bc 0d66 043d e336 4c3c
000003a0: e05f cd3b 39c1 f43c 3be7 0c3d 787a 063d
000003b0: 9be3 f2bc b59d 13bd 2453 ccbc 9f91 4ebd
000003c0: b807 f3bc 73e7 0fbd 592a 303d 0d98 113c
000003d0: 11d9 c7bc 46b1 4dbd a933 823c 2606 c03c
000003e0: e3f4 5a3b f1c8 efbc e339 3839 5579 1dbd
000003f0: c89f 353c 5451 ff3c 0286 04bc 3c6e 93bb
0.00091780955 -0.05183823 -0.023797432 -0.037606683 -0.0033143847 0.04123774 0.0054177637 -0.013563984
-0.02679218 -0.051012028 0.019104311 -0.0011318662 0.00085977797 -0.046433933 -0.03751294 -0.036550224
-0.010950329 -0.047967087 -0.040936444 -0.007082814 0.0408038 -0.02316711 0.011959135 0.02292734
-0.0047724536 -0.015917871 0.041117113 0.030861631 -0.0013872227 -0.028558113 0.033070732 0.0073073506
0.045279596 -0.0061396197 -0.021409517 -0.0001528962 -0.04627379 -0.02890659 -0.019510798 0.019085133
0.010727603 0.008756267 -0.007324707 -0.025160925 0.030501693 0.020170115 -0.04013054 -0.025355445
0.032495357 -0.047594436 -0.012148874 0.004130323 -0.045656793 -0.051348165 0.040580977 0.010651318
0.0110191405 -0.04158493 -0.0018406683 -0.009320027 0.025681533 0.039660983 -0.03350404 -0.027540801
-0.02215279 -0.056988027 -0.030591723 -0.026327087 -0.003714834 0.026688805 -0.040473085 0.011081762
-0.024141999 0.0021401478 -0.055142045 -0.041775417 -0.0060312063 -0.026596002 -0.034275707 -0.034482993
-0.052448027 -0.033538412 -0.04559486 0.009448053 -0.028874844 0.021461587 -0.053048868 0.037554193
-0.046700194 -0.029790703 -0.04480347 -0.0029549622 0.031651635 0.018347012 -0.038670238 0.020363797
-0.018531414 0.03917576 -0.052662984 -0.022773946 0.006106807 0.02608739 0.00908036 -0.03559538
0.021244358 -0.034701973 0.034878187 0.0050924504 0.026751675 -0.020736184 -0.043559313 0.03637704
-0.04758349 -0.026136551 0.024571337 -0.025990134 0.023750003 -0.010178706 0.029898021 -0.0439365
0.040639404 -0.0014376226 0.026556615 -0.030361608 -0.030918464 0.021547621 -0.030098554 0.010352146
-0.017842846 -0.035452213 -0.036417425 -0.006947932 0.019559007 -0.030971726 0.032047514 0.0012360974
0.0018233121 0.038337976 -0.012967648 -0.006230068 -0.011959277 0.032882158 0.04665176 -0.03527197
-0.0420916 -0.013617946 -0.034364287 -0.00889819 0.023969281 0.029141247 0.035849247 -0.0072344807
0.022813475 0.023488754 -0.00672886 -0.051293086 0.016476069 0.01513272 -0.0014480756 0.006108949
-0.009912597 -0.033349417 -0.026071219 -0.03457863 -0.003649152 -0.019959997 0.02639115 0.0037734038
0.031038566 0.0422117 0.029952087 -0.028201789 -0.049122162 -0.020425083 0.002052702 0.020072546
-0.028604915 -0.017538335 0.023118706 0.023177374 -0.024171676 0.040673785 0.04463233 0.005342953
0.004358924 0.010762829 -0.03984717 0.0021970933 0.012679186 0.0009835468 0.011551885 0.01591076
-0.005117656 -0.0163057 0.0009789413 0.028537882 0.014572649 -0.023793258 -0.01570579 -0.018867549
-0.009532365 -0.03680097 -0.015732346 0.03215725 -0.034319554 -0.004052432 0.007345776 0.0031896578
0.02872175 -0.047366675 0.012416031 0.018085016 -0.0342769 0.034917008 -0.046408184 0.033695456
-0.043897264 0.014908078 0.0335391 0.011154063 0.011350123 -0.03299878 0.020081572 -0.049961146
0.011254365 -0.045438636 -0.0016098324 -0.0026464052 -0.020852355 -0.02436282 0.032323886 0.012464258
0.0062675327 0.029877292 0.034400206 0.03283164 -0.029649546 -0.036039073 -0.024941988 -0.050431844
-0.029666767 -0.035132837 0.043009136 0.008886349 -0.024395498 -0.05021789 0.015893774 0.023440432
0.0033410124 -0.029270621 0.00017569172 -0.03844579 0.011085458 0.03116671 -0.008088591 -0.004499225

fc2.bias f4 [300]
00000000: 21c3 9bbc 51f3 c43d 5bb2 ad3c f41b da3d
00000010: 4960 173d db73 78bd bacc b6bc 2993 533d
00000020: 8a20 c9bd 0daf b13d 94ac 903d 5817 c33d
00000030: 5a14 6a3d ecbb 50bd eaca 4bbd 2bcc febc
00000040: 13bd cabd e924 afbc 3bef 5abc cbc3 503c
00000050: bb32 83bd 489b 453d db57 10bc 8bed 063d
00000060: da6a 99bd 0331 afbc e4b4 71bc f69d d5bc
00000070: c161 a8bd c9fe 7a3d 66ea 90bd c583 f7bd
00000080: d936 babd 1cb3 a6bc b531 b0bd 6515 b5bd
00000090: 2139 ad3c 07c8 0cbd 5ea1 873d d6f4 593c
000000a0: 4952 a0bb c411 5f3d d6c4 d33d bb4b 0a3c
000000b0: 90d8 8e3d ea28 173e f419 47bd 0a77 6b3c
000000c0: 433f b53d c499 8cbd 79d4 953d a139 803d
000000d0: c91a b83d 6dc5 0abe dd0c cf3d 2264 7f3d
000000e0: 2381 cbbd 2ddd 453d 293c cbbd 2619 8f3d
000000f0: 6a42 9fbc 511b d3bd 33c8 aa3d 4a6e 8c3c
00000100: 7523 a1bd 9079 cabc 1e79 753d 0004 c5bd
00000110: d83e 8fbc 4ad4 5bbc a8a5 1a3e bb09 c43b
00000120: c68b a13d 7a7a 92bd 65f1 94bd 2caa 8fbd
00000130: 8ea3 6ebe 99af e43c 5eef a73c 4e27 09bd
00000140: a4ef 823d 207b 733d fd4d 3abd e835 3cbd
00000150: e35a a33c 77a9 b4bc ffc7 8ebd 518b 99bb
00000160: 6707 aebc 3c54 7bbd 0434 333d c3b1 e9bb
00000170: f57b 82bd 6de2 b2bd c918 0abc 10e0 09bd
00000180: 931f 053d 8723 0abb 9f2e 353d e67d 9c3c
00000190: b351 393d 22bf 293d 058d 603d 7816 013d
000001a0: 9918 fb3c eef4 0d3e 3897 053d 3e94 553d
000001b0: a5f2 55bd 5fad 863d 6b83 c33d 0fef e53c
000001c0: 62f9 243d 0672 2a3c 5d6e 9c38 be5d e33c
000001d0: 7238 0fbd 903e 663c c132 213d 154f a7bc
000001e0: d92f 9d3d 7268 45bc edc9 9dbd cbe7 233d
000001f0: 566c c63a 78c2 453d ce95 9c3d d088 ec3c
00000200: 4f9e 8c3c da1f bfbd 3b08 e7be b376 193c
00000210: 04f1 21bd 1198 473d 74f1 253b 9197 99bb
00000220: 5acd 863c 4dcd 0cbd e612 dcbc 478d cc3c
00000230: 521d 7d3c a861 20bd 2cec 8cbd 5d85 06bd
00000240: 6b29 8bbe 87f9 c03d 01a6 8c3d 5292 103e
00000250: 6263 a03c 62b0 823d 9e64 7b3c 6a2e 6d3b
00000260: 7ab8 873d 2bd5 5d3d 2e24 f23d ffb4 583d
00000270: 0875 79bd 9196 d83c 838b bfbd 5df0 27bd
00000280: 3429 3e3d cafa 763d 5c04 14bc b055 823d
00000290: d8be a13d a50e 683b 7737 c53d 8db1 86bd
000002a0: d113 c4bd a021 74bd 70cd 933c 100c 003d
000002b0: 5054 1fbd 235d 8a3c ad5c 33bd 3871 213c
000002c0: 83e8 98bb 8f6b 9bbd 762f 913d 5838 84bb
000002d0: e107 f1bc 820d 15bd 8b86 a43d 090c aebb
000002e0: b2ce 9dbc b539 653d 3155 37bd 4ff2 89bd
000002f0: 5019 b93d 5772 3d3c b1b8 2f3c ed9b b43c
00000300: 3904 433c eca0 9ebc c433 84bd 8ccb 6cbc
00000310: 6bfc cebb a416 11bd 921c 413c 6664 803d
00000320: 3996 2f3d 6916 cc3c ae29 c23c e3bc a13c
00000330: 77a4 b93c 722b 563b f8df 873d 0ce1 32bd
00000340: 76f5 03be 976b d5bc 6a99 083e e567 243c
00000350: abaa 913d a4d0 9abc 7a0e ad3d 6954 4d3d
00000360: fa50 3abd dc1c 813d 77ab 88bc 04c4 493d
00000370: a1bb 78bd a7a6 683c f563 df3b 77c4 7f3d
00000380: 0767 033c 6c20 0e3c d36d f5bc c0e1 ad3c
00000390: 7ea8 aa3d 4a7f 9d3c 179a bd3d 1961 9e3c
000003a0: e61c 2fba 558e d93c 495c 4abd a220 c5bd
000003b0: 199c 043d c245 d03d c60d 23be 38cf 62bd
000003c0: 7430 91bc fc59 49bc 93ca 40bd db8d 32bd
000003d0: add4 9f3d db6d 79be 5244 8fbc c271 d73d
000003e0: 9300 5a3d 4817 0a3e f876 b63c 505d 1fbd
000003f0: b1af 51be cdea 0abd 2eb8 f23c 86ff 94bc
-0.019013943 0.096167214 0.02120321 0.10649863 0.03695706 -0.060657363 -0.022314418 0.051654015
-0.098206595 0.086759664 0.07064167 0.09525937 0.057148315 -0.050960466 -0.04975406 -0.031103214
-0.09899344 -0.021379905 -0.013362701 0.012741993 -0.064061604 0.04824379 -0.008810009 0.032941382
-0.074910834 -0.021385675 -0.0147526 -0.026076298 -0.0822177 0.06127814 -0.07075958 -0.1208568
-0.090924926 -0.020349078 -0.08603231 -0.08841971 0.021145405 -0.03437045 0.06622575 0.013303002
-0.0048926217 0.054460302 0.10340278 0.008440907 0.069749 0.14761701 -0.048608735 0.014371643
0.08849957 -0.06865266 0.073159166 0.06260992 0.08989484 -0.13551874 0.10109875 0.062351353
-0.0993674 0.048306633 -0.09923584 0.069872186 -0.019440848 -0.103079446 0.08338966 0.017142434
-0.07868091 -0.024716169 0.05992996 -0.096199036 -0.01748602 -0.013417313 0.15102255 0.0059826053
0.07887988 -0.07152267 -0.07272605 -0.070148796 -0.23304579 0.027915763 0.020499881 -0.03348475
0.06393364 0.059443593 -0.04548453 -0.045949847 0.0199408 -0.022053463 -0.0697174 -0.0046857973
-0.021243764 -0.06135963 0.043750778 -0.0071317866 -0.06371299 -0.087345935 -0.008428761 -0.03366095
0.032500815 -0.0021078305 0.044233914 0.019103002 0.04524393 0.041442044 0.054821987 0.03151557
0.030651378 0.13862965 0.032614917 0.052143328 -0.052233357 0.06576037 0.0954655 0.028068094
0.040276892 0.010403162 7.4592164e-05 0.02775466 -0.03496594 0.014053002 0.039355043 -0.020423451
0.07675142 -0.0120488275 -0.0770453 0.040015977 0.0015138488 0.048281163 0.076457605 0.028873831
0.017165331 -0.09332247 -0.45123467 0.009366679 -0.03953649 0.048729006 0.002532092 -0.0046872576
0.016455341 -0.034375478 -0.02686448 0.02496971 0.015448885 -0.039155632 -0.06880984 -0.03284203
-0.27180037 0.094225936 0.068676 0.14118317 0.01957864 0.063812986 0.015343813 0.0036190995
0.06626983 0.05415837 0.11823307 0.052906986 -0.060902625 0.026438983 -0.093527816 -0.041000713
0.046426013 0.060297765 -0.0090342425 0.06364 0.07897729 0.003540912 0.0962972 -0.06576834
-0.09574092 -0.05960238 0.018042296 0.031261504 -0.038898766 0.016890114 -0.043789554 0.009853654
-0.0046663894 -0.075888745 0.070891306 -0.004035037 -0.029422702 -0.036389835 0.080334745 -0.0053114933
-0.019263599 0.055963237 -0.04475898 -0.0673567 0.09038031 0.011562905 0.010725186 0.022047007
0.011902862 -0.019363843 -0.06455186 -0.014452826 -0.0063167117 -0.035421982 0.011786597 0.062691495
0.042867873 0.02491303 0.023701515 0.019743389 0.02266143 0.0032679704 0.066345155 -0.043671653
-0.12886605 -0.02605228 0.13339773 0.010034536 0.071126305 -0.018898316 0.08450027 0.050129328
-0.04548738 0.063043326 -0.016683323 0.0492592 -0.060725812 0.014199889 0.0068173357 0.062443223
0.008020169 0.008674722 -0.029959595 0.02122581 0.083329186 0.019225735 0.09257906 0.01933341
-0.00066800264 0.026557127 -0.049404416 -0.09625365 0.03237543 0.10169555 -0.15923223 -0.0553734
-0.0177233 -0.01228952 -0.04706819 -0.043592315 0.078042366 -0.24358313 -0.017488632 0.105197445
0.053223204 0.13485444 0.022273526 -0.03890735 -0.20477177 -0.03391533 0.02962884 -0.01818825

fc3.weight f4 [2, 300]
00000000: 9355 3ebb 7491 19be 4ce3 963e dafc 93be
00000010: bff7 4c3e 8475 ab3e 839c 893e c36e c83d
00000020: a075 653d 28e1 77be 86ec 81bd 8858 92be
00000030: ee47 ebbe a40f c6bb b30b e7be d2e2 933e
00000040: 3d22 e1be f6fc 66be 79d2 6cbb b97e 72bf
00000050: 46d0 1d3f a193 9a3d ed96 083b 3ef5 c83d
00000060: 30fc 33be 668f 2cbe e54b 22bf e535 be3e
00000070: aad5 8c3e 921c c2be 9b1e 653f 0a2c 0abc
00000080: 22ae 9cbc 7da9 533f c62f c5be 3d28 c83e
00000090: 394a c23e fd94 713e 0ab7 a73e 33a3 e43e
000000a0: 2352 6dbc 32dd e73e b191 0f3e 7e5f 1fbc
000000b0: 6ce5 94be 2625 503e 1396 ccbc 00c4 fdbe
000000c0: de20 683e 5721 0ebf a3af 21be 3362 c1be
000000d0: 5a4e 30bf daac b7bf 20d4 0ebf 0a51 103e
000000e0: d7fb 3cbd 53ad 8ebe c6e3 afbe dd3e 8b3e
000000f0: e245 3ebe b4f3 05bf a40e 0b3e a157 04bf
00000100: 125f 8abe f839 1e3e 74d7 a5be 9b33 4f3e
00000110: 1870 f03b a68d 56bb 68d0 90be 42b9 e3bd
00000120: fe86 eb3d 18fa 113f 445f b7be 0767 00be
00000130: 34e0 5c3e 0551 a7bd 2034 1dbe 332e 57be
00000140: da00 4d3e 04b5 55bd b181 523e 7716 82be
00000150: 0d14 4c3f 8730 9fbf c235 203f 8304 4a3e
00000160: ec0e 343f 7aaf 163e f0af d53d 7d23 eb3e
00000170: b8f0 db3e 0685 aa3e fc82 59be 402d 893e
00000180: cb76 d13e bc42 803c 28b9 f73d 0884 d7be
00000190: d87c e1be 6742 9b3d d156 00bc 34f1 ca3e
000001a0: 3eb4 29bf edf4 79be aab1 1b3e 44f2 6fbe
000001b0: 1111 1fbe efd5 aabc 3ce5 82be 2bf7 7bbe
000001c0: 2db0 1cbf 7851 ed3a 71db a23e 9833 013e
000001d0: cd55 4c3d 24c8 c73d 500d 17be b271 7dbe
000001e0: 1596 ea3d ff43 92bf 76a8 cfbe 3807 7ebe
000001f0: de1d ce3e cd81 15bf 6cde b63d 2a57 653e
00000200: 586a 24be fc4f debe 122d 39bf e7e8 61be
00000210: 36ce d53e 997f 103e 6c48 f73e 0a3b 5d3b
00000220: 55a7 9dbe a557 8ebe 4288 a3be e6c9 0abf
00000230: d09e 383f 5d06 733f d580 b3bd 05f8 ad3e
00000240: 41e8 14bf cab1 953d e984 843e db65 45bf
00000250: d6b5 4c3e b276 8b3e 38a6 a33e a304 eabe
00000260: 91ab 0a3f eb58 d83d 788c 053c 47e3 afbe
00000270: dd05 5ebe 8b28 eb3d 5046 03bf 4bcc bb3e
00000280: 3825 cebd 68e4 f03d d2e2 573f 43e9 8e3e
00000290: a3a6 c63d e239 c6bd c28e 3abd 5d05 42bf
000002a0: b555 66bd 1245 4ebf 1209 263e bf00 a8be
000002b0: 8ff8 f8be afcf 25b9 75e1 ab3e 5cde 92be
000002c0: c8bc 073f 7c79 ad3e 4490 4cbe 21dd 863d
000002d0: 1ad6 9a3e d9ef 38bc 064a 6ebe 3a72 2fbf
000002e0: d251 bfba 843a 823e c18c c13e cadd 2d3f
000002f0: baf1 613f a613 e5be 0538 0b3e ce00 043f
00000300: 48ef 39bd eee2 bd3e 3033 0dbf d875 a23e
00000310: c512 67bc 367e 9a3b e70f babe 83d6 623e
00000320: 3a0d ef3e 6625 703e 0037 303e eef0 f23c
00000330: c827 16bf 6c97 013f 8b19 f6bd ef87 78be
00000340: 2501 3d3e 226a 36bf 37cb 33bc 2a8d ac3b
00000350: dbdb 173d f4df f6bd 5804 0ebe 9801 283d
00000360: 9d25 15bf 12a6 9e3e 81db 8dbe 385f ba3c
00000370: 63fd dbbe 199f 413f 5ce0 b7bc 58ef 43be
00000380: c9ab 23bf 61e2 0b3e acc2 eb3a ff06 dfbe
00000390: c05a f43e 9a21 37bf 268f 93be ce2a b3bd
000003a0: 55e6 fbbd 0d70 123e c836 e8ba 22ed 9cbd
000003b0: 233e 193e a76d 263e 081d f83e fd2c 1d3e
000003c0: 508b 373b e141 a0be 3c34 34bc dd99 cdbe
000003d0: 38d6 28bc 3e6a 453f bee0 0dbb 1e5d 17be
000003e0: ae37 313e eefd cabe b044 c9be 6900 2f3f
000003f0: faa8 b13e 00aa 683e 219a 9239 5dc9 603a
-0.0029042705 -0.14996892 0.2947029 -0.28903848 0.20016383 0.33488095 0.2687722 0.09786751
0.05602038 -0.24206984 -0.063439414 -0.2858317 -0.45953315 -0.006044345 -0.45126113 0.28883988
-0.43971434 -0.22557434 -0.0036136194 -0.94724613 0.61645925 0.07547689 0.0020841912 0.09812401
-0.1757667 -0.16851577 -0.63397056 0.37150493 0.27506763 -0.37912422 0.89499825 -0.008433351
-0.019126002 0.82680494 -0.3851301 0.390932 0.37947252 0.23591991 0.32756835 0.4465576
-0.014484915 0.45285946 0.1402042 -0.009727357 -0.29081285 0.20326671 -0.024973905 -0.495636
0.22668788 -0.5551962 -0.15789656 -0.37770233 -0.68869555 -1.4349625 -0.5579243 0.14093414
-0.04613861 -0.2786661 -0.34353465 0.27196398 -0.18581346 -0.52324986 0.13579804 -0.5169621
-0.27025658 0.15451801 -0.3239094 0.2023453 0.0073375814 -0.0032738238 -0.28284 -0.111193195
0.11500357 0.5702224 -0.3581487 -0.12539302 0.21569902 -0.0816975 -0.15351915 -0.21013717
0.20019856 -0.052174583 0.20557286 -0.25407764 0.79718095 -1.2436684 0.6258203 0.19728284
0.7033527 0.14715376 0.10433948 0.45925513 0.4295709 0.33304614 -0.21241373 0.26792336
0.40910944 0.015656821 0.120958626 -0.4209292 -0.4404056 0.075810246 -0.007833199 0.39637148
-0.6629065 -0.24409838 0.15204492 -0.23432261 -0.15533854 -0.020853965 -0.25565517 -0.24606006
-0.6120632 0.0018105945 0.31808046 0.12617338 0.049886514 0.09754971 -0.14751172 -0.24750403
0.11454407 -1.1427001 -0.40558213 -0.24807441 0.40257162 -0.58401185 0.08929142 0.22396532
-0.16056192 -0.43420398 -0.72334397 -0.22061501 0.4175889 0.14111175 0.4829744 0.0033757114
-0.30791727 -0.27801242 -0.31939894 -0.5421432 0.7211733 0.94931585 -0.08764807 0.33978286
-0.5816689 0.07309301 0.25882652 -0.77108544 0.1999124 0.27238995 0.31962752 -0.45706663
0.5416804 0.10563835 0.008151166 -0.34353086 -0.21681924 0.11482342 -0.51279163 0.366793
-0.10065693 0.11762315 0.84330475 0.2791234 0.09699752 -0.09679009 -0.0455463 -0.75789434
-0.05623408 -0.8057414 0.16214398 -0.3281307 -0.48627135 -0.00015812994 0.33570448 -0.28685272
0.5302243 0.33881748 -0.19976908 0.06585146 0.30241472 -0.011287653 -0.23270425 -0.6853367
-0.0014596528 0.2543527 0.378027 0.6791655 0.8825947 -0.44741553 0.13595589 0.5156373
-0.045394212 0.37087196 -0.5515623 0.31730533 -0.014103596 0.0047147525 -0.36340258 0.22152142
0.4668978 0.23451766 0.17208481 0.0296559 -0.5865445 0.50621676 -0.12016591 -0.24270605
0.18457468 -0.71255696 -0.010973743 0.0052658515 0.037074905 -0.120544344 -0.13868845 0.041017145
-0.5826052 0.30986077 -0.2770653 0.022750482 -0.42966756 0.7563339 -0.02244585 -0.19134271
-0.63934 0.13660575 0.0017987094 -0.43560025 0.47725487 -0.71535647 -0.2882015 -0.08748399
-0.12299792 0.14300556 -0.0017716521 -0.07662417 0.1496511 0.16252767 0.4845965 0.15349193
0.002800662 -0.31300262 -0.010998782 -0.4015645 -0.01030498 0.7711524 -0.002164885 -0.14781615
0.17306396 -0.39646858 -0.39310217 0.6836 0.3469923 0.227211 0.00027962125 0.00085749273

fc3.bias f4 [2]
00000000: 9200 8c3d 8303 a5bc
0.06836046 -0.020143276
