OurCode/actor_ddpg.pt (torch_old, 499033 bytes, 6 tensors)

fc1.weight f4 [400, 8]
000000 15 15 6a 3d 03 67 4f be 97 b3 9e be 8a f6 a1 bd
       0.05714901 -0.2025414 -0.3099639 -0.07908352
000010 fb 4c b2 be d4 9b 05 bd 58 22 c6 3e cb 2c 4e be
       -0.34824356 -0.032619312 0.38698077 -0.20134275
000020 b7 a4 16 be a0 d0 58 be 82 81 79 be 7f 36 f7 3d
       -0.14711271 -0.21173334 -0.2436581 0.12070941
000030 6c c9 30 be ce dd 18 3e 8a f6 d3 bd a5 36 39 be
       -0.17264336 0.14928362 -0.10349758 -0.18087251
000040 2a 5e 83 bd 4a be 53 bd 1f 54 8a 3e 05 f0 d7 3c
       -0.06414445 -0.051695146 0.27017304 0.026359567
000050 5e ab 6c 3e c3 d4 3e 3e dd 2e 0f bf 3d 16 9f be
       0.23112246 0.1863585 -0.5593088 -0.31071654
000060 fb f0 e2 3d db 4f a0 be e1 34 9c 3e 84 c8 09 3e
       0.110811196 -0.31310925 0.30509093 0.13455397
000070 dd c1 ad 3e 20 8c 09 3e 67 96 89 3e 84 31 4c 3e
       0.33936968 0.1343236 0.2687256 0.19940764
000080 1d 3f 73 bb ff b3 26 be 11 8b e0 3e 0c 12 4e 3d
       -0.0037116476 -0.162796 0.438561 0.05031018
000090 44 d5 9b be eb 56 44 3e b9 99 db bd e2 84 9f be
       -0.30436146 0.19173782 -0.1072268 -0.3115607
0000a0 47 bf 82 bd a9 e4 96 3e 88 fc 94 3e fe 05 18 3e
       -0.063841395 0.2947133 0.29098916 0.14846036
0000b0 2b 18 c0 be ba 50 d2 3e d8 87 ea be 89 34 20 3d
       -0.3751844 0.41077214 -0.45806766 0.0391126
0000c0 f6 2e 77 be 6b 37 f6 bd 82 97 c8 bc fd 55 af be
       -0.24139008 -0.12022289 -0.024486307 -0.3424529
0000d0 fe 3f 9d be a9 9b f5 3e f9 9e 92 be 5e 7a 74 3e
       -0.30712885 0.47970322 -0.28636912 0.23874804
0000e0 7d e0 90 bd 96 6e 3a 3e 50 84 a4 bd 87 03 7d be
       -0.07074068 0.18206248 -0.08033049 -0.24708377
0000f0 d0 68 a6 be 65 6c 4b be 60 e7 bb 3e 38 b4 4f 3e
       -0.3250184 -0.19865568 0.36699963 0.20283592
000100 89 5e ba 3d 28 a2 73 3c 3b 11 22 be e6 27 ea be
       0.091000624 0.014870204 -0.15826885 -0.45733565
000110 67 37 93 bd 09 5a db be af be 11 be a1 a3 b1 3e
       -0.071883015 -0.4284213 -0.14232896 0.3469515
000120 2f cf 09 bd bd f5 c9 bd 71 ec c1 be 31 a7 8f be
       -0.03364485 -0.09861324 -0.37875703 -0.28057244
000130 a6 b2 ba bc 84 87 86 3e c5 7e 98 be 56 df b5 bd
       -0.022790264 0.26275265 -0.29784217 -0.088804886
000140 2e 37 96 3e 0e 20 e3 bd ee 21 b3 3e 4f 23 f9 3e
       0.29338974 -0.11090098 0.34986824 0.4865975
000150 3f 11 67 be 48 d9 39 3e 28 e1 97 3d bf 0c 43 3e
       -0.22565173 0.18149292 0.07415992 0.19047831
000160 58 71 a6 be f9 ef d0 bd 21 c3 a9 be 33 2e cd be
       -0.3250835 -0.10202021 -0.33156684 -0.4007431
000170 04 b3 db bd 93 84 8d 3b 7c 7b 10 3c b0 c0 88 bd
       -0.10727504 0.0043187826 0.0088185035 -0.06677377
000180 b2 8d 30 3e fa 40 a9 bd 6a c5 b6 3d ce da ad bd
       0.17241552 -0.082643464 0.089243725 -0.08488999
000190 2a 07 95 3e 7b 8a c5 be a9 e4 80 be 52 71 8e 3e
       0.29107028 -0.38582215 -0.25174454 0.27820832
0001a0 9f 45 bc bd 3f 09 cd 3e fd 77 c3 3e 5a f1 76 bc
       -0.09192967 0.40046117 0.3817748 -0.015072191
0001b0 e1 ca 09 be 9b 21 9c be bb d7 54 be fd 45 fb be
       -0.13456298 -0.3049439 -0.2078542 -0.49076834
0001c0 f6 90 0d be 5d e9 80 be d0 4d 56 3e 88 7c ae be
       -0.1382483 -0.25178042 0.2092812 -0.34079385
0001d0 5c 7b bb be 86 fa a8 be 2f 4e f9 be b3 cc 96 bd
       -0.36617553 -0.33003634 -0.48692462 -0.07363262
0001e0 ec a1 9e be 6a ac 32 be a8 ad ae bb 1d 40 7e be
       -0.30982912 -0.17448583 -0.00533076 -0.24829145
0001f0 ed 99 c9 3e 16 64 48 3e 55 fc b3 3c e9 ab 82 bc
       0.3937525 0.1956943 0.021970907 -0.015951114
000200 4d 45 5d 3e c9 2e 26 3e cd 3b d1 3e be 94 ab 3e
       0.21608467 0.16228785 0.40865937 0.3351192
000210 20 51 87 3e de eb a2 be dd a6 f0 be 2f 1f 83 3c
       0.2642908 -0.31820577 -0.47002307 0.01600608
000220 d9 92 ab 3e 84 46 a6 be 09 c3 9e be d4 40 88 be
       0.33510473 -0.32475674 -0.31008175 -0.2661196
000230 25 9f c3 3e f1 a8 1d be 17 10 de be 07 5c c1 3e
       0.38207355 -0.15396477 -0.4337165 0.37765524
000240 06 6b a7 be 3b e9 71 bd c3 a9 c2 3e 71 4c 65 3b
       -0.3269884 -0.059060317 0.38020143 0.003498819
000250 66 27 3e 3e bb 18 7e be e1 40 27 3e 51 91 a2 bd
       0.18569717 -0.24814121 0.16333343 -0.07937873
000260 2a cf 7c be b0 aa 9c be d0 20 a8 3e 40 69 60 be
       -0.24688402 -0.30598974 0.32837534 -0.2191515
000270 00 59 50 3e 19 71 6f 3d 9a a6 87 be ee 9b af bd
       0.20346451 0.058457468 -0.26494294 -0.08574663
000280 05 7b 24 be 1e 05 08 bd 0e 97 87 bd 5a fb 31 be
       -0.16062553 -0.033208005 -0.06620608 -0.1738104
000290 fc a9 90 3c 20 26 0a 3f 42 5e 39 3e 90 69 40 3e
       0.01765918 0.53964424 0.18102363 0.18790269
0002a0 c6 5f aa bc df f2 af be b0 1e 3d be 94 1b c6 be
       -0.020797621 -0.34364983 -0.18468738 -0.38692915
0002b0 d0 82 37 be 7c b1 2f be f7 28 1f be 80 e9 71 3e
       -0.17920995 -0.17157549 -0.1554297 0.2362423
0002c0 b3 5f a1 3e eb 6a 4e 3e ca 29 9b 3e 77 b7 e4 3e
       0.31518325 0.20157973 0.3030532 0.44671223
0002d0 f5 ad c1 bc f8 e9 08 3e b9 fc 81 3d 6b 0a 88 3d
       -0.02364252 0.13370502 0.06347031 0.06642612
0002e0 5e 9d 71 3e 04 45 09 be 28 17 48 3e 29 81 a6 be
       0.23595187 -0.13405234 0.19540083 -0.32520416
0002f0 fa 51 40 3e 14 d3 07 bf 87 14 1b 3d 54 32 4d 3d
       0.18781272 -0.53056455 0.037861373 0.050096825
000300 f0 a4 0b 3e 1b b2 09 be de bf d8 bc 7b 06 d6 3d
       0.13637137 -0.13446848 -0.026458677 0.10450455
000310 2e 36 7a 3e 11 72 9d be b1 78 3b 3d 19 23 96 be
       0.2443473 -0.30751088 0.045769397 -0.29323652
000320 86 65 96 3d 60 45 e3 3e 57 7b b6 3e c5 a5 7a be
       0.07343583 0.44388866 0.35640976 -0.24477299
000330 37 f0 59 3e 52 2a e1 be 42 88 aa 3d 06 fc 20 be
       0.21283041 -0.439776 0.0832677 -0.1572114
000340 40 ce c9 3c 8d 7a 14 3c b5 c4 b1 3e 9b 2f da 3e
       0.02463448 0.0090624215 0.34720388 0.42614445
000350 b5 45 0e be 80 12 e4 3d 25 a9 c7 3e 82 b7 5c bd
       -0.13893779 0.11136341 0.38996235 -0.053885944
000360 49 bb 3d be 6f fa 94 be b0 c4 bc 3c 09 2c 36 bd
       -0.18528475 -0.29097316 0.023043007 -0.04447559
000370 d7 3a ab be ac ee 75 bd 3b e3 85 3e e0 5b c1 3d
       -0.3344333 -0.06004207 0.26149926 0.09441352
000380 97 97 57 be a1 95 3a 3e dc 88 0c 3e 4a 7f b9 bd
       -0.2105392 0.18221141 0.13724083 -0.090574816
000390 7c 0c 67 bd d2 55 b4 3e b4 44 91 be 70 bf 55 be
       -0.05640839 0.35221726 -0.2837273 -0.20873809
0003a0 be 59 bb 3d 2e d1 85 3e 6d 3d 29 3b 75 3d db 3e
       0.09147976 0.26136154 0.0025823966 0.42820325
0003b0 f4 e1 cb 3d 0c b6 e3 be 30 b6 8f 3b a0 21 1a 3e
       0.099552065 -0.44474828 0.004385732 0.1505189
0003c0 44 a7 b6 3d 27 8c 39 3e 6f 7c 0f be df ea b2 3d
       0.08918622 0.1811987 -0.14012311 0.08736204
0003d0 c4 63 34 3e bb 97 b0 be ed 42 d4 3e b0 de a0 be
       0.17616183 -0.3449076 0.4145731 -0.31419897
0003e0 e1 aa 0e 3e 89 13 aa be 91 85 80 be 16 06 a6 3d
       0.13932373 -0.3321803 -0.25101903 0.081066296
0003f0 53 8a ce 3e 6f ad 16 3d d0 c2 de 3b ab 8e 5d be
       0.40339908 0.036786493 0.006798126 -0.21636455

fc1.bias f4 [400]
000000 52 56 10 be ab 68 0b be c2 01 4a bd 79 eb a7 be
       -0.14095429 -0.13614146 -0.049318083 -0.3279684
000010 01 48 99 be fe 15 5e 3d 60 3d 3e bc a6 ad 8a be
       -0.29937747 0.054220192 -0.011611313 -0.27085608
000020 86 5c 43 3d 44 b0 20 3e 85 6c 93 3e 2a 9a 8c 3e
       0.04769566 0.1569224 0.2879373 0.27461368
000030 4a ae 96 be c3 05 85 bd 0a 0c 56 be 0a 3a 92 3d
       -0.29429847 -0.064952396 -0.2090303 0.07139976
000040 cb 0e cd 3d 8a a6 83 3d 46 d0 68 3e 7a 8f f0 3d
       0.10012587 0.06428249 0.227357 0.11746116
000050 f6 d0 ea bc 3e e0 4f 3e 44 be 65 3e 63 50 9b 3d
       -0.028664093 0.20300385 0.22435862 0.07583692
000060 d3 e2 96 be 1e 3e f8 bd 09 68 4f 3e 11 72 8f 3d
       -0.29469928 -0.12121223 0.2025453 0.07004178
000070 62 57 8b 3e 7c 73 f7 3d c5 0b 03 3e 76 4f 00 39
       0.27215105 0.12082574 0.12797458 0.00012236633
000080 85 e1 59 3e b6 f4 0e be cd 36 44 3e a4 95 03 be
       0.21277435 -0.13960537 0.1916153 -0.12850052
000090 bd 4e d0 bc 22 dd 5c 3e 5f 01 27 3e 53 03 c3 bd
       -0.02542817 0.2156873 0.16309117 -0.095221184
0000a0 13 58 8f 3d 01 c7 c1 bd 4b 83 08 3e 12 2b 73 3e
       0.06999221 -0.09461785 0.13331334 0.23746899
0000b0 d7 92 b7 3d a5 f4 c2 be 3f f4 54 be 57 f1 7f 3e
       0.08963554 -0.38077274 -0.20796297 0.24994408
0000c0 40 da 00 be 72 01 42 3e 8f b3 65 3e 98 e5 c0 bd
       -0.12583256 0.18945864 0.22431777 -0.094187915
0000d0 0d 1c ad bd d5 47 88 be 32 be ab 3d 22 52 18 3e
       -0.08452616 -0.26617303 0.08385886 0.14875081
0000e0 7b 57 98 bd 23 83 a6 be ec 6b 5c be 7c a4 54 3c
       -0.074385606 -0.32521924 -0.21525544 0.012978669
0000f0 be 8f 30 3e a3 3c 92 bd db bb 82 be c0 84 36 be
       0.17242333 -0.07140472 -0.25533947 -0.17824078
000100 cc 0b a0 3e 14 7b e9 3d 3f 3a 98 be 3f a7 65 be
       0.31259 0.114004284 -0.29731938 -0.2242708
000110 f9 a8 85 be bb 94 23 3d 36 14 29 be 83 13 44 bd
       -0.26105478 0.039936762 -0.16511616 -0.04787017
000120 b4 0f 3e bd a5 13 99 be bf a2 48 be ca 09 ac be
       -0.046401694 -0.298978 -0.19593333 -0.33601218
000130 11 2f e2 bd 1b e3 a1 3c bc c0 50 be 22 90 3e bc
       -0.110441335 0.019761613 -0.20386022 -0.011631044
000140 8e f6 42 bd db c6 a6 3e be 46 24 be b5 ad aa 3e
       -0.047598414 0.3257359 -0.16042611 0.33335653
000150 f7 2a a6 be 5c 53 95 be 8c 31 c0 3d a5 3e 1c be
       -0.32454655 -0.2916516 0.0938445 -0.15258272
000160 97 62 05 3e e6 c0 1d be 04 38 8e 3e c8 17 a7 3e
       0.1302589 -0.15405616 0.27777112 0.3263533
000170 00 12 02 3d ab c9 fa 3d ad c0 ad 3e 6d fb 50 3e
       0.031755447 0.12245496 0.33936062 0.20408411
000180 ff 77 6b be ab a1 cb bc 07 82 67 be 7e 88 6e 3e
       -0.22994994 -0.024857363 -0.22608195 0.23294255
000190 49 e3 2d bc 45 c6 e3 3c 82 21 e1 bd f1 f3 10 be
       -0.010613271 0.027804503 -0.10992719 -0.14155556
0001a0 83 b8 33 3d 06 d6 85 3e 12 aa 36 be b7 0c 6b 3d
       0.043877136 0.2613985 -0.17838314 0.057385173
0001b0 83 aa 99 3e e3 14 8b 3e 8c 4c 48 bd 0d 3e a6 3e
       0.30012903 0.27164373 -0.048901126 0.32469216
0001c0 53 32 e6 3d 3d cf 97 3e fb 8c 32 3d 76 53 ae be
       0.11240067 0.29650298 0.04359148 -0.3404805
0001d0 2e e7 74 bd b3 0e d4 3d 4b d2 ff 3d 04 85 97 be
       -0.059790783 0.10354366 0.12491282 -0.2959367
0001e0 82 dc 43 3e 4d 7f 23 be 15 bc 40 3e f9 b1 b0 3e
       0.19127086 -0.1596653 0.18821748 0.34510782
0001f0 3f 17 b4 3d 1a 32 ad bd 53 93 13 3e cf 20 49 be
       0.08793496 -0.08456822 0.14411668 -0.19641422
000200 fa a1 7a be d6 82 72 be 1a 76 1c 3e 23 91 84 3e
       -0.24475852 -0.23682722 0.15279427 0.2589198
000210 f8 c3 bd 3d 0f be 99 be 4f 7f c4 be 49 07 66 bd
       0.09265894 -0.30027816 -0.3837838 -0.05615929
000220 27 69 24 3e 37 6c 31 be b5 c6 ab 3c 03 72 49 be
       0.16055737 -0.17326437 0.020968774 -0.19672398
000230 7f b4 91 3e 35 13 2b bd a7 ac d9 bd be c4 9e be
       0.2845802 -0.041766364 -0.10628634 -0.31009477
000240 5f 16 81 be d9 7a e2 bc 21 04 a2 3d 54 52 1f 3e
       -0.2521238 -0.027646469 0.07910944 0.1555875
000250 14 d7 c2 be 09 27 ea 3d d0 ef d3 3b 43 79 82 3e
       -0.38054717 0.114332266 0.006467797 0.2548314
000260 4c 71 d1 bd 4f 16 3d 3e be 02 22 3e 0e dd 02 3e
       -0.10226688 0.18465541 0.15821359 0.12779638
000270 3c f4 03 be 15 a6 fa 3d df f6 c8 bd f9 c5 15 3e
       -0.12886137 0.12238709 -0.09812712 0.14626302
000280 0b 8d 3a be 0b f9 80 be c2 fd 99 be 95 3d 13 be
       -0.18217866 -0.25190005 -0.30076414 -0.1437896
000290 0d 2d ac bd a9 25 05 3e 4e 36 03 3c 2f 70 32 be
       -0.0840703 0.13002647 0.008008553 -0.17425607
0002a0 92 f7 c9 3c e1 aa c1 3b 47 3d 6a 3e d6 e3 65 be
       0.024654184 0.005910263 0.22874938 -0.22450194
0002b0 91 06 a0 bd 99 a3 69 be 78 25 e9 3d 1b 94 1e bc
       -0.078137524 -0.22816314 0.113841 -0.009678866
0002c0 46 c1 40 3c 34 6d 98 3e 3f 64 fe bd bc 11 52 bd
       0.01176483 0.29770815 -0.12421464 -0.051286444
0002d0 d2 4e d7 3d 87 70 7d 3e 93 5b 83 3e 65 bf f3 3d
       0.10513081 0.24749957 0.25655803 0.1190174
0002e0 1b d0 63 bd 2b 7c 59 3d 51 89 4a 3e 57 44 6d bb
       -0.055618387 0.05309693 0.19778945 -0.0036204064
0002f0 a5 47 24 3e 2a 02 a3 3e db a0 c2 bd 15 81 d6 bd
       0.16042955 0.3183759 -0.09503337 -0.10473839
000300 d4 db a4 be 47 3a 12 3e 46 82 51 3e 11 81 ab bd
       -0.32198966 0.14280044 0.20459852 -0.08374227
000310 90 b8 d3 3d af 92 f7 3d 76 d2 7e 3d cf f7 9a 3e
       0.10337937 0.120885246 0.06221243 0.30267188
000320 5a 69 04 bd 05 c1 b0 be 9e 6d 87 be 8a 2c d0 be
       -0.032327034 -0.34522262 -0.2645082 -0.4065898
000330 fd e2 c3 3c cc 63 d8 3d 45 07 9c bd d7 f0 9e 3e
       0.023911947 0.1056591 -0.07618574 0.3104312
000340 a5 c7 94 bd 7b 58 93 3d eb ec ad 3e 16 11 64 3e
       -0.07264642 0.07194611 0.33969817 0.22272143
000350 54 f5 fd 39 ba 7a b1 3e ab af 0a be 78 ec 1a 3e
       0.00048438704 0.34663945 -0.13543575 0.15129268
000360 17 dc 6c 3e 44 46 e3 bd db 94 b0 be 1b 80 05 3e
       0.23130833 -0.110973865 -0.34488568 0.1303715
000370 65 7f 05 be 0d 8b 1a be 15 66 5e 3d 21 f0 6c be
       -0.13036878 -0.15092106 0.05429657 -0.23138477
000380 cc 21 a1 3e 78 b8 82 3d 4f 53 18 be 4e ad 8e 3e
       0.31471097 0.06382841 -0.1487553 0.27866596
000390 4d 06 ea 3c c1 bc d5 3d d2 1d 3e be fc 14 a7 3e
       0.028567458 0.104363926 -0.18566063 0.32633197
0003a0 d9 19 00 be 16 4d 87 3e 5a 47 27 3d b2 8a 25 3e
       -0.1250986 0.26426 0.04083953 0.1616619
0003b0 a2 b3 8f 3e 3f 77 81 be b0 13 86 be 38 6b dc be
       0.28066736 -0.2528629 -0.26186895 -0.4305055
0003c0 28 d9 b7 3e ef 67 a6 3e 5d ef 45 be 39 7b 53 be
       0.35907865 0.3250117 -0.19329591 -0.20652474
0003d0 80 d2 59 3d 86 8d 3a 3e c3 09 58 3d ac 52 94 bd
       0.053179264 0.1821805 0.052743685 -0.07242331
0003e0 13 3c 8f be 57 f7 85 3e 79 5b 5e be 20 85 c1 be
       -0.2797552 0.26165268 -0.21714582 -0.3779688
0003f0 72 5b 03 be 82 72 18 3d e9 15 1e 3e 26 2e 4a 3e
       -0.12827852 0.03721858 0.15438046 0.19744167

fc2.weight f4 [300, 400]
000000 0c bc ea ba 04 0d 9b bd 9a 18 c5 bd de 41 70 bd
       -0.0017908826 -0.07570842 -0.09623833 -0.058656566
000010 02 14 4a 3d 47 41 87 3d 65 13 cd 3c 4a f2 86 bb
       0.049335487 0.066042475 0.025033662 -0.0041182386
000020 b3 85 3d bd c5 14 a1 bd 15 46 8b 3c e8 dd 98 bb
       -0.046270084 -0.078652896 0.017001191 -0.004665125
000030 90 cf a8 3d 1d 3f 65 3c 3c 38 0f bb 1b 92 19 3d
       0.082427144 0.013992098 -0.0021853587 0.037492853
000040 59 62 1c 3d 3e ae fb bd e9 a7 07 3d 16 dc 14 3e
       0.03817973 -0.122890934 0.033119116 0.14537081
000050 23 78 bf 3c c1 7b 18 bd 52 1d 2d 3c 03 3b 08 3d
       0.023372715 -0.037227396 0.010566073 0.033259403
000060 04 b1 22 bd ca 38 51 3d 72 ae a7 3d 21 8c 0f 3d
       -0.039719597 0.05107955 0.0818757 0.035045747
000070 48 41 cb 3b 0d e8 7a bd 49 00 22 3d 03 1d 06 be
       0.0062028505 -0.061256457 0.039551053 -0.13097005
000080 4f c9 80 3c 1b 84 ba bd 3f a1 cb bd c6 0e 7d 3d
       0.015720991 -0.09107228 -0.099428646 0.061781667
000090 d7 ec 67 bd a7 3d 44 3d 63 c6 a3 bc 85 7c 07 3d
       -0.056622352 0.04791036 -0.01999206 0.033077735
0000a0 fe 5d 5e 3d d1 0b 3e bd d7 39 77 bd b1 96 c8 bd
       0.054288857 -0.046397988 -0.060357895 -0.09794367
0000b0 76 77 0d 3d 1e 51 bc 3d f5 ad 83 bc f5 ba db bd
       0.034537755 0.091951594 -0.01607416 -0.107290186
0000c0 5b 68 a0 3d da f3 c1 bc 27 82 e1 3c b3 fc 12 3d
       0.07832404 -0.023675848 0.027527882 0.035885524
0000d0 c4 44 1d bd a0 50 4a be 5f 43 8c bc 16 c0 13 3c
       -0.038395658 -0.19757318 -0.017121969 0.009017965
0000e0 84 b9 37 bd b0 11 50 bc a8 96 90 ba 2d 4e 65 bc
       -0.044854656 -0.0126995295 -0.0011031227 -0.013995689
0000f0 fb 33 f6 bd 86 3f 2a bc 8d c0 f0 bb c6 66 af 3d
       -0.12021633 -0.010391122 -0.0073471726 0.08564524
000100 68 bc ee bc 4a 00 46 bd d1 be 8d 3d 8b 9f 26 3d
       -0.029142573 -0.04834012 0.06921161 0.040679496
000110 c7 7b b9 3c f8 b4 44 3d d6 8a 5a 3d af 21 f7 bc
       0.02264203 0.048024148 0.05335506 -0.030167429
000120 15 a3 27 be 85 97 c5 38 5e 72 9a bb a6 55 83 bc
       -0.16370805 9.421915e-05 -0.0047133407 -0.016032051
000130 1b 20 c8 3c 9e 2c 52 bd fd 8a 10 3d 23 52 be bc
       0.024429372 -0.05131208 0.0352888 -0.023232525
000140 13 82 2f be 8d 0b 98 3b 8a 03 d3 bd 09 18 05 bd
       -0.17139463 0.004640049 -0.103034094 -0.032493625
000150 de 0d 1c 3e c7 fd e6 bd 84 1c c9 bd f2 0a c5 3d
       0.15239665 -0.11278873 -0.09819892 0.09621228
000160 d0 af 25 bd 80 97 b6 bc 06 55 5a bd 5e 1b b0 3c
       -0.04045087 -0.022289038 -0.05330374 0.021497425
000170 94 7c ab 3c 13 83 b7 3d 29 46 17 bd 52 d8 c2 bc
       0.020933427 0.08960547 -0.036932144 -0.02378479
000180 71 1d 52 bd bb e0 bd 3b 6c 5b a1 bd f4 c4 ee 3a
       -0.05129761 0.005794612 -0.078787655 0.0018216656
000190 e4 31 d6 bc 23 d6 38 3d 51 0a 69 3d 4b 76 f8 bb
       -0.026146837 0.04512609 0.056894604 -0.007582461
0001a0 47 db 85 bc 61 38 27 bd 04 09 91 3d dd f3 31 3d
       -0.016339911 -0.04082525 0.07081798 0.043445457
0001b0 0f 36 be bc 5a 2d e6 bc a5 76 4a bd cf fd 80 3d
       -0.023219137 -0.028097797 -0.049429554 0.0629841
0001c0 a8 63 0c be 62 2e 25 3c 0a 96 09 bd 10 7a b1 3c
       -0.13709891 0.010081859 -0.033590354 0.02166465
0001d0 7a bd 93 3d 8a c8 2e 3d c2 46 b9 3c 2c df 94 ba
       0.07213874 0.042671718 0.022616748 -0.0011358014
0001e0 4a 20 1b bd 15 70 05 3c 96 b3 4f 3d 93 07 c4 bc
       -0.03787259 0.008144398 0.050708376 -0.023929393
0001f0 aa 92 6b be 94 83 bb bd 5c 73 45 bd 1b fb 40 3d
       -0.23005167 -0.09155956 -0.04820572 0.047114473
000200 ee 74 b7 bc f0 6b f3 3d 7f 0c 30 bd 1f af 06 3c
       -0.022394624 0.11885822 -0.042980667 0.008220463
000210 28 6c 3a 3c 51 ea 3b bb c9 c8 5d 3d 22 e6 48 3c
       0.0113783255 -0.00286736 0.05414656 0.012261899
000220 24 60 7c bc ca 00 1b be 32 db 91 bc 32 5e e8 bc
       -0.015403781 -0.1513702 -0.017804716 -0.028365228
000230 95 25 cf bc 84 6b a7 bc 1d 9a bb 3d 36 7e 10 bd
       -0.025286475 -0.02043701 0.09160254 -0.035276614
000240 22 b1 3d 3d 97 a5 16 bd 7f 65 3e 3d 45 22 a8 bd
       0.046311505 -0.036779013 0.046483513 -0.082096614
000250 fd 8e 40 3d 45 b2 24 be 65 93 32 3e b3 33 92 bd
       0.047011364 -0.1608363 0.17439039 -0.07138767
000260 c1 4f 05 3e d2 a7 31 3b 5a 5d 8d 3c f4 f7 37 bd
       0.13018705 0.0027108085 0.017256428 -0.0449142
000270 fa 51 39 bc 85 53 c7 3c c7 76 dc bc 0e 88 bb bb
       -0.011311049 0.024331817 -0.026912106 -0.005723006
000280 7e 2a 59 bd 34 c2 40 bd 16 5e 61 bc 17 57 6f bb
       -0.05301904 -0.047060207 -0.013755342 -0.0036520415
000290 05 6c e3 bd 04 e0 a3 bd 57 aa e4 3c 69 10 8d 3d
       -0.111045875 -0.08001712 0.027913256 0.068878956
0002a0 df c7 8b bd 77 c0 aa 3d 0b 7f 8b 3d df aa 89 3d
       -0.06825232 0.08337491 0.06811341 0.06722044
0002b0 e6 72 00 bd 62 90 1c bd f6 4a 1d 3d c5 d2 5c 3d
       -0.031359576 -0.03822363 0.038401566 0.053911943
0002c0 e6 80 b2 bc b8 45 ce bc c8 8e 53 3d 78 58 61 3d
       -0.02178998 -0.025179729 0.05164984 0.05501601
0002d0 5f f5 95 3c 9a 83 0a bc 2d ba a5 3c a6 16 94 3d
       0.018305479 -0.008454228 0.020230377 0.07230882
0002e0 6c 08 ab bd 0f 17 f4 bc ea b9 1a 3b 29 7d dc 3c
       -0.08351216 -0.029796151 0.0023609349 0.02691515
0002f0 23 59 23 3b d0 41 36 3c 32 fd c0 3d fc 16 a0 3d
       0.0024924956 0.011124089 0.09423293 0.07816884
000300 e1 5e 26 3d d3 4d d9 be 54 88 49 bd f8 ae 2f 3c
       0.040617827 -0.42442188 -0.04920228 0.010722868
000310 66 26 1a 3d 3a 7a e8 bd ca 67 24 be 8a 5d 83 3c
       0.037634276 -0.11351438 -0.16055217 0.016035814
000320 36 af 0a bb 04 01 ee bd 1b 36 e7 3c 7b f4 30 3b
       -0.0021161563 -0.116212875 0.028224042 0.002700119
000330 f9 35 b4 bc 1f 87 d5 3c aa ef 08 3c 25 08 87 bc
       -0.021998392 0.026065407 0.008357922 -0.016483376
000340 b9 05 48 3c d4 3f 9b 3c 21 cf 0e bd 00 01 74 3d
       0.012208396 0.018951334 -0.034865502 0.059571266
000350 0e d5 d4 bd 13 bc 22 3d b3 40 85 be 6d 9c b0 3d
       -0.103921995 0.039730143 -0.26025924 0.08623586
000360 a1 3b 89 bd 7b 5b b2 bc 07 ba 78 bd cc 8a 9b bd
       -0.067008264 -0.021772137 -0.060724284 -0.07594833
000370 ef 98 33 3d c1 dc 36 bd 86 75 8a bd a3 ed 18 bd
       0.04384702 -0.04464412 -0.06760697 -0.037336003
000380 b9 22 18 3d 88 84 0e bc e9 df 17 3c da 55 0b be
       0.03714249 -0.00869859 0.009269693 -0.13606969
000390 97 e0 f8 3a f2 b5 bd 3c 62 86 17 3d 52 ac 69 3c
       0.0018987831 0.023158047 0.03699339 0.014262276
0003a0 74 b4 47 3c 12 b4 5a 3d 80 fb 90 3d 9d f9 7a 3d
       0.0121890195 0.053394385 0.0707922 0.061273206
0003b0 e8 ff c9 bc 06 51 02 be ba f7 a5 3c 7d d8 37 bd
       -0.024658158 -0.1272622 0.020259727 -0.044884194
0003c0 94 ce 55 bd a7 36 3e 3c 15 0b a8 3d b4 87 01 3c
       -0.05219896 0.01160971 0.08205239 0.007905889
0003d0 a6 91 13 bc 86 6e db 3c a8 31 a1 bc 97 4e 60 3c
       -0.009006893 0.0267861 -0.019676998 0.013690612
0003e0 c1 b0 03 3e 48 0c 03 bd ee 24 1f 3d 6e 4e ae 3d
       0.12860395 -0.031994134 0.03885358 0.08511053
0003f0 78 12 e4 bd 20 8e e3 3c 0d 24 bd bd 8f 0a f4 3c
       -0.11136335 0.027777731 -0.09235392 0.029790191

fc2.bias f4 [300]
000000 5b 9e d3 bc 1e 38 75 3d 05 79 23 3d dc 84 d1 3c
       -0.025832346 0.05986797 0.039910335 0.025576048
000010 b5 03 83 3c ba 0c e6 b9 99 b3 4d bc 71 c4 b3 bb
       0.015992979 -0.000438785 -0.012555026 -0.005486064
000020 53 c1 12 bd 9f c6 b0 3c d3 16 37 3d 95 61 4a 3d
       -0.0358289 0.021579085 0.0446995 0.049409468
000030 96 2c 41 3d 4f 2b d3 bd 36 ed 61 3c d6 f7 97 3a
       0.04716166 -0.10310995 0.013789466 0.0011594247
000040 62 42 c1 bc 71 61 e2 3c e2 43 27 bc eb ce c2 bc
       -0.023591224 0.027634354 -0.010209056 -0.023780307
000050 1e ef eb 3b 46 74 d6 3c a3 e3 c6 bb 8b 07 83 bc
       0.007200136 0.02617849 -0.006069617 -0.015994808
000060 14 53 1c bd 82 73 d1 bc a6 83 69 3d ce 7c 17 3d
       -0.038165167 -0.025567774 0.057010315 0.036984257
000070 33 38 5f 3b ef 0e b8 3b 3b 7c 50 bb ad 35 24 bd
       0.0034060597 0.0056170146 -0.0031812328 -0.04009025
000080 07 ab af bb 0a a0 b0 bc 60 15 04 bc a2 0f f0 bc
       -0.005360964 -0.021560688 -0.008061737 -0.02930433
000090 00 e8 ed b7 55 e7 27 3d 96 00 4f 3d 63 40 01 ba
       -2.8360635e-05 0.0409921 0.05053767 -0.0004930554
0000a0 d4 6f b5 3a 0f 8f b7 bb 18 3a 11 3d 75 8f 08 3d
       0.0013842531 -0.0056017707 0.035455793 0.033339936
0000b0 a6 b9 ab 3c 09 bc f1 3c 80 0e cd bc 15 02 d7 3c
       0.020962548 0.029508607 -0.025031328 0.02624611
0000c0 fd 32 c2 bb c9 ba 3c bd c9 dc f0 3b ba 5e 50 3d
       -0.0059264884 -0.04607657 0.0073505384 0.05087159
0000d0 bc 58 ed 3c f7 48 f3 bc 60 9d 07 3d e2 63 8c 3b
       0.028972976 -0.029697878 0.03310907 0.004284368
0000e0 42 db 51 bc fb c2 a1 3c e6 28 ee bc 36 e3 ce 3c
       -0.012808623 0.019746294 -0.029072236 0.025254827
0000f0 9c 75 af ba 04 5e 4d bd 2e 2f 52 3d c1 05 ec bc
       -0.0013386491 -0.05013849 0.051314525 -0.028811337
000100 b6 74 16 3d 18 9f 76 bc 34 1a 01 3d b6 3a 0c bd
       0.036732398 -0.015052579 0.03151913 -0.03423568
000110 1d 30 13 3d 3a 53 23 3b a3 48 8e 3d b2 88 19 bd
       0.035934556 0.0024921433 0.06947448 -0.03748388
000120 7d 7b 14 bc 5e 27 16 bd 70 a5 ee bc 2c a6 1f bd
       -0.009062645 -0.036658637 -0.029131621 -0.038976833
000130 db 5a 82 bd 70 b0 44 3d 71 88 eb 3c ee 79 af 3c
       -0.063649856 0.048019826 0.028751584 0.021420445
000140 a2 e3 21 3d 35 d9 3e 3c 59 fc f4 3c 3b 08 01 bc
       0.03952373 0.011648466 0.029905485 -0.007875497
000150 06 e5 e3 3c 47 95 58 3d 9d c2 b1 3c 04 79 49 bd
       0.027819168 0.052876737 0.021699244 -0.049187675
000160 d0 02 d9 bc 81 4a 4e 3c ef 91 7b 3d 3e bc 24 bc
       -0.026490599 0.012591005 0.06141847 -0.010054646
000170 9c 73 56 bd 8f b3 e8 3b af 82 e3 bc 45 ae 50 bd
       -0.052356347 0.007101483 -0.027772276 -0.050947446
000180 88 94 ac bc 89 2e 5f 3d 80 3b 10 3d b9 3f 08 3d
       -0.021066919 0.05448774 0.035212994 0.033263896
000190 c0 b4 1c 3d ad f1 90 bb 67 c7 46 bb 8a 0b fe bd
       0.038258314 -0.0044233412 -0.0030331255 -0.12404545
0001a0 86 56 85 3d ab d8 5c 3d 0d 83 e4 3c a0 f2 91 3c
       0.06510644 0.05391757 0.027894521 0.017815888
0001b0 5a 88 94 bc a2 b0 f5 3c 75 23 75 3d 59 e4 52 3d
       -0.018131424 0.029991452 0.059848268 0.0514873
0001c0 2a 81 4b 3d 82 b6 ae 3c 13 3e 1b 3d 05 62 7a 3d
       0.049683727 0.02132726 0.037900995 0.061128635
0001d0 9e ce dd bc 1e e6 b1 bb 29 0b 44 bd 2c 09 36 3d
       -0.027076062 -0.0054290434 -0.047862206 0.04444234
0001e0 18 93 1c 3d dc 56 19 3d 10 33 ac bc c4 a9 01 bd
       0.038226217 0.03743635 -0.021020442 -0.03165604
0001f0 3c 53 d4 3c 9e 08 b5 3b 1b 9f 3b 3d 9d 84 4f 3d
       0.025918595 0.005524709 0.04580603 0.05066358
000200 4e f3 98 3c 00 6d b7 bd 3e b5 18 3b d3 c7 14 bc
       0.018670704 -0.08956337 0.0023301388 -0.009080845
000210 9f b9 71 3c 50 0b 2b bc 74 17 da 3c 7d d4 03 bc
       0.014753728 -0.010439709 0.026622511 -0.008046267
000220 07 a3 45 3d b0 e4 bf bc 12 f7 14 bd 14 af 20 3d
       0.048251178 -0.023424476 -0.036368437 0.039229468
000230 94 44 25 bc 19 68 03 bd 3e 7f a9 bc bf 4d d4 bc
       -0.010087151 -0.032081697 -0.020690557 -0.025915978
000240 f9 a7 db bc db c6 f6 3a 26 02 5b 3d a5 ba 5a 3d
       -0.026813494 0.0018827574 0.053468846 0.053400654
000250 e5 a2 f0 3c b4 75 1e 3a 0b 95 bc bc 42 b5 ab 3c
       0.02937455 0.0006044761 -0.023020288 0.020960454
000260 3e e8 57 bc 91 90 32 3d 1c a7 d5 3c f3 04 14 3d
       -0.013177929 0.0435949 0.02608066 0.036137532
000270 a9 5b 70 3c a5 0e 48 3c 2d 42 ee bc 82 fe 2d 3c
       0.014670291 0.012210523 -0.02908429 0.010619761
000280 23 9c 5b 3d 05 d4 83 bd b3 e4 e8 bc 7e 27 1e 3b
       0.0536157 -0.06436924 -0.028429365 0.0024132426
000290 65 42 42 bc 73 a5 14 3d 01 d4 0a 3d 84 f7 c8 bb
       -0.01185665 0.036290597 0.03389359 -0.006133022
0002a0 14 37 51 bd 9b 7b ca bc 5b d1 19 bd 88 c4 ff 3c
       -0.051077917 -0.024717143 -0.037553173 0.031221643
0002b0 f9 24 99 bc e7 ae 95 39 de e2 34 bd 58 ef 88 bc
       -0.018694388 0.00028549807 -0.04416167 -0.01671569
0002c0 5d 5f 4b bc 69 6b 83 3b ba ca 6d 3d 30 7a 79 bd
       -0.012412873 0.004010607 0.058054663 -0.060907543
0002d0 20 5f c3 bb dc 4c 00 bd db c4 30 3d cd 89 57 bd
       -0.0059622675 -0.0313233 0.043156486 -0.05262165
0002e0 e1 6c 64 bc aa 15 3a 3c 40 0c 18 bd b9 3f 80 bd
       -0.013941974 0.011357704 -0.037121058 -0.06262154
0002f0 b3 bb 4c 3d cc f5 89 3c a4 b9 ab bc 21 b9 82 3d
       0.04998369 0.016840838 -0.020962544 0.06382967
000300 5a c9 5c bb 14 9d 9a bb 2e da 1a bc 8e e2 4f bd
       -0.003368935 -0.004718432 -0.009451432 -0.05075317
000310 ce 19 9a 3c 30 51 31 bd e5 8d 1d 3d 21 02 78 3c
       0.018811133 -0.043290317 0.0384654 0.015137226
000320 c4 7a 46 3c 96 08 f7 bc 0c 01 5a 3c 9b 72 04 bd
       0.012114231 -0.030155461 0.013305914 -0.03233586
000330 16 c2 f3 bc e7 fb 0b bd 90 d0 0c 3d 60 c5 17 3c
       -0.029755633 -0.03417578 0.03437859 0.009263366
000340 30 1a 00 bd 3b 53 1a 3d b5 8a 57 3d bf 44 af 3c
       -0.031274974 0.03767703 0.052622516 0.021395085
000350 77 2d 43 3d a8 d9 7c 3b 82 1c 2a 3d 9f 47 00 3d
       0.04765078 0.0038581882 0.041531093 0.031318303
000360 7c 63 12 3d 76 9c 92 3b e1 8b ae ba 86 a1 12 bd
       0.035739407 0.004474218 -0.0013316834 -0.035798572
000370 51 8b 0f 3d 19 7c cc 3c 63 73 59 bd d2 2a 0d 3d
       0.03504497 0.024961518 -0.053088557 0.034464665
000380 27 02 08 bc 2d e1 36 bd 51 c9 0a bd 31 92 3e 3d
       -0.008301294 -0.044648338 -0.033883397 0.046526138
000390 77 1d a5 3a 63 6c 9f bc 2e 10 d7 3c ec c7 3b 3d
       0.0012597282 -0.019460863 0.026252832 0.045844957
0003a0 4a 0e 8b 3c b5 95 90 3c 35 45 58 bd 51 44 89 bc
       0.016974587 0.01764951 -0.052800376 -0.016756209
0003b0 d2 27 2c bd 12 25 a0 3c 8c 40 1a bd 80 21 54 bd
       -0.042030163 0.019548927 -0.037659213 -0.05178976
0003c0 74 30 91 bc eb a5 c5 bc 56 6a 42 bd 84 c9 ac bb
       -0.0177233 -0.024126967 -0.04746469 -0.005273046
0003d0 e4 5b 19 3d 5d 54 32 bd cf 9c ae bc 0b 67 db bc
       0.03744115 -0.043537486 -0.021315007 -0.026782533
0003e0 c8 f2 25 bc 83 65 39 3d 4e ae 57 bd 54 26 4b bc
       -0.010128684 0.045262825 -0.052656464 -0.012399275
0003f0 06 00 61 bc 3f 5c e7 bc c8 d2 10 3d 26 1b 9a bc
       -0.013732916 -0.028242229 0.035357267 -0.018811774

fc3.weight f4 [2, 300]
000000 bc 06 29 bd 9d 45 d7 bd 8c ff 45 be 3c 7e fa 3d
       -0.041266188 -0.105113246 -0.19335765 0.122311085
000010 4e 16 aa bd f1 c3 be 3c 13 d4 9e 3d 69 2e 50 3d
       -0.083050355 0.023286792 0.07755294 0.05082551
000020 1a a7 40 3d 12 bd aa 3b 37 3f 3e be f1 3e 10 3d
       0.04703436 0.005210527 -0.18578802 0.035216276
000030 3d ac 94 bc fb 58 2c 3e f1 32 df 3c 3c 8c d1 bd
       -0.018148536 0.16830818 0.02724597 -0.10231826
000040 6f f3 b3 bd 6e d3 9c 3c 1d e2 fb bb 8e c4 90 3d
       -0.08786666 0.019143786 -0.007686867 0.0706874
000050 47 f5 1b 3e 34 33 3c bd f3 85 13 bb c2 27 59 3d
       0.15230285 -0.04594727 -0.002251026 0.05301643
000060 57 33 ff bb ce b3 5b be 78 73 69 be 3a 3c 43 be
       -0.0077881026 -0.21455309 -0.22797954 -0.19065943
000070 62 5b e4 3d dc d9 94 be fd 33 1c bd 58 80 dc bd
       0.111502424 -0.29072464 -0.038135517 -0.10766667
000080 f1 6e 64 3d 1c b5 ce 3d 89 74 15 3d 61 45 b2 3a
       0.055769864 0.100931376 0.03648809 0.0013600999
000090 60 53 08 3b f6 b5 8e be bf 6d 78 3d 82 86 1c ba
       0.0020801648 -0.278732 0.060651537 -0.0005970971
0000a0 8d 23 11 3e 66 92 18 bc e5 04 b5 bd de bf 52 3d
       0.14173718 -0.009312248 -0.08838824 0.05145251
0000b0 5d a2 56 bd 83 66 00 bc b9 12 af bd 24 40 bc 3d
       -0.052400935 -0.007836941 -0.08548493 0.09191921
0000c0 56 a9 ea ba ac c3 cf bb f9 6a 2d bd da 08 68 bd
       -0.0017903249 -0.0063404646 -0.042338345 -0.056649067
0000d0 86 eb 7a 3d 61 4d 4c 3b b6 d4 cd bd 70 2f a4 bc
       0.06125977 0.003117405 -0.10050337 -0.020042151
0000e0 ce 34 22 3e 59 08 99 bd 3e fc 97 bd 47 21 78 3c
       0.15840456 -0.07472295 -0.07421158 0.015144653
0000f0 37 05 a3 ba a4 c7 c5 3a d7 f4 47 3e cb 40 39 3c
       -0.0012437467 0.0015089405 0.19526993 0.011306952
000100 06 87 06 bb af 62 e5 bc a9 b2 6b bd 45 c7 cf bb
       -0.0020527258 -0.028001158 -0.05754343 -0.0063408935
000110 99 0a 94 bd 3e 6f 96 be c8 19 b1 be 1d 8d 5b bd
       -0.07228584 -0.29381746 -0.34589982 -0.053601373
000120 f4 46 d6 bd a8 2d 6a 3d 5a 54 01 3d 5e 7d a9 be
       -0.10462752 0.057172447 0.031574585 -0.3310346
000130 52 01 d0 bd fa d9 73 3d 9a 66 6c 3d 8f 81 9f 3d
       -0.10156502 0.05953405 0.057715036 0.07788383
000140 ae de 4c be a5 f6 da bb ab 9a 87 3d c6 cb c2 3c
       -0.2000682 -0.0066822344 0.066212974 0.023778807
000150 b6 a6 cf 3c cf 9e e9 bd cd db 07 3e 4a d2 b9 bc
       0.025348049 -0.114072435 0.13267441 -0.022683281
000160 4a 33 ae bc f9 a3 71 3d 63 83 77 3d 46 ee 47 3a
       -0.02126469 0.058994267 0.060428035 0.0007626753
000170 d3 d9 30 3d 0a aa 50 be 62 20 52 bd a8 e2 7a ba
       0.043176483 -0.20377365 -0.051300414 -0.00095705176
000180 97 85 8b 3d 82 d3 6f 3d 4b c8 98 3d 63 e7 fc bd
       0.068125896 0.05855132 0.07460078 -0.12348821
000190 80 42 79 be 65 b0 48 bd 37 2d b9 3d e8 2c 64 3e
       -0.24341774 -0.048996348 0.09041827 0.22282755
0001a0 bb 8f 50 3e 3b 1f 45 3e 87 f4 8c bd 5b 1a 17 bd
       0.20367329 0.19250195 -0.068825774 -0.03689037
0001b0 cf b9 9f bc 5e 85 38 bd 76 9b 9c 3c 7c a5 ac bc
       -0.01949778 -0.045049064 0.019117098 -0.021075003
0001c0 6b 8b d3 3d 7c c5 ee 3b 7a 11 cc 3c a0 f9 56 3d
       0.10329326 0.0072867256 0.024910677 0.052484155
0001d0 83 55 98 bd 10 c9 2c 3c 28 4b a9 3d 07 5f 42 be
       -0.07438185 0.010545984 0.08266288 -0.18981563
0001e0 4b 08 08 3e e0 ee 35 3d d1 6c 92 bd ec 9b 0b 3d
       0.13284414 0.044417262 -0.07149661 0.034084246
0001f0 c7 6d e6 bb 6d 0e dc bb 6e 2c 86 3d fb 93 20 be
       -0.0070321294 -0.006715587 0.06551443 -0.1568145
000200 f7 cb fa 3d 55 4e 96 3d b3 3d 36 bd 30 77 b1 be
       0.122459345 0.073391594 -0.044492435 -0.34661245
000210 65 e8 9b be 69 36 08 be 45 77 01 bd 6a 9c 92 3d
       -0.3045074 -0.13302006 -0.031607885 0.0715874
000220 10 a3 61 bd 56 ce e1 bc 24 b3 8d bd 44 54 b2 bd
       -0.05508715 -0.027564209 -0.06918934 -0.08707479
000230 b9 8f ab ba a1 b5 ba 3d f9 eb f2 bb cf 2b 96 3d
       -0.0013089097 0.09116674 -0.007413384 0.073325746
000240 79 ea 8f 3b 55 0a ff bc 35 86 c7 3c d9 6c ac bc
       0.004391965 -0.031132856 0.024355987 -0.021047996
000250 a4 fc 7d 3d bf d8 fe bb a4 b2 7b bb 0d 8e c7 3d
       0.062008515 -0.007777303 -0.0038406039 0.09743891
000260 f3 2f 23 be f4 76 49 bd 70 29 85 b9 97 8b 42 3e
       -0.1593626 -0.04918571 -0.0002539861 0.18998562
000270 2e d8 a4 bc 94 fa 82 3d f0 de eb 3c 1f f5 5f 3d
       -0.020122614 0.0639545 0.028792828 0.054677125
000280 54 c6 9a 3d e1 5c 20 3e 2c e3 09 be 20 c7 c4 bd
       0.07557359 0.1566043 -0.13465565 -0.096082926
000290 e0 82 d4 3c bc f0 03 3e f9 0c 29 3e 7f 75 3b bc
       0.025941312 0.12884802 0.16508855 -0.0114415875
0002a0 64 df 02 bb 34 d8 68 3d 0a c1 9e bb d4 7d d8 3d
       -0.0019969577 0.056846812 -0.0048447894 0.10570875
0002b0 3a 0a 8c bd af 2d b2 bc b8 89 71 3c 2f ff b1 3d
       -0.06837888 -0.0217503 0.014742307 0.086912505
0002c0 57 a3 a7 3d 48 c1 a3 3c 76 9c 02 be 2b c5 01 be
       0.081854515 0.019989625 -0.12754998 -0.1267287
0002d0 73 45 4b bd 03 13 39 bc 98 a0 1e be 94 49 11 be
       -0.04962678 -0.011296037 -0.15490949 -0.14188224
0002e0 48 f8 9b 3a e2 e0 c6 ba c0 10 bb bd 84 77 9f 3d
       0.0011899555 -0.0015173221 -0.09134054 0.07786468
0002f0 b2 37 11 bd 4a 27 b0 3d 0e ff 9a bd 47 40 ca bd
       -0.035453506 0.08601244 -0.07568179 -0.09875541
000300 5b 2a bd bc 7e 06 c7 3c 42 5c 3c be b3 de af 3c
       -0.023091486 0.024295088 -0.18394569 0.021468496
000310 05 ac 89 bd 43 42 4d 3e 59 83 0c be c7 34 62 bb
       -0.06722263 0.20044808 -0.1372198 -0.003451632
000320 4d c5 fd bb 99 e5 17 be 54 0e ec bc db 91 15 3e
       -0.0077444674 -0.14833678 -0.028815426 0.1460642
000330 b0 c7 25 be a7 2b 45 3e 1e 63 b1 bd c5 28 df bb
       -0.16189456 0.19254933 -0.08661483 -0.00681028
000340 7d 50 b5 bb 94 a6 5c bd 88 77 d3 bd 6d ae 69 3d
       -0.0055332766 -0.0538698 -0.10325533 0.05705111
000350 04 11 f7 bd ad 16 09 bd 7f ef 94 3c e9 b3 58 3d
       -0.12063792 -0.03346889 0.018180607 0.05290595
000360 40 38 d8 3d cd ef f4 3c 55 bf 73 3d 0c e4 18 bd
       0.10557604 0.029899502 0.05950864 -0.037326857
000370 4b 16 d6 3d 89 46 33 3a 70 fb 75 39 fb 5b ba 3d
       0.10453471 0.00068388187 0.00023458689 0.09099575
000380 55 14 08 be 00 d6 f7 37 8a 3d 0a bb 30 70 6f bd
       -0.13289006 2.9544346e-05 -0.002109381 -0.0584566
000390 99 fa 97 bc 18 6c 63 bb 33 c8 80 bd c8 08 14 3e
       -0.018552111 -0.003470188 -0.06288185 0.14456475
0003a0 38 7e 47 bd 15 35 ff 3a 97 83 a9 ba 59 40 ed 3b
       -0.048704356 0.0019470776 -0.0012932894 0.007240337
0003b0 6b e5 16 38 0e d1 01 3b a7 8e 8d bb 64 8d 03 3e
       3.597645e-05 0.0019808444 -0.004319984 0.12846905
0003c0 50 8b 37 3b 7c bf ee bb 31 6c 41 3a a0 0f 0b 3e
       0.002800662 -0.0072860103 0.00073784875 0.13580179
0003d0 21 f1 3c 3d 2c 69 05 3e 32 d8 35 3e 59 30 e6 bd
       0.046128396 0.13028401 0.17758253 -0.1123969
0003e0 be 9e e4 3d 0e 93 ad 3d 4f c7 a1 3d a3 d6 9d 3c
       0.1116309 0.08475314 0.07899343 0.019267386
0003f0 af 6f 5c 3d d7 bf 1e 3d 75 7b ce 39 59 81 00 bc
       0.053817447 0.03875717 0.00039383364 -0.007843339

fc3.bias f4 [2]
000000 4f b3 81 3d 6a 76 ed bc
       0.063330285 -0.028987128
