OurCode/actor_target_td3.pt (torch_old, 499033 bytes, 6 tensors)

fc1.weight f4 [400, 8]
0	0xbf080cfc	-0.5314481
1	0xbf4a8860	-0.7911434
2	0xbf5909aa	-0.8478037
3	0x3e279cbf	0.16368388
4	0xbef668f5	-0.4812695
5	0xbf3888ec	-0.72083926
6	0x3ef17e70	0.47166777
7	0xbebddc73	-0.37082252
8	0xbed3ca03	-0.4136506
9	0xbef4e05c	-0.47827423
10	0xbeb7333d	-0.3578128
11	0x3f289d48	0.6586499
12	0x3dbb4176	0.09143345
13	0xbe933ad7	-0.2875583
14	0x3f9eab0a	1.2395947
15	0xbf2d89ea	-0.67788565
16	0xbea25550	-0.31705713
17	0xbe9bf553	-0.30460605
18	0x3ecae8f8	0.39630866
19	0x3fa3ea92	1.280596
20	0x3e362caa	0.17790475
21	0x3f26c197	0.65139145
22	0x3ff3773f	1.9020766
23	0xbc903eaa	-0.017608006
24	0xbe38d558	-0.18050134
25	0xbf1abc16	-0.60443246
26	0x3f12c356	0.5732931
27	0x3eacf168	0.33777928
28	0x3f81865f	1.0119132
29	0x3f08185f	0.5316219
30	0x3f4925a5	0.78573066
31	0x3e8fd325	0.28090778
32	0xbe69be99	-0.22826613
33	0xbec65309	-0.38735226
34	0x3f7a1afb	0.9769742
35	0xbe591644	-0.211999
36	0xbf0806ca	-0.5313536
37	0xbf42779b	-0.75963753
38	0xbf69bf53	-0.9130756
39	0xbf4c2d2d	-0.7975643
40	0xbe118666	-0.14211425
41	0x3e5da3e7	0.21644555
42	0x3fd07a8e	1.6287401
43	0x3e5eb9ae	0.21750519
44	0xbf3543c2	-0.70806515
45	0x3f097173	0.53688735
46	0xbf9eae79	-1.2396995
47	0xbe253fce	-0.16137621
48	0xbf42f694	-0.761575
49	0xbf23f1e9	-0.64041
50	0xbd86a26e	-0.0657395
51	0xbf506ef7	-0.8141932
52	0xbeb60410	-0.35549974
53	0xbf0f88f3	-0.5606834
54	0xbf849b98	-1.0359983
55	0xbd85f0fe	-0.06540106
56	0xbf18405b	-0.594732
57	0xbeaf10f6	-0.34192628
58	0xbcf6da0a	-0.030133266
59	0x3e8ce080	0.2751503
60	0xbf1f8d92	-0.62325394
61	0xbe3ff296	-0.18744883
62	0x3f8ffd3c	1.1249156
63	0x3e49b3f3	0.19697551
64	0xbf25ac71	-0.6471625
65	0xbf392960	-0.7232876
66	0xbeb44427	-0.35208246
67	0xbf11d7c3	-0.5696985
68	0x3dce96a6	0.10087328
69	0xbed466f7	-0.41484806
70	0xbf080853	-0.531377
71	0x3d19d643	0.03755785
72	0xbf15399f	-0.5829105
73	0xbf25db59	-0.6478782
74	0xbe0f4ebb	-0.13994877
75	0xbf027868	-0.50964975
76	0xbdc5b3d3	-0.096534394
77	0x3ea4a48b	0.32156786
78	0x3fb6c0fa	1.4277642
79	0xbea80510	-0.32816362
80	0xbde959e4	-0.113940984
81	0xbf04ab00	-0.51823425
82	0xbe9d1a15	-0.30683962
83	0x3ef45607	0.47721884
84	0xbe979e63	-0.29613027
85	0x3f059d60	0.5219326
86	0x3e5a5883	0.21322827
87	0x3ef816cc	0.48454893
88	0xbf8c108d	-1.0942551
89	0xbf5f061f	-0.87118715
90	0xbf59f89f	-0.8514499
91	0xbf3222c7	-0.69584316
92	0x3e2c3e55	0.16820653
93	0x3f0552f6	0.52079713
94	0xbb391afd	-0.0028244846
95	0x3e8c174d	0.27361527
96	0x3d81c57e	0.06336497
97	0xbe444caf	-0.19169877
98	0x3e4b8972	0.1987665
99	0xbf310071	-0.691413
100	0x3f6ab6c5	0.91685134
101	0x3f05d4c7	0.522778
102	0x3e3901bb	0.18067066
103	0x3ea090ef	0.31360576
104	0xbea21a6d	-0.31660786
105	0x3e33ff63	0.17577891
106	0x40257f54	2.5858965
107	0xbf3f2636	-0.7466768
108	0xbd876544	-0.06611112
109	0xbfa6cd65	-1.3031431
110	0xbf45e5f6	-0.7730402
111	0xbef7d941	-0.4840794
112	0xbe9bbd6a	-0.3041795
113	0xbed5de72	-0.41771275
114	0x3e2efa04	0.17087561
115	0xbee5c999	-0.4488037
116	0xbe6cb6b6	-0.23116574
117	0x3dc0f2bb	0.09421297
118	0xc00da692	-2.2132916
119	0xbe883fdb	-0.26611218
120	0xbf057400	-0.52130127
121	0xbec59d6f	-0.38596675
122	0xbe7a3d1a	-0.24437371
123	0xbf63abb1	-0.88933855
124	0x3ee22a8f	0.44173095
125	0x3f327ee1	0.6972485
126	0xbf32f824	-0.6990988
127	0x3e26785c	0.16256851
128	0xbd804b4a	-0.0626436
129	0xbdee7792	-0.116439
130	0x3fa1574f	1.260477
131	0x3fd2d99b	1.6472658
132	0x3d92a660	0.0716064
133	0xbf78dc0c	-0.97210765
134	0xbe0aca6a	-0.13553777
135	0xbf04ea94	-0.5192044
136	0xbe36a04c	-0.17834586
137	0xbf5694d4	-0.83820844
138	0xbf433528	-0.76252985
139	0x3ec82b2f	0.39095446
140	0x3ed42244	0.41432393
141	0xbec30b21	-0.38094428
142	0xbf6af987	-0.91787
143	0x3e0c4b15	0.13700517
144	0xbf11972a	-0.56871283
145	0xbe99ff2f	-0.30077502
146	0x3f84dc01	1.037964
147	0xbf59d9d7	-0.8509802
148	0x3f36caea	0.7140337
149	0xbe31c5c1	-0.17360593
150	0x3f562316	0.83647287
151	0x3e15d8f1	0.14633538
152	0xbe95a5c6	-0.29228038
153	0xbeb3e951	-0.35138944
154	0xbd377d93	-0.04479749
155	0x3eb0ec9d	0.34555522
156	0x3f10b331	0.56523424
157	0x3ee6b5d0	0.45060587
158	0xbfd11a71	-1.6336194
159	0xbdae1033	-0.084991835
160	0xbf504b78	-0.81365156
161	0xbf2facb1	-0.6862288
162	0xbefcc112	-0.4936605
163	0xbea2e38a	-0.31814224
164	0xbe3002cd	-0.17188568
165	0x3f8763e8	1.0577364
166	0x3f2a180d	0.6644295
167	0xbd78b1bd	-0.06071638
168	0xbf272cb4	-0.65302587
169	0xbf79d30a	-0.97587645
170	0xbf7a790a	-0.9784094
171	0xbed0453c	-0.40677822
172	0xbe5dd898	-0.21664655
173	0x3eda87d4	0.42681754
174	0xbea41c32	-0.3205276
175	0x3f0ec5f1	0.55770785
176	0x3e1a8fb9	0.15093888
177	0x3d18eb39	0.0373337
178	0x3fc28eb2	1.5199797
179	0x3f46cdb3	0.7765762
180	0xbf101ba1	-0.5629216
181	0xbd0fc4fd	-0.035099972
182	0xbf5cacd2	-0.862012
183	0x3e59e1af	0.21277498
184	0xbede8ebd	-0.43468276
185	0xbf4e0039	-0.8046909
186	0xbeb6e81e	-0.35723966
187	0xbf799907	-0.97499126
188	0x3e970ca1	0.29501823
189	0xbbef0e70	-0.0072954223
190	0xbf85d794	-1.0456414
191	0x3e8db4b7	0.27676937
192	0xbd3a4c53	-0.045482945
193	0xbea1f430	-0.31631613
194	0x3f185963	0.59511393
195	0xbc1cb18b	-0.009563814
196	0x3ee79890	0.45233583
197	0xbf3aec60	-0.7301693
198	0xbe8b3ee6	-0.27196425
199	0xbf2a170c	-0.66441417
200	0x3c8cb9a6	0.017178368
201	0x3ec67839	0.38763598
202	0x3f1d7f77	0.6152262
203	0xbea45338	-0.3209474
204	0x3eaa894f	0.33307883
205	0xbf7f3cb1	-0.9970198
206	0x3f2223e4	0.63336015
207	0xbf047b2d	-0.5175045
208	0x3bdfb286	0.0068267016
209	0xbc0f4759	-0.008745038
210	0x3f2ac8f6	0.6671289
211	0x3f5084c5	0.8145259
212	0x3e58263a	0.21108332
213	0x3e284754	0.1643346
214	0x3fb6b361	1.4273492
215	0x3e902e44	0.28160298
216	0xbf145c79	-0.579536
217	0xbf2f6a34	-0.6852143
218	0xbe2919ea	-0.16513792
219	0xbdcda69e	-0.10041545
220	0xbf172905	-0.59046966
221	0xbe077906	-0.1322976
222	0x3e511719	0.20418967
223	0x3f0ec98c	0.55776286
224	0xbf4c633f	-0.7983894
225	0xbecfaf71	-0.4056354
226	0x3fd31f08	1.6493845
227	0xbee57322	-0.44814402
228	0xbf0e1a6b	-0.5550906
229	0xbf7cc9dd	-0.9874552
230	0xbdbe5328	-0.092932045
231	0xbd7b71bb	-0.06138776
232	0xbe1bbad0	-0.15207982
233	0x3c91d4e4	0.01780171
234	0x3ede99ad	0.4347662
235	0x3f8b34f9	1.0875541
236	0xbe889367	-0.2667496
237	0xbf6824da	-0.9068123
238	0xbf0a789a	-0.54090273
239	0xbdd7b3bc	-0.105323285
240	0xbed6d827	-0.41961786
241	0xbea7bbbc	-0.32760417
242	0x3eb6c8f0	0.35700178
243	0x3dfd7f19	0.123777576
244	0xbd135601	-0.03597069
245	0xbf305039	-0.6887241
246	0x3f91c0ba	1.138694
247	0xbeef6618	-0.4675758
248	0xbf08ded0	-0.53464985
249	0xbf80c9a3	-1.0061535
250	0x3d869dd4	0.06573072
251	0xbeac80f8	-0.33692145
252	0x3ebdc040	0.37060738
253	0x3bbb5728	0.005717177
254	0x3f5aa22d	0.8540371
255	0xbed39983	-0.41328058

fc1.bias f4 [400]
0	0xbf3ac9cf	-0.72964185
1	0xbece4aba	-0.40291387
2	0xbe9ad390	-0.30239534
3	0xbf1e99b9	-0.6195331
4	0xbf0631c3	-0.5241968
5	0xbcc72359	-0.024308847
6	0xbf08155c	-0.5315759
7	0xbf4b9526	-0.7952446
8	0xbf30c25d	-0.69046575
9	0xbec8e417	-0.3923652
10	0xbdf4c345	-0.11951307
11	0xbefd4530	-0.49466848
12	0xbece96bc	-0.40349376
13	0xbe94556d	-0.28971425
14	0xbec008f6	-0.37506837
15	0xbe0f82da	-0.1401476
16	0xbe36be98	-0.17846143
17	0xbee60bd6	-0.44930905
18	0xbc6b2e49	-0.014354297
19	0x3d938819	0.07203693
20	0xbf2e737b	-0.6814496
21	0xbedbc9be	-0.42927355
22	0x3d75fdde	0.06005656
23	0xbf184633	-0.59482116
24	0xbef3f725	-0.47649494
25	0xbe35a471	-0.1773851
26	0x3e3cef92	0.18450764
27	0xbea5fcc4	-0.32419407
28	0xbea1a37e	-0.31570047
29	0xbdfb5bac	-0.122733444
30	0xbec25a81	-0.37959674
31	0xbf2c7c58	-0.67377234
32	0xbebf0495	-0.37308183
33	0xbf59b46c	-0.85040927
34	0xbdff56f5	-0.124677576
35	0xbf2f16c0	-0.6839409
36	0xbf05ec6f	-0.52313894
37	0xbd8ec0e0	-0.06970382
38	0xbe782e47	-0.24236403
39	0xbebd7e60	-0.3701048
40	0xbd9bacc9	-0.076013155
41	0xbeb21671	-0.34782746
42	0xbed3114e	-0.4122414
43	0x3d0c3148	0.034226686
44	0xbe2f0748	-0.17092621
45	0xbecafc81	-0.3964577
46	0xbeeeaf07	-0.4661791
47	0xbe202763	-0.15640025
48	0xbdaf3906	-0.08555798
49	0x3c8b7870	0.017025203
50	0xbd9d4ba2	-0.076804414
51	0xba6b5bf4	-0.00089782407
52	0xbf18605d	-0.5952204
53	0xbf145b6d	-0.57952005
54	0xbe721068	-0.23639071
55	0x3cc04e55	0.023474852
56	0xbf32336c	-0.69609714
57	0xbf5945dc	-0.8487222
58	0xbf3cdabf	-0.7377128
59	0xbef27ddb	-0.47361645
60	0xbe1958bd	-0.14975257
61	0xbf4c8652	-0.79892457
62	0xbf4b7347	-0.79472774
63	0xbe0f21cf	-0.1397774
64	0x3dcaba6c	0.098988384
65	0xbe6a1293	-0.22858648
66	0xbed9f4d9	-0.42569616
67	0xbf3e70d6	-0.74390924
68	0xbf24090f	-0.6407632
69	0xbe80fc73	-0.25192603
70	0xbf16d696	-0.5892118
71	0xbe98d385	-0.29848877
72	0xbee66597	-0.44999382
73	0xbf805f1f	-1.0029029
74	0xbeb0eff7	-0.3455808
75	0xbf2c35a8	-0.6726937
76	0xbf3b4163	-0.7314665
77	0xbf103f32	-0.5634643
78	0xbd877b35	-0.06615297
79	0xbf4c11dd	-0.7971476
80	0xbf6245f1	-0.8838797
81	0x3e341a8f	0.17588256
82	0xbeb2c497	-0.3491561
83	0xbed5c8c0	-0.41754723
84	0xbec66e04	-0.3875581
85	0xbe6ff6e5	-0.23434027
86	0xbeec035e	-0.4609632
87	0xbebc2323	-0.36745557
88	0xbe0afcf6	-0.1357306
89	0xbf2c57f9	-0.67321736
90	0xbdaf1999	-0.08549804
91	0xbb9188bb	-0.0044413484
92	0xbef122e0	-0.4709692
93	0x3e026857	0.12735115
94	0x3e04f971	0.1298578
95	0xbde46f2a	-0.11154015
96	0xbea8fee1	-0.33006957
97	0xbf49a5b2	-0.78768456
98	0xbf699e36	-0.91257036
99	0xbe13779a	-0.14401093
100	0xbf445717	-0.7669539
101	0xbef17883	-0.47162256
102	0xbe8d01f1	-0.27540544
103	0xbdc51f6e	-0.09625135
104	0xbe34c7d7	-0.17654358
105	0x3da0ce67	0.07851868
106	0xbeba0b78	-0.36336875
107	0xbeeac6ad	-0.45854703
108	0xbead0c75	-0.33798566
109	0xbdd7ff52	-0.10546745
110	0xbf073f14	-0.52830625
111	0xbe1648bc	-0.14676183
112	0xbd870904	-0.065935165
113	0xbe7aea14	-0.24503356
114	0xbefd14af	-0.49429843
115	0xbf2b7e8a	-0.6698996
116	0xbf1fc79a	-0.6241394
117	0xbe37869c	-0.17922443
118	0xbecba65b	-0.39775357
119	0xbf27ed10	-0.65596104
120	0xbe943126	-0.28943747
121	0xbdd1c465	-0.102425374
122	0x3c292358	0.010323368
123	0xbea3b811	-0.3197637
124	0xbf231df9	-0.6371761
125	0xbf205cb5	-0.6264146
126	0xbe110394	-0.14161521
127	0xbdc171ae	-0.09445511
128	0xbf4b7834	-0.7948029
129	0xbe52f283	-0.20600323
130	0xbe55b627	-0.20870267
131	0xbe634d83	-0.22197537
132	0xbe7dfee6	-0.24804267
133	0xbf7ecd39	-0.99531895
134	0xbf5f18fb	-0.8714749
135	0xbf10b5c4	-0.5652735
136	0x3d1de391	0.038547102
137	0xbf16b527	-0.58870167
138	0xbec3c853	-0.38238773
139	0xbf044990	-0.5167475
140	0x3d31bced	0.043393064
141	0xbe8882e2	-0.26662356
142	0xbe2188a7	-0.15774785
143	0xbe9ec4be	-0.31009477
144	0xbf29fe87	-0.66404
145	0xbf367415	-0.7127088
146	0xbd5a9290	-0.05336243
147	0xbecaf5e9	-0.3964074
148	0xbf4ea50e	-0.80720603
149	0xbe355e67	-0.17711793
150	0xbc582122	-0.013191493
151	0xbe0f2c6b	-0.13981788
152	0xbeb6ffc7	-0.35742018
153	0xbf11c95f	-0.5694789
154	0x3cd277f0	0.025691956
155	0xbec703e1	-0.38870147
156	0xbe8536f2	-0.26018482
157	0x3d37b63b	0.044851523
158	0xbf1472e7	-0.5798783
159	0x3e526d7b	0.20549576
160	0xbe5e9e63	-0.21740107
161	0xbf190caf	-0.5978498
162	0xbf25eb54	-0.6481221
163	0xbedc3521	-0.43009284
164	0xbeb9cb72	-0.3628803
165	0x3e14ea81	0.14542581
166	0xbee94fdd	-0.45568743
167	0xbf5af63f	-0.8553199
168	0xbf1fccce	-0.6242188
169	0xbafe3b2f	-0.00193963
170	0x3b2550d9	0.002522519
171	0xbf629b2a	-0.8851801
172	0xbedbfa6d	-0.42964497
173	0xbe256394	-0.16151267
174	0xbe285828	-0.16439879
175	0xbed249b4	-0.41071856
176	0xbf29780d	-0.6619881
177	0xbd1044b3	-0.035221767
178	0xbe0c52dc	-0.13703483
179	0xbf137960	-0.5760708
180	0xbd61c28a	-0.055117168
181	0xbee2cab3	-0.44295272
182	0xbf0104bb	-0.50397843
183	0xbed8e213	-0.4235998
184	0xbf05bdbc	-0.52242637
185	0xbe14440c	-0.14479083
186	0xbdac81e4	-0.08423212
187	0xbe70d6ed	-0.23519488
188	0xbeb6879b	-0.35650334
189	0xbf066a95	-0.5250638
190	0xbe840865	-0.25787655
191	0xbe892321	-0.26784614
192	0xbf4e8e9e	-0.80686367
193	0xbeccd228	-0.40004086
194	0xbde5637c	-0.11200616
195	0xbe926adb	-0.2859715
196	0xbe571a9b	-0.21006243
197	0xbe805251	-0.25062802
198	0xbe754d36	-0.23955235
199	0xbd748dd0	-0.059705555
200	0xbe96bbef	-0.29440257
201	0xbe8166c4	-0.25273716
202	0xbf31e43d	-0.6948889
203	0xbe926fb9	-0.28600863
204	0xbe2197e4	-0.15780598
205	0xbecfad49	-0.40561894
206	0xbf3ad6c6	-0.7298397
207	0xbe1d0431	-0.1533363
208	0xbf0a1369	-0.5393587
209	0xbe658abe	-0.22416207
210	0x3dfd25f7	0.12360757
211	0xbebb2d6d	-0.36558095
212	0xbeaf1ad7	-0.34200165
213	0x3c468059	0.012115561
214	0xbcaae197	-0.020859523
215	0x3df9db51	0.122000344
216	0xbe688dd9	-0.2271036
217	0xbec0193a	-0.37519246
218	0xbf190845	-0.59778243
219	0xbf045fdb	-0.51708764
220	0xbf1222d8	-0.5708442
221	0xbeee7bfb	-0.46578965
222	0xbe272b69	-0.16325153
223	0xbf32f5b9	-0.69906193
224	0xbef9c076	-0.4877965
225	0xbe83f33f	-0.2577152
226	0xbf0d7122	-0.5525075
227	0xbe1d3999	-0.15354003
228	0xbea1fd59	-0.316386
229	0xbe4c52d5	-0.19953473
230	0xbed94c92	-0.4244123
231	0xbe6d3703	-0.23165517
232	0xbf1f54e8	-0.6223893
233	0x3e15e1dd	0.14636941
234	0xbe3b10b4	-0.1826809
235	0xbbf86d39	-0.0075813797
236	0xbed3644f	-0.41287467
237	0xbeb10525	-0.34574237
238	0xbee98564	-0.4560958
239	0xbf22349a	-0.63361514
240	0xbcbd638a	-0.023118753
241	0x3ae0a0ce	0.0017137767
242	0xbeb2ab11	-0.34896138
243	0xbf468ba6	-0.77556837
244	0xbef83b7f	-0.48482892
245	0xbe85c767	-0.26128694
246	0xbf146e2f	-0.57980627
247	0xbe03c8cf	-0.12869571
248	0xbf3c0a34	-0.7345307
249	0xbde129af	-0.10994279
250	0xbf34a996	-0.7057127
251	0xbe11ce99	-0.14238967
252	0xbedfac74	-0.4368626
253	0xbe29d9b1	-0.16586949
254	0xbc86c74e	-0.016452458
255	0xbeef9345	-0.46792045

fc2.weight f4 [300, 400]
0	0xba2c3a47	-0.00065699633
1	0xbd63fedb	-0.05566297
2	0xbcbbdca0	-0.02293235
3	0xbd080715	-0.03320988
4	0xbbce4db9	-0.0062958864
5	0x3d198b75	0.037486512
6	0x3af68c13	0.0018810056
7	0xbc84ea35	-0.01622496
8	0xbd0063cf	-0.031345185
9	0xbd5ad71a	-0.053427793
10	0x3c08019c	0.008301165
11	0xbbe90c9b	-0.0071120984
12	0xbca957ff	-0.020671843
13	0xbd523bfa	-0.05132673
14	0xbd2ba767	-0.041907694
15	0xbd36ec90	-0.044659197
16	0xbd044ebd	-0.032301653
17	0xbd8a5e4d	-0.06756268
18	0xbd52c192	-0.051454134
19	0xbcd2374a	-0.02566113
20	0x3d2dd243	0.04243685
21	0xbcf010b4	-0.02930484
22	0x3a7c3483	0.0009620862
23	0x3b0ea8bc	0.0021768054
24	0x3bbfd0d8	0.0058537535
25	0xbcbb2e68	-0.022849277
26	0x3d200866	0.03907051
27	0x3cd66e31	0.02617559
28	0xbc4361a1	-0.011925132
29	0xbd03f1c5	-0.03221299
30	0x3cb878a7	0.022518469
31	0xbb12ecee	-0.0022419053
32	0x3c8cf724	0.01720769
33	0xbcf5e1c4	-0.03001488
34	0xbd04ff4d	-0.032470036
35	0xbcad017f	-0.021118877
36	0xbd5376d2	-0.051626988
37	0xbd082eed	-0.033247877
38	0xbcb98950	-0.022648484
39	0xba9b84ee	-0.0011865178
40	0xbc5272aa	-0.012844721
41	0x3bb90547	0.005646381
42	0xbc409219	-0.011753582
43	0xbcecdebb	-0.0289148
44	0x3cc6b6c0	0.024257064
45	0x3cba11c6	0.022713553
46	0xbd2f2a9f	-0.042765256
47	0xbd447f91	-0.04797322
48	0x3c0228bc	0.007944282
49	0xbd6cc5bb	-0.057805758
50	0xbce20c6b	-0.027593812
51	0xbbf996fc	-0.0076168757
52	0xbd4aece1	-0.04954231
53	0xbd5bc242	-0.053652056
54	0x3d244eee	0.040114336
55	0x3b40e1c8	0.002943145
56	0x3948cb90	0.00019149319
57	0xbd388078	-0.045044392
58	0xbbeb4c63	-0.007180737
59	0xbc6d94c3	-0.0145008
60	0x3baf42d6	0.0053485436
61	0x3d1654cd	0.036701966
62	0xbd117cf6	-0.035519563
63	0xbd02a29d	-0.03189336
64	0xbcccaaf9	-0.02498387
65	0xbd9bea7e	-0.07613085
66	0xbd20060f	-0.039068278
67	0xbcec8cb3	-0.028875684
68	0xbb98b30e	-0.004660017
69	0x3cc1ae78	0.023642763
70	0xbd2588ff	-0.040413853
71	0x3c015ff4	0.007896412
72	0xbcdaa902	-0.026691917
73	0xb675ebec	-3.664517e-06
74	0xbd425cb1	-0.04745168
75	0xbd411879	-0.04714248
76	0xbcbb2698	-0.022845551
77	0xbd0b1905	-0.033959407
78	0xbd147f46	-0.03625419
79	0xbd18f31e	-0.03734123
80	0xbd8365ed	-0.06415925
81	0xbd106226	-0.03524985
82	0xbd4655e1	-0.048421744
83	0x3b935345	0.0044960105
84	0xbd2c18af	-0.042015728
85	0x3c272bbe	0.0102033
86	0xbd6b99bb	-0.057519656
87	0x3d05acbc	0.032635435
88	0xbd4554d9	-0.04817662
89	0xbcfe7384	-0.031060942
90	0xbd904c46	-0.07045798
91	0xbca3904f	-0.019966273
92	0x3cedf5a2	0.02904779
93	0xbc2cc61f	-0.010545283
94	0xbd2e8c07	-0.04261401
95	0x3c82916c	0.015938483
96	0xbcca7239	-0.024712669
97	0x3ca12016	0.01966862
98	0xbd5cb53a	-0.05388377
99	0xbcd43572	-0.025904391
100	0xbab80da0	-0.0014042147
101	0x3ca810a6	0.020515751
102	0x3b1ed7b5	0.0024237458
103	0xbd12c1f6	-0.035829507
104	0x3ca346de	0.019931253
105	0xbd5e660a	-0.05429653
106	0x3cd03921	0.025417866
107	0x3aa83df6	0.0012835849
108	0x3b5085b1	0.0031817968
109	0xbcd3e68a	-0.025866766
110	0xbd38e540	-0.045140505
111	0x3cb31b37	0.021863563
112	0xbd540d9a	-0.051770784
113	0xbd232097	-0.039826002
114	0x3c25a136	0.010109236
115	0xbce53cd3	-0.027983105
116	0x3b7c8feb	0.003853793
117	0xbc6de153	-0.0145190535
118	0x3cde0c31	0.027105423
119	0xbd3fbff0	-0.046813905
120	0x3cfa14c3	0.030527478
121	0xba3e1498	-0.00072509935
122	0x3cb1eb4f	0.02171865
123	0xbd3a3788	-0.045463115
124	0xbd135fc6	-0.03598001
125	0x3cb15d1f	0.021650849
126	0xbd460ba9	-0.048350964
127	0x3c1ac585	0.009446506
128	0xbcb810c0	-0.022468925
129	0xbd19fb2e	-0.03759306
130	0xbd2472df	-0.040148612
131	0xbcf4c7bc	-0.029880397
132	0x3c897d4c	0.016783379
133	0xbd270707	-0.040778186
134	0x3d07e324	0.033175603
135	0xbc8d8d25	-0.017279217
136	0xbc9b2ca6	-0.018942188
137	0x3cb0889f	0.021549521
138	0xbcec4023	-0.028839177
139	0xbc206a0f	-0.009790911
140	0xbcd4b97a	-0.025967348
141	0x3ceb3a6a	0.028714377
142	0x3d2b61de	0.04184138
143	0xbd107e36	-0.035276614
144	0xbd3b0050	-0.045654595
145	0xbc86b33d	-0.01644289
146	0xbd3f2478	-0.04666564
147	0xbc391100	-0.011295557
148	0x3cb1af27	0.021689964
149	0x3bfca1e3	0.007709728
150	0x3d12041d	0.035648454
151	0xbc1b0a46	-0.009462899
152	0x3cb607a7	0.022220446
153	0x3c9ef94d	0.019405985
154	0xbc8c0f1d	-0.01709705
155	0xbd64853b	-0.05579112
156	0x3c7af68b	0.0153175695
157	0x3c4210e8	0.011844851
158	0xbc20c577	-0.009812704
159	0xbc826995	-0.015919486
160	0xbc228f08	-0.009921797
161	0xbd1881d6	-0.037233196
162	0xbce3561b	-0.02775102
163	0xbd1ba366	-0.037997626
164	0xbbd15712	-0.0063885534
165	0xbcb7dc68	-0.022443965
166	0x3cbd232f	0.023088066
167	0x3b25c45e	0.0025294046
168	0x3c9adf4d	0.018905306
169	0x3d1f8b65	0.038951296
170	0x3c0c330c	0.008557092
171	0xbd01ff55	-0.031737644
172	0xbd491c09	-0.049099002
173	0xbca3de6f	-0.020003526
174	0xbb5a8832	-0.003334534
175	0x3c855dd4	0.016280092
176	0xbd358f58	-0.044326156
177	0xbc951d16	-0.018202346
178	0x3c61d8da	0.013784612
179	0x3ba3b506	0.004995945
180	0xbcea1573	-0.02857468
181	0x3d135bdd	0.03597628
182	0x3d22e5fe	0.03977012
183	0x3b208f8e	0.0024499628
184	0x3b38de37	0.0028208622
185	0x3bc1e9d8	0.005917769
186	0xbd6c6733	-0.057715606
187	0xbaaa7a9f	-0.0013006515
188	0x3bc2ac60	0.005940959
189	0xbc88c745	-0.016696582
190	0xbb90ad26	-0.004415172
191	0x3c664992	0.0140556265
192	0xbbedcaab	-0.007256826
193	0xbd1740be	-0.036926977
194	0xbcc4baf1	-0.024014922
195	0x3c6bc70a	0.014390716
196	0x3bf4f37b	0.007475314
197	0xbcefbb8b	-0.029264232
198	0xbcbb3250	-0.02285114
199	0xbcfdd03c	-0.030983083
200	0xbc75e73c	-0.015008744
201	0xbcf5f2f4	-0.030023076
202	0xbca7306f	-0.020408837
203	0x3cecdf82	0.02891517
204	0xbd0ab505	-0.03386404
205	0xbba79857	-0.005114596
206	0x3b4bcc50	0.0031097122
207	0xbc90c6ee	-0.017672982
208	0x3cd7e3a1	0.02635366
209	0xbd454d09	-0.04816917
210	0xbb2cf8e7	-0.0026393475
211	0x3bd35791	0.0064496477
212	0xbd59c802	-0.053169258
213	0x3cfccf33	0.030860519
214	0xbd4ab311	-0.049487177
215	0x3bebaa22	0.0071919123
216	0xbd428619	-0.047491167
217	0xbba9af7f	-0.0051783915
218	0x3d12bbb5	0.035823543
219	0x3bcb91b8	0.0062124394
220	0x3bf45033	0.0074558496
221	0xbd6f3913	-0.05840404
222	0x3c32e487	0.010918743
223	0xbd56a4e2	-0.05240334
224	0xbc0c8385	-0.008576279
225	0xbd5522f2	-0.05203528
226	0xbb790804	-0.0037999162
227	0xbc83438d	-0.016023422
228	0xbcfa0f4c	-0.030524872
229	0xbce71c83	-0.028211838
230	0x3ce5f3a2	0.028070275
231	0xbb9b76de	-0.0047443947
232	0x3b0ab9b4	0.0021167817
233	0x3cccca38	0.02499877
234	0x3c338d47	0.010958976
235	0x3a527a79	0.0008029114
236	0xbd46be91	-0.048521582
237	0xbd0bc995	-0.03412779
238	0xbccedf09	-0.025252836
239	0xbd5acdba	-0.053418852
240	0xbd0d7d85	-0.034543533
241	0xbd56c742	-0.05243612
242	0x3ca06d2e	0.019583311
243	0x3bff65b3	0.007794106
244	0xbd03e2ed	-0.032198835
245	0xbd5c31fa	-0.0537586
246	0xb992bbb6	-0.00027987146
247	0x3cab8696	0.020938199
248	0x3bee9502	0.0072809467
249	0xbd24babf	-0.040217157
250	0xbb9650e6	-0.0045872806
251	0xbd19c79e	-0.037543885
252	0x3c487280	0.01223433
253	0x3cf7e7bb	0.030261865
254	0xbcf89c34	-0.030347921
255	0xbbdb8872	-0.006699615

fc2.bias f4 [300]
0	0xbd955b96	-0.07292859
1	0x3e8823e4	0.26589882
2	0xbe01e58d	-0.12685223
3	0x3ddc5f54	0.1076037
4	0xbcce90e9	-0.025215583
5	0xbd5a2432	-0.053257175
6	0xbd607c6b	-0.054806154
7	0xbd96bbee	-0.073600635
8	0xbd85427d	-0.06506822
9	0xbcdb479a	-0.02676754
10	0xbcfd49dc	-0.030919008
11	0xbbf3b00c	-0.007436758
12	0x3d73e3a5	0.05954327
13	0xbd96326e	-0.073338374
14	0xbd26e187	-0.040742423
15	0xbd8bd22d	-0.06827197
16	0xbd25cc2f	-0.040477928
17	0xbca748a7	-0.020420386
18	0xbd9151fe	-0.07095717
19	0x3e82ab09	0.25521114
20	0x3e9af6ef	0.3026652
21	0xbd36b684	-0.044607654
22	0xbd91f2ee	-0.07126413
23	0xbd85fba5	-0.06542138
24	0xbd8dd75d	-0.06925843
25	0xbd971436	-0.07376902
26	0xbdde42e2	-0.10852601
27	0xbc7588b4	-0.014986206
28	0xbcb13de0	-0.02163595
29	0xbcec4023	-0.028839177
30	0xbd180efe	-0.037123673
31	0xbdd82c4a	-0.105553225
32	0xbd6d1c73	-0.05788846
33	0xbdc3fd19	-0.09569759
34	0xbd8d3e3d	-0.06896637
35	0xbda4507f	-0.08023166
36	0xbd3a5470	-0.045490682
37	0xbd020c9d	-0.03175031
38	0xbee1b857	-0.44085953
39	0xbe066455	-0.13124211
40	0xbd14751e	-0.036244504
41	0x3d939d28	0.072077096
42	0xbcebb833	-0.028774356
43	0xbebdb827	-0.3705456
44	0xbd139806	-0.036033653
45	0xbd0e991d	-0.03481399
46	0x3e82e200	0.2556305
47	0x3e144ada	0.14481679
48	0xbd1b948e	-0.03798347
49	0xbda5f33f	-0.08103036
50	0xbd0322bd	-0.03201555
51	0xbb88ef1d	-0.004178895
52	0x3ed954ee	0.4244761
53	0xbda0060f	-0.078136556
54	0x3e3f7813	0.18698148
55	0xbdb0e020	-0.086364985
56	0xbdbd7858	-0.092514694
57	0xbb34d3d8	-0.002759209
58	0xbd9b515e	-0.07583879
59	0xbcd474ba	-0.025934566
60	0xbd0b633d	-0.034030188
61	0xbda9b4f7	-0.082864694
62	0xbb8584e5	-0.00407468
63	0xbd982ea5	-0.07430772
64	0xbce19fd3	-0.02754203
65	0xbdade987	-0.084918074
66	0xbddddd29	-0.108331986
67	0xbe43af82	-0.1910992
68	0xbd080d55	-0.03321584
69	0xbd3f7bf8	-0.046749085
70	0xbce753fb	-0.028238287
71	0xbd9b1d06	-0.07573895
72	0xbcff6bf4	-0.031179406
73	0xbd08ec49	-0.033428464
74	0xbd53bdea	-0.051694788
75	0xbd60f263	-0.054918658
76	0xbddb8b92	-0.1071998
77	0xbd2be457	-0.04196581
78	0xbce5249b	-0.027971556
79	0xbd20d1f7	-0.039262738
80	0xbc985eae	-0.018599834
81	0xbefb9848	-0.4913962
82	0xbd25edc7	-0.040509965
83	0xbd33cd58	-0.043897003
84	0xbd8f41dd	-0.06994984
85	0xbceadf03	-0.028670793
86	0xbd3af628	-0.04564491
87	0xbd8c4055	-0.06848208
88	0x3dfb804b	0.12280329
89	0xbcf5ae34	-0.029990293
90	0xbd1ea296	-0.038729273
91	0xbd38be30	-0.045103252
92	0x3e90c86a	0.28277904
93	0xbcc883b1	-0.024476858
94	0xbd77ad24	-0.060467854
95	0xbdf1a49c	-0.11798975
96	0xbd4aba19	-0.049493883
97	0x3f23477d	0.6378096
98	0xbcfbefc4	-0.030753978
99	0x3e5c5bdc	0.21519417
100	0xbcbbe3a8	-0.022935703
101	0xbd70d33c	-0.0587952
102	0xbe14f3ba	-0.145461
103	0xbd395c00	-0.045253754
104	0xbd08352d	-0.033253837
105	0x3e9e7732	0.30950314
106	0x3e694c10	0.22782922
107	0xbbfae0ac	-0.0076561775
108	0x3f258a02	0.6466371
109	0xbcbc1add	-0.022962028
110	0xbcb0b208	-0.021569267
111	0xbdadc597	-0.08484953
112	0xbc9fe606	-0.019518863
113	0xbd22f59f	-0.039785024
114	0xbe075c0c	-0.13218707
115	0xbd1c78ae	-0.038201027
116	0xbd8440ad	-0.064576484
117	0xbf0e6335	-0.5562013
118	0xbda7d867	-0.08195572
119	0xbc8f5add	-0.017499382
120	0xbd1a71ee	-0.037706308
121	0xbe7f3166	-0.24921188
122	0xbd4656a9	-0.04842249
123	0xbd624bb3	-0.055247974
124	0xbd0b232d	-0.033969093
125	0xbd54bbd2	-0.051936932
126	0xbca464cf	-0.0200676
127	0xbca18f07	-0.019721521
128	0xbce0e06b	-0.02745076
129	0xbd652adb	-0.055949073
130	0xbd8507e5	-0.064956464
131	0xbeb68c1b	-0.35653767
132	0xbcff1f64	-0.031142898
133	0xbd1af6be	-0.037832968
134	0xbca4fc5f	-0.020139871
135	0xbdc1f7e9	-0.09471113
136	0x3e8abb8d	0.27096215
137	0xbd563b6a	-0.052302755
138	0xbd8e6e25	-0.06954602
139	0x3ed22477	0.41043445
140	0xbd6f5083	-0.05842639
141	0xbdac013f	-0.08398675
142	0xbd564ab0	-0.05231732
143	0xbd89fe35	-0.06737939
144	0xbd984676	-0.07435314
145	0xbda32ddf	-0.079677336
146	0xbca34487	-0.019930137
147	0xbcf55524	-0.029947825
148	0xbd6dfe3b	-0.05810378
149	0xbce4164b	-0.027842661
150	0xbdc0aa51	-0.09407485
151	0xbc713a5c	-0.014723387
152	0xbcd287c2	-0.0256995
153	0xbc86f415	-0.01647381
154	0xbcfc160c	-0.030772232
155	0xbc05f0b5	-0.008175065
156	0xbd41c841	-0.047310118
157	0xbc5e4f62	-0.013568731
158	0xbd8e0575	-0.069346346
159	0xbd0479b5	-0.03234263
160	0xbced5edb	-0.028975895
161	0x3c80a604	0.015704162
162	0xbded9e23	-0.11602428
163	0x3e9b7a4a	0.30366737
164	0xbd5717ba	-0.05251286
165	0xbd4fbb59	-0.050715778
166	0xbd0a2d15	-0.0337344
167	0xbdc704c5	-0.097177066
168	0xbd9efdfe	-0.07763289
169	0xbe433f41	-0.19067098
170	0xbda9bb37	-0.082876615
171	0xbc97b45e	-0.018518623
172	0xbd6b7b43	-0.0574906
173	0xbe28242f	-0.16420053
174	0xbda8c137	-0.08239978
175	0xbd78952c	-0.060689136
176	0xbd3abf78	-0.045592755
177	0xbd2be38f	-0.041965064
178	0xbc8215fd	-0.015879625
179	0x3e8a86a2	0.27055842
180	0xbdc21981	-0.09477521
181	0xbd62b2d3	-0.05534632
182	0xbe31be4d	-0.1735775
183	0xbda362ff	-0.079778664
184	0xbda5c527	-0.080942445
185	0xbd950e3e	-0.07278107
186	0xbdb37da8	-0.087642014
187	0xbf17b4f7	-0.59260505
188	0xbce79fc3	-0.028274423
189	0xbd70a844	-0.05875422
190	0xbdadd857	-0.08488529
191	0xbcc00899	-0.0234416
192	0xbd8ce84d	-0.06880245
193	0x3f0c99e5	0.54922324
194	0xbd63c50b	-0.055607837
195	0x3eac3fb2	0.33642346
196	0xbd114fa6	-0.03547635
197	0xbd88c67d	-0.06678484
198	0xbc918b06	-0.017766487
199	0xbc7dbb24	-0.015486512
200	0xbcad4aef	-0.021153895
201	0xbda1b9ff	-0.07896804
202	0xbd52c3ea	-0.05145637
203	0xbce224a3	-0.02760536
204	0xbd8b4e25	-0.06802014
205	0xbdfe3f2c	-0.12414393
206	0xbcac252f	-0.021013824
207	0xbd45bfe1	-0.048278693
208	0xbdec6d73	-0.11544313
209	0xbe99416f	-0.29932734
210	0xbebeadf0	-0.3724208
211	0xbd250f1f	-0.040297624
212	0xbd1aabbe	-0.037761442
213	0xbd91056e	-0.07081114
214	0xbafca824	-0.0019276184
215	0xbd2e6b37	-0.042582717
216	0xbd210587	-0.039311912
217	0xbd2c8547	-0.04211929
218	0xbe3ce79d	-0.18447728
219	0xbda01997	-0.07817381
220	0xbcb66ba8	-0.022268131
221	0xbe7038af	-0.23459123
222	0xbdc08729	-0.0940078
223	0xbb75c414	-0.0037500905
224	0xbd0b1905	-0.033959407
225	0xbdc765c1	-0.09736205
226	0xbd626edb	-0.0552815
227	0x3dedbde4	0.116084844
228	0xbd28b4b6	-0.041187964
229	0xbd81944d	-0.06327114
230	0x3e3d56ef	0.18490194
231	0xbda06a0f	-0.07832729
232	0xbd279537	-0.040913787
233	0xbea2a626	-0.31767386
234	0xbdaa4327	-0.083135895
235	0xbd295d77	-0.0413489
236	0xbdb1e2b8	-0.08685821
237	0xbd2d9207	-0.04237559
238	0xbda1b22f	-0.07895314
239	0xbdb41218	-0.087925136
240	0xbd887605	-0.066631354
241	0xbd9dc0ce	-0.0770279
242	0xbda56447	-0.08075767
243	0xbcbecf50	-0.023292214
244	0xbd8e044b	-0.069344126
245	0xbd908de6	-0.07058315
246	0x3e750648	0.23928177
247	0x3e6ab836	0.22921833
248	0xbd1c46ae	-0.038153343
249	0x3eaa66b8	0.33281493
250	0xbd646533	-0.055760574
251	0xbd9f5af6	-0.07781021
252	0xbeafbc92	-0.34323555
253	0x3e443912	0.19162396
254	0xbcb46b28	-0.022023752
255	0xbdaccc5f	-0.08437418

fc3.weight f4 [2, 300]
0	0xbb91abd6	-0.0044455333
1	0x3e249e70	0.16076064
2	0xbe0af44c	-0.13569754
3	0x3e8f4d16	0.279885
4	0x3c16934e	0.009190394
5	0x3c0fe9d5	0.008783777
6	0xbc1bf56e	-0.009518964
7	0x3ced2b4b	0.028951308
8	0xbc95b88e	-0.01827648
9	0xbd5d8059	-0.05407748
10	0xbcfa0a9b	-0.030522635
11	0x3c647983	0.013944986
12	0x3e178d5e	0.14800021
13	0xbc55aec9	-0.01304216
14	0x3bf36b4c	0.0074285623
15	0xbcb43b80	-0.022001028
16	0x3c2b32ff	0.01044917
17	0xbcbdce48	-0.023169652
18	0xbc60dfa2	-0.013725193
19	0xbeb2cbdf	-0.34921166
20	0xbe3f5fcc	-0.18688887
21	0xbf0aeb8b	-0.5426566
22	0x3da2a9d7	0.07942551
23	0x3cb5f038	0.022209272
24	0xbc6ad283	-0.0143324165
25	0x3c790b23	0.015200409
26	0x3d09e14c	0.033662125
27	0xbc14df5e	-0.009086458
28	0x3ca6221f	0.020279942
29	0xbc2a457e	-0.010392545
30	0xbc2f772e	-0.010709567
31	0x3b290e8f	0.002579603
32	0xbc26fb4f	-0.010191753
33	0x3c61608b	0.013755928
34	0xbc08eb35	-0.008356859
35	0xba471481	-0.0007594303
36	0x3baf42d7	0.005348544
37	0xbd000b87	-0.031260993
38	0xbe0d26a3	-0.1378427
39	0x3c883145	0.016625056
40	0x3cafba5e	0.021451171
41	0xbe5ece17	-0.21758305
42	0x3ca17e9f	0.019713698
43	0x3e19cd76	0.15019783
44	0xbd1af84e	-0.037834458
45	0x3c4bd101	0.012439967
46	0x3e219e61	0.15783073
47	0x3e1b8582	0.15187648
48	0xbb1f08ed	-0.0024266795
49	0xba7abcbb	-0.0009564866
50	0xbc003d23	-0.007827076
51	0x3cd9b092	0.026573453
52	0x3fc616b5	1.547568
53	0x3d21af0f	0.03947359
54	0xbe9602e4	-0.2929908
55	0x3d2ba766	0.04190769
56	0x3c80303f	0.015648006
57	0xbb02b6ed	-0.0019945458
58	0xbc992a96	-0.018697064
59	0x3ce4ffe3	0.027954048
60	0xbcc8cb91	-0.02451113
61	0x3caaed77	0.020865185
62	0xbbe3b88a	-0.006949489
63	0x3e2944ff	0.16530226
64	0x3c250bff	0.010073661
65	0x3cf24654	0.02957455
66	0x3ca85983	0.020550495
67	0x3e0c8979	0.13724317
68	0xbcb3d460	-0.021951854
69	0xbcb0cef0	-0.02158305
70	0xbc43ddd9	-0.011954748
71	0xbd3d2a38	-0.04618284
72	0x3c61815b	0.013763751
73	0x3e00178a	0.1250898
74	0x3c6c2b0b	0.014414559
75	0x3c10421e	0.008804826
76	0x3c351708	0.011052854
77	0xbce0edb3	-0.027457094
78	0x3cee02eb	0.029054126
79	0x3cb64c68	0.02225323
80	0x3ba7590e	0.0051070517
81	0xbe1afd72	-0.15135744
82	0x3be1c16b	0.0068895123
83	0xbc48fcc9	-0.0122673
84	0xbc8cbee5	-0.01718087
85	0xbcb7f4a0	-0.022455513
86	0x3ce8c583	0.028414493
87	0xbce056eb	-0.027385196
88	0xbff3c8c0	-1.9045639
89	0xbb5137d2	-0.003192414
90	0xbcae0736	-0.021243673
91	0x3c859f75	0.016311387
92	0xbc0684fa	-0.008210415
93	0xbd6b180b	-0.057395976
94	0x3bc75c61	0.0060840105
95	0xbc9f570e	-0.01945069
96	0xbc97d916	-0.018536132
97	0xbd1cd46f	-0.03828853
98	0x3b08f3cd	0.002089727
99	0xbd474f27	-0.04865947
100	0x3b59e4e9	0.0033248013
101	0x3ba963b7	0.0051693576
102	0xbae9353a	-0.0017792352
103	0x3cc41aca	0.023938555
104	0x3b0b426c	0.0021249307
105	0xbe076017	-0.13220249
106	0xbd551eac	-0.052031204
107	0xbcf04124	-0.029327936
108	0xbe3c799b	-0.18405764
109	0x3e96a983	0.29426202
110	0xbc0438dc	-0.008070197
111	0xba6a26a3	-0.0008932149
112	0x3bd146aa	0.0063865976
113	0xbd83c3ad	-0.064338066
114	0xbe75a0f7	-0.23987184
115	0x3d5bf2b2	0.05369825
116	0x3cb5b4d8	0.02218096
117	0x3f184bed	0.59490854
118	0xbcc33901	-0.023830893
119	0x3c4f34f9	0.012646907
120	0x3cc5d4f9	0.024149405
121	0xbe0a7e20	-0.13524675
122	0x3cc2f121	0.02379662
123	0xbcd811ba	-0.02637564
124	0xbc4bd291	-0.01244034
125	0xbbc21599	-0.005922985
126	0x3a740213	0.00093081704
127	0xbd435a99	-0.047693823
128	0x3c263be7	0.010146118
129	0xbc965d66	-0.018355083
130	0xbcdd562a	-0.027018625
131	0x3d1eab13	0.038737368
132	0xbbfcb4a4	-0.0077119637
133	0x3bab8826	0.005234736
134	0x3be2c0e3	0.0069199665
135	0xbb2946cf	-0.0025829559
136	0x3cd067e4	0.025440164
137	0xba3da0f7	-0.00072337635
138	0x3cb49878	0.022045359
139	0xbef96952	-0.48713166
140	0x3af2e293	0.0018530659
141	0xbca1f3cf	-0.019769577
142	0x3d4ea332	0.050448604
143	0xbcc09151	-0.023506792
144	0xbc450c30	-0.0120268315
145	0x3c9216de	0.01783317
146	0x3c59e1ca	0.013298461
147	0xbd107356	-0.035266243
148	0xbc7a18ac	-0.015264671
149	0xbcddd262	-0.027077857
150	0x3b827485	0.0039811754
151	0x3c03613d	0.008018789
152	0x3b718ebc	0.0036858758
153	0x3c96fd8e	0.018431451
154	0x3d255187	0.040360954
155	0xbb7f21bb	-0.0038930017
156	0xbc2d1e67	-0.0105663305
157	0xbb3931d0	-0.002825845
158	0xbc842b94	-0.01613406
159	0x3cacdb37	0.021100624
160	0xba8e64c5	-0.0010863772
161	0xbc5cbdd1	-0.01347299
162	0x3c238307	0.00997997
163	0x406d424f	3.7071722
164	0xbc711d74	-0.014716495
165	0xbbc6efc9	-0.006071065
166	0x3c810eb4	0.015754081
167	0xbcd9047f	-0.026491402
168	0x3bb79eb0	0.005603634
169	0x3d15b315	0.03654774
170	0x3cb1f95f	0.021725355
171	0xbca52e5f	-0.020163713
172	0xbc1411e6	-0.00903747
173	0xbcbe01d7	-0.023194237
174	0xbb63723a	-0.0034705536
175	0x3c97db6e	0.01853725
176	0x3a90cf85	0.0011048174
177	0xbcb0dd00	-0.021589756
178	0xbd4436e9	-0.04790393
179	0xbd81f75d	-0.06346009
180	0x3d0c90cd	0.03431778
181	0x3bd1fcb2	0.0064082975
182	0x3dd701e6	0.10498409
183	0xbc98a68e	-0.018634107
184	0x3b98b3d5	0.0046601095
185	0x3a702d9b	0.0009162069
186	0xbd6947fb	-0.05695341
187	0x3fea3e8f	1.8300341
188	0x3ccc4d39	0.024939166
189	0xbb8240f4	-0.003975028
190	0x3d2241ef	0.03961366
191	0xbd0b3845	-0.03398921
192	0x3c0179bd	0.00790256
193	0xbeec74f0	-0.46182966
194	0x3c096c1d	0.008387593
195	0x3e2b3527	0.16719495
196	0x3cab16df	0.02088493
197	0x3c315870	0.010824308
198	0xbcbbbe28	-0.022917822
199	0xbc8e67e5	-0.017383525
200	0x3d000b23	0.03126062
201	0x3cec6f03	0.028861528
202	0xbc64c613	-0.01396324
203	0x3b03e92c	0.0020127995
204	0x3ca2feff	0.019896982
205	0xbc105b1e	-0.0088107865
206	0x3c1b1dce	0.009467555
207	0xbc99251e	-0.018694457
208	0xbd79e51b	-0.061009508
209	0x3f89127a	1.0708764
210	0x3e8e91cd	0.27845612
211	0x3cdbcc6a	0.02683087
212	0xbb400c81	-0.0029304328
213	0x3b98072e	0.0046395278
214	0x3b029c5c	0.0019929623
215	0xbd7fb94c	-0.062432572
216	0xbc72fd24	-0.014830861
217	0x3d1a2496	0.037632547
218	0x3d6cb167	0.05778637
219	0x3d0a7814	0.03380592
220	0x3cf520cb	0.029922863
221	0x3de45452	0.11148895
222	0x3ab7ef28	0.0014033066
223	0x3d9683ae	0.07349335
224	0xbb0e658c	-0.0021728007
225	0xbb426ea9	-0.002966801
226	0x3cec666b	0.02885743
227	0x3d365c27	0.044521477
228	0x3bd94651	0.006630697
229	0x3d69c1db	0.05706964
230	0xbdf60bc9	-0.120139666
231	0xbc921d1d	-0.017836148
232	0x3c91b6c6	0.017787348
233	0x3d407a7f	0.04699182
234	0xbbc09d08	-0.0058780946
235	0xbc59dc52	-0.013297157
236	0x3ce86f93	0.028373515
237	0xba76fa3b	-0.00094214425
238	0xbd17d466	-0.037067793
239	0x3c417f99	0.011810207
240	0x3c856b1d	0.016286427
241	0x3b8b633d	0.0042537735
242	0x3d03ff0d	0.032225657
243	0x3ce3e063	0.027816957
244	0x3ec09ded	0.37620488
245	0x3c204d27	0.00978402
246	0xbe63923b	-0.22223751
247	0x3e89b28e	0.2689404
248	0x3cd032e2	0.025414888
249	0xbf077bda	-0.5292336
250	0x3cc59a61	0.024121465
251	0x3c4f6249	0.01265771
252	0x3e2a50bb	0.16632359
253	0xbd9dff53	-0.07714715
254	0xbc890b3d	-0.016728992
255	0xbab86cf0	-0.0014070552

fc3.bias f4 [2]
0	0xbbfa4587	-0.007637683
1	0x3d2024a7	0.039097454
