OurCode/actor_ddpg.pt (torch_old, 499033 bytes, 6 tensors)

fc1.weight f4 [400, 8]
000000 d5 1f 93 bd ff bd a9 be f9 b1 d9 be df 31 e2 3c
       -0.07183806 -0.33152768 -0.42518595 0.027611671
000010 62 e2 b2 be f0 e7 a8 be 5f 42 8a 3e 66 80 7b be
       -0.3493834 -0.32989454 0.27003762 -0.24560699
000020 a0 d1 2d bc c1 11 9a bd b2 68 c1 be 3a 7a 44 3f
       -0.0106090605 -0.075229175 -0.3777519 0.76749
000030 12 4b ea bd d7 7e f3 3d b4 90 96 be f1 f4 42 be
       -0.114401 0.11889427 -0.29407275 -0.1903875
000040 81 0e c3 bd 71 8f a9 bd 48 28 32 3d 7d 8c 15 3f
       -0.09524251 -0.082793124 0.043495446 0.58417493
000050 a1 98 40 3e f5 03 31 3e f6 92 8b bf b5 c5 b0 be
       0.18808223 0.17286666 -1.0904224 -0.34525838
000060 4d 13 52 3e b6 05 60 be ca 18 27 3e 0a b2 aa 3e
       0.20515175 -0.21877179 0.1631805 0.33338958
000070 99 22 0f 3f 93 11 d5 3e 2a eb 08 3f 28 ff 26 3e
       0.55912167 0.4161497 0.5348383 0.16308272
000080 76 a0 4d 3e b7 e5 2a 3d a2 c1 ee 3e 4c 46 59 3e
       0.20080742 0.04172298 0.46632105 0.21218222
000090 b0 28 7c be 9a 7f 32 3f 19 e0 58 be 8b b5 90 be
       -0.24624896 0.69725955 -0.21179236 -0.28263506
0000a0 77 04 b6 bd 11 13 8a 3e 95 16 63 3e 54 36 4c 3e
       -0.0888757 0.26967672 0.22176583 0.199426
0000b0 66 71 e0 be 88 2c d9 3e 72 92 5e bf ec 2b 9c 3d
       -0.43836516 0.42416787 -0.8694221 0.07625565
0000c0 91 03 a9 be c6 f3 55 be d7 82 ce bd 21 68 ad be
       -0.33010533 -0.20893773 -0.100835495 -0.33868507
0000d0 e5 fe a6 be e8 f0 eb 3e 17 e0 2a bf a8 db 3b 3e
       -0.32616344 0.46082234 -0.66748184 0.18345511
0000e0 c7 1d 64 be 90 03 f6 3c 3f 2c 38 3d cb 6c f6 3d
       -0.22276984 0.030030996 0.04496407 0.12032469
0000f0 3e 9c c2 be a6 db 05 3b aa 28 b7 3e 35 10 32 3e
       -0.38009828 0.002042511 0.35773212 0.17388995
000100 0d 7e 48 3d b1 ad de bc 10 93 40 be 43 c5 2e bf
       0.048948336 -0.027182432 -0.188061 -0.6826975
000110 cb 9d f1 3d 18 58 41 be 93 83 be bd 0a 8e 87 3e
       0.11797675 -0.18881261 -0.093024395 0.26475555
000120 25 e5 74 3c 8c e3 4c bd 3c 36 f8 be e9 39 2a be
       0.01494721 -0.050021693 -0.48478878 -0.16623653
000130 2f 57 82 3d 63 f1 d0 3e 39 b9 34 bf d2 b2 a2 bd
       0.06364285 0.40809163 -0.7059513 -0.079442635
000140 18 b3 ef 3d 68 12 93 be df 1d e7 3e 08 05 14 3f
       0.11704081 -0.2872498 0.45139977 0.5782018
000150 8d 70 a3 be b9 9f e0 3c 09 40 e6 3d 77 7d b9 3e
       -0.31921807 0.027419912 0.112426825 0.36228535
000160 09 51 f2 be 4a 1c 80 be e0 cb c6 be 0d a9 b0 be
       -0.4732745 -0.25021583 -0.3882742 -0.34503976
000170 23 c1 52 be 0b aa 9e bd 20 98 c7 3e 14 28 92 3d
       -0.20581488 -0.07747277 0.3898325 0.071365505
000180 30 4b 42 3e bf c5 85 bd 69 52 16 be 3b 13 a7 bc
       0.18973994 -0.06531858 -0.14679874 -0.020394912
000190 f4 84 8d 3e 0d e2 16 bf 24 ad 14 bf c8 1a 05 3e
       0.27640498 -0.58938676 -0.5807669 0.12998497
0001a0 49 fb 36 bd 44 3b e5 3e 59 ed 36 3f 0a 1e a0 3d
       -0.044673238 0.4477178 0.71455914 0.078182295
0001b0 4a a7 a2 be 82 07 04 bf b1 01 6a 3a 45 4a a9 be
       -0.31768256 -0.51573956 0.00089266436 -0.33064476
0001c0 b6 60 26 bc d5 4e fd bd 11 80 a1 3e 4c 0c c2 be
       -0.010154894 -0.12368552 0.3154302 -0.37900007
0001d0 f7 b4 ef be be 0e 02 bf dc 4c ea be 32 db 1a 3d
       -0.46817753 -0.50803745 -0.45761764 0.037806697
0001e0 bc ca 9d be 03 fe 30 be 30 0f 16 be ec 6e b4 be
       -0.30818737 -0.17284398 -0.14654231 -0.35240877
0001f0 fa 67 13 3f d0 45 9f 3e f0 f1 4f be 11 65 e5 3d
       0.5758053 0.3110795 -0.20307136 0.112009175
000200 7f af 66 3e 39 99 2f 3e a6 98 05 3f 1c ac 52 3f
       0.22527884 0.17148294 0.5218605 0.8229387
000210 0f 47 e4 3e 39 30 52 be 2e 23 43 bf 39 74 a4 3b
       0.44585463 -0.20526208 -0.76225555 0.0050187376
000220 36 b7 64 3e 0f 7e df be 0c fb ee be c9 da c1 be
       0.22335514 -0.43650863 -0.4667591 -0.37862232
000230 92 c6 9e 3e ed 78 79 3b e1 ad c5 be 2d 1b f1 3e
       0.31010872 0.0038066462 -0.38609222 0.47091046
000240 c7 d6 a2 be b9 4b 4d bd a2 83 a2 3e 1c 7f ad bd
       -0.31804487 -0.050121043 0.31741053 -0.0847151
000250 31 78 82 3e 02 c3 0d be 80 a5 4e 3f a7 8c 47 bd
       0.25482324 -0.13843921 0.8072128 -0.04871812
000260 6e 3d fc bd 3d a4 3a be 92 ab 24 3e f5 14 82 be
       -0.12316404 -0.18226714 0.16081074 -0.25406614
000270 49 0b 40 3e cc 50 35 3e e6 3a 29 be 3c 35 20 be
       0.18754305 0.17706603 -0.16526374 -0.15645307
000280 ce 4f ab be 9b 26 54 be e3 a0 2d 3e 8c 9b 19 be
       -0.33459324 -0.20717852 0.16955905 -0.15000743
000290 5c 0f 18 3d 98 6f d8 3e 37 00 19 3e cc 19 09 3e
       0.037124023 0.4227264 0.14941488 0.13388747
0002a0 4d 72 ff bd 8d 29 e5 be d7 45 98 be dc eb 1b bf
       -0.12472973 -0.44758263 -0.29740784 -0.6090677
0002b0 9d a0 42 be 4b 63 ee bd a5 eb 2c bd 88 0d 59 3e
       -0.19006582 -0.116400324 -0.042216916 0.21196568
0002c0 49 1c 80 3e 45 e3 0b 3e 53 9d 19 3f 10 a0 e3 3e
       0.2502158 0.13660915 0.6000568 0.44458055
0002d0 68 be 5f bd d4 a2 69 3e 51 a3 8c 3d 38 8e 9e 3e
       -0.054624945 0.2281602 0.06867088 0.3096788
0002e0 11 14 ba 3d 42 ec 8e be ca 74 9b 3e e7 08 1b bf
       0.090858586 -0.27914625 0.3036254 -0.6056046
0002f0 b6 19 9f 3d a2 db 6e be a2 d4 d1 3e b1 98 0d 3e
       0.07768576 -0.23325971 0.40982538 0.13827778
000300 93 53 90 3e 64 10 35 3c db e7 01 be 26 99 4b 3c
       0.28188762 0.011051271 -0.12686102 0.01242665
000310 92 73 51 3e 16 fe 86 be 25 bb 27 3f 15 12 e7 be
       0.20454243 -0.26365727 0.65519935 -0.45130983
000320 97 92 54 bd 7e 19 a3 3e 0c 32 04 3f ec 5c d9 be
       -0.05189761 0.31855386 0.51638865 -0.42453706
000330 c5 f1 8c 3e 69 00 cb be be 5a b3 bd ed de 5e be
       0.27528206 -0.3964875 -0.08757542 -0.21764727
000340 10 0d 1e 3d e4 89 bc 3c f8 94 28 3e e6 90 5f 3f
       0.038586676 0.02301497 0.16463077 0.8733047
000350 3e dc 2c be b8 0a ea 3d ce 37 bd 3e 73 19 fe 3d
       -0.1688089 0.11427826 0.36956638 0.12407198
000360 1d 8f e0 bd d8 81 5c be 90 ee 56 bd 58 a6 9a bd
       -0.10964797 -0.21533906 -0.052473605 -0.07551259
000370 f9 24 d9 be 0a 7d b8 3d a0 02 f2 bd a3 71 ae 3d
       -0.4241102 0.09008224 -0.11816907 0.08517768
000380 1d f5 f1 bd 78 99 8c 3e 06 73 0e 3e 20 0b 19 be
       -0.1181433 0.27460837 0.13911065 -0.1494565
000390 7b 77 79 bd 57 08 00 3f 0f 16 e9 be c9 6f 42 bc
       -0.06090496 0.50012726 -0.45524642 -0.011867472
0003a0 9d 87 41 3e 18 be b7 3e a8 8d 10 3d 0a ea e2 3e
       0.18899389 0.35887218 0.035291344 0.44319183
0003b0 c9 6f ca 3d 47 7b e3 bd 7c b5 e8 bd f8 0f 96 3e
       0.098846026 -0.11107498 -0.113627404 0.29309058
0003c0 18 9c d1 3d 8b 06 47 3e d7 28 9c be 47 91 10 3e
       0.10234851 0.1943609 -0.30499908 0.14117919
0003d0 eb fe 89 3e cc b4 d3 be c6 78 46 3f 89 ac 87 be
       0.269523 -0.41348875 0.77528036 -0.2649882
0003e0 ca 60 8a 3d 7d d0 ce be 98 3d 8f be c0 03 08 3e
       0.06756742 -0.4039344 -0.2797668 0.1328268
0003f0 44 8f e6 3e 30 37 c5 3e 86 13 f6 3c 83 4a fb bd
       0.45031178 0.38518667 0.030038606 -0.12270071

fc1.bias f4 [400]
000000 30 35 8a be c9 ec b1 39 a4 7d a4 bd a2 17 6f be
       -0.26993704 0.0003393649 -0.080317765 -0.23348859
000010 e5 0f c2 bd 35 bb ec 3c 9f 6c cd bd 31 a2 d8 be
       -0.09475688 0.028897861 -0.100304835 -0.42311242
000020 4c aa b8 3b a6 71 52 3e 16 88 e4 3d 50 79 01 3e
       0.0056355353 0.20551166 0.11158769 0.12643933
000030 50 8e 8d be 5d 37 91 bc 98 dd a5 bd 18 a5 95 3d
       -0.27647638 -0.017726595 -0.08098906 0.0730688
000040 69 d2 df 3d 29 8e 42 bd 7c f4 71 3e a0 06 77 3e
       0.109288044 -0.047498856 0.2362842 0.24123621
000050 ec c7 51 be 29 f7 ca 3d 7b 34 23 3e 7f d6 8d bd
       -0.2048642 0.09910423 0.15937988 -0.069256775
000060 20 47 18 be a1 38 7c be 97 98 5d 3e a4 43 15 3e
       -0.14870882 -0.24630977 0.2164024 0.14576584
000070 d8 a8 ba 3e 26 9a 5f 3e 03 86 10 3e 4f 93 92 bd
       0.36456943 0.21836147 0.14113621 -0.07157003
000080 6f 61 0d 3e d4 a2 ef bd c7 49 16 3e 8a de 54 be
       0.13806699 -0.11700979 0.14676581 -0.20788017
000090 79 5b d1 bc 02 48 00 3e 85 d5 5a 3e a6 4b 02 bd
       -0.025556313 0.12527469 0.21370514 -0.031810425
0000a0 eb 4d 9a 3d 74 6d 08 be b8 c3 20 3e ee 2b 3c 3e
       0.07534393 -0.13323003 0.15699661 0.18376133
0000b0 91 17 3b bb ae 8f e9 be 5f d2 bf be 38 b5 58 3e
       -0.0028547982 -0.4561743 -0.37465188 0.2116288
0000c0 58 f6 d1 3c b8 fc 0e 3e 32 be 49 3e d8 04 82 bd
       0.025630161 0.13963592 0.1970146 -0.0634858
0000d0 31 bd c1 bd 24 ac a2 be 1b f2 7b 3d cc 69 74 3e
       -0.094599135 -0.31771958 0.061510187 0.23868483
0000e0 82 da ea 3b 98 8d cb be 4f 07 bc be f0 1f 14 bd
       0.0071671614 -0.39756465 -0.36724326 -0.03616327
0000f0 de af 4e 3e 57 09 92 be f8 aa 66 be 87 c3 74 be
       0.20184276 -0.2852275 -0.22526157 -0.23902713
000100 a8 73 27 3e e3 2d 98 3e 83 c0 80 be 85 fa 11 be
       0.16352713 0.2972251 -0.25146875 -0.14255722
000110 8d 28 99 be 6b 8a b3 3d ac 74 8c bd 3e da c0 3d
       -0.2991375 0.087666355 -0.06858191 0.094166264
000120 74 88 3a bc 68 3b 56 be bd a8 2b be 91 c7 b4 be
       -0.011385072 -0.20921099 -0.16763587 -0.35308507
000130 b7 af 5a be 79 23 1a 3e 29 df f7 bd bb b2 d0 bd
       -0.21356092 0.15052594 -0.12103111 -0.1019034
000140 dd ba be bd be 92 c4 3e ad 53 fc bd 1f 68 68 3e
       -0.09312985 0.38393205 -0.123206474 0.22695969
000150 84 09 67 be 42 df 6b be 09 81 67 3c c0 b1 48 be
       -0.22562224 -0.23034385 0.0141298855 -0.19599056
000160 cf 77 ce 3d f8 bb b6 bc b5 85 28 3e 22 9b 07 3f
       0.100814454 -0.022306427 0.16457255 0.5297109
000170 d3 cb 6e 3c 24 ac 50 3e 1e 8c 90 3e 3d 01 ed 3d
       0.014574963 0.20378166 0.282319 0.11572502
000180 be 44 4f be a1 06 6e 3a ad cb a3 be af d1 86 3e
       -0.20241067 0.0009079967 -0.3199133 0.2633185
000190 86 14 56 bc b4 db d0 bb 25 75 56 be 7a 32 80 be
       -0.013066417 -0.006373847 -0.20943125 -0.2503851
0001a0 89 80 de 3d 19 91 92 3e d1 63 f3 3c 59 62 29 3e
       0.1086436 0.28626326 0.029710682 0.16541423
0001b0 a1 a6 b3 3e 85 ee af 3e 6f 95 d8 3a 33 44 af 3e
       0.35088065 0.34361663 0.0016524027 0.3423172
0001c0 dd 9c c0 3c eb 6e a3 3e 39 ea 3c bd 97 cd 95 be
       0.023512298 0.3192056 -0.04612181 -0.29258415
0001d0 df 65 6c bd 68 99 6b bd f3 6f 57 3e d3 f0 ab be
       -0.05771434 -0.057519346 0.21038799 -0.33582172
0001e0 0f 45 17 3e f5 27 a2 be 91 3d d4 bc 37 67 ed 3e
       0.14772438 -0.3167111 -0.025908263 0.4636781
0001f0 9d 50 11 3e 0d a7 96 3d 64 df af 3c aa d6 e4 bd
       0.14190908 0.07356081 0.021468826 -0.111737564
000200 a8 a6 a4 be 5b 81 93 be 46 33 20 3e 46 fb be 3e
       -0.321584 -0.28809628 0.1564456 0.3730108
000210 5b 0b 3e bd de b0 83 be 64 77 ce be 56 59 9c 3d
       -0.04639755 -0.25720876 -0.40325463 0.07634227
000220 3a f5 b7 3d ad c0 2e be ed 13 5d 3d 3c e0 6c be
       0.0898232 -0.17065687 0.05397408 -0.23132414
000230 28 42 2e 3e 54 1f c3 bd 01 13 ca bc be c4 9e be
       0.17017424 -0.0952746 -0.024667265 -0.31009477
000240 f0 9a 3e be 37 02 8c bc d7 51 8b 3d 10 0c 4a 3e
       -0.18613791 -0.0170909 0.06802719 0.19731164
000250 62 57 ba be 08 29 16 3e b9 4e 06 3d 2d 30 58 3e
       -0.36394793 0.1466409 0.03278992 0.21112128
000260 ee 0a 85 bd b6 0e 4e 3d f0 da a4 3d bd 60 2c 3e
       -0.06496225 0.050307 0.080495715 0.16833778
000270 6e 73 1e bc 2b ec be 3d 62 ef bc bd 80 7e 35 3e
       -0.009671075 0.09322389 -0.09225346 0.17724037
000280 bc 3a 84 be 2a ab 88 be cf c5 95 be 87 7a 7c be
       -0.2582606 -0.26693088 -0.29252478 -0.24656115
000290 b8 06 90 bd 6b cf 16 3e 46 07 54 3c 2d 86 53 be
       -0.070325315 0.14727561 0.012941187 -0.20656653
0002a0 dc 97 98 bd 57 68 fb bd 30 8e 87 3e 6d e9 a6 be
       -0.0745084 -0.122757606 0.26475668 -0.32599965
0002b0 dd 41 2e be 63 72 5b be 79 77 3e bd ba f7 bb bd
       -0.17017312 -0.21430354 -0.046500657 -0.091781095
0002c0 7d 20 42 bc 0c 6e 97 3e 9c 33 c8 3b f4 4c 10 be
       -0.011848566 0.29576147 0.006109668 -0.14091855
0002d0 90 1c 96 3d b4 d4 ac 3d 37 23 15 3e a3 8b a7 3d
       0.073296666 0.084390074 0.14564215 0.081809305
0002e0 fb cc e1 bd 03 10 95 3d bf 29 a8 3e 6a 1d b2 bb
       -0.11025425 0.072784446 0.3284435 -0.0054356353
0002f0 45 a6 ac 3e e6 c6 87 3e 31 d7 bd 3c 83 08 75 3c
       0.33720604 0.26518935 0.0231739 0.014955643
000300 02 72 94 be ed 8d 27 3e 65 4f 22 3e 90 90 9c bd
       -0.2899323 0.16362734 0.15850599 -0.076447606
000310 c4 d1 c5 3c ed 9a 0c bc 88 76 17 3e b1 e0 ac 3e
       0.024147876 -0.008581859 0.1479131 0.33765176
000320 8c 46 99 3d d9 90 1b be 47 a8 c6 be 37 bf 92 be
       0.07484159 -0.15191974 -0.3880026 -0.2866151
000330 39 15 11 3e 59 04 32 3e 90 61 46 be 7f e1 39 3e
       0.14168252 0.17384471 -0.19373155 0.18152426
000340 8f f4 10 be 83 76 88 3d 0d d6 73 3e 21 b4 72 3e
       -0.14155792 0.06663229 0.23812123 0.23701526
000350 2b a1 05 3e dd e4 17 3e f9 2e 5f be b5 a0 47 3e
       0.13049762 0.14833398 -0.21795262 0.19494899
000360 00 59 f3 3d 3e 9d d2 bd 18 06 52 be 7b dd 10 3e
       0.1188221 -0.10283898 -0.20510137 0.14146988
000370 ff 92 c8 bd 71 cd 48 be c3 ef f3 3b d7 0c 2f be
       -0.09793662 -0.1960962 0.0074443533 -0.17094742
000380 fb 04 9b 3e c6 8a b2 bc 27 94 96 bd 7d be a4 3e
       0.30277237 -0.021794688 -0.073524766 0.3217658
000390 9d c7 a4 3d 37 ef 8d 3d 1a 05 65 be 59 51 d4 3e
       0.08045886 0.06930392 -0.22365227 0.41468313
0003a0 eb 79 e9 bd 54 3c ae 3c a9 1c 11 3d cd 85 84 3d
       -0.11400207 0.021269001 0.035427723 0.06470833
0003b0 04 12 b9 3e 00 89 68 be d2 df 6f bd 5c 2d a8 be
       0.36146557 -0.22708511 -0.05856306 -0.32847106
0003c0 10 c7 85 3e 4d 6f 44 3e b5 14 33 be 91 33 1c be
       0.26128435 0.19183083 -0.17488368 -0.15254046
0003d0 8b ac 27 3d f0 f9 11 3e a9 8a c7 3c 81 9d 0d be
       0.040936034 0.142555 0.02435811 -0.13829614
0003e0 6d 21 52 be f6 5c cb 3e e0 b8 a6 be a1 45 bb be
       -0.20520563 0.3971936 -0.32562923 -0.3657656
0003f0 08 07 6e bd 98 d2 7b 3d 41 e8 a0 3c e7 f3 f1 3d
       -0.058112174 0.061480135 0.019641997 0.11814099

fc2.weight f4 [300, 400]
000000 ae 1e 90 3b a1 91 52 bd 95 c1 9c bc de 7e 13 bd
       0.0043981886 -0.051408414 -0.019135276 -0.03600966
000010 73 71 ca ba 86 25 2c 3d 74 3c d3 3b 79 3b 5e bc
       -0.0015445187 0.042027973 0.0064464156 -0.013563984
000020 b7 e2 d0 bc f8 bd 3e bd b1 77 9b 3c 1e 35 05 ba
       -0.025498731 -0.046567887 0.018977972 -0.00050814624
000030 6a 20 42 3b 89 c9 3c bd 14 01 1a bd 74 28 10 bd
       0.002962137 -0.046090636 -0.037598684 -0.03519483
000040 b1 0e 11 bc 0f 97 44 bd b0 0e 27 bd 92 d4 5c bb
       -0.0088536 -0.047995623 -0.04078549 -0.0033696038
000050 43 d2 2d 3d db ca bd bc 82 e5 5f 3c bc cf bb 3c
       0.04243685 -0.023168018 0.013665559 0.022926204
000060 2d af 71 3a a9 9b 55 bc 65 20 2f 3d 6b 22 fb 3c
       0.00092195236 -0.013037601 0.042755503 0.03065606
000070 86 8e d6 39 aa be e0 bc 34 41 1e 3d 28 2d 2c 3c
       0.0004092345 -0.027434666 0.0386364 0.010508813
000080 03 76 39 3d 06 9b 9e bb bc eb af bc e6 3b cf b8
       0.04527856 -0.0048402576 -0.021474712 -9.881686e-05
000090 af 4f 30 bd 3f 42 df bc dd 3e 90 bc 1e 7a b2 3c
       -0.043044742 -0.027253268 -0.0176081 0.021786746
0000a0 a9 7e 72 3c 9e f0 09 3c 61 1d f0 bb 23 59 c3 bc
       0.014800706 0.008419184 -0.007327721 -0.023846215
0000b0 b0 de f9 3c c6 11 ba 3c 1c 62 24 bd fe 86 a6 bc
       0.030501693 0.022713553 -0.040132627 -0.020328041
0000c0 88 8a 0c 3d 0b c3 2a bd 40 24 cf bb 6c 3c d0 3b
       0.0343118 -0.041689914 -0.00632146 0.006354859
0000d0 31 9e 3a bd 3b b2 47 bd 11 ca 3a 3d 82 6c 5b 3c
       -0.04556102 -0.04875396 0.04560286 0.0133925695
0000e0 e5 db 6e 3c 08 d6 2c bd 94 42 f1 ba ee b9 18 bc
       0.014578794 -0.042196304 -0.0018406683 -0.009321673
0000f0 0e 14 cf 3c 8e 73 22 3d 9c e5 fb bc 03 b9 e2 bc
       0.025278118 0.039660983 -0.030749135 -0.027676111
000100 49 6b 9c bc ef 76 54 bd 1a 2a f9 bc 9f ee ca bc
       -0.019094126 -0.051871236 -0.030415583 -0.024771987
000110 27 83 17 bb b2 4e f5 3c ae 91 10 bd 91 d3 4e 3c
       -0.0023118944 0.029944751 -0.03529518 0.012623684
000120 ee af a7 bc e6 56 a4 3b 9d 26 55 bd 59 89 2b bd
       -0.020469632 0.005015242 -0.052038778 -0.04187903
000130 9f b2 c7 bb c9 d7 bc bc 88 98 0b bd 1e bc 04 bd
       -0.0060942913 -0.023052113 -0.034081012 -0.032405965
000140 03 12 4a bd 0f 86 eb bc 93 d8 38 bd 10 a4 30 3c
       -0.049333584 -0.028750448 -0.045128416 0.010781303
000150 21 3f dd bc 5f 6f ae 3c c5 49 59 bd 0f 8e 19 3d
       -0.027007641 0.02129334 -0.053048868 0.037488993
000160 d5 71 2c bd 8c 8b d7 bc d6 56 2e bd 80 eb 0d 3b
       -0.042100746 -0.026311658 -0.042563282 0.0021655262
000170 d4 84 07 3d c7 1a a8 3c 0c 67 15 bd 44 00 af 3c
       0.03308566 0.020520581 -0.036475226 0.021362431
000180 ca 14 9c bc 3f 4e 37 3d 43 7e 57 bd 5d 37 a3 bc
       -0.019052882 0.044752356 -0.052610647 -0.01992386
000190 59 34 38 3c aa 68 d5 3c 9e da 62 3c fe ce 12 bd
       0.011242949 0.026050884 0.013846068 -0.035841934
0001a0 8f f5 c2 3c 18 ff 04 bd c3 1f 1b 3d 70 96 dc 3b
       0.023798732 -0.03246984 0.037872087 0.0067318007
0001b0 bd 1f f6 3c db 95 a6 bc 40 0b 24 bd 1a 5f 20 3d
       0.03004443 -0.020335129 -0.04004979 0.039153196
0001c0 ba 1d 3c bd a7 f6 b9 bc 30 ae e5 3c a7 28 d5 bc
       -0.045926787 -0.02270062 0.02803716 -0.026020361
0001d0 a8 6e e7 3c f1 95 0d bc 3b 39 03 3d 26 00 34 bd
       0.028251007 -0.008641706 0.032037 -0.043945454
0001e0 14 b5 39 3d 90 d0 bc ba 06 b2 e6 3c 07 01 d5 bc
       0.045338705 -0.0014405418 0.02816106 -0.026001466
0001f0 cd 3b e7 bc bc cf cc 3c ec b1 e7 bc 0c 9c 29 3c
       -0.028226757 0.0250014 -0.028283082 0.010352146
000200 19 2e 92 bc 3c 6c 04 bd 80 4b 0e bd 1c a2 61 bb
       -0.017844247 -0.032329783 -0.03473997 -0.00344289
000210 7d 81 9f 3c c5 a6 f0 bc cb 4b 0c 3d bd ca c4 3b
       0.019470925 -0.029376397 0.03425197 0.0060056136
000220 33 24 0b 3b 96 fe 20 3d 5d 5a 0b bc 76 af 95 bb
       0.0021231293 0.039305292 -0.008505431 -0.0045680357
000230 3e 8e 45 bc ae 66 06 3d ea 15 3f 3d 36 7e 10 bd
       -0.012057839 0.032812767 0.04665176 -0.035276614
000240 4a f5 26 bd 45 c2 10 bc 9b b5 04 bd 0b 91 bc bb
       -0.04076127 -0.00883538 -0.032399755 -0.005754595
000250 74 bf d9 3c e5 d7 fb 3c 95 e4 26 3d 31 ff 9c bb
       0.02658055 0.030742595 0.040745337 -0.0047911634
000260 38 7e df 3c bb 0b c2 3c 24 c5 76 bb 55 d0 4a bd
       0.027281865 0.023687234 -0.0037654126 -0.049515087
000270 2a 9a a1 3c 00 33 88 3c 6f d8 bd ba 21 08 14 3c
       0.019726831 0.016625881 -0.0014484058 0.009035141
000280 72 68 22 bc e8 b1 05 bd 34 5d c0 bc 32 a3 0d bd
       -0.009912597 -0.032640368 -0.023481943 -0.034579463
000290 8c 28 8a bb 3d db a5 bc d9 f2 d5 3c ff 4b dd 3b
       -0.0042162593 -0.020246143 0.026116775 0.006753444
0002a0 b3 63 04 3d 0f 54 32 3d 0e c8 f4 3c 26 21 df bc
       0.032321643 0.043537196 0.02988055 -0.027237486
0002b0 52 34 49 bd 14 03 90 bc 87 40 e7 3a 59 85 b0 3c
       -0.049122162 -0.017579593 0.0017643132 0.02154796
0002c0 af 03 de bc 63 14 4c bc fd 43 d5 3c e5 17 d2 3c
       -0.027101366 -0.012456032 0.026033396 0.02564616
0002d0 4b cf bd bc ae a8 2d 3d 8a bd 3d 3d 41 28 b0 3b
       -0.023170134 0.042397194 0.046323337 0.0053758924
0002e0 43 28 e6 3b 4b 97 44 3c ac 79 1b bd a2 ea 77 3b
       0.0070238425 0.011998962 -0.037957832 0.003782906
0002f0 39 ba 97 3c 28 ca 30 3b f6 51 88 3c a6 06 8e 3c
       0.018521415 0.0026975963 0.016640645 0.017337155
000300 b2 a5 dd ba 56 bc 86 bc ab af 25 3b 28 9e 0b 3d
       -0.0016910343 -0.016447227 0.0025281708 0.034086376
000310 f8 27 87 3c f7 2b bc bc 69 59 43 bc c1 a8 8a bc
       0.01649855 -0.022970183 -0.0119231725 -0.016926171
000320 d5 dd d6 bb e4 62 0d bd a5 5f 86 bc fe e7 02 3d
       -0.006557206 -0.034518138 -0.016403029 0.031959526
000330 64 29 f8 bc b8 5b 48 3a 1a a6 0b 3c e4 f4 9a 3b
       -0.030293174 0.00076430617 0.008523488 0.0047289003
000340 09 d4 f9 3c 26 75 2f bd 88 5b 82 3c 39 d9 ad 3c
       0.030496614 -0.04283633 0.015912786 0.021221744
000350 5a e2 fe bc e6 da 15 3d 1f d4 3d bd 97 7a 1a 3d
       -0.031113792 0.03658571 -0.046344873 0.037714567
000360 5f 5a 2d bd 29 94 6c 3c e8 8f 16 3d ee 4b 48 3c
       -0.042322513 0.014439621 0.036758333 0.012225134
000370 0d 66 4a 3c 34 a2 02 bd 4f 84 ad 3c 6b ee 49 bd
       0.012353432 -0.03189297 0.021181254 -0.04929964
000380 9d bc 82 3c 68 1f 3a bd c2 1d c4 3a 92 8f ae ba
       0.015959078 -0.045440108 0.0014962482 -0.0013317934
000390 54 ab 8c bc 48 d2 b7 bc 1c 57 04 3d 4c 40 8e 3c
       -0.01717154 -0.022439137 0.032309636 0.017364644
0003a0 05 5e c5 3b 57 97 01 3d 75 ca 0c 3d ec 62 0d 3d
       0.006023171 0.03163847 0.034372766 0.034518167
0003b0 72 03 e6 bc aa ca 12 bd 8d b5 be bc ac 91 4e bd
       -0.028077815 -0.035837807 -0.02327993 -0.050431892
0003c0 fd 93 f2 bc 09 c0 09 bd f9 46 3c 3d 4d 54 6a 3c
       -0.029611582 -0.033630405 0.045966122 0.014302325
0003d0 2c 7d ab bc 6c d6 44 bd b8 3c 8f 3c 03 9f bf 3c
       -0.02093371 -0.04805605 0.017485008 0.023391252
0003e0 57 e1 ac 3b 13 9b c4 bc e3 39 38 39 55 79 1d bd
       0.005275886 -0.023999726 0.00017569172 -0.03844579
0003f0 1d 73 71 3c 53 9a 15 3d ee 6b 06 bc 5d f1 1d bb
       0.014736918 0.03652413 -0.008204443 -0.0024100163

fc2.bias f4 [300]
000000 37 3b 5b bc 33 6d 98 3d 57 a4 ab bb 6e 08 86 3d
       -0.013380817 0.07442703 -0.0052380967 0.065445766
000010 70 cb 92 3d db 73 78 bd 06 d1 03 b8 29 77 42 3d
       0.07167709 -0.060657363 -3.1427502e-05 0.04747692
000020 95 08 cb bc 63 bb 7d 3d 01 18 8f 3d 9a 3c 7e 3c
       -0.024784366 0.061946284 0.06987 0.015517378
000030 19 96 73 3d ec bb 50 bd 0b 6d 95 bc 98 e5 24 bd
       0.059469316 -0.050960466 -0.018240472 -0.04025802
000040 b2 01 85 bd d7 01 85 3c 3b ef 5a bc 79 c7 d8 3c
       -0.06494464 0.016236229 -0.013362701 0.026462303
000050 e5 02 56 bd fd c6 15 bc db 57 10 bc 3c 0e 92 3c
       -0.052248854 -0.009141681 -0.008810009 0.017829053
000060 5d eb 7a bd 0f b4 0e bd d1 bb 9c 3c 4c 6f 6b 3d
       -0.061259616 -0.034839686 0.019132527 0.057479188
000070 23 91 7f bd f1 cc 31 3d 67 92 56 bd c5 83 f7 bd
       -0.062394273 0.043408338 -0.052385714 -0.1208568
000080 42 e0 c5 bc 3f 24 92 bb fe 6d 74 bb 6d 4e 0e be
       -0.024154786 -0.0044598873 -0.0037297006 -0.13897105
000090 e1 8d d1 3c c0 c0 b6 3b 46 96 ba 3d 0c 41 00 3d
       0.025580348 0.005577177 0.09110694 0.031312034
0000a0 4b e8 df 3b 66 f5 b1 bc 38 0d e0 3d bb 4b 0a 3c
       0.0068331114 -0.02172346 0.10940021 0.008440907
0000b0 d6 af 91 3d 13 ea 9c 3d c4 f5 85 3a fb 1b af 3c
       0.07113616 0.076618336 0.0010220339 0.021375647
0000c0 ff 8e 76 3d 56 66 7c bd 06 c2 90 3c ff e9 a4 3d
       0.060194965 -0.061621033 0.017670643 0.08052444
0000d0 3e e1 27 3d 72 97 0c bd a7 43 43 3d 83 65 c4 3c
       0.040986292 -0.034324117 0.04767194 0.023974186
0000e0 fb 97 a1 bd 2a 3a 13 3d a5 38 82 bd ac ef 85 3d
       -0.07890316 0.03594414 -0.0635846 0.065398544
0000f0 ad 79 9c bb 0b 88 49 bd 19 da 45 3d 2f 12 03 3c
       -0.004775247 -0.049202006 0.048303697 0.007999941
000100 78 83 aa bd e0 95 44 bd 79 d8 96 3d 21 11 00 be
       -0.08325857 -0.047994494 0.07365508 -0.12506534
000110 42 d9 c6 bb ce bc 3e bc b9 ff 76 3d 52 51 af bc
       -0.0060683796 -0.011641694 0.06030247 -0.021401081
000120 2c 48 1f 3d 7a 45 90 bd fb 62 49 bd f3 30 48 bd
       0.038887188 -0.070445016 -0.04916666 -0.048874807
000130 73 73 04 be 5d 42 ee 3c 8f f3 78 3d 46 06 dd 3a
       -0.12934665 0.029084379 0.06077915 0.0016862832
000140 98 ae a7 3d d0 e2 f7 3c 76 42 3d 3c 38 ac 65 bd
       0.08187598 0.03025952 0.01155149 -0.056072444
000150 88 5b 89 3d 26 5f 06 bd 58 80 ed bc 2c e7 03 bc
       0.06706911 -0.032805584 -0.028991863 -0.008050721
000160 d2 45 14 bd 5e 1c 52 39 d2 52 5f 3d b2 2c 9b 3d
       -0.0361994 0.00020037728 0.054522343 0.07576884
000170 78 3c 19 3b db 68 4c 3b 70 97 00 bd 8d 6f 76 bd
       0.002338199 0.0031190428 -0.031394422 -0.060164977
000180 cd c2 54 3d aa 15 be 3c 30 e4 d7 3c c3 79 ec 3c
       0.05194359 0.02320369 0.026353925 0.028866654
000190 78 31 73 bb 7d ed 05 3d 0d bf 48 3c e9 0a 78 bc
       -0.0037108343 0.03269719 0.012252581 -0.01513932
0001a0 81 0f 59 3d 23 fd bc 3d e9 49 03 bb c2 3f 82 3c
       0.0529933 0.092279695 -0.0020033068 0.015899543
0001b0 a2 af af bc 0e 74 37 3d 0b d0 77 3d 80 7d 93 3c
       -0.021446053 0.044788413 0.06050114 0.018004179
0001c0 60 22 42 3d 92 80 5d 3c d4 97 11 3d 19 5f 2b 3d
       0.047396064 0.013519423 0.035545185 0.04183874
0001d0 35 6f e1 bc e9 4b 43 bc d2 68 e2 3c 07 1b 0f bc
       -0.027518848 -0.011919954 0.027637873 -0.008734471
0001e0 41 b2 a6 3d 11 ed 1e 3c 43 ca af 3a b8 c6 9c 3c
       0.08139468 0.009700076 0.0013411719 0.019137725
0001f0 6a 87 24 3c 5e ed 16 bb d8 ce 71 3d 61 81 91 3d
       0.010042051 -0.0023029665 0.059035152 0.07104755
000200 3c 02 5e 3d 33 0b 3b bd cf 6d 30 be 13 b3 57 bd
       0.05420135 -0.045664977 -0.17229389 -0.052661013
000210 af 5e de bb 83 dd b0 3c 0e fe 7c 3d 91 97 99 bb
       -0.0067861895 0.02159 0.061765723 -0.0046872576
000220 4e 03 f9 3c 01 df 81 bc 30 8a bc bb fc 1e d2 3d
       0.030397084 -0.015853407 -0.005753778 0.10259816
000230 2f 7b 33 bd d2 9b 9e bc 58 ef 14 bd b0 0d 0e bd
       -0.04381865 -0.01936141 -0.03636107 -0.034681022
000240 fb d8 e0 bd 4a b2 29 3d 06 48 87 3d b8 29 05 3e
       -0.10978886 0.041429795 0.06605534 0.13004196
000250 6f 6d 43 3c 9c 53 cd 3c ab 36 2f bd 3c 20 6f 3d
       0.0119279465 0.025064282 -0.042776745 0.05838035
000260 d6 a8 43 3d 8d a9 53 3d 18 32 4f 3d 37 83 7d 3d
       0.047768436 0.051675368 0.050584882 0.061892714
000270 4c 07 e1 bc 69 a7 d4 3c 64 47 b0 bd 2f fe 80 bc
       -0.0274693 0.025958734 -0.08607367 -0.015746204
000280 fe 39 9a 3d 59 0d 1d 3d 0f 6b 59 3c df fa ac 3c
       0.075305924 0.038342807 0.013270154 0.021115718
000290 ba 1f 1b 3d 2a 69 cf bb aa 61 4f 3d 0b 8d 34 bd
       0.037872054 -0.006329675 0.05063025 -0.04407982
0002a0 dc 35 cb bd fb ca 45 bd 04 ea d5 3c fe 13 51 3d
       -0.09922382 -0.04828928 0.026112564 0.051044457
0002b0 a3 48 19 bd 19 a2 8c 3c a8 14 0d bd 30 e9 99 bc
       -0.037422787 0.017167138 -0.034443527 -0.01878795
0002c0 55 33 19 3c b0 fc dc bc c5 d1 6d 3d 76 b8 b5 bc
       0.009350617 -0.02697596 0.05806138 -0.022182684
0002d0 22 34 d6 3c 83 b3 0b bd f9 a1 2d 3d e7 37 b6 bc
       0.026147906 -0.034106743 0.042390797 -0.022243453
0002e0 31 f6 71 bc 9c 4e 04 3d 68 1e 8e bd c5 e0 3d bd
       -0.014768169 0.03230153 -0.06939393 -0.046356935
0002f0 a7 d5 d0 3d 35 83 26 3d 74 9c f7 3b 3e fd 33 3d
       0.10197001 0.040652473 0.0075564925 0.043942682
000300 24 a5 67 bc 56 25 9a 3c f4 c8 f1 3b ad 0c 4f bc
       -0.014138494 0.018816631 0.007378692 -0.0126372995
000310 6b fc ce bb a4 16 11 bd 87 4b c6 3c 96 3c 9d 3d
       -0.0063167117 -0.035421982 0.024205936 0.076775715
000320 ce a0 96 bb 49 e0 3c 3c 33 09 0c 3d f4 17 4f 3c
       -0.004596806 0.011528083 0.03418846 0.012639988
000330 49 f3 7d 3b 9e 39 07 bb f0 f5 34 3d 08 58 8a bc
       0.0038749746 -0.0020633708 0.044179857 -0.01688768
000340 98 71 b6 bc ca da e6 bd 85 39 ae 3d 12 19 8a 3c
       -0.022270963 -0.112721995 0.08507065 0.016857658
000350 c7 34 93 3c 0a ce 95 bc f9 73 53 3d b5 59 95 3c
       0.017969502 -0.018286724 0.051624272 0.018231252
000360 d8 e3 af 3c d6 44 82 3c 89 c4 bc 3c 49 9b 61 bc
       0.021470949 0.015901964 0.023042934 -0.013769933
000370 c4 a7 9d 3d 59 b7 81 3d 60 da d5 bb 1a 14 98 3d
       0.076980144 0.06333799 -0.0065262765 0.07425709
000380 32 35 0a 3d de d9 63 bd d3 6d f5 bc 07 bd a8 3d
       0.033742137 -0.055627696 -0.029959595 0.08239179
000390 c5 47 80 3d 5c 7f 64 3d 06 a9 83 3d 04 f2 af 3c
       0.06263689 0.055785522 0.06428723 0.021477707
0003a0 17 c8 27 bd 10 92 99 3c 49 5c 4a bd 01 28 93 bd
       -0.040962305 0.018746406 -0.049404416 -0.071853645
0003b0 06 bb 47 3b 6f c1 69 3d 3e ac 2f be c5 d4 14 bc
       0.0030476465 0.05706924 -0.17155549 -0.009083931
0003c0 74 30 91 bc 87 dc d7 3c 93 ca 40 bd 17 a2 27 bc
       -0.0177233 0.026350273 -0.04706819 -0.010231516
0003d0 de 80 46 3d 5d cd a8 bd 52 44 8f bc f3 a2 be 3d
       0.04846274 -0.08242295 -0.017488632 0.09308424
0003e0 5f d2 11 3d 76 9f b4 3d d9 f5 14 3d d5 1a 34 bb
       0.035601016 0.08819477 0.03636727 -0.0027481813
0003f0 70 72 cb bc f8 87 3b bd 4f 35 07 3d ed d5 87 bc
       -0.024834841 -0.045783967 0.033009823 -0.0165815

fc3.weight f4 [2, 300]
000000 a4 de a9 ba a1 53 24 be 41 6b 7b 3e 10 64 f9 bd
       -0.0012960029 -0.16047527 0.24552633 -0.121772885
000010 aa c5 05 3e 84 75 ab 3e 76 c3 5a 3e 51 d1 17 3d
       0.13063684 0.33488095 0.21363625 0.037064854
000020 ac f1 56 3e 36 e4 cc be 89 77 b2 bd 5b 06 89 be
       0.20990628 -0.4001786 -0.08714206 -0.2676266
000030 5d 30 b5 be a4 0f c6 bb 0e 82 86 be fd 08 9e 3e
       -0.3538846 -0.006044345 -0.262711 0.30866233
000040 98 74 b4 be 25 3b db bd 79 d2 6c bb 0f 9c 3f bf
       -0.35245204 -0.1070464 -0.0036136194 -0.748475
000050 7e 06 08 3f e9 eb c7 3d ed 96 08 3b 96 d4 0b 3e
       0.53134906 0.09761793 0.0020841912 0.13655314
000060 77 8e 64 be a3 ff 3a be c6 8f 7e be e5 e3 d8 3c
       -0.22319971 -0.1826158 -0.24859533 0.026475856
000070 d0 bd 83 3e fe 0f d5 be 7e d0 a2 3e 0a 2c 0a bc
       0.25730753 -0.41613764 0.31799692 -0.008433351
000080 4c 81 08 be 0b 5a e9 3d ee bd c5 be 25 ee c0 3e
       -0.13330573 0.113941275 -0.38621467 0.3768169
000090 f5 61 ad 3e 36 09 8f 3e 19 ce 41 3e f1 cf ad 3e
       0.33863798 0.27936715 0.18926276 0.3394771
0000a0 23 9a 9c bd c6 85 d3 3e 0f 19 e7 3d 7e 5f 1f bc
       -0.07646587 0.41313 0.112840764 -0.009727357
0000b0 03 5d 65 be ca c6 8a 3d 64 ea ab 3d 19 a1 07 bf
       -0.22398762 0.06776197 0.08394316 -0.5298019
0000c0 c9 92 d5 3d 7c 08 db be 10 bf c2 bd 4c 37 9c be
       0.10428388 -0.4277991 -0.095090985 -0.30510938
0000d0 53 23 ec be 13 ad d3 be 33 41 a7 be bb 95 33 3e
       -0.461207 -0.41342983 -0.3266693 0.17537586
0000e0 fe eb 1b bd 3d 96 a4 be 0d d4 55 be aa e5 87 3e
       -0.038066857 -0.32145873 -0.20881672 0.26542407
0000f0 18 b5 43 be 05 2f f4 ba 18 3b ff 3d 89 65 2f bf
       -0.1911205 -0.0018629736 0.12462443 -0.68514305
000100 b3 cc 0b bf 6f 87 2c 3e 40 05 09 be 7d b8 a3 3d
       -0.5460922 0.16848539 -0.13380909 0.07994173
000110 af ce 9d 3d 4d 2d 7e bb 18 f3 5b be 97 c7 47 be
       0.077054374 -0.0038784326 -0.21479452 -0.19509731
000120 3e 3d d1 3d 10 82 cb 3e 09 a5 f3 be be 4b f9 bd
       0.10216759 0.39747667 -0.4758685 -0.1217265
000130 e0 3a d1 3c 26 b2 25 bd fe c4 db bd bd 0f 56 be
       0.02554077 -0.0404531 -0.10730933 -0.20904441
000140 33 70 47 3e 79 17 9e bc 7b 5b 2c 3e 2b c2 63 be
       0.19476394 -0.019298302 0.16831772 -0.22242038
000150 08 2b 8d 3e c3 54 37 be 6a c5 14 3f fa 81 b6 3e
       0.27571893 -0.17903428 0.5811373 0.3564604
000160 52 2e b1 3e 23 ce 09 3d ad e8 00 3e 65 15 63 3e
       0.34605652 0.033643853 0.12588759 0.2217613
000170 e9 aa 91 bc e8 92 9c 3e bc 99 3f bd 75 06 3c 3d
       -0.017781692 0.3058083 -0.046777472 0.045904595
000180 cf fc 34 3e 56 e0 44 3b a3 58 22 3d 22 84 9a be
       0.17674564 0.0030040941 0.03963531 -0.30178934
000190 31 8f dd be e8 4b 09 3c 66 e0 55 3a ba 0f cc 3e
       -0.4327331 0.008379914 0.0008158743 0.39855748
0001a0 20 b5 a4 be d2 61 83 be 77 0b 50 3e e6 10 de be
       -0.32169437 -0.25660568 0.20316873 -0.43372267
0001b0 8c 95 9e bd ad 4b 25 bd 60 91 21 be 70 20 81 be
       -0.077433676 -0.040355373 -0.15778112 -0.2522006
0001c0 c3 a3 95 be 31 64 97 3b 70 bb a2 3e 1c 2c ed ba
       -0.29226503 0.004620098 0.31783628 -0.0018094811
0001d0 80 b2 75 3b 5c 56 1a 3e 99 61 fc bd ba d9 4a be
       0.0037490427 0.15072006 -0.12323303 -0.19809619
0001e0 e9 39 f3 3d a3 c1 57 bf fb 4a 86 be 26 68 60 be
       0.1187628 -0.8427984 -0.2622908 -0.2191473
0001f0 aa 2e 18 3f f1 2e e0 be 61 e9 dc 3c 47 0b 00 3e
       0.59446204 -0.43785813 0.026966752 0.12504302
000200 06 1b 08 be 1e 91 a6 be 3a 2f 5d be 8c 55 bc bd
       -0.13291559 -0.3253259 -0.21600047 -0.09196004
000210 90 90 cd 3e 42 83 25 3e 61 49 88 3e 0a 3b 5d 3b
       0.40149355 0.16163352 0.26618484 0.0033757114
000220 dc 19 a8 be c3 32 84 be ad 63 ee bd fa 1b 07 bf
       -0.3283223 -0.25819978 -0.116401054 -0.52777064
000230 26 33 0b 3f d3 32 e8 3e 7e 2c 76 bd 1d b1 44 3e
       0.5437492 0.45351276 -0.060101025 0.19208188
000240 93 fa ef be 71 7a 8a 3d 45 80 0e 3e 40 f2 3a bf
       -0.4687086 0.06761635 0.13916118 -0.73025894
000250 37 32 02 3e 2a e2 b5 3e 17 fa 9d 3e 6a e8 74 be
       0.12714468 0.35524112 0.30854866 -0.23916784
000260 63 e4 b6 3e 7f bd c2 3a 78 be 44 be 03 8d fc bd
       0.3572112 0.00148575 -0.19213283 -0.12331583
000270 90 44 13 be da a2 03 3e 50 93 0c bf 01 e7 03 3e
       -0.14381623 0.12855092 -0.5491228 0.1288109
000280 e0 21 ee bd ce 01 11 3e c5 de c3 3e b7 20 50 3d
       -0.11627555 0.14160845 0.38255897 0.05081245
000290 74 44 8e bd 92 39 15 be f2 7b 4c bc 8d 1f e4 be
       -0.0694665 -0.14572743 -0.012480723 -0.4455532
0002a0 c4 9f 28 be 19 83 11 bf a9 b7 18 3e fa 3d 84 be
       -0.16467196 -0.56840664 0.14913811 -0.25828534
0002b0 70 35 05 bf 28 81 a3 39 d8 0b 21 3e e3 f0 4e be
       -0.52034664 0.00031186012 0.15727174 -0.20209078
0002c0 c8 62 ba 3e 78 a8 a0 3e 47 ff 24 be 20 ad 94 3d
       0.3640349 0.3137853 -0.16113006 0.072595835
0002d0 47 16 50 3e 99 9e cf bb 27 88 64 be 67 65 d7 be
       0.20320998 -0.006336045 -0.22317563 -0.4206955
0002e0 32 7c 32 b9 56 be 5a 3e 03 09 0e 3e 4e 4a 9f 3e
       -0.00017021669 0.2136167 0.13870625 0.31111377
0002f0 65 00 3f 3f a8 ca d5 be 9d 2f 1d 3e 26 df f2 3e
       0.74609977 -0.41756177 0.15350194 0.47435874
000300 17 70 a7 bc f5 2b 83 3e a2 58 da be ac 42 a1 3e
       -0.02043919 0.25619474 -0.42645746 0.3149618
000310 c5 12 67 bc 36 7e 9a 3b c4 03 a6 be 35 af 4f 3e
       -0.014103596 0.0047147525 -0.32424748 0.2028168
000320 90 ac d0 3e 09 6c 6c 3e 7e 9b 36 3e e2 0e 36 3d
       0.40756655 0.23088087 0.17832753 0.044447787
000330 05 ac 9d be 9a 08 0f 3f 90 23 e7 bd c0 86 9d be
       -0.30795303 0.558725 -0.1128608 -0.3076687
000340 95 fc 8b 3d f5 49 58 bf 73 f4 8e bb 09 a0 e7 bd
       0.068352856 -0.8448785 -0.0043626367 -0.11309821
000350 50 fa 9b 3c 98 bd 08 be 8f af 18 be c4 f6 4e bd
       0.019040257 -0.13353574 -0.1491072 -0.050528303
000360 0f cf ff be 7c 4d 89 3e 74 30 6a be d8 99 36 bd
       -0.4996266 0.26816928 -0.22870046 -0.04458031
000370 6e 92 ba be 8b ec b4 3e f6 b6 97 bc 2c bd 44 be
       -0.36439842 0.35336718 -0.01851986 -0.19212788
000380 42 b7 1d bf 40 43 4b bc ac c2 eb 3a 76 69 c4 be
       -0.61607754 -0.01240617 0.0017987094 -0.3836171
000390 72 10 f7 3e 0a e7 2f bf c0 9d 64 be db e1 e9 bd
       0.48254734 -0.6871191 -0.22325802 -0.11420032
0003a0 a2 65 ef bd ed 8a 18 3e c8 36 e8 ba 1f b9 73 bd
       -0.11689307 0.14896746 -0.0017716521 -0.059502717
0003b0 78 75 1f 3e 79 c1 04 3e 56 ab e5 3e 9d 19 1f 3e
       0.15572155 0.12964429 0.4485728 0.15537114
0003c0 50 8b 37 3b 97 5a 80 be 3c 34 34 bc e8 ef fd bd
       0.002800662 -0.25069115 -0.010998782 -0.12399274
0003d0 33 ee 6e bc 7d 0f a7 3e be e0 0d bb 95 58 20 be
       -0.014583158 0.32629004 -0.002164885 -0.15658791
0003e0 7b b9 49 3e eb e3 e8 be 76 8d 55 be 09 7c 04 3f
       0.19699661 -0.45486388 -0.20854744 0.5175176
0003f0 ca d7 05 be 93 f3 52 3e d2 fd b9 ba e5 af 89 ba
       -0.13070598 0.20600729 -0.0014190024 -0.0010504691

fc3.bias f4 [2]
000000 06 28 80 3d a4 fb 09 bd
       0.06257634 -0.03368725
