OurCode/actor_ddpg.pt (torch_old, 499033 bytes, 6 tensors)

fc1.weight f4 [400, 8]
000000 a7 68 ff bc 9c ec 94 be 0f ec e2 be e9 dc c8 bc
       -0.031177832 -0.2908677 -0.44320723 -0.0245194
000010 c2 88 b6 be 3b 9f 99 be e5 cf 92 3e e3 ea 6d be
       -0.35651213 -0.30004296 0.28674236 -0.23234133
000020 60 8f d3 3b ca 3c 6e bd e6 c0 d9 be ae 30 2c 3f
       0.0064563006 -0.05816344 -0.42529982 0.6726178
000030 dc 57 2b be 80 28 da 3d 6d cf 7c be a7 98 5b be
       -0.16732734 0.10652256 -0.24688502 -0.21444951
000040 f9 46 09 be e9 0e f9 bd 34 57 78 3d 4e ed 12 3f
       -0.1340598 -0.12161047 0.06063004 0.5739335
000050 61 f0 3b 3e e9 c1 40 3e fe b7 79 bf 3f 99 ad be
       0.18353416 0.18823971 -0.97546375 -0.3390598
000060 7e cd 77 3e 35 4b 3a be 57 15 3f 3e 34 8e a3 3e
       0.24199483 -0.18192752 0.18660484 0.3194443
000070 22 65 17 3f 2e dd c6 3e d9 34 f8 3e e2 99 67 3e
       0.5913869 0.38840622 0.4847782 0.22617295
000080 ae 56 2b 3e f6 f8 06 3c e2 46 e4 3e 42 b9 5a 3e
       0.16732284 0.008238068 0.4458533 0.21359733
000090 4b a1 81 be 86 6b 33 3f bc 06 77 be 62 b1 7b be
       -0.2531837 0.7008594 -0.24123663 -0.24579385
0000a0 eb 05 d3 bd b6 d2 82 3e 40 2c 7c 3e bb f4 62 3e
       -0.10303863 0.25551385 0.24626255 0.2216367
0000b0 f9 ae ce be 32 8c dc 3e 42 00 63 bf ec 1b 95 3d
       -0.4036787 0.4307571 -0.8867227 0.07280716
0000c0 ec 7e 94 be 79 ea 2c be f8 1b ee bd 81 12 bd be
       -0.29003084 -0.16886319 -0.11626428 -0.3692818
0000d0 b2 2e b7 be 72 d6 e9 3e 23 09 21 bf 2b d8 24 3e
       -0.35777813 0.4567142 -0.62904567 0.16098087
0000e0 56 7c 58 be b6 87 29 3d 36 4f 8d 3d 21 78 f7 3d
       -0.2114118 0.04138919 0.06899874 0.1208346
0000f0 98 97 c6 be c0 a2 9e bb 97 14 b0 3e c5 d1 31 3e
       -0.38787532 -0.0048411787 0.3439071 0.17365177
000100 b6 ba 10 3d 3b 1a 27 bd 89 d1 4e be ab 25 27 bf
       0.03533431 -0.0407965 -0.20197119 -0.6529185
000110 72 75 de 3d fe bf 5f be 1b cb b6 bd a7 fe 79 3e
       0.10862245 -0.21850583 -0.08925458 0.24413548
000120 61 08 0b 3d b6 28 fe bc ef 9f ea be e3 93 45 be
       0.033943538 -0.031025272 -0.45825145 -0.19294696
000130 a4 ec 67 3d db b9 ae 3e 95 7a 34 bf 3e cb c9 bd
       0.056622162 0.3412617 -0.70499545 -0.098532185
000140 1b 81 2b 3e 63 7d 72 be 97 17 bc 3e 39 ef 07 3f
       0.16748469 -0.23680644 0.36736748 0.530994
000150 14 44 b5 be f7 df 9a 3c c8 2f 59 3e 88 af c6 3e
       -0.35403502 0.018905623 0.21209633 0.38805795
000160 3b be ef be cc 12 7b be c3 27 d4 be 65 bf aa be
       -0.46824822 -0.24518889 -0.41436586 -0.33349147
000170 a8 28 34 be 1c b0 cc bd 10 1f b3 3e 47 4e d2 3c
       -0.17593634 -0.09994528 0.34984636 0.025672091
000180 a4 06 5f 3e 17 9e 18 bd 37 7e 01 be ec d8 bb bc
       0.21779877 -0.03726014 -0.12645803 -0.022930585
000190 8a fd 9c 3e 24 e0 16 bf ec f7 14 bf bb 00 ea 3d
       0.30662185 -0.5893576 -0.581908 0.114259206
0001a0 c7 c8 7b bd 71 a1 dc 3e 7f 57 3a 3f e3 7f 71 3d
       -0.061470773 0.4309192 0.7278976 0.058959853
0001b0 ae a5 ac be 2e d6 fb be be 44 21 3d db 0f a2 be
       -0.33720154 -0.49186844 0.0393722 -0.31652722
0001c0 52 0b ab bc d2 a2 09 be 69 64 80 3e 41 07 c2 be
       -0.020879421 -0.13441017 0.25076607 -0.3789616
0001d0 ed 0f f4 be ce 3c dd be 29 d7 e6 be 9c 41 75 3c
       -0.476684 -0.43210453 -0.4508603 0.014969256
0001e0 cc 76 9c be 7c 56 2e be 35 10 00 be 82 82 ac be
       -0.30559385 -0.17025179 -0.12506182 -0.3369332
0001f0 dd 28 1c 3f 4d 02 9b 3e 36 ef 1d be a1 a6 ce 3d
       0.6099985 0.30275193 -0.15423283 0.10090376
000200 90 dd 78 3e 4a c7 41 3e b1 5f 04 3f 80 8d 4e 3f
       0.2430327 0.18923679 0.51708513 0.8068466
000210 ad d6 e0 3e ce 6b 44 be 09 a9 36 bf c6 86 83 3c
       0.43913785 -0.19181749 -0.7135168 0.016055476
000220 fe 19 45 3e 7a 4c ef be fa a9 e7 be 89 ae b5 be
       0.19248196 -0.46738034 -0.4524687 -0.35484722
000230 69 39 93 3e 76 2e a6 3b 16 ad bd be 73 7f e5 3e
       0.28754738 0.0050714565 -0.37046117 0.448238
000240 7f c6 b2 be 6e 64 a6 bd b1 a9 9a 3e 2f c0 59 bd
       -0.34917066 -0.08124624 0.3020759 -0.053161796
000250 81 24 4e 3e c6 2d 11 be 23 61 56 3f 2d fb 86 bd
       0.20131113 -0.14177617 0.8374197 -0.06590877
000260 fe e1 2b be 83 67 68 be 5d ff 60 3e 54 42 6e be
       -0.16785428 -0.22695737 0.21972413 -0.2326749
000270 12 ed 58 3e 57 0f 0b 3e 2d 36 3a be cd ff 19 be
       0.21184185 0.1358007 -0.18184729 -0.15038987
000280 44 74 99 be 57 6f 30 be 19 b8 1a 3e 29 99 3b be
       -0.29971516 -0.17229973 0.1510929 -0.18320145
000290 2d 03 af bc fb 26 e6 3e 4c 8e 28 3e 31 7c 15 3e
       -0.021363819 0.44951615 0.16460532 0.14598157
0002a0 be 6e aa bd a8 e8 cf be 94 87 9c be 46 76 20 bf
       -0.08321904 -0.4060719 -0.30572188 -0.6268047
0002b0 f3 2f 47 be 3b 9a 16 be 6c df 14 bd 6a d9 1e 3e
       -0.19451885 -0.14707272 -0.036345884 0.15512624
0002c0 76 cc 74 3e 71 77 00 3e 78 8d 13 3f 9f 9d f8 3e
       0.2390612 0.12545563 0.5763774 0.48557755
0002d0 ec a3 66 bd 20 88 3a 3e c7 0f a1 3d b4 aa 89 3e
       -0.05630867 0.1821599 0.078643374 0.2688805
0002e0 7a 2b f1 3d 56 26 81 be 7f 7b 9b 3e 05 07 17 bf
       0.117758706 -0.2522456 0.30367658 -0.58995086
0002f0 e1 31 ff 3d 66 5e 6f be 43 93 ca 3e d8 7a 22 3e
       0.124606855 -0.23375854 0.39565477 0.15867174
000300 e5 10 91 3e 85 ba 4c 3c 59 6f a5 bd 33 17 2f 3d
       0.28333202 0.012495642 -0.080778785 0.042746734
000310 24 3e 56 3e 1b 24 90 be 8a b8 1f 3f 85 e9 ed be
       0.20922142 -0.28152546 0.6239096 -0.46467224
000320 41 29 92 bd ac 21 99 3e 1b 94 0c 3f 7c 9f d3 be
       -0.07136775 0.29908502 0.5491349 -0.41332614
000330 65 9b 80 3e 7d 9e ba be 4e 0f 1b bc f0 19 54 be
       0.25118557 -0.36449042 -0.009464098 -0.2071302
000340 45 46 db 3c 84 6b 37 3c 63 b5 25 3e 4f 2e 5c 3f
       0.026766906 0.011195067 0.16182475 0.8600816
000350 c2 b8 37 be bc cd d7 3d 93 29 d2 3e 48 8f 0a 3e
       -0.17941573 0.105372876 0.41047344 0.1353122
000360 6c e2 03 be ad 1c 70 be 0d e5 43 bd 98 7d 5f bd
       -0.12879342 -0.23448439 -0.04782586 -0.054563135
000370 76 c2 d3 be f5 86 a7 3d 23 17 b7 bd c6 17 91 3d
       -0.413593 0.08180038 -0.0893996 0.070846125
000380 ac ef 0e be d4 9e 81 3e d6 99 1b 3e 69 54 ff bd
       -0.13958615 0.2531649 0.15195403 -0.12467272
000390 93 73 41 bd 64 11 fe 3e 7b 73 00 bf 9b b7 88 bd
       -0.04722936 0.49622643 -0.5017621 -0.06675645
0003a0 61 50 3d 3e 90 a2 b5 3e 72 ad 9c 3c 26 6d da 3e
       0.18487693 0.35475588 0.019125674 0.426614
0003b0 e4 be a9 3d 2e 4d c0 bd 93 a7 1d be 39 31 82 3e
       0.082883626 -0.09389721 -0.15395956 0.2542818
0003c0 00 dc c4 3d 54 a6 40 3e 99 d9 9c be c3 17 d8 3d
       0.09612274 0.18813449 -0.30634764 0.10551407
0003d0 cd 42 65 3e da a1 e6 be fd 28 42 3f 04 29 8a be
       0.22388764 -0.45045358 0.75843793 -0.26984417
0003e0 e8 77 90 3d c1 4a cd be c3 20 87 be ec 80 ab 3d
       0.0705412 -0.40096095 -0.26392183 0.08374199
0003f0 0f 95 dd 3e b1 96 c3 3e d7 07 85 3d 99 ef 0f be
       0.43277785 0.38200906 0.06495636 -0.14056243

fc1.bias f4 [400]
000000 37 c7 6a be 6f 94 8e 3c 6c fd f3 bd 23 5d 49 be
       -0.22927557 0.017404763 -0.11913571 -0.19664435
000010 e8 51 03 be f8 6a 71 3c 42 b4 76 bd 95 d1 d2 be
       -0.12824214 0.014734976 -0.0602305 -0.41175523
000020 38 b8 02 bc b0 e5 65 3e b5 eb 25 3e f8 9e 06 3e
       -0.0079784915 0.224509 0.16203196 0.1314658
000030 1c 61 7e be 23 69 0d bd 70 d4 bb bd 49 f4 9a 3d
       -0.24841732 -0.034524094 -0.091713786 0.07566125
000040 5a 17 02 3e 27 81 a0 bd ff 14 52 3e 50 43 49 3e
       0.1270422 -0.07837134 0.20515822 0.19654584
000050 95 10 2e be 7f fd 0f 3e a4 c8 17 3e a3 7d 2d bd
       -0.16998513 0.14061545 0.14822632 -0.042356145
000060 a0 cc 16 be 13 14 88 be ed 7d 51 3e c9 a8 01 3e
       -0.14726496 -0.26577815 0.20458193 0.12662043
000070 2c ae af 3e e1 62 5b 3e d9 25 0a 3e 1b 7c 8c bd
       0.3431257 0.21424438 0.13491 -0.06859609
000080 97 f8 03 3e f8 60 cb bd fa 5e 01 3e 04 52 6a be
       0.12887798 -0.09930605 0.12633887 -0.22882849
000090 28 ab eb bc d1 42 eb 3d 5f 45 76 3e 96 25 d0 bc
       -0.028768137 0.114873536 0.240499 -0.025408547
0000a0 87 95 69 3d 03 10 22 be be 57 2d 3e 91 1f 1b 3e
       0.057027366 -0.1582642 0.16928002 0.1514876
0000b0 82 85 24 3d cf 58 ee be 19 c4 b6 be 17 ae 70 3e
       0.040166385 -0.4655213 -0.35696486 0.2350391
0000c0 f3 12 45 3c f2 3e fc 3d 93 4c 54 3e fd cd 7d bd
       0.012028444 0.12316693 0.20732336 -0.061964024
0000d0 47 0b f6 bd 38 4b 8d be a6 77 78 3d 32 27 7d 3e
       -0.1201387 -0.2759645 0.06066098 0.24721983
0000e0 62 17 52 3c e9 a2 c5 be 1d 95 c8 be d2 b1 93 bc
       0.012822958 -0.38600853 -0.39176264 -0.018029127
0000f0 38 93 37 3e e8 27 9e be f2 ce 69 be c0 d1 76 be
       0.17927253 -0.3088982 -0.2283285 -0.24103451
000100 bf 85 f8 3d 27 85 8a 3e f8 b9 81 be b2 3f db bd
       0.12134885 0.27054712 -0.25337195 -0.10705508
000110 0e 60 9b be b6 76 6f 3d 12 81 85 bd 8f 08 98 3d
       -0.3034672 0.05846282 -0.06518759 0.074235074
000120 9a da 56 bc 83 f6 57 be 84 23 3e be 10 49 a4 be
       -0.013113642 -0.2109013 -0.18568236 -0.32086992
000130 cc ce 6c be 34 06 13 3e 4d 33 ce bd cb 69 ec bd
       -0.23125762 0.14357835 -0.100683786 -0.11543616
000140 d9 73 9f bd f8 30 c3 3e 97 9d 06 be 77 65 6b 3e
       -0.07785768 0.38123298 -0.13146053 0.22987925
000150 7f 54 5e be 8b 5f 5f be 09 99 b9 3c 7d 65 72 be
       -0.2171192 -0.2181379 0.02265598 -0.23671527
000160 41 55 03 3e 9a 10 bf bb 3d 67 37 3e bd 66 01 3f
       0.1282549 -0.0058308365 0.17910476 0.5054739
000170 30 1d d9 bb 48 6b 4c 3e 8c aa 89 3e 61 fe 1d 3e
       -0.006625794 0.199628 0.2688793 0.15429069
000180 03 18 5c be 55 1e 38 bc 04 68 a3 be 1b 86 81 3e
       -0.21493535 -0.0112377005 -0.31915295 0.25297627
000190 56 33 88 bc 8c c2 46 ba 0c 44 50 be ec 07 8a be
       -0.016626041 -0.00075820903 -0.20338458 -0.2695917
0001a0 17 ef 0f 3e ed af 8b 3e c5 e6 a2 3c 55 68 db 3d
       0.1405605 0.27282658 0.01988543 0.10713259
0001b0 70 cf b8 3e 96 64 b1 3e a8 98 15 bc bb db a5 3e
       0.36095762 0.34647053 -0.009130634 0.32394204
0001c0 3b 97 5b 3d 0e d3 a6 3e a8 12 97 bc 40 c7 9b be
       0.05361102 0.32582897 -0.018441513 -0.30425453
0001d0 72 3e 95 bd 72 5e 29 bd d8 81 5a 3e ff 52 b0 be
       -0.07287301 -0.041349836 0.21338594 -0.3443832
0001e0 89 e2 18 3e 63 f4 95 be 9e 2a 3d bd ad 1e e7 3e
       0.14930166 -0.29288015 -0.04618322 0.4514059
0001f0 2c 71 1a 3e ae 9c 6e 3d fa 03 dc 3c 1a ec 02 be
       0.15082234 0.05825489 0.026857365 -0.12785378
000200 71 9b a0 be e9 96 a7 be b3 09 46 3e 3d 62 a7 3e
       -0.31368592 -0.32732323 0.19339637 0.32692137
000210 83 a8 57 bd ff 49 64 be 2d 06 bb be 61 eb 8a 3d
       -0.05265094 -0.22293852 -0.3652815 0.06783176
000220 ab b7 df 3d 47 44 1b be a2 c3 24 3d 99 76 4d be
       0.10923704 -0.15162764 0.040225632 -0.20064773
000230 7d 9b 20 3e 23 a2 a8 bd a5 3d 15 bd be c4 9e be
       0.15684314 -0.0823405 -0.036435742 -0.31009477
000240 20 5c 38 be a4 06 ef bc e7 32 cd 3c 0c 4e 4d 3e
       -0.18003893 -0.029177971 0.025048686 0.20049304
000250 61 b8 ab be 82 96 d9 3d 15 09 28 3d 23 0c 44 3e
       -0.33539107 0.1062441 0.041024286 0.19145255
000260 c4 7c 87 bd 83 30 5f 3d c5 d1 37 3d 11 99 0d 3e
       -0.06615594 0.054489624 0.044877786 0.13827921
000270 9c 67 10 3c f0 f5 ab 3d 4a 66 72 bd 50 86 49 3e
       0.008813765 0.08396518 -0.05917958 0.19680142
000280 93 66 79 be a3 a6 95 be 06 be 96 be 47 e9 83 be
       -0.24355535 -0.29228696 -0.2944185 -0.25763914
000290 9e 96 6b bd 56 01 1d 3e 5a a9 34 3c 49 08 5e be
       -0.057516687 0.15332541 0.011026705 -0.21682848
0002a0 b5 b1 cb bd c5 8b d0 bd c6 db 84 3e 41 d1 a7 be
       -0.09946004 -0.10182909 0.25948924 -0.32776836
0002b0 97 9d 17 be 95 57 76 be 5a 8a 17 bd ac a8 09 be
       -0.1480621 -0.24056847 -0.036997177 -0.1344325
0002c0 78 45 c9 bc ec 6e 90 3e d4 ef 42 bc a3 21 fd bd
       -0.024569258 0.28209627 -0.011898 -0.12359931
0002d0 c8 d9 9b 3d 90 68 ea 3d 82 47 2f 3e 87 df d1 3d
       0.07609898 0.11445725 0.17117122 0.102477126
0002e0 68 11 f5 bd 70 ce 84 3d a6 1e ac 3e ec ed 79 bd
       -0.119662106 0.06484687 0.33617133 -0.061017916
0002f0 fb 25 9c 3e fd 5c 84 3e 70 0f 20 3d da 49 85 ba
       0.30497727 0.25852194 0.039077222 -0.0010169104
000300 b5 3b 86 be e7 41 34 3e b9 a3 14 3e 8f fd 8c bd
       -0.26217428 0.17603265 0.1451558 -0.068843
000310 95 d0 3c 3c 46 bf 5d 3d e1 b0 fc 3d 9f 31 ab 3e
       0.011524339 0.05413749 0.123384245 0.33436295
000320 95 37 9c 3d 61 9d 4a be eb 6c ca be fe a8 9f be
       0.07627789 -0.19786598 -0.39536223 -0.31183618
000330 4b 38 c6 3d 70 a9 3e 3e 6a 95 3e be 55 ba 26 3e
       0.09678706 0.18619323 -0.18611684 0.16282018
000340 62 8a 3c bd 25 47 86 3d fe d0 7a 3e cb 57 6a 3e
       -0.04603041 0.065565385 0.24493787 0.22885053
000350 2a b3 f6 3d 8b ef ba 3d 61 df 76 be a8 71 50 3e
       0.120458916 0.091277204 -0.2410865 0.20355856
000360 8e ad ee 3d b5 60 d9 bd 99 11 2d be 21 fd 02 3e
       0.11654197 -0.106141485 -0.16901244 0.12791874
000370 9f 98 c8 bd c1 ca 48 be 58 a9 f7 3b 00 66 22 be
       -0.09794735 -0.19608594 0.007558029 -0.15859222
000380 0b 0f 96 3e 43 ac a1 bc 8e 12 c9 bd 6c eb a3 3e
       0.29308352 -0.019735461 -0.09817992 0.3201555
000390 33 cc 8d 3d e3 de 3a 3d 41 e7 86 be f3 68 d6 3e
       0.069237135 0.045622718 -0.26348308 0.41876945
0003a0 23 8c d3 bd 5e 94 1d 3d 22 98 ba 3c a2 f0 af 3d
       -0.10329463 0.038471572 0.02277762 0.08590819
0003b0 3e f8 b0 3e 35 9a 61 be 21 cf 16 bd 50 55 b3 be
       0.34564394 -0.22031482 -0.036818627 -0.35026026
0003c0 80 2c a1 3e f4 49 41 3e ec d6 3a be 9d 90 21 be
       0.31479263 0.18875867 -0.18246049 -0.15777822
0003d0 25 c9 da 3c 6f 70 de 3d 0c e5 8f 3c f3 c1 d1 bd
       0.026707241 0.10861289 0.017565273 -0.10242071
0003e0 52 cb 41 be fb 04 c7 3e e9 43 9d be f5 81 ca be
       -0.18925217 0.38870987 -0.30715874 -0.39552274
0003f0 84 b3 71 bd 04 b9 88 3d 9d fb 68 3d 1a 45 ea 3d
       -0.05900909 0.06675914 0.056880582 0.11438961

fc2.weight f4 [300, 400]
000000 ae 1e 90 3b a1 91 52 bd 95 c1 9c bc de 7e 13 bd
       0.0043981886 -0.051408414 -0.019135276 -0.03600966
000010 73 71 ca ba 86 25 2c 3d 74 3c d3 3b 79 3b 5e bc
       -0.0015445187 0.042027973 0.0064464156 -0.013563984
000020 b7 e2 d0 bc f8 bd 3e bd b1 77 9b 3c 1e 35 05 ba
       -0.025498731 -0.046567887 0.018977972 -0.00050814624
000030 6a 20 42 3b 89 c9 3c bd 14 01 1a bd 74 28 10 bd
       0.002962137 -0.046090636 -0.037598684 -0.03519483
000040 b1 0e 11 bc 0f 97 44 bd b0 0e 27 bd 92 d4 5c bb
       -0.0088536 -0.047995623 -0.04078549 -0.0033696038
000050 43 d2 2d 3d db ca bd bc 82 e5 5f 3c bc cf bb 3c
       0.04243685 -0.023168018 0.013665559 0.022926204
000060 2d af 71 3a a9 9b 55 bc 65 20 2f 3d 6b 22 fb 3c
       0.00092195236 -0.013037601 0.042755503 0.03065606
000070 86 8e d6 39 aa be e0 bc 34 41 1e 3d 28 2d 2c 3c
       0.0004092345 -0.027434666 0.0386364 0.010508813
000080 03 76 39 3d 06 9b 9e bb bc eb af bc e6 3b cf b8
       0.04527856 -0.0048402576 -0.021474712 -9.881686e-05
000090 af 4f 30 bd 3f 42 df bc dd 3e 90 bc 1e 7a b2 3c
       -0.043044742 -0.027253268 -0.0176081 0.021786746
0000a0 a9 7e 72 3c 9e f0 09 3c 61 1d f0 bb 23 59 c3 bc
       0.014800706 0.008419184 -0.007327721 -0.023846215
0000b0 b0 de f9 3c c6 11 ba 3c 1c 62 24 bd fe 86 a6 bc
       0.030501693 0.022713553 -0.040132627 -0.020328041
0000c0 88 8a 0c 3d 0b c3 2a bd 40 24 cf bb 6c 3c d0 3b
       0.0343118 -0.041689914 -0.00632146 0.006354859
0000d0 31 9e 3a bd 3b b2 47 bd 11 ca 3a 3d 82 6c 5b 3c
       -0.04556102 -0.04875396 0.04560286 0.0133925695
0000e0 e5 db 6e 3c 08 d6 2c bd 94 42 f1 ba ee b9 18 bc
       0.014578794 -0.042196304 -0.0018406683 -0.009321673
0000f0 0e 14 cf 3c 8e 73 22 3d 9c e5 fb bc 03 b9 e2 bc
       0.025278118 0.039660983 -0.030749135 -0.027676111
000100 49 6b 9c bc ef 76 54 bd 1a 2a f9 bc 9f ee ca bc
       -0.019094126 -0.051871236 -0.030415583 -0.024771987
000110 27 83 17 bb b2 4e f5 3c ae 91 10 bd 91 d3 4e 3c
       -0.0023118944 0.029944751 -0.03529518 0.012623684
000120 ee af a7 bc e6 56 a4 3b 9d 26 55 bd 59 89 2b bd
       -0.020469632 0.005015242 -0.052038778 -0.04187903
000130 9f b2 c7 bb c9 d7 bc bc 88 98 0b bd 1e bc 04 bd
       -0.0060942913 -0.023052113 -0.034081012 -0.032405965
000140 03 12 4a bd 0f 86 eb bc 93 d8 38 bd 10 a4 30 3c
       -0.049333584 -0.028750448 -0.045128416 0.010781303
000150 21 3f dd bc 5f 6f ae 3c c5 49 59 bd 0f 8e 19 3d
       -0.027007641 0.02129334 -0.053048868 0.037488993
000160 d5 71 2c bd 8c 8b d7 bc d6 56 2e bd 80 eb 0d 3b
       -0.042100746 -0.026311658 -0.042563282 0.0021655262
000170 d4 84 07 3d c7 1a a8 3c 0c 67 15 bd 44 00 af 3c
       0.03308566 0.020520581 -0.036475226 0.021362431
000180 ca 14 9c bc 3f 4e 37 3d 43 7e 57 bd 5d 37 a3 bc
       -0.019052882 0.044752356 -0.052610647 -0.01992386
000190 59 34 38 3c aa 68 d5 3c 9e da 62 3c fe ce 12 bd
       0.011242949 0.026050884 0.013846068 -0.035841934
0001a0 8f f5 c2 3c 18 ff 04 bd c3 1f 1b 3d 70 96 dc 3b
       0.023798732 -0.03246984 0.037872087 0.0067318007
0001b0 bd 1f f6 3c db 95 a6 bc 40 0b 24 bd 1a 5f 20 3d
       0.03004443 -0.020335129 -0.04004979 0.039153196
0001c0 ba 1d 3c bd a7 f6 b9 bc 30 ae e5 3c a7 28 d5 bc
       -0.045926787 -0.02270062 0.02803716 -0.026020361
0001d0 a8 6e e7 3c f1 95 0d bc 3b 39 03 3d 26 00 34 bd
       0.028251007 -0.008641706 0.032037 -0.043945454
0001e0 14 b5 39 3d 90 d0 bc ba 06 b2 e6 3c 07 01 d5 bc
       0.045338705 -0.0014405418 0.02816106 -0.026001466
0001f0 cd 3b e7 bc bc cf cc 3c ec b1 e7 bc 0c 9c 29 3c
       -0.028226757 0.0250014 -0.028283082 0.010352146
000200 19 2e 92 bc 3c 6c 04 bd 80 4b 0e bd 1c a2 61 bb
       -0.017844247 -0.032329783 -0.03473997 -0.00344289
000210 7d 81 9f 3c c5 a6 f0 bc cb 4b 0c 3d bd ca c4 3b
       0.019470925 -0.029376397 0.03425197 0.0060056136
000220 33 24 0b 3b 96 fe 20 3d 5d 5a 0b bc 76 af 95 bb
       0.0021231293 0.039305292 -0.008505431 -0.0045680357
000230 3e 8e 45 bc ae 66 06 3d ea 15 3f 3d 36 7e 10 bd
       -0.012057839 0.032812767 0.04665176 -0.035276614
000240 4a f5 26 bd 45 c2 10 bc 9b b5 04 bd 0b 91 bc bb
       -0.04076127 -0.00883538 -0.032399755 -0.005754595
000250 74 bf d9 3c e5 d7 fb 3c 95 e4 26 3d 31 ff 9c bb
       0.02658055 0.030742595 0.040745337 -0.0047911634
000260 38 7e df 3c bb 0b c2 3c 24 c5 76 bb 55 d0 4a bd
       0.027281865 0.023687234 -0.0037654126 -0.049515087
000270 2a 9a a1 3c 00 33 88 3c 6f d8 bd ba 21 08 14 3c
       0.019726831 0.016625881 -0.0014484058 0.009035141
000280 72 68 22 bc e8 b1 05 bd 34 5d c0 bc 32 a3 0d bd
       -0.009912597 -0.032640368 -0.023481943 -0.034579463
000290 8c 28 8a bb 3d db a5 bc d9 f2 d5 3c ff 4b dd 3b
       -0.0042162593 -0.020246143 0.026116775 0.006753444
0002a0 b3 63 04 3d 0f 54 32 3d 0e c8 f4 3c 26 21 df bc
       0.032321643 0.043537196 0.02988055 -0.027237486
0002b0 52 34 49 bd 14 03 90 bc 87 40 e7 3a 59 85 b0 3c
       -0.049122162 -0.017579593 0.0017643132 0.02154796
0002c0 af 03 de bc 63 14 4c bc fd 43 d5 3c e5 17 d2 3c
       -0.027101366 -0.012456032 0.026033396 0.02564616
0002d0 4b cf bd bc ae a8 2d 3d 8a bd 3d 3d 41 28 b0 3b
       -0.023170134 0.042397194 0.046323337 0.0053758924
0002e0 43 28 e6 3b 4b 97 44 3c ac 79 1b bd a2 ea 77 3b
       0.0070238425 0.011998962 -0.037957832 0.003782906
0002f0 39 ba 97 3c 28 ca 30 3b f6 51 88 3c a6 06 8e 3c
       0.018521415 0.0026975963 0.016640645 0.017337155
000300 b2 a5 dd ba 56 bc 86 bc ab af 25 3b 28 9e 0b 3d
       -0.0016910343 -0.016447227 0.0025281708 0.034086376
000310 f8 27 87 3c f7 2b bc bc 69 59 43 bc c1 a8 8a bc
       0.01649855 -0.022970183 -0.0119231725 -0.016926171
000320 d5 dd d6 bb e4 62 0d bd a5 5f 86 bc fe e7 02 3d
       -0.006557206 -0.034518138 -0.016403029 0.031959526
000330 64 29 f8 bc b8 5b 48 3a 1a a6 0b 3c e4 f4 9a 3b
       -0.030293174 0.00076430617 0.008523488 0.0047289003
000340 09 d4 f9 3c 26 75 2f bd 88 5b 82 3c 39 d9 ad 3c
       0.030496614 -0.04283633 0.015912786 0.021221744
000350 5a e2 fe bc e6 da 15 3d 1f d4 3d bd 97 7a 1a 3d
       -0.031113792 0.03658571 -0.046344873 0.037714567
000360 5f 5a 2d bd 29 94 6c 3c e8 8f 16 3d ee 4b 48 3c
       -0.042322513 0.014439621 0.036758333 0.012225134
000370 0d 66 4a 3c 34 a2 02 bd 4f 84 ad 3c 6b ee 49 bd
       0.012353432 -0.03189297 0.021181254 -0.04929964
000380 9d bc 82 3c 68 1f 3a bd c2 1d c4 3a 92 8f ae ba
       0.015959078 -0.045440108 0.0014962482 -0.0013317934
000390 54 ab 8c bc 48 d2 b7 bc 1c 57 04 3d 4c 40 8e 3c
       -0.01717154 -0.022439137 0.032309636 0.017364644
0003a0 05 5e c5 3b 57 97 01 3d 75 ca 0c 3d ec 62 0d 3d
       0.006023171 0.03163847 0.034372766 0.034518167
0003b0 72 03 e6 bc aa ca 12 bd 8d b5 be bc ac 91 4e bd
       -0.028077815 -0.035837807 -0.02327993 -0.050431892
0003c0 fd 93 f2 bc 09 c0 09 bd f9 46 3c 3d 4d 54 6a 3c
       -0.029611582 -0.033630405 0.045966122 0.014302325
0003d0 2c 7d ab bc 6c d6 44 bd b8 3c 8f 3c 03 9f bf 3c
       -0.02093371 -0.04805605 0.017485008 0.023391252
0003e0 57 e1 ac 3b 13 9b c4 bc e3 39 38 39 55 79 1d bd
       0.005275886 -0.023999726 0.00017569172 -0.03844579
0003f0 1d 73 71 3c 53 9a 15 3d ee 6b 06 bc 5d f1 1d bb
       0.014736918 0.03652413 -0.008204443 -0.0024100163

fc2.bias f4 [300]
000000 37 3b 5b bc 69 c1 89 3d 43 d5 d7 bb e6 42 86 3d
       -0.013380817 0.06726343 -0.006586702 0.065557286
000010 c5 b6 ab 3d db 73 78 bd 85 f0 16 3b 7c 09 d4 3c
       0.0838447 -0.060657363 0.0023031544 0.025883429
000020 7c 16 33 bd 31 e4 87 3d f5 11 9e 3d 4b 31 c7 3c
       -0.043722615 0.06635321 0.07718269 0.024315497
000030 ed ae 78 3d ec bb 50 bd 5b cb ff bc 1a 81 35 bd
       0.060713697 -0.050960466 -0.031224897 -0.044312574
000040 ea 44 67 bd 61 b3 75 3c 3b ef 5a bc 9d 2c e0 3c
       -0.056462206 0.014996381 -0.013362701 0.027365023
000050 e4 bf 17 bd 0b 30 5d bc db 57 10 bc 64 f5 bc 3c
       -0.037048236 -0.013500224 -0.008810009 0.02306623
000060 c8 5a 86 bd 9e aa d4 bc b4 75 cf 3c 73 33 5f 3d
       -0.06560284 -0.025960263 0.02532468 0.054492425
000070 75 ac 7a bd bf 21 56 3d 45 ec 93 bd 33 06 f1 bd
       -0.061199624 0.052278277 -0.07222799 -0.117687605
000080 4e 1a cc bc a2 4e ed bb cc c6 bf bc 66 9e 0a be
       -0.024914887 -0.00724204 -0.023410223 -0.13536987
000090 84 13 db 3c a9 63 52 3b 2a 81 a2 3d c4 60 eb 3c
       0.026742704 0.003210286 0.07934792 0.028732665
0000a0 24 01 a2 3c 1a 13 81 bc 9d 5d da 3d bb 4b 0a 3c
       0.019775935 -0.015756179 0.106623866 0.008440907
0000b0 6b 0a 91 3d 10 a0 93 3d 59 ab 26 bb fd 93 b3 3c
       0.07082065 0.07208264 -0.002543172 0.021921152
0000c0 93 3c 85 3d d7 e2 6c bd b9 85 ac 3c b4 e0 7a 3d
       0.06505694 -0.05783352 0.021059858 0.06124945
0000d0 89 f8 36 3d fe ac 43 bd 44 40 42 3d 15 fb ce 3c
       0.044670615 -0.0477724 0.04742457 0.02526621
0000e0 e2 ee a9 bd 22 a4 11 3d 97 07 44 bd 00 7d 6f 3d
       -0.082975164 0.03555692 -0.0478588 0.05846882
0000f0 9e 5a 77 3b 0b 88 49 bd f4 6b 88 3d 9a 09 df 3b
       0.003774322 -0.049202006 0.066612154 0.0068065645
000100 37 d1 9d bd 3c 73 80 bd 25 14 a9 3d 4e 58 f7 bd
       -0.0770592 -0.06271979 0.082557954 -0.1207739
000110 59 19 26 bc ce bc 3e bc 2a 95 4e 3d ce b2 84 bc
       -0.010137879 -0.011641694 0.050435223 -0.016198542
000120 5f 19 bb 3c 4d fd 6c bd e4 f1 21 bd 5f 83 0c bd
       0.022839246 -0.057858754 -0.039537326 -0.034304973
000130 a6 00 0d be 82 9f 11 3d 3e 0a 6e 3d 59 08 01 bc
       -0.13769779 0.03555251 0.058115236 -0.007875525
000140 d6 db 99 3d 5a c6 2b 3d 27 0e 8f 3a 2a ed 67 bd
       0.075126335 0.04193721 0.0010914252 -0.05662266
000150 7b 2e 82 3d 3e 87 8f bc 10 14 ba bc 35 c2 1b bc
       0.06356522 -0.017520543 -0.022714645 -0.009506752
000160 d1 76 7a bc b1 fb 14 3b 5f 8c 5f 3d 83 5f 84 3d
       -0.015287117 0.0022733028 0.054577228 0.0646353
000170 3d 15 b7 3a b4 f4 1c bc 63 ab f3 bc c5 9f 8f bd
       0.0013968121 -0.009579826 -0.02974481 -0.070128955
000180 ef 46 3d 3d 0e b6 e2 3c 8e dc d6 3c 75 2e e1 3c
       0.046210226 0.027674701 0.026228216 0.027487973
000190 ac 2e 4f 3b 32 29 2d 3d f2 93 fa 3b e7 98 46 bb
       0.0031613512 0.042275615 0.007647031 -0.003030354
0001a0 92 9e 0d 3d 1c b4 9b 3d 38 16 f1 bc 67 85 51 bb
       0.034575053 0.076027125 -0.02942954 -0.0031970383
0001b0 63 86 c1 bc 96 22 1e 3d ba d4 5c 3d 1d 56 c0 3c
       -0.02362365 0.038607202 0.05391381 0.023478562
0001c0 73 a4 5c 3d 92 80 5d 3c ad 40 d7 3c 12 8c 2d 3d
       0.05386777 0.013519423 0.026275957 0.04236991
0001d0 35 6f e1 bc a6 a3 8e bc 5c 28 d5 3c 0b 24 77 bc
       -0.027518848 -0.017412018 0.026020221 -0.015084277
0001e0 1e ce 95 3d 06 d2 b8 3b c9 6b 28 3a 11 35 59 3c
       0.07314704 0.005640271 0.00064247526 0.013257281
0001f0 22 4b 7f 3c c6 09 ac ba f2 a5 73 3d 68 2d 91 3d
       0.015581878 -0.0013125471 0.05948443 0.07088739
000200 c9 7c 8b 3d 38 6c 3d bd 65 97 0c be fa 6f fb bc
       0.0681091 -0.046245784 -0.13729627 -0.030693043
000210 ae 0b 47 bc 9a 74 2a 3b c6 6f 66 3d 91 97 99 bb
       -0.012148781 0.0026009441 0.05625894 -0.0046872576
000220 e1 d8 c9 3c 9c b4 71 bc 7a 22 99 bb e6 e2 c9 3d
       0.024639549 -0.014752533 -0.0046732994 0.098577306
000230 1a 4b 08 bd 56 e9 89 bc 91 f1 02 bd f8 e2 e7 bc
       -0.033274747 -0.016834896 -0.031968657 -0.02830647
000240 75 d4 d3 bd 23 6b f8 3c 08 d1 59 3d 8d d8 ff 3d
       -0.10343257 0.030324524 0.053177863 0.12492476
000250 21 c3 01 3d d7 78 e8 3c 7f 11 f1 bc 83 13 fc 3c
       0.03168023 0.028377933 -0.029427288 0.030771023
000260 ab bb 26 3d 99 0f 70 3d 3a 98 62 3d 46 9b 83 3d
       0.040706318 0.058608625 0.055320956 0.064261004
000270 25 c7 48 bd b5 09 14 3c 92 64 ae bd f4 59 bf bb
       -0.049018044 0.009035517 -0.08515276 -0.0058395807
000280 4c ad 86 3d ca df 59 3c 90 15 78 3b c0 05 81 3c
       0.065760225 0.013297984 0.003785465 0.015749812
000290 49 f5 19 3d 35 1f a5 3b 43 55 7c 3d 8c 12 0f bd
       0.037587438 0.0050391206 0.06160475 -0.034929797
0002a0 76 4b cc bd f0 f6 17 bd 79 85 ad 3c 92 9c 69 3d
       -0.099753305 -0.037100732 0.021181809 0.057034083
0002b0 3e 44 cc bc 19 a2 8c 3c 5d ad 24 bd ee ae e6 bc
       -0.024934884 0.017167138 -0.040204395 -0.028159585
0002c0 3c 18 34 3b 14 c2 0b bd 3d 01 48 3d c1 2d d4 bc
       0.0027480265 -0.034120634 0.048829306 -0.025900723
0002d0 2a 69 9f 3c 83 b3 0b bd 14 1e 46 3d 8e 70 7c bc
       0.019459326 -0.034106743 0.04836853 -0.0154076945
0002e0 31 f6 71 bc b1 b3 2f 3d 88 07 86 bd 70 d8 e5 bc
       -0.014768169 0.042895976 -0.06544405 -0.028057307
0002f0 dc 79 df 3d b6 2e 2f 3d 1c 34 83 3b 4b d5 74 3d
       0.10911915 0.042769156 0.0040040147 0.059773725
000300 43 ba 7f bc fa 95 81 3c 8b 7c 88 3c de e7 fa 3b
       -0.015608373 0.015818585 0.01666095 0.0076570353
000310 6b fc ce bb a4 16 11 bd b4 f7 e3 3c a2 0d 85 3d
       -0.0063167117 -0.035421982 0.027828075 0.06496741
000320 9e 69 ea 3b 9a 44 02 bc 46 ad c8 3c 5c 72 7b 3c
       0.007153704 -0.007950926 0.024496686 0.01534709
000330 b6 cf 59 3c 26 97 6b bb b2 d2 ea 3c 54 18 c9 bb
       0.013294151 -0.0035948246 0.02866492 -0.0061369333
000340 13 37 27 bc d8 0b eb bd 12 f2 ab 3d 68 7c 89 3c
       -0.010206002 -0.114768684 0.083957806 0.016782954
000350 cf d9 d4 3c 98 7e 86 bc 92 19 6b 3d 20 e9 73 3c
       0.025982765 -0.016417786 0.057397433 0.014887124
000360 ba c0 ad bb 28 54 8f 3c 63 77 1e 3d 95 25 64 bc
       -0.005302516 0.017496184 0.038688075 -0.013924976
000370 54 e5 93 3d fe fc 92 3d 61 4c 8d bc 99 e8 8c 3d
       0.07221475 0.07177161 -0.017248334 0.06880302
000380 d7 d6 3c 3d e4 c1 60 bd d3 6d f5 bc 2f 26 85 3d
       0.046103325 -0.05487241 -0.029959595 0.065014236
000390 a0 22 71 3d 4f 1d 61 3d e8 bd 30 3d 6c 28 86 3c
       0.05887091 0.05495959 0.04314986 0.016376697
0003a0 f9 3b 05 bd 30 bd 8e 3c 49 5c 4a bd e7 f7 1b bd
       -0.032527898 0.017424196 -0.049404416 -0.038078215
0003b0 98 35 98 3a ac 0f 65 3d c2 f6 2b be 17 1d bc bc
       0.0011612652 0.05592315 -0.1679335 -0.02296309
0003c0 74 30 91 bc ee 0d 8c 3c 93 ca 40 bd 40 f3 a2 bc
       -0.0177233 0.017096486 -0.04706819 -0.019891381
0003d0 07 e3 81 3d 31 b1 9b bd 52 44 8f bc c2 2c b2 3d
       0.0634213 -0.07602156 -0.017488632 0.08699943
0003e0 d3 23 10 3d be 6b b1 3d f1 1b 13 3d cf 41 fb bb
       0.035190415 0.08663128 0.03591532 -0.007667757
0003f0 5c 1b 09 bd b5 60 4c bd 4f 35 07 3d ed d5 87 bc
       -0.033473358 -0.049896915 0.033009823 -0.0165815

fc3.weight f4 [2, 300]
000000 a4 de a9 ba 3f d2 18 be 71 04 94 3e b3 cd d8 bd
       -0.0012960029 -0.14923953 0.2890964 -0.10586109
000010 cc 99 0d 3e 84 75 ab 3e 71 db 4f 3e 33 ea 64 3d
       0.138282 0.33488095 0.20298554 0.055887412
000020 de 3f 4a 3e 4b 38 d1 be 73 ec 93 bd a6 c6 6f be
       0.19750926 -0.4086326 -0.072228335 -0.23415622
000030 55 1a aa be a4 0f c6 bb 09 19 5d be d2 a2 95 3e
       -0.33223215 -0.006044345 -0.21591581 0.29225785
000040 6b 50 97 be 13 91 51 bd 79 d2 6c bb 50 36 39 bf
       -0.29553542 -0.051163744 -0.0036136194 -0.723485
000050 c9 cd ed 3e a0 f1 b0 3d ed 96 08 3b 59 56 0e 3e
       0.46446064 0.08639836 0.0020841912 0.13900127
000060 64 b9 73 be 6e 4d 34 be 7f 97 79 be 55 ca 3d 3d
       -0.2380119 -0.17607662 -0.24374197 0.046335537
000070 24 4a 67 3e 49 66 e5 be f9 25 71 3e 0a 2c 0a bc
       0.22586876 -0.448046 0.23549642 -0.008433351
000080 f7 92 4c be 3a a9 e2 3d a7 e9 bf be b0 a2 c0 3e
       -0.19977938 0.11067434 -0.3748295 0.3762412
000090 97 a1 a8 3e e2 85 86 3e 23 f7 42 3e ad 93 81 3e
       0.32935783 0.2627402 0.19039588 0.2530798
0000a0 5c 62 8a bd f5 6a cd 3e db e3 fc 3d 7e 5f 1f bc
       -0.06757042 0.40120664 0.123481475 -0.009727357
0000b0 22 a3 65 be ee 7f 91 3d fa 64 9a 3d 3d fa f4 be
       -0.22425511 0.07104479 0.07538791 -0.47847167
0000c0 e9 9f d5 3d 16 69 c0 be 5a 91 b6 bd 28 da 90 be
       0.10430891 -0.37580174 -0.08914442 -0.2829144
0000d0 f9 35 d0 be ca e8 b5 be 63 95 9f be 56 fd 39 3e
       -0.40666178 -0.35529166 -0.3116866 0.18163046
0000e0 bf 23 99 bd 04 3f 8f be 94 41 4e be 0d 75 8b 3e
       -0.07477521 -0.27977765 -0.20142204 0.2723774
0000f0 ab 6e 3a be 05 2f f4 ba b0 fa bf 3d 70 8d 1b bf
       -0.18206279 -0.0018629736 0.09373987 -0.6076269
000100 77 c7 f3 be a5 b9 2e 3e 2b 8b 0c be 0f b1 6e 3d
       -0.47613117 0.17063005 -0.13724963 0.058274325
000110 a2 d8 da 3d 4d 2d 7e bb dc 56 3c be 07 5b 43 be
       0.10685851 -0.0038784326 -0.18392509 -0.19077693
000120 17 0f d0 3d 4f b9 d0 3e 72 90 d0 be d3 c8 ca bd
       0.10159128 0.4076638 -0.40735203 -0.099015854
000130 36 49 03 3d 19 4c e6 bc c7 e2 e3 bd 9d ae 37 be
       0.03205224 -0.028112458 -0.11127239 -0.17937703
000140 75 b8 4d 3e 3c fa 8c bc 5a c9 17 3e f4 71 75 be
       0.20089896 -0.017209165 0.14822903 -0.23969251
000150 5f 81 89 3e 38 3b f2 bd ab 13 0a 3f 71 34 a7 3e
       0.26856515 -0.11827701 0.5393626 0.32657197
000160 ed f8 ac 3e 98 f2 03 3c a1 ef dd 3d db bf 69 3e
       0.33783665 0.008053444 0.10836721 0.22827093
000170 19 3e de bc f3 0d 9e 3e 52 b7 51 bd 8a d3 95 3d
       -0.02712922 0.30870017 -0.05120022 0.073157385
000180 89 82 39 3e 06 47 33 3c 6a b4 ec 3c 1d 7d 7f be
       0.18116201 0.010942226 0.028894622 -0.2495007
000190 49 d9 d2 be 66 39 4f 3c 68 79 59 3c 1c cb b2 3e
       -0.411814 0.012647962 0.013273574 0.34920585
0001a0 9c 73 a1 be 77 ba 67 be 59 b8 3a 3e 7c 15 da be
       -0.31533515 -0.22629724 0.18234386 -0.42594516
0001b0 d0 de 59 bd a0 81 a6 bc 73 21 14 be 5d ad 74 be
       -0.053191006 -0.020325482 -0.14465885 -0.23894258
0001c0 2b b9 93 be 31 64 97 3b b2 00 ad 3e 4c 78 2e 3a
       -0.2885221 0.004620098 0.33789593 0.0006655499
0001d0 80 b2 75 3b b2 50 1d 3e f1 08 00 be 46 2b 38 be
       0.0037490427 0.15362814 -0.12503411 -0.17985258
0001e0 9a 32 f6 3d a7 47 1f bf dd 4d 63 be 31 8c 58 be
       0.1202137 -0.6221871 -0.22197671 -0.21147229
0001f0 c8 4c 12 3f 03 3f d0 be 14 17 c2 3c 8d c3 fa 3d
       0.5714841 -0.40673074 0.023692645 0.122443296
000200 f5 a4 f2 bd 4a 45 83 be 9e 27 66 be 40 86 02 be
       -0.11847869 -0.256388 -0.2247605 -0.12746525
000210 5d 23 b2 3e 3f 1d 30 3e b3 02 8f 3e 0a 3b 5d 3b
       0.34792605 0.17198656 0.27931747 0.0033757114
000220 63 f5 98 be ed 06 63 be ba 19 d5 bd d3 2d 04 bf
       -0.29874715 -0.2217061 -0.104052976 -0.5163242
000230 d7 ae fd 3e c1 12 e8 3e ff 44 94 bd d4 20 7f 3d
       0.49547455 0.45326808 -0.072397225 0.062287167
000240 19 ad ef be 5e 06 75 3d ad 73 0f 3e 20 2c 3c bf
       -0.4681175 0.059820525 0.1400897 -0.7350483
000250 f7 39 0c 3e ed 31 ad 3e 3b 33 82 3e da 09 86 be
       0.13693987 0.33827153 0.2542971 -0.2617939
000260 cb b8 b2 3e 45 e2 32 bc 8a bf 41 be 2e d3 00 be
       0.3490661 -0.010918205 -0.18920723 -0.12580559
000270 90 b6 11 be fa 4c 02 3e a5 5b 03 bf ab 50 19 3e
       -0.14229798 0.12724677 -0.51311713 0.14972179
000280 3d b2 e0 bd 34 10 1a 3e 91 13 c3 3e b0 41 55 3d
       -0.10971496 0.15045244 0.38100865 0.052064598
000290 e5 d3 80 bd 41 20 25 be 94 3d 01 bc 81 55 dc be
       -0.06290416 -0.16125585 -0.0078882165 -0.43033984
0002a0 07 a7 25 be 57 e4 06 bf 66 29 23 3e 2b 92 86 be
       -0.16176997 -0.5269217 0.15933761 -0.26283392
0002b0 16 a6 02 bf 28 81 a3 39 0a 77 16 3e 4b 14 39 be
       -0.5103468 0.00031186012 0.14693847 -0.18074147
0002c0 9b 71 bd 3e 7c 02 a2 3e 8f 75 20 be 4e 10 69 3d
       0.37000737 0.3164252 -0.15669845 0.056900315
0002d0 fd 58 4e 3e 99 9e cf bb 7f 23 52 be 9e bb de be
       0.20151134 -0.006336045 -0.20521353 -0.43502516
0002e0 32 7c 32 b9 29 14 53 3e ed 01 ba 3d 52 dc 9d 3e
       -0.00017021669 0.20613159 0.090823986 0.30832154
0002f0 16 98 41 3f 01 7c bb be 22 a5 1a 3e f7 4c f8 3e
       0.7562269 -0.36618045 0.15102056 0.4849622
000300 98 9c ca bc d4 7d 7e 3e 52 a3 de be c4 b8 9a 3e
       -0.024732873 0.24852687 -0.4348398 0.3021909
000310 c5 12 67 bc 36 7e 9a 3b af 29 9c be 11 a9 47 3e
       -0.014103596 0.0047147525 -0.30500552 0.19498087
000320 36 74 c3 3e 5f ce 78 3e 3f a8 2f 3e a3 fb 45 3d
       0.381746 0.24297474 0.17154025 0.048335683
000330 13 5c a0 be b3 98 0f 3f 42 ab d9 bd af d4 77 be
       -0.31320247 0.56092376 -0.10628368 -0.24202226
000340 5f 44 5a 3d 0f 33 4e bf e8 74 cc ba 27 b2 f7 bd
       0.05328786 -0.8054666 -0.0015598806 -0.12094527
000350 9e 2b e6 3c f7 42 2c be 37 91 1a be 0f 9b 64 bd
       0.02809697 -0.1682242 -0.15094458 -0.055811938
000360 49 7f d8 be f7 3b 88 3e c4 a8 46 be 8f 23 59 bd
       -0.4228461 0.2660825 -0.19400316 -0.053012427
000370 57 2c ba be 6c f9 a4 3e f0 43 90 bc 7a 65 3e be
       -0.36361954 0.32221544 -0.01761052 -0.18593398
000380 b9 7f 1e bf ac c6 30 bc ac c2 eb 3a 86 86 ba be
       -0.6191364 -0.010789555 0.0017987094 -0.36430758
000390 80 83 fe 3e 67 ae 2f bf 86 9f 51 be f7 87 09 be
       0.49709702 -0.6862549 -0.2047101 -0.13430773
0003a0 96 85 02 be 00 94 12 3e c8 36 e8 ba 6a b7 6f bd
       -0.12746271 0.1431427 -0.0017716521 -0.058524527
0003b0 4d 7e 31 3e 52 84 09 3e ed b4 d7 3e 58 36 16 3e
       0.17333336 0.13429382 0.42130223 0.14669168
0003c0 50 8b 37 3b 1f 57 62 be 3c 34 34 bc a3 8f dd bd
       0.002800662 -0.22103547 -0.010998782 -0.10818412
0003d0 43 95 99 bc a5 94 a3 3e be e0 0d bb f0 d3 15 be
       -0.018747931 0.31949344 -0.002164885 -0.14631629
0003e0 f3 06 51 3e 3f 44 de be 79 ef 49 be 17 cd 07 3f
       0.20412807 -0.43411443 -0.19720258 0.5304732
0003f0 88 b9 2c be 78 0f 5a 3e d2 fd b9 ba e5 af 89 ba
       -0.1686765 0.21294963 -0.0014190024 -0.0010504691

fc3.bias f4 [2]
000000 6c 05 81 3d ac b8 03 bd
       0.06299862 -0.03215854
