OurCode/actor_td3.pt (torch_old, 499033 bytes, 6 tensors)

fc1.weight f4 [400, 8]
00000000: 5555 09bf b9d0 4bbf 40b6 58bf f4f7 273e
00000010: 804d f4be 6a67 36bf 137d ec3e a58c c0be
00000020: b2c9 d1be 08e0 f2be 1922 b7be 5cfe 2a3f
00000030: e556 cc3d a1da 93be eb93 9e3f 469b 2ebf
00000040: 617e a2be 681e 9cbe 746e ca3e 4217 a33f
00000050: d67f 303e 1d9c 273f c2cd f43f 2e2e 5dbc
00000060: 21fe 3ebe 4046 1cbf 4900 143f e1b4 af3e
00000070: 3311 813f a0b3 043f 2663 463f 76eb 953e
00000080: e9d1 6dbe a55c c8be a979 7c3f 3a5c 57be
00000090: 580f 06bf e000 42bf a777 6abf a1b8 4bbf
000000a0: af54 0ebe 8bd5 603e 80ea cf3f cc1e 563e
000000b0: 97a2 33bf 4fd0 093f 9da3 a0bf dce1 2dbe
000000c0: 6c3f 3fbf c03a 20bf 59a9 90bd e7e7 55bf
000000d0: e4cf b7be cecc 10bf b3f1 84bf c359 64bd
000000e0: e740 16bf 1c12 abbe 83a7 97bc 82d5 903e
000000f0: d487 21bf 4cee 2ebe 0129 903f 0242 4c3e
00000100: 2bd2 23bf 104f 37bf 00dd b6be a48b 14bf
00000110: 84c9 c83d 40f9 d5be bb16 06bf b1de 293d
00000120: 2523 16bf d9c4 26bf 3bcb fbbd cf8d 02bf
00000130: fc95 d0bd 0b7d a53e 38b5 b63f 1fd1 a5be
00000140: 03c2 cabd fcd7 00bf 3dda a1be 2460 ed3e
00000150: 103a a0be 13c8 063f 8bb2 5d3e e991 003f
00000160: 8d75 8dbf 29d0 61bf 4ba5 57bf 9a08 2fbf
00000170: d844 353e e830 043f 7f6b f13a 052f 873e
00000180: fad0 693d 17bb 4abe 6df1 503e 7688 30bf
00000190: 0395 673f 968f 0a3f 6d1c 2c3e 1733 9f3e
000001a0: 013a 9ebe 13c0 3b3e 33a4 2540 070c 3fbf
000001b0: b446 6dbd 8660 a8bf a7f2 46bf e155 f4be
000001c0: 704e a1be 706f dbbe 22b3 333e 4527 dfbe
000001d0: 8199 67be 89b0 c33d a24b 0dc0 c830 8cbe
000001e0: 6ac1 05bf 4b38 c6be 79d3 77be 7bc5 62bf
000001f0: 768b e33e c144 313f ce3b 34bf 0648 2e3e
00000200: ef0f 9fbd 199e 06be 1540 a33f 4c56 d13f
00000210: 1c06 883d 6c03 74bf 8142 11be 990d 07bf
00000220: c579 43be 25cb 59bf 7f4a 42bf ed84 cb3e
00000230: 3d74 cc3e 8aea bfbe 0dc7 67bf a17a 053e
00000240: 0e6f 13bf 06af 9dbe 6ad7 853f b7d5 57bf
00000250: 27a7 353f a19c 29be 7511 543f 55c3 123e
00000260: 51aa 91be d5ed afbe f670 43bd 14de ac3e
00000270: d50f 113f bbde e93e bea9 d1bf 966b a9bd
00000280: f0a0 4cbf 2b02 2cbf f518 03bf b641 a8be
00000290: 7e89 30be a694 893f 6396 283f 7ceb 9fbd
000002a0: 6707 2bbf c1ad 7dbf 73f7 77bf a826 cbbe
000002b0: 76c2 56be 6f5b d13e bb24 98be c8d1 0d3f
000002c0: 93ae 1d3e c466 253d 8182 c23f b11e 483f
000002d0: 54c4 0ebf 2068 14bd 245f 5cbf ace3 573e
000002e0: 7775 dfbe 8e73 4ebf 2a47 b5be ef87 78bf
000002f0: d249 9b3e aaac 22bc 338d 86bf 0334 8d3e
00000300: 5260 1ebd 9776 9ebe 5ad5 173f f942 d3bc
00000310: 6ced ec3e f0ab 3cbf 57a8 8fbe b95f 29bf
00000320: 22b6 c13c f4c7 c93e 8d2e 1a3f 3357 9dbe
00000330: 2a02 b13e c712 81bf 9cb1 223f 6f05 03bf
00000340: f9b8 973b 1344 33bc 7dd0 2a3f bd2d 4f3f
00000350: 4fc3 463e ff8d 383e 3417 b83f ed82 903e
00000360: 4475 10bf fa82 2bbf 95ce 36be 82fc f3bd
00000370: 1af4 19bf f69e 09be b56a 503e 2ca4 103f
00000380: 3a2f 4cbf 6847 cfbe bc3c d43f 1a3f e4be
00000390: 6ed1 0cbf 8b95 7dbf 8351 d2bd 9a1e 6cbd
000003a0: 5886 23be 6af1 263c 3df2 e23e 962c 8b3f
000003b0: 1738 86be 5ad7 66bf 959c 0bbf 6c7f dabd
000003c0: 7541 d7be 0825 a8be b937 b73e 4ae3 f23d
000003d0: 1a28 48bd c254 30bf 09d2 913f 705e edbe
000003e0: b37c 09bf 9518 81bf efa1 883d ef1c abbe
000003f0: cd73 bc3e 3100 b33a 7c9b 593f 5bb2 d2be
-0.5364583 -0.7961536 -0.8465309 0.1640318 -0.47715378 -0.7125155 0.46189174 -0.37607303
-0.40974194 -0.47436547 -0.35768202 0.6679437 0.09977511 -0.28877738 1.2388891 -0.6820568
-0.31737044 -0.30491948 0.39537394 1.2741473 0.17236266 0.65472585 1.9125292 -0.01349978
-0.1865163 -0.61044693 0.57812935 0.34317687 1.0083374 0.51836586 0.7749504 0.29281205
-0.23224606 -0.39133182 0.9862314 -0.21031275 -0.5236716 -0.75782585 -0.91588825 -0.79578596
-0.13899492 0.2195646 1.6243439 0.20910186 -0.7016997 0.5383348 -1.2549931 -0.1698069
-0.7470615 -0.62589645 -0.070635505 -0.8355698 -0.35900795 -0.5656251 -1.0386261 -0.055749666
-0.58692783 -0.33412254 -0.018512493 0.28287894 -0.6309788 -0.1708309 1.1262513 0.19947055
-0.63992566 -0.71605015 -0.35715485 -0.58025575 0.09804061 -0.41791725 -0.52378434 0.04147214
-0.58647376 -0.65144116 -0.122946225 -0.5099763 -0.10184857 0.32321963 1.4274054 -0.3238611
-0.09900286 -0.50329566 -0.31611815 0.46362412 -0.31294298 0.5264904 0.2165014 0.5022264
-1.1051499 -0.8820825 -0.8423659 -0.683725 0.17702043 0.51637125 0.0018418877 0.2640306
0.05708406 -0.19797932 0.20404597 -0.6895822 0.9046175 0.54125345 0.16807719 0.31093666
-0.30903628 0.18334989 2.588147 -0.7462773 -0.057928756 -1.3154457 -0.7771401 -0.4772177
-0.31505156 -0.42858458 0.17548802 -0.43584648 -0.22617151 0.09555156 -2.2077413 -0.27380967
-0.5224825 -0.38714823 -0.24201764 -0.8858258 0.44442338 0.69245535 -0.70403755 0.17019662
-0.07766711 -0.13146247 1.2753931 1.6354461 0.0664179 -0.9531772 -0.14185525 -0.52755123
-0.1908942 -0.850756 -0.7589492 0.39749852 0.39932433 -0.37483627 -0.905381 0.1303506
-0.5759133 -0.30797595 1.0456364 -0.8431048 0.7095818 -0.16563655 0.8283914 0.14332326
-0.28450254 -0.3436114 -0.04771515 0.33763182 0.5666478 0.45677742 -1.6379926 -0.082724735
-0.7993307 -0.6719081 -0.51209956 -0.32862633 -0.17239949 1.0748489 0.6585447 -0.07808587
-0.6680817 -0.9909325 -0.9686195 -0.3967793 -0.20972618 0.4089007 -0.29715523 0.55398226
0.15398626 0.040381208 1.5196077 0.7817183 -0.5576832 -0.036232114 -0.86082673 0.21082944
-0.43644306 -0.8064507 -0.35405856 -0.9708242 0.30329758 -0.009928862 -1.051184 0.27578744
-0.038666077 -0.30949852 0.59309924 -0.025788771 0.4627489 -0.73699856 -0.2805812 -0.66161686
0.023646418 0.39410365 0.6022728 -0.3073059 0.34571964 -1.0083855 0.6355226 -0.51180166
0.0046302048 -0.010941523 0.6672438 0.80929166 0.19410442 0.18022917 1.4382081 0.28224888
-0.56428933 -0.6699673 -0.17852242 -0.119133964 -0.60138094 -0.13439545 0.20353206 0.56500506
-0.7975956 -0.40484166 1.6581035 -0.44579393 -0.55007064 -0.9905631 -0.102694534 -0.05764637
-0.15969217 0.010189394 0.44325438 1.0872982 -0.26214668 -0.9017235 -0.545358 -0.10668835
-0.42042127 -0.32840753 0.357847 0.11859758 -0.04886637 -0.6887933 1.1392223 -0.46361113
-0.537059 -1.0085627 0.066715114 -0.33420512 0.368071 0.0013656673 0.85002875 -0.411517

fc1.bias f4 [400]
00000000: 2b12 3cbf 644a ccbe a3fc 9abe ed23 20bf
00000010: 8f36 07bf b295 adbc 235e 04bf b395 49bf
00000020: 91e7 2ebf 3db7 cabe fa2a d6bd aa6c 01bf
00000030: f8cd d1be fd74 90be fd99 c5be c4b8 10be
00000040: 1121 46be a078 ecbe 6e95 b0bc eb75 a33d
00000050: f0c8 2abf 497f e3be be3c 813d 98b9 18bf
00000060: 7e79 f0be ca04 2fbe bfaf 3a3e 472e 9ebe
00000070: 793b a1be 6e79 05be cdc3 c2be 4c1a 2dbf
00000080: 0c41 c2be 738a 59bf 37d5 e6bd d3da 2ebf
00000090: 4251 02bf f632 82bd ccfb 6cbe 2e77 bbbe
000000a0: 746a acbd 6bd1 aebe af5c d7be 5b91 1f3d
000000b0: 0ec0 33be 9bfc cabe 480a e8be 4635 22be
000000c0: 0f0d a6bd cc01 a93c 4f94 9bbd c70e 963b
000000d0: 3f36 18bf bed8 13bf dcfd 6cbe 5a0a d43c
000000e0: 4419 31bf 3d62 59bf 7eec 3cbf 1c27 f4be
000000f0: 5415 20be 1943 4abf 0b19 49bf 70d2 18be
00000100: fd73 c43d 1a0d 5fbe 3c31 d6be f1d7 3ebf
00000110: 0915 23bf 9be5 80be d581 18bf 265f 95be
00000120: 543f e6be 685f 80bf 84d8 b3be 126d 2cbf
00000130: a7d9 3abf 62b7 12bf 84e6 81bd 84ac 4cbf
00000140: 3e84 68bf 1d12 383e 3ce0 b8be 5654 d5be
00000150: 59a9 c9be 7ef7 6cbe 93b2 ebbe b51e bdbe
00000160: 9de6 10be 16cb 2fbf f30d 93bd d9fa f3bb
00000170: 64ef f0be 94bb 063e 76f9 f53d 7dec c2bd
00000180: 193a acbe 41be 4ebf e6bb 67bf b972 1bbe
00000190: 37ec 44bf 4b81 f7be e8a5 91be 57c0 c6bd
000001a0: 7702 3cbe 0959 8c3d 9dde bebe 3845 e9be
000001b0: 9043 a9be d96c cabd b40b 08bf 57e9 1fbe
000001c0: 1c9f 80bd 7ba9 73be b391 fcbe 9e03 30bf
000001d0: 37a9 1ebf 7e3b 3bbe 7f28 c8be 4c5b 23bf
000001e0: 9c31 94be f638 f0bd 3da5 653c 280c a8be
000001f0: 047e 21bf 75aa 22bf 185a 13be e65f c1bd
00000200: 3896 4abf 596f 5ebe afef 4abe 814d 63be
00000210: ef23 7ebe 41f3 7fbf 699c 5fbf 3d60 12bf
00000220: 67a0 033d c3f8 16bf 6671 cbbe 77b6 02bf
00000230: 118b 1e3d 5b02 88be 0c64 20be bec4 9ebe
00000240: 8cf8 2bbf 4ce6 3abf c04d 3cbd 3f19 c8be
00000250: 1fbd 4cbf 0080 35be e19b 49bc 759e 02be
00000260: f9e4 b6be d307 11bf 9b88 e43c 7ddb c9be
00000270: 98ef 87be c949 473d c880 12bf a74e 5a3e
00000280: 639e 5ebe dbfd 17bf 45ba 21bf b144 dbbe
00000290: 8241 bbbe bea7 133e 5e2a e4be 953a 5bbf
000002a0: 70f3 1cbf 3a7b 9c3b 5240 93b9 995f 60bf
000002b0: 35f5 d4be c566 2ebe 8b8c 2dbe 927c d5be
000002c0: 3f0d 29bf 6d79 eebc 78b7 0dbe 5672 10bf
000002d0: f2e0 7bbd 9d92 e8be f131 03bf f8a9 d8be
000002e0: c48a 05bf eb38 0dbe 807d b5bd ca3b 73be
000002f0: f49e b6be ea6a 06bf b8e1 7fbe 20fb 88be
00000300: 9365 4fbf c0ef d1be ebc8 dfbd a0de 98be
00000310: 525b 5bbe 1705 77be d833 80be 2354 66bd
00000320: be4b 97be a36d 87be b743 33bf f5f1 94be
00000330: 4353 2cbe 88ad cfbe 2f09 3dbf 4112 16be
00000340: f360 0abf 3e58 66be 225a 003e b736 b6be
00000350: 9b21 b4be 8d53 c43c 6096 babc eabb f03d
00000360: 3f57 62be 9223 bbbe 69ed 18bf ef26 04bf
00000370: 26e5 13bf f58f e8be f859 2abe 704c 32bf
00000380: 8f62 f9be 564c 7bbe e72d 11bf 4747 1abe
00000390: 8213 a7be 02c3 4abe 974c d9be 6a37 6dbe
000003a0: acb6 1dbf 4a2f 113e 1686 2bbe aee4 30bb
000003b0: da48 d0be 1a36 acbe 39df e6be 9af9 23bf
000003c0: 0cc2 eabc 26ff fe3b 3a99 b1be 46b1 43bf
000003d0: 6f4e f4be 0ba5 84be 1df2 14bf ffb3 f8bd
000003e0: 8020 35bf b817 d0bd f270 35bf bd2f 11be
000003f0: 8418 debe 0caa 24be 98f4 0cbd 7e6e ebbe
-0.7346522 -0.39900506 -0.30270872 -0.6255482 -0.52817625 -0.021189544 -0.5170614 -0.7874405
-0.6832209 -0.39592925 -0.10457416 -0.50556433 -0.40977454 -0.28214255 -0.38594046 -0.14132982
-0.19348551 -0.4618578 -0.021555629 0.079814754 -0.66712856 -0.44433048 0.06310414 -0.59658194
-0.4696769 -0.1709167 0.18231104 -0.30894682 -0.31490687 -0.13034603 -0.3804001 -0.6761825
-0.37940252 -0.8497688 -0.11271136 -0.6830265 -0.5090524 -0.06357376 -0.23142928 -0.36614364
-0.08418742 -0.34144148 -0.420629 0.03895698 -0.17553732 -0.39645848 -0.45320344 -0.15840635
-0.081079595 0.02063074 -0.07596647 0.0045793983 -0.5945777 -0.577526 -0.23143715 0.025883842
-0.6917918 -0.84915525 -0.7379836 -0.47686088 -0.15633136 -0.7900863 -0.7855384 -0.14924026
0.095924355 -0.21782342 -0.41834438 -0.7454825 -0.6370397 -0.25175175 -0.5957311 -0.29174155
-0.4497019 -1.0029116 -0.35126126 -0.6735393 -0.7298836 -0.5731107 -0.063427955 -0.7995074
-0.90826786 0.1797566 -0.36108577 -0.41665906 -0.39387015 -0.23141286 -0.4603468 -0.3693749
-0.14150472 -0.6866926 -0.07180395 -0.007445675 -0.4705764 0.13157493 0.120104715 -0.09517763
-0.33638075 -0.80759054 -0.90521085 -0.15180482 -0.76922935 -0.4834083 -0.2844689 -0.09704655
-0.18360315 0.068529196 -0.37279215 -0.45560622 -0.3305936 -0.09884042 -0.5314286 -0.15616356
-0.06280348 -0.2379512 -0.4932991 -0.6875552 -0.6197695 -0.18284413 -0.39093396 -0.6381118
-0.289441 -0.117296144 0.014016447 -0.32821774 -0.6308291 -0.63541347 -0.14389837 -0.09442119
-0.79135466 -0.21722163 -0.19817995 -0.22197534 -0.24818395 -0.9998055 -0.8734804 -0.571781
0.032135393 -0.5897333 -0.39734954 -0.5105967 0.038706843 -0.26564297 -0.15663165 -0.31009477
-0.6717613 -0.73007655 -0.045972586 -0.3908176 -0.79976076 -0.1772461 -0.012305231 -0.12755759
-0.35721567 -0.56652564 0.02789717 -0.3942527 -0.26549983 0.04865435 -0.57227755 0.21319066
-0.21740107 -0.5937173 -0.6317485 -0.42825845 -0.36573416 0.14419457 -0.44563574 -0.85636264
-0.61308956 0.004775432 -0.00028085947 -0.8764587 -0.41593328 -0.17031391 -0.16948144 -0.41696602
-0.66035837 -0.029110635 -0.13839519 -0.5642446 -0.06149382 -0.45424357 -0.5124808 -0.42317176
-0.52164865 -0.13791244 -0.08861828 -0.23753276 -0.35668147 -0.5250689 -0.24988449 -0.26754093
-0.81014365 -0.41003227 -0.10926994 -0.2985735 -0.21421555 -0.24123035 -0.25039554 -0.056232583
-0.29549974 -0.26450834 -0.700252 -0.2909085 -0.16828637 -0.4056208 -0.7384214 -0.14655401
-0.5405418 -0.22494599 0.12534383 -0.3558862 -0.3518189 0.023965621 -0.022776783 0.11754592
-0.22103594 -0.36550575 -0.5973726 -0.5162191 -0.5777153 -0.4542233 -0.16635883 -0.69647884
-0.48708007 -0.24540839 -0.56710666 -0.15066253 -0.3263207 -0.19800952 -0.42441246 -0.2316567
-0.6160686 0.14178196 -0.16750368 -0.0026991772 -0.4068058 -0.33635026 -0.4509218 -0.64052737
-0.028656982 0.007781881 -0.34687215 -0.7644237 -0.4771609 -0.25907168 -0.58181936 -0.121437065
-0.70752716 -0.10160774 -0.70875466 -0.14178367 -0.4337808 -0.16080493 -0.03441295 -0.45982736

fc2.weight f4 [300, 400]
00000000: 5b3a 2cba 08ff 63bd 07dd bbbc 4e07 08bd
00000010: d54d cebb a68a 193d e08b f63a 48ea 84bc
00000020: 5564 00bd d5d7 5abd da00 083c bd0c e9bb
00000030: 9258 a9bc 4e3c 52bd 1ba8 2bbd acec 36bd
00000040: de4e 04bd 795e 8abd 9ac1 52bd dd37 d2bc
00000050: 43d2 2d3d b410 f0bc 2034 7c3a 84a8 0e3b
00000060: d8d0 bf3b 962e bbbc 3d08 203d 946d d63c
00000070: a761 43bc d7f1 03bd 4378 b83c 4fed 12bb
00000080: b5f6 8c3c 4be2 f5bc 6aff 04bd 2e02 adbc
00000090: 8a77 53bd 562f 08bd 8e89 b9bc 8585 9bba
000000a0: 0273 52bc ee04 b93b 2d92 40bc dfde ecbc
000000b0: 7db6 c63c c611 ba3c 2e2b 2fbd f77f 44bd
000000c0: 6728 023c 10c6 6cbd 1f0d e2bc 3397 f9bb
000000d0: 85ed 4abd f7c2 5bbd bb4e 243d 25e1 403b
000000e0: efca 4839 2a81 38bd e54c ebbb 2895 6dbc
000000f0: 2942 af3b 7f54 163d 977d 11bd a8a2 02bd
00000100: f4aa ccbc e5ea 9bbd c606 20bd d78c ecbc
00000110: 16b3 98bb 3aae c13c 4889 25bd 7c5f 013c
00000120: 5ea9 dabc 32ec 75b6 4f5d 42bd f318 41bd
00000130: 1d27 bbbc 5a19 0bbd de7f 14bd d4f3 18bd
00000140: 7b66 83bd 9462 10bd 2d56 46bd eb52 933b
00000150: 3519 2cbd 622b 273c 209a 6bbd 1aac 053d
00000160: 4b55 45bd a273 febc 484c 90bd dc90 a3bc
00000170: fbf4 ed3c 62c6 2cbc 028c 2ebd b690 823c
00000180: 3972 cabc 441f a13c 61b5 5cbd 0236 d4bc
00000190: 370e b8ba f70f a83c a3d7 1e3b 74c2 12bd
000001a0: 9546 a33c 1166 5ebd 7738 d03c ce3d a83a
000001b0: 6f85 503b 38e7 d3bc 8be5 38bd ba1a b33c
000001c0: 0b0e 54bd c720 23bd d4a0 253c 713d e5bc
000001d0: 4b8f 7c3b dfe1 6dbc 000c de3c 40c0 3fbd
000001e0: 9e14 fa3c 4015 3eba f7ea b13c 9d37 3abd
000001f0: de5f 13bd 595c b13c 550c 46bd 1cc5 1a3c
00000200: 6d11 b8bc 8cfb 19bd 7973 24bd 25c8 f4bc
00000210: 157d 893c 3507 27bd a3e2 073d d18d 8dbc
00000220: 332d 9bbc e787 b03c d440 ecbc 776a 20bc
00000230: a2b9 d4bc 223a eb3c 4e61 2b3d 367e 10bd
00000240: 5100 3bbd 9fb3 86bc fb24 3fbd 8b11 39bc
00000250: 81ae b13c 5ca1 fc3b 5903 123d a80a 1bbc
00000260: f406 b63c eef8 9e3c 190f 8cbc 3a85 64bd
00000270: baf5 7a3c 9010 423c dfc5 20bc 366a 82bc
00000280: 088f 22bc 3282 18bd 5256 e3bc c5a3 1bbd
00000290: 1157 d1bb 15dd b7bc d222 bd3c 20c4 253b
000002a0: 90de 9a3c 128b 1f3d eb32 0c3c 9fff 01bd
000002b0: 411c 49bd e7de a3bc 5f88 5abb 355d 853c
000002c0: ab8f 35bd ca1d 95bc 20d8 613c 8eb4 a33b
000002d0: 2116 eabc 4f5b 133d 96e5 223d 358f 203b
000002e0: 84dd 383b 10e9 c13b 2f67 6cbd 997a aaba
000002f0: c8ab c23b 86c7 88bc 36ad 90bb 1f49 663c
00000300: efca edbb 1b41 17bd 9bbb c4bc cfc6 6b3c
00000310: d5f2 f43b 1abc efbc ed32 bbbc 8ad0 fdbc
00000320: 8be7 75bc 1bf3 f5bc 0431 a7bc eede ec3c
00000330: a6b5 0abd f998 a7bb 2acc 4b3b e5c6 90bc
00000340: 15e3 d73c 174d 45bd 3af9 2cbb fd56 d33b
00000350: b4c8 59bd b6ce fc3c 55b3 4abd baa9 eb3b
00000360: 5b86 42bd baaf a9bb 1bbb 123d f590 cb3b
00000370: cb4f f43b 6c39 6fbd 57e4 323c f6a4 56bd
00000380: b083 0cbc 0a23 55bd 9408 79bb 3844 83bc
00000390: 6c0f fabc 971c e7bc 3cf3 e53c e676 9bbb
000003a0: 4cb9 0a3b 65c9 cc3c cf8c 333c 237a 523a
000003b0: 44bf 46bd 34ca 0bbd 48df cebc b7cd 5abd
000003c0: f97d 0dbd 72c7 56bd b26c a03c f864 ff3b
000003d0: a5e3 03bd 7732 5cbd 72bc 92b9 4986 ab3c
000003e0: ae94 ee3b 73bb 24bd e750 96bb bdc7 19bd
000003f0: e471 483c f3e6 f73c 9a9c f8bc 9888 dbbb
-0.0006569975 -0.05566314 -0.022932542 -0.03321009 -0.0062958994 0.03748574 0.0018809997 -0.016224995
-0.031345684 -0.05342849 0.008300984 -0.007112114 -0.020672116 -0.051327042 -0.041908365 -0.0446593
-0.032301776 -0.067563005 -0.051454164 -0.025661403 0.04243685 -0.02930484 0.00096208043 0.0021767924
0.0058537535 -0.022849362 0.039070357 0.026175298 -0.011925138 -0.03221306 0.022518283 -0.002241928
0.017207483 -0.030015131 -0.032470144 -0.021119203 -0.051627673 -0.033248268 -0.022648599 -0.0011865353
-0.012844803 0.0056463396 -0.011753601 -0.028914867 0.024256939 0.022713553 -0.04276579 -0.0479736
0.007944203 -0.057806075 -0.027594147 -0.0076169013 -0.049542923 -0.05365273 0.040114146 0.0029431072
0.00019149085 -0.045045055 -0.0071807974 -0.014500894 0.005348463 0.036701676 -0.035520162 -0.031893402
-0.02498386 -0.07613162 -0.03906896 -0.028875751 -0.0046600206 0.023642648 -0.040414125 0.0078963
-0.026692089 -3.6645329e-06 -0.047452267 -0.047142934 -0.0228458 -0.033959724 -0.036254756 -0.037341908
-0.06416031 -0.03525026 -0.048422027 0.0044959686 -0.042016227 0.010203214 -0.057520032 0.032634832
-0.048177045 -0.031060997 -0.070457995 -0.019966535 0.02904748 -0.010545345 -0.04261399 0.015938144
-0.024712669 0.019668229 -0.053883914 -0.02590466 -0.0014042322 0.020515425 0.0024237416 -0.035829976
0.019931117 -0.054296557 0.02541755 0.0012835802 0.0031817814 -0.02586709 -0.045140784 0.02186333
-0.051771205 -0.03982618 0.010109145 -0.0279834 0.0038537558 -0.014519184 0.027105331 -0.046814203
0.03052741 -0.00072510913 0.021718485 -0.045463193 -0.035980098 0.02165048 -0.048351604 0.009446409
-0.022469247 -0.03759341 -0.040149186 -0.029880593 0.016783277 -0.040778358 0.033175122 -0.017279537
-0.018942451 0.021549178 -0.028839506 -0.009791008 -0.025967423 0.028714243 0.041840844 -0.035276614
-0.0456546 -0.016443072 -0.046666127 -0.0112956865 0.021689655 0.007709665 0.035647724 -0.00946299
0.022220112 0.019405808 -0.017097043 -0.055791117 0.015317375 0.011844769 -0.009812801 -0.015919786
-0.009921797 -0.03723354 -0.027751122 -0.03799798 -0.006388553 -0.022444287 0.023087893 0.0025293902
0.018904954 0.038950987 0.008557062 -0.03173792 -0.04909921 -0.020003749 -0.0033345444 0.016279796
-0.044326466 -0.018202681 0.013784438 0.004995889 -0.028575005 0.03597575 0.03976973 0.002449942
0.0028208205 0.005917676 -0.05771559 -0.0013006508 0.005940888 -0.016696703 -0.0044151796 0.014055519
-0.0072568576 -0.036927324 -0.024015239 0.014390661 0.007475237 -0.029264499 -0.022851432 -0.030983228
-0.015008817 -0.030023148 -0.020409115 0.028914895 -0.03386464 -0.0051146713 0.0031097033 -0.017672965
0.026353398 -0.04816922 -0.0026393668 0.006449579 -0.05316992 0.030860286 -0.04948743 0.007191864
-0.047491413 -0.005178419 0.03582297 0.0062123486 0.007455801 -0.05840437 0.010918698 -0.052403413
-0.008576319 -0.05203537 -0.0037999498 -0.01602374 -0.030524932 -0.028211875 0.028070085 -0.0047443984
0.0021167574 0.024998376 0.010958864 0.0008029064 -0.04852225 -0.034128383 -0.025252953 -0.05341884
-0.034543965 -0.0524363 0.01958308 0.007794019 -0.03219952 -0.053759065 -0.00027987693 0.020938056
0.0072809076 -0.040217828 -0.004587281 -0.037544 0.012234185 0.030261492 -0.030348111 -0.006699633

fc2.bias f4 [300]
00000000: de5b 95bd fe77 853e 12e6 01be b79c d93d
00000010: 9e91 cebc 8424 5abd a67c 60bd 42bc 96bd
00000020: 9e42 85bd 2548 dbbc 0f4a fdbc 8db0 f3bb
00000030: 8855 883d b232 96bd d9e1 26bd 67d2 8bbd
00000040: 92cc 25bd a848 a7bc 7e52 91bd a1e8 7f3e
00000050: 55b3 993e 32a6 1ebd 6bf3 91bd e8fb 85bd
00000060: 12d8 8dbd a014 97bd 7343 debd 1a89 75bc
00000070: 8e3e b1bc 9b40 ecbc 3d0f 18bd ee2c d8bd
00000080: b91c 6dbd bffd c3bd 7c3e 8dbd 3851 a4bd
00000090: ae54 3abd 960c 02bd 0cf7 e0be 1365 06be
000000a0: c375 14bd a6a1 a13d 82b8 ebbc f6ff b7be
000000b0: 8198 13bd 5499 0ebd b329 893e e1cb 103e
000000c0: c794 1bbd e5f3 a5bd 2923 03bd 91ef 88bb
000000d0: db3c de3e 6206 a0bd 20b2 403e 43e0 b0bd
000000e0: a978 bdbd 28d4 34bb 6b51 9bbd 1d75 d4bc
000000f0: e063 0bbd 34b5 a9bd 4485 85bb 5301 94bd
00000100: 31a0 e1bc 16ea adbd e90f d7bd f1c8 49be
00000110: d80d 08bd 517c 3fbd 3654 e7bc 0b1d 9bbd
00000120: 876c ffbc 4ca3 11bd fdbd 53bd 9df2 60bd
00000130: 178c dbbd 13e5 2bbd cc24 e5bc b1d2 20bd
00000140: fc5e 98bc 8c12 02bf 35ee 25bd 4dcd 33bd
00000150: dd41 8fbd 01df eabc 6af6 3abd 9540 8cbd
00000160: eaf9 0d3e 42ae f5bc b5a2 1ebd 9abe 38bd
00000170: 62bb 8a3e c383 c8bc d2ad 77bd 32a5 f1bd
00000180: 9cba 4abd 7b47 233f 64f0 fbbc 08a0 5f3e
00000190: cce3 bbbc 48d3 70bd bc43 17be 8d5c 39bd
000001a0: 9735 08bd b286 9e3e 65b8 6c3e ede0 fabb
000001b0: bf56 243f f5f7 02bd 74b2 b0bc fcc5 adbd
000001c0: 0fe6 9fbc 32f6 22bd 61f3 0dbe 2179 1cbd
000001d0: c340 84bd 3f63 0ebf 5fd8 a7bd da5a 8fbc
000001e0: a172 1abd 0a5d 76be b256 46bd ff4b 62bd
000001f0: 3e23 0bbd 11bc 54bd 2b65 a4bc 188f a1bc
00000200: 1fe1 e0bc 752b 65bd 9308 85bd fa30 afbe
00000210: 801f ffbc 00f7 1abd 76fc a4bc 9df8 c1bd
00000220: 6433 893e 123c 56bd 656e 8ebd 689d cd3e
00000230: 8b50 6fbd 6401 acbd cbd7 66bd c4fe 89bd
00000240: d446 98bd e52d a3bd ed44 a3bc 7655 f5bc
00000250: 46fe 6dbd e516 e4bc cdaa c0bd a63a 71bc
00000260: 2188 d2bc 40f4 86bc bd16 fcbc ddf0 05bc
00000270: 96c8 41bd 8b4f 5ebc 0f06 8ebd 127a 04bd
00000280: 715f edbc a7a5 803c 189e edbd a90d 983e
00000290: 3118 57bd 59bb 4fbd bc2d 0abd 4aae c7bd
000002a0: 69fe 9ebd d03f 43be ecbb a9bd 58b4 97bc
000002b0: c47b 6bbd 3d24 28be abc1 a8bd 6395 78bd
000002c0: 27c0 3abd 95e3 2bbd aa16 82bc 9135 883e
000002d0: 0d1a c2bd 5cb3 62bd d5de 27be 2863 a3bd
000002e0: cfc5 a5bd ea0e 95bd 007e b3bd 282d 16bf
000002f0: 15a0 e7bc 9da8 70bd e9d8 adbd f908 c0bc
00000300: dae8 8cbd 32e2 0c3f abc5 63bd b289 ad3e
00000310: f04f 11bd aac6 88bd 4b8b 91bc a3bb 7dbc
00000320: 2c4b adbc 70ba a1bd 1cc4 52bd 0025 e2bc
00000330: e34e 8bbd 953f febd 8f25 acbc 43c0 45bd
00000340: c86d ecbd 0a05 99be e204 b7be 4d0f 25bd
00000350: 75ac 1abd aa05 91bd 56a8 fcba bb6b 2ebd
00000360: 4306 21bd e585 2cbd cce6 3dbe c319 a0bd
00000370: d56b b6bc 25c6 6ebe b687 c0bd a5c4 75bb
00000380: 7119 0bbd c565 c7bd 3f6f 62bd 49b0 de3d
00000390: 98b4 28bd 7094 81bd 9acf 393e 0e6a a0bd
000003a0: 9c95 27bd 9dff a2be b843 aabd fe5d 29bd
000003b0: aee2 b1bd a092 2dbd 29b2 a1bd 2612 b4bd
000003c0: a276 88bd 6fc1 9dbd 7464 a5bd c5cf bebc
000003d0: 1bd2 7abd 388e 90bd 6e72 7a3e 4426 693e
000003e0: 3847 1cbd b645 a43e d965 64bd 1d5b 9fbd
000003f0: f0b6 b1be 03ae 3b3e 816b b4bc b4cc acbd
-0.07292913 0.2606811 -0.12685421 0.10625594 -0.02521592 -0.05325748 -0.054806374 -0.07360126
-0.06506847 -0.0267678 -0.030919103 -0.007436818 0.06656939 -0.07333888 -0.04074273 -0.068272404
-0.040478297 -0.020420387 -0.07095812 0.24991085 0.30019632 -0.038732715 -0.071265064 -0.06542188
-0.06925978 -0.07376981 -0.10852709 -0.014986301 -0.021636274 -0.0288394 -0.037123907 -0.10555445
-0.05788872 -0.095698826 -0.068966836 -0.08023304 -0.045490913 -0.031750284 -0.43938482 -0.13124494
-0.03624512 0.0789216 -0.028774504 -0.3593747 -0.03603411 -0.034814194 0.26789626 0.14140274
-0.037983682 -0.0810316 -0.032015953 -0.004178949 0.43405804 -0.078137174 0.1881795 -0.086365245
-0.0925153 -0.0027592275 -0.075838886 -0.02593475 -0.034030795 -0.08286515 -0.0040747244 -0.07226815
-0.027542206 -0.08491914 -0.105010815 -0.1970556 -0.033216327 -0.046749417 -0.028238397 -0.07573899
-0.03117968 -0.035556123 -0.05169486 -0.054918874 -0.107200794 -0.04196651 -0.027971648 -0.03926343
-0.01859998 -0.5080955 -0.040510375 -0.043896962 -0.06994984 -0.02867079 -0.045645155 -0.068482555
0.13864866 -0.02999032 -0.03872939 -0.045103647 0.27096087 -0.024476891 -0.060468502 -0.11799087
-0.04949437 0.63780946 -0.030754276 0.21838391 -0.02293577 -0.058795244 -0.14771932 -0.04525428
-0.033254232 0.3096214 0.23117216 -0.007656208 0.64194864 -0.03197475 -0.021569468 -0.08485028
-0.01951888 -0.03978557 -0.13862373 -0.038201455 -0.06457665 -0.5562019 -0.081955664 -0.017499376
-0.037706975 -0.24058929 -0.048422523 -0.055248257 -0.033969156 -0.051937167 -0.020067772 -0.019721553
-0.027451096 -0.055949647 -0.06495776 -0.34217054 -0.03114295 -0.037833214 -0.020139914 -0.09471247
0.2679702 -0.05230338 -0.0695465 0.40159154 -0.05842642 -0.08398703 -0.05635814 -0.06738046
-0.074353844 -0.07967738 -0.019930327 -0.029947978 -0.058103822 -0.027842948 -0.09407578 -0.0147234555
-0.025699677 -0.01647389 -0.030772561 -0.008175102 -0.047310434 -0.013568769 -0.06934749 -0.032342978
-0.028976174 0.01570399 -0.116024196 0.29697922 -0.052513305 -0.050715778 -0.033735022 -0.0975004
-0.07763369 -0.19067311 -0.082877964 -0.018518612 -0.05749108 -0.16420074 -0.08240064 -0.06068934
-0.045593407 -0.041965086 -0.015879948 0.26603368 -0.09477625 -0.05534683 -0.16393597 -0.07977897
-0.080943696 -0.07278235 -0.08764267 -0.5866265 -0.028274575 -0.058754552 -0.08488638 -0.023441778
-0.068803504 0.55032647 -0.055608433 0.33894116 -0.035476625 -0.06678517 -0.017766615 -0.015486631
-0.021154009 -0.07896888 -0.051456556 -0.027605534 -0.06802156 -0.12414471 -0.021014003 -0.04827906
-0.115443766 -0.29886657 -0.35745913 -0.040297795 -0.037762124 -0.070811585 -0.0019276242 -0.04258321
-0.039312612 -0.04211988 -0.18545073 -0.07817414 -0.022268215 -0.23317774 -0.09400885 -0.0037501242
-0.03395981 -0.09736208 -0.055281874 0.108734675 -0.041187853 -0.0632714 0.181456 -0.07832728
-0.040914163 -0.31835642 -0.083136976 -0.041349404 -0.08685814 -0.04237616 -0.078953095 -0.08792524
-0.066632524 -0.0770291 -0.080758005 -0.023292432 -0.06123553 -0.07058376 0.24457714 0.22768503
-0.038153857 0.32084435 -0.055761192 -0.0778105 -0.34709883 0.18328099 -0.022023918 -0.084374815

fc3.weight f4 [2, 300]
00000000: cdab 91bb e4b7 223e 2af4 0abe 0a5a 8f3e
00000010: b793 163c 89ea 0f3c a3f5 1bbc a72b ed3c
00000020: a8b8 95bc 2b80 5dbd 340a fabc ad79 643c
00000030: 9b15 283e 29ae 55bc 7c6b f33b 133c b4bc
00000040: 1b33 2b3c f0ce bdbc dfde 60bc 25ba b1be
00000050: d2a4 43be 5b4a 11bf 03aa a23d 54f0 b53c
00000060: 09d3 6abc 0c0b 793c 1ee1 093d b3df 14bc
00000070: 7922 a63c 6a45 2abc 7776 2fbc 880e 293b
00000080: d2fb 26bc d260 613c 91eb 08bc 9f14 47ba
00000090: 8c43 af3b d90b 00bd 83fe 07be e131 883c
000000a0: beb9 af3c 60c2 58be 0e7f a13c e276 1b3e
000000b0: d3f8 1abd 9dd1 4b3c e207 263e 1a21 1f3e
000000c0: 1e08 1fbb 04bc 7aba a03d 00bc 8fb0 d93c
000000d0: 9636 c83f 86af 213d d702 97be 0da7 2b3d
000000e0: 6930 803c e5b6 02bb 4f2b 99bc 6d00 e53c
000000f0: 07cc c8bc 8eed aa3c 56b8 e3bb 396b 2e3e
00000100: 140c 253c e046 f23c e55c 043d 8e09 063e
00000110: 81d4 b3bc 8ccf b0bc 39de 43bc 8b2a 3dbd
00000120: b981 613c 46b8 123e 9f2b 6c3c 3d42 103c
00000130: 6817 353c 12ee e0bc 4203 ee3c 7c4c b63c
00000140: a658 a73b 5d35 18be a1c1 e13b 4afd 48bc
00000150: 31bf 8cbc 35f5 b7bc 8cc5 e83c eb56 e0bc
00000160: c559 f5bf 8138 51bb af06 aebc cd9f 853c
00000170: 12d1 cf3b 1718 6bbd 995c c73b 4b57 9fbc
00000180: 8ed9 97bc ff9c 25bd 31f4 083b a43a 85bd
00000190: 7ae4 593b 6e64 a93b d937 16bb 841b c43c
000001a0: 3642 0b3b 796e 0abe 58da 1bbd 9c41 f0bc
000001b0: d25b 39be 90e4 973e 6038 04bc a426 6aba
000001c0: ab46 d13b 55c4 83bd cf48 77be 57f3 5b3d
000001d0: e2b4 b53c 8f4b 183f 7d39 c3bc 8235 4f3c
000001e0: 78d5 c53c c631 f8bd 3af1 c23c f411 d8bc
000001f0: 10d3 4bbc fe15 c2bb b901 743a 535b 43bd
00000200: 913c 263c 685d 96bc 8456 ddbc adbf 8a3d
00000210: c0b4 fcbb 0a88 ab3b 50c1 e23b 3f47 29bb
00000220: fd84 ef3c c0a0 3dba c698 b43c a356 f8be
00000230: 3ce2 f23a d4f3 a1bc 84f7 583d 8291 c0bc
00000240: 0f0c 45bc 6c17 923c d1e1 593c ed73 10bd
00000250: c518 7abc 18d3 ddbc d574 823b 4161 033c
00000260: 5b8f 713b 21fe 963c 3852 253d 5221 7fbb
00000270: 8c1e 2dbc f631 39bb 702b 84bc 52db ac3c
00000280: fa64 8eba 74bd 5cbc 8c83 233c 6ba9 6c40
00000290: d71d 71bc d4ef c6bb 5d0e 813c d7ab d9bc
000002a0: 0f9f b73b dbb2 153d 49f9 b13c 562e a5bc
000002b0: 9312 14bc b401 bebc e871 63bb 19dc 973c
000002c0: e5ce 903a 96dd b0bc 7237 44bd 4a5f 7abd
000002d0: 8191 0c3d edfc d13b 5e66 ef3d 99a6 98bc
000002e0: acb3 983b e42c 703a 9448 69bd 99d2 e93f
000002f0: 464d cc3c 4940 82bb f541 223d 7d38 0bbd
00000300: e579 013c b6a1 ecbe 996c 093c 2756 2b3e
00000310: f916 ab3c b858 313c 41be bbbc 9868 8ebc
00000320: ad0b 003d 6a6f ec3c 06c6 64bc a2e8 033b
00000330: 0aff a23c 575b 10bc 1e1e 1b3c 6625 99bc
00000340: 05e5 79bd e62f 893f 3420 8e3e e2cc db3c
00000350: ed0c 40bb 2807 983b aa9b 023b 9ab9 7fbd
00000360: 43fd 72bc aa24 1a3d c084 833d ae77 0a3d
00000370: a220 f53c deba eb3d 5aef b73a f183 963d
00000380: 2065 0ebb ce6e 42bb bd66 ec3c b6f8 013d
00000390: df45 d93b 7dc2 693d 1f8a fcbd 111d 92bc
000003a0: 34b7 913c 4511 823d 379c c0bb bbdc 59bc
000003b0: aa6f e83c d2f9 76ba d6d4 17bd da7f 413c
000003c0: 866b 853c 6963 8b3b 9bff 033d aee0 e33c
000003d0: 03a8 c13e a84d 203c 9b98 62be d0a0 8c3e
000003e0: 9d33 d03c 1a1c 06bf c39a c53c 6c62 4f3c
000003f0: 1d8e 233e 2484 8cbd 700b 89bc 106d b8ba
-0.004445529 0.15890461 -0.13569704 0.27998382 0.009190491 0.008783945 -0.009519014 0.02895148
-0.018276528 -0.05407731 -0.030522443 0.013945025 0.16414492 -0.013042011 0.0074285846 -0.022001302
0.010449196 -0.023169965 -0.013725012 -0.3471233 -0.19105843 -0.5675408 0.079425834 0.022209324
-0.014332541 0.015200388 0.033661954 -0.009086537 0.02028011 -0.010392526 -0.010709397 0.0025796015
-0.010191875 0.013755994 -0.008356945 -0.00075943203 0.0053486284 -0.0312613 -0.13280682 0.016625347
0.021450873 -0.21167898 0.019713905 0.15182069 -0.037834954 0.012440112 0.16213945 0.15539971
-0.0024266313 -0.00095647597 -0.007827193 0.026573448 1.5641658 0.039474033 -0.29494354 0.04190736
0.015648084 -0.001994544 -0.018697409 0.027954305 -0.02451135 0.020865228 -0.006949465 0.1703309
0.01007368 0.029574811 0.032315154 0.13089582 -0.021951916 -0.021583341 -0.0119548375 -0.04618315
0.013763838 0.14328107 0.014414697 0.008804855 0.011052944 -0.02745727 0.029054288 0.022253267
0.0051070033 -0.14864106 0.0068895374 -0.01226742 -0.01718101 -0.022455791 0.02841451 -0.027385196
-1.916802 -0.0031924548 -0.021243421 0.01631155 0.006342062 -0.05739602 0.0060840365 -0.019450804
-0.018536355 -0.040432926 0.0020897503 -0.065053254 0.0033247755 0.005169443 -0.0022921471 0.023938902
0.0021249182 -0.13518704 -0.038050026 -0.02932816 -0.18101433 0.29666567 -0.0080700815 -0.00089321495
0.006386598 -0.06433932 -0.24148868 0.053698864 0.022180978 0.59490293 -0.023831123 0.012647035
0.024149641 -0.121188685 0.023796666 -0.026375748 -0.012440458 -0.005923032 0.0009308118 -0.047694515
0.010146276 -0.018355086 -0.027018793 0.067748405 -0.0077119768 0.005234723 0.0069200173 -0.002582982
0.029238218 -0.00072337314 0.022045504 -0.485036 0.0018530558 -0.019769587 0.052970424 -0.023506884
-0.012026801 0.017833434 0.013298468 -0.035266805 -0.015264695 -0.027078196 0.0039812126 0.008018793
0.0036859128 0.018431725 0.040361613 -0.0038929773 -0.010566365 -0.0028258539 -0.016133994 0.021100674
-0.0010863834 -0.0134729035 0.009980094 3.6978405 -0.014716587 -0.00607107 0.01575392 -0.026571197
0.005603678 0.036547523 0.021725314 -0.020163696 -0.009037632 -0.023194171 -0.0034705345 0.018537568
0.0011047988 -0.021590035 -0.04790444 -0.06112603 0.03431845 0.006408325 0.11689447 -0.018634127
0.0046600904 0.00091619627 -0.05695398 1.8267394 0.02493919 -0.0039749485 0.039613683 -0.03398942
0.007902597 -0.46217126 0.008387708 0.16732083 0.020884978 0.010824375 -0.022917869 -0.017383859
0.031261135 0.02886172 -0.013963228 0.0020127674 0.019897003 -0.00881084 0.00946763 -0.01869459
-0.061009426 1.0717742 0.27758944 0.026831094 -0.002930458 0.004639525 0.0019929209 -0.062432863
-0.01483089 0.03763262 0.064218044 0.03380554 0.029922787 0.115102515 0.0014033124 0.073493846
-0.0021727756 -0.0029668096 0.028857583 0.03173133 0.0066306437 0.057070244 -0.12331032 -0.017836126
0.017787553 0.0635095 -0.0058779973 -0.013297255 0.028373558 -0.00094213814 -0.03706821 0.011810267
0.016286623 0.004253794 0.032226186 0.027817097 0.37823495 0.00978414 -0.22128527 0.2746644
0.025415236 -0.5238663 0.024121648 0.012657743 0.1597218 -0.06861141 -0.016729087 -0.0014070589

fc3.bias f4 [2]
00000000: 0c79 f1bb 0382 1a3d
-0.0073691662 0.037721645
