DataShared/results/Hopper-v2_buffer_td3_final/bcq_actor_target_tmp.pt (torch_old, 509848 bytes, 6 tensors)

l1.weight f4 [400, 14]
0	0xbfc43f7b	-1.5331873
1	0x402e6cca	2.72539
2	0xbf41c9c9	-0.75698525
3	0xbff6ae32	-1.927191
4	0xbf7d36e1	-0.98911864
5	0x3e0cfa0e	0.13767263
6	0xbe9c9a59	-0.30586508
7	0x3f6752bb	0.9036061
8	0xbf5ddd20	-0.86665535
9	0xbed52a86	-0.41634005
10	0xbbc85346	-0.0061134426
11	0xbea00f43	-0.31261644
12	0xbec97f39	-0.39354876
13	0x3e762823	0.24038748
14	0xbf2b82aa	-0.6699625
15	0xc093388a	-4.6006517
16	0x3fd8efb8	1.6948156
17	0x3f7ed1b1	0.99538714
18	0x3f8087f2	1.0041487
19	0xbe9fccb4	-0.31210864
20	0xbf51ef93	-0.82006186
21	0x3e6060ac	0.21911877
22	0xbf1a4d3d	-0.60274106
23	0x3f00a1eb	0.5024707
24	0x3d64e40e	0.055881552
25	0xbf2c3505	-0.672684
26	0x3f434d1a	0.7628952
27	0xbe73ea84	-0.2381993
28	0xbf08a035	-0.53369457
29	0xbcce0ce0	-0.025152624
30	0x3e55a3da	0.20863286
31	0x3f2589c7	0.64663357
32	0xbe1d4ebd	-0.15362068
33	0xbee3804b	-0.44433817
34	0xbda56f36	-0.080778524
35	0xbe0bf554	-0.13667804
36	0x3d3acfe0	0.0456084
37	0x3e3853ef	0.18000768
38	0x3d8b2bc5	0.06795458
39	0x3ce1fccb	0.027586361
40	0xbdf762ec	-0.12079415
41	0xbe8227f4	-0.25421107
42	0xbee04077	-0.43799183
43	0xc014f79a	-2.3276124
44	0xbdbfaa09	-0.093586035
45	0x3f31282f	0.6920194
46	0xbef72e92	-0.48277718
47	0x3f443f21	0.7665883
48	0xbf2d79dd	-0.67764074
49	0xbfa91c03	-1.3211673
50	0x3fa1d54d	1.2643219
51	0x3f427399	0.7595764
52	0x3e2ae126	0.1668745
53	0xbe8720a5	-0.26392093
54	0xbdc7883c	-0.097427815
55	0xbf154a91	-0.58316904
56	0xbfbe60e3	-1.4873317
57	0x3f565d99	0.8373657
58	0xc034cc0c	-2.824954
59	0x3f991a54	1.196116
60	0xbee3d16f	-0.44495723
61	0x3f287588	0.6580434
62	0xbdb5284c	-0.08845577
63	0xbf2fe8b2	-0.6871444
64	0x3ebf5ced	0.37375584
65	0x3e0dd41d	0.13850446
66	0xbd82a894	-0.0637981
67	0xbd864760	-0.065565825
68	0xbdba1fc4	-0.0908809
69	0xbe1902fb	-0.14942543
70	0xbee48d9a	-0.44639283
71	0xc05ac085	-3.4180005
72	0x3fd6f974	1.6794877
73	0x3fe0bf5d	1.75584
74	0x3ffdea69	1.9837161
75	0x3e7e8135	0.24853976
76	0xbd9f9296	-0.07791631
77	0x3e6abb66	0.2292305
78	0xbed98644	-0.4248525
79	0xbc6fc3ed	-0.014634115
80	0xbefa492d	-0.48883954
81	0xbed1a160	-0.40943432
82	0xbed09143	-0.40735826
83	0x3e2f431e	0.17115447
84	0xbeee05f5	-0.4648892
85	0x40793dfd	3.8944085
86	0x3f401a2d	0.7503994
87	0x3e602dd6	0.21892485
88	0x3f93bdf4	1.1542344
89	0xbfa3b4a4	-1.2789502
90	0x3f6fe831	0.9371367
91	0x3e09cfd4	0.13458186
92	0x3e4c3ada	0.19944325
93	0xbc8af3fe	-0.016962048
94	0xbea8c156	-0.32960004
95	0x3f7a751c	0.97834945
96	0x3d8c478f	0.06849586
97	0x3e8d30ea	0.2757638
98	0xbf5a2d53	-0.8522541
99	0xc0ecc651	-7.3992085
100	0xbe3220f4	-0.17395383
101	0xbf134315	-0.57524234
102	0xbf42d56a	-0.76106894
103	0xbe1a1124	-0.15045601
104	0xbf9ae4ba	-1.2101052
105	0x3f7362de	0.95072734
106	0xbf7f8f33	-0.9982788
107	0xbf10231b	-0.56303567
108	0x3df63e29	0.12023575
109	0xbe856939	-0.2605684
110	0xbe6d52df	-0.23176144
111	0x3ee49e3a	0.44651967
112	0xbe77eba0	-0.24210978
113	0x41086d0f	8.526626
114	0xbee03456	-0.4378993
115	0xbfd0b279	-1.6304466
116	0xbeb5e4ec	-0.35526216
117	0xbe891ff6	-0.26782197
118	0x3ff0ef47	1.8823022
119	0x3ec259cc	0.37959135
120	0xbdc21dfc	-0.09478375
121	0xbe15f088	-0.14642537
122	0x3e711a09	0.23545088
123	0xbd731291	-0.05934388
124	0xbc70864e	-0.014680458
125	0x3dfda0d1	0.12384189
126	0xbf8bacf6	-1.0912158
127	0x40847050	4.13871
128	0xc002ba8b	-2.0426357
129	0xbf992ff0	-1.1967754
130	0xbf1abcb9	-0.6044422
131	0x3ead9adb	0.33907208
132	0xbf1f396b	-0.6219699
133	0xbec0ef0f	-0.37682387
134	0x3e375d12	0.17906597
135	0x3c8be957	0.017079039
136	0xbe38744c	-0.18013114
137	0x3e5adf9b	0.21374361
138	0xbd00c385	-0.031436462
139	0x3de09e5d	0.109677054
140	0xbd66a681	-0.056311134
141	0xc010759b	-2.257178
142	0x3fd4bb96	1.6619747
143	0x3eaa6c04	0.33285534
144	0xbfa147ae	-1.26
145	0xbe91bdf0	-0.28465223
146	0x3ed43d33	0.4145294
147	0x3f7b1779	0.9808269
148	0xbf536648	-0.82577944
149	0xbf1335cf	-0.5750398
150	0xbe91bc04	-0.28463757
151	0xbedd1a94	-0.4318434
152	0xbe057ebc	-0.13036627
153	0x3eea722f	0.4579024
154	0xbe98b65a	-0.29826623
155	0xc0642d60	-3.5652695
156	0x3e4a7aba	0.19773379
157	0xbd0916a4	-0.033468857
158	0x3f043963	0.51650065
159	0xbfc7e7ac	-1.5617576
160	0x3ea55e23	0.32298383
161	0xbe508f3e	-0.20367143
162	0x3dd43cc4	0.103631526
163	0xbf6a44c1	-0.9151116
164	0x3e88e2e9	0.2673562
165	0xbd254fcc	-0.040359303
166	0xbfa0e9de	-1.2571371
167	0x3ef785b3	0.48344192
168	0xbf0a50a8	-0.5402932
169	0x3f482234	0.7817719
170	0x3fc5cd98	1.5453367
171	0xbf162b00	-0.5865936
172	0x3fc6b06b	1.5522588
173	0xbf49f3b1	-0.7888747
174	0x3f43360d	0.7625435
175	0x3dff9619	0.12479801
176	0x3f014a94	0.5050442
177	0xbf0e92c9	-0.55692726
178	0x3c177cb4	0.00924604
179	0x3f3db5dd	0.74105626
180	0xbfa144f9	-1.2599174
181	0x3dff4d64	0.12465933
182	0xbe379488	-0.17927754
183	0x3ee301ba	0.44337255
184	0x3f531782	0.82457745
185	0x3e86bb0d	0.26314583
186	0xbedf2ed1	-0.43590406
187	0xbf08bde5	-0.53414756
188	0xbd71d764	-0.059043303
189	0xbe423989	-0.1896726
190	0x3e178fa6	0.14800891
191	0x3e446820	0.19180346
192	0x3d18df96	0.037322603
193	0x3d60b703	0.054862034
194	0xbf06813c	-0.52540946
195	0xbd4dc9b0	-0.050241172
196	0xbf15ca0f	-0.5851144
197	0xc0cc769a	-6.3894777
198	0xbff7a600	-1.9347534
199	0xbfae8d6d	-1.363691
200	0x3f14cc03	0.581238
201	0x3f012c01	0.5045777
202	0xbe40e128	-0.1883589
203	0xbe69faa7	-0.22849523
204	0xbe9c5264	-0.3053161
205	0xbe264e87	-0.16240893
206	0x3c3105a7	0.01080457
207	0xbe8b5068	-0.27209783
208	0xbe098b58	-0.13432062
209	0xbe20cf17	-0.15703999
210	0xbf8e9192	-1.1138175
211	0xbeaf72ae	-0.3426718
212	0xbf2df384	-0.679497
213	0xbf829cdf	-1.0204123
214	0xc006a54e	-2.1038394
215	0xbf26929b	-0.6506745
216	0xbf778639	-0.9668918
217	0x3dd70f67	0.10500985
218	0x3e00509e	0.12530753
219	0xbe41f52d	-0.18941183
220	0xbe8385f3	-0.25688133
221	0x3f830021	1.0234414
222	0xbf0afca5	-0.54291755
223	0xbead16ea	-0.33806545
224	0xbf111ffe	-0.5668944
225	0x3e7964fb	0.24354927
226	0x3e01a965	0.12662275
227	0x3e806b3b	0.2508181
228	0xbdbf1be0	-0.093314886
229	0xbec33131	-0.38123468
230	0xbd751063	-0.05983008
231	0x3df71bd3	0.12065854
232	0x3db269df	0.087115996
233	0x3dd59c0a	0.10430153
234	0x3d95868d	0.07301054
235	0xbdadf796	-0.08494489
236	0xbd0731cc	-0.033006474
237	0xbe015c0d	-0.12632771
238	0xbf66babb	-0.9012868
239	0xc0461c2a	-3.095469
240	0x3ebcef58	0.36901355
241	0x3f65494a	0.89564955
242	0x3f12c3c6	0.57329977
243	0xbd2acbd2	-0.041698284
244	0x3eedae77	0.4642217
245	0x3f3f838c	0.748101
246	0xbf2c1562	-0.6722013
247	0xbe8dcfa0	-0.27697468
248	0x3c907d28	0.017637804
249	0xbeddb101	-0.43299106
250	0xbfa20b3e	-1.2659681
251	0xbebdc172	-0.3706165
252	0xbf55358c	-0.8328483
253	0xc0206da5	-2.5066922
254	0xbe3dff8e	-0.18554518
255	0x3fe4e7cf	1.7883242

l1.bias f4 [400]
0	0xbf8b86c6	-1.0900505
1	0xbf394e57	-0.7238516
2	0xbeffbdfc	-0.49949634
3	0xbf2ce623	-0.6753866
4	0xbf6ad141	-0.91725546
5	0xbda9f169	-0.082979985
6	0xbea362bc	-0.31911266
7	0x3dadad6d	0.08480344
8	0x3eb91a14	0.3615271
9	0xbf6977e7	-0.9119858
10	0xbf6d705e	-0.92749584
11	0xbf26723d	-0.65018064
12	0xbec7a785	-0.38994995
13	0xbf166216	-0.5874342
14	0x3df76d44	0.12081388
15	0xbf6d8c78	-0.92792463
16	0xbf095c7d	-0.5365675
17	0xbf095c33	-0.5365631
18	0xbf6b7d68	-0.9198823
19	0xbf2ea75f	-0.6822414
20	0xbf7447d0	-0.9542208
21	0xbd295874	-0.04134412
22	0xbf1cb5d7	-0.61214966
23	0xbf6db691	-0.928567
24	0xbe020cae	-0.1270015
25	0xbefc2fbe	-0.49255174
26	0x3e955d55	0.2917277
27	0xbf16484e	-0.5870408
28	0xbf5b4343	-0.8564951
29	0xbf025fec	-0.50927615
30	0xbe581100	-0.21100235
31	0xbf0b9aff	-0.5453338
32	0xbe97d221	-0.29652503
33	0xbf299ffe	-0.66259754
34	0xbeae1867	-0.34002993
35	0xbec5c621	-0.38627723
36	0xbf1795ac	-0.59212756
37	0x3e49ac16	0.19694552
38	0x3e3c2bba	0.18376055
39	0xbed0308a	-0.40662032
40	0xbf140f8e	-0.57836235
41	0xbf8089b6	-1.0042026
42	0xbf23c6ff	-0.6397552
43	0xbf493379	-0.78594166
44	0xbf3a5cb8	-0.7279773
45	0x3f1a4580	0.602623
46	0xbec25991	-0.3795896
47	0xbea894af	-0.32925937
48	0xbf4dea81	-0.8043595
49	0xbf6485c9	-0.8926664
50	0xbf51f2c0	-0.8201103
51	0xbfaf37ea	-1.3688939
52	0x3f0e4b21	0.5558339
53	0xbefc6780	-0.49297714
54	0xbf8e270d	-1.1105667
55	0xbf0c57c5	-0.54821426
56	0xbea962ef	-0.33083293
57	0xbe82e97f	-0.25568768
58	0xbf514585	-0.81746703
59	0xbf314bf0	-0.69256496
60	0xbe854fb6	-0.26037377
61	0x3e46d6f5	0.19417937
62	0xbef2b0a6	-0.47400397
63	0xbdfaf7b5	-0.122542776
64	0xbeb3f691	-0.35149053
65	0xbf00c43c	-0.5029943
66	0xbf137eea	-0.5761553
67	0xbf1641e5	-0.586943
68	0xbeb50a49	-0.3535941
69	0x3e4c550f	0.19954322
70	0xbe83b11b	-0.25721058
71	0xbf2d9199	-0.6780029
72	0xbf0ebf65	-0.55760795
73	0x3dedc6a8	0.11610156
74	0xbee5bb63	-0.44869527
75	0xbf848e05	-1.0355841
76	0xbf54a7f0	-0.8306875
77	0xbb8bcef2	-0.004266613
78	0xbf4f1fd1	-0.80907923
79	0xbe929f78	-0.2863729
80	0xbf91c695	-1.1388727
81	0x3cb395cd	0.021922017
82	0xbf06803a	-0.5253941
83	0xbefa999e	-0.48945326
84	0xbe88aacb	-0.26692805
85	0xbe60b010	-0.21942163
86	0xbf2cd005	-0.6750491
87	0xbeff0181	-0.49805835
88	0xbf07af95	-0.5300229
89	0xbcf3d664	-0.029765315
90	0xbf4255a9	-0.7591196
91	0xbf4b874b	-0.79503316
92	0xbec5525f	-0.38539407
93	0x3f8791c9	1.0591365
94	0xbf2fcb8f	-0.6866998
95	0xbf3967be	-0.72423923
96	0xbee2be2d	-0.44285718
97	0xbf55a116	-0.8344892
98	0xbea1b48e	-0.31583065
99	0xbfb022c2	-1.3760607
100	0xbf899acb	-1.0750364
101	0xbf8f4e5d	-1.119579
102	0xbf6fc11c	-0.93654037
103	0xbe4d9b76	-0.20078835
104	0xbf5eccdc	-0.8703134
105	0x3e41b2d5	0.18915875
106	0xbe458519	-0.19289054
107	0xbf2015f0	-0.62533474
108	0xbf526a09	-0.82193047
109	0xbf395be7	-0.72405857
110	0xbee12b8d	-0.4397854
111	0xbf14464d	-0.5791977
112	0xbd4ffd8a	-0.050778903
113	0xbf4e17d1	-0.8050509
114	0xbeb5ac40	-0.3548298
115	0xbf636aac	-0.88834643
116	0xbf70f900	-0.94129944
117	0x3f7c52df	0.9856395
118	0xbed960c5	-0.42456642
119	0xbf2c5eff	-0.6733245
120	0xbf24beea	-0.6435381
121	0xbf51c2e2	-0.8193799
122	0xbf2849af	-0.6573743
123	0xbf50bd40	-0.8153877
124	0xbf93bf29	-1.1542712
125	0xbdb20115	-0.08691613
126	0x3f1a731a	0.6033188
127	0xbf2d03be	-0.67583835
128	0xbeaf5bff	-0.34249875
129	0xbf0828ad	-0.53187066
130	0xbec12ae9	-0.3772805
131	0xbf593340	-0.84843826
132	0xbf1a7e30	-0.60348797
133	0xbf2fc023	-0.6865255
134	0xbf0b8efd	-0.5451506
135	0xbe9d950e	-0.30777782
136	0xbf9aaf6a	-1.2084782
137	0xbf57302b	-0.84057873
138	0xbf2e07ff	-0.6798095
139	0xbe95c111	-0.2924886
140	0x3e4d8690	0.20070863
141	0x3ead74f6	0.33878297
142	0xbeccb421	-0.39981177
143	0xbebae152	-0.3650003
144	0xbd931b1e	-0.071829066
145	0xbfa9192d	-1.3210808
146	0x3dec7444	0.115456134
147	0xbe6a722d	-0.22895117
148	0xbf2f0137	-0.6836123
149	0xbd9bbd1b	-0.076044284
150	0xbf8ca023	-1.098637
151	0xbf18e41a	-0.59723055
152	0xbedc54fe	-0.43033594
153	0xbf58a631	-0.8462859
154	0xbeebf23c	-0.46083248
155	0xbfaafb19	-1.3357879
156	0xbf29866e	-0.6622075
157	0xbf34e022	-0.706545
158	0xbde33225	-0.11093549
159	0xbf07b8ee	-0.53016555
160	0xbf9539ca	-1.1658261
161	0xba35c658	-0.00069341576
162	0xbf386577	-0.72029823
163	0xbe303120	-0.1720624
164	0xbaee5da0	-0.0018185861
165	0xbf217cf3	-0.6308128
166	0xbcbceccb	-0.02306213
167	0xbdef8d73	-0.11696901
168	0xbf4588fc	-0.77162147
169	0xbef8428d	-0.48488274
170	0xbf499ddc	-0.787565
171	0xbf368318	-0.71293783
172	0xbf65a3a6	-0.8970283
173	0x3e5957a2	0.21224836
174	0xbf818e76	-1.0121601
175	0xbf06537f	-0.52471155
176	0xbfa1f1df	-1.2651938
177	0xbf5ada66	-0.854895
178	0xbf151202	-0.582306
179	0xbf7e5569	-0.99349076
180	0xbd8e1941	-0.069384106
181	0xbeef61fd	-0.46754447
182	0xbdb936bb	-0.09043642
183	0xbf211a9f	-0.62931246
184	0xbef41664	-0.47673333
185	0xbf79f8a4	-0.9764502
186	0xbec7afe4	-0.3900138
187	0xbf933ca4	-1.1502881
188	0xbf782d06	-0.969437
189	0xbf3b7596	-0.73226297
190	0xbe7982e5	-0.24366339
191	0xbf8d1507	-1.1022042
192	0xbfa18737	-1.2619389
193	0xbf17e3b4	-0.5933182
194	0xbf833bd9	-1.0252639
195	0xbe5bcd32	-0.21464995
196	0xbf4d9170	-0.80300045
197	0xbe80a9ed	-0.25129643
198	0xbe7febf7	-0.24992357
199	0xbef55768	-0.47918248
200	0xbf0ad690	-0.54233646
201	0xbf62c161	-0.8857632
202	0xbf86c7fb	-1.0529779
203	0xbf8bdaad	-1.092611
204	0xbf19fb2e	-0.60148895
205	0xbebdcaa6	-0.3706867
206	0x3c4fe823	0.012689623
207	0xbea4902e	-0.3214125
208	0xbf12b95e	-0.573141
209	0xbe9bbfbe	-0.30419725
210	0xbf6776f1	-0.90415865
211	0xbe35c8fc	-0.1775245
212	0xbf3f220a	-0.74661314
213	0xbdb74fc8	-0.08950764
214	0xbf309b1e	-0.6898669
215	0xbf6e395f	-0.9305629
216	0xbf75d55e	-0.960287
217	0xbe7feb71	-0.24992158
218	0xbf46e15a	-0.7768761
219	0xbf8e51cb	-1.1118711
220	0xbf66a75e	-0.9009913
221	0xbf2f59fb	-0.68496674
222	0xbf13e4b5	-0.57770854
223	0xbf242e1f	-0.64132875
224	0xbfcdb6c7	-1.6071404
225	0xbda25ff5	-0.079284586
226	0xbf1097b6	-0.5648149
227	0xbf8659f2	-1.0496199
228	0xbf03b40b	-0.514466
229	0xbf53aa20	-0.82681465
230	0xbeddc06a	-0.43310863
231	0x3f2760cd	0.6538208
232	0xbf5e5baf	-0.8685865
233	0xbdc069b3	-0.093951605
234	0xbf8df9cf	-1.109186
235	0xbf03bcd8	-0.5146003
236	0xbf28b967	-0.659079
237	0xbefc909e	-0.49329084
238	0xbd2eb59c	-0.042653665
239	0x3bddb1e0	0.006765589
240	0xbf7b716e	-0.98219955
241	0xbf621518	-0.88313437
242	0xbebe6ca3	-0.37192258
243	0xbe299f97	-0.16564785
244	0x3c8b82a0	0.01703006
245	0xbf7d0805	-0.9884036
246	0xbf046de7	-0.517302
247	0x3d3dff4c	0.04638605
248	0x3d3f6e80	0.04673624
249	0xbe235924	-0.15951973
250	0xbf5a970b	-0.85386723
251	0xbf0d5221	-0.55203444
252	0xbf685170	-0.90749264
253	0xbf4f96a1	-0.81089216
254	0xbeede28b	-0.464619
255	0x3e3b85b8	0.18312728

l2.weight f4 [300, 400]
0	0x3d5e0dc1	0.054212335
1	0xbc19d036	-0.00938802
2	0xbdd84f72	-0.10562028
3	0xbc643333	-0.0139282225
4	0xbd54ac32	-0.05192203
5	0xbbe05f83	-0.0068473234
6	0x3d66bf8a	0.05633501
7	0xbcaaa97f	-0.020832775
8	0xbd3a9160	-0.045548797
9	0xbc99d73e	-0.018779393
10	0xbc026fd5	-0.007961233
11	0x3c7b9dbb	0.01535743
12	0xbda443ff	-0.08020782
13	0x3d22e536	0.039769374
14	0xbd818575	-0.06324283
15	0xbd953486	-0.07285409
16	0xbd7a8ea4	-0.06117119
17	0xbdb35c10	-0.08757794
18	0xbc8e59d5	-0.01737682
19	0xbb91a8b6	-0.0044451607
20	0xbca4a98f	-0.020100383
21	0xbda41457	-0.08011692
22	0xbd359598	-0.044332117
23	0xbdd6db92	-0.104910985
24	0x3bce5650	0.0062969103
25	0x3c050fb4	0.00812142
26	0x3d01ad4c	0.03165941
27	0x3c4b3c90	0.012404576
28	0x3ce7e2f3	0.02830646
29	0x3c8a55b4	0.01688657
30	0x3d31f0c7	0.043442514
31	0xbce2fdd3	-0.027708923
32	0xbcf85cec	-0.030317746
33	0xbd2ea5cf	-0.042638596
34	0xbd8b746d	-0.06809316
35	0x3d315167	0.043290522
36	0xbc781ffc	-0.015144344
37	0xbd6ac08b	-0.05731253
38	0x3bb08fa7	0.0053882184
39	0x3d1bc81d	0.03803264
40	0x3b7280ec	0.0037003113
41	0xbd7d7344	-0.061877504
42	0xbc1ec42e	-0.009690328
43	0xbd99ff16	-0.07519357
44	0xbd8a29f5	-0.06746284
45	0x3c93a54d	0.018023157
46	0xbcc59e49	-0.024123328
47	0x3d101d65	0.035184283
48	0xbb02bb9d	-0.0019948252
49	0xbd6b1423	-0.05739225
50	0xbd2c653f	-0.042088743
51	0xbc5d5562	-0.013509126
52	0x3cbc2ea7	0.022971464
53	0xbcf9b704	-0.030482776
54	0x3d208dfe	0.039197914
55	0xbbddb4b2	-0.0067659253
56	0xbc8a9d95	-0.016920844
57	0xbc2455f7	-0.010030261
58	0xbc8c4f2c	-0.017127596
59	0xbc12e83e	-0.008966504
60	0xbc9af20e	-0.018914249
61	0xbdd4cb72	-0.103903666
62	0x3d2a5cef	0.041592535
63	0xbb091565	-0.0020917293
64	0x3d31a04f	0.043365773
65	0xbd947db6	-0.0725054
66	0xbd877c05	-0.06615452
67	0xbd538f0a	-0.051650085
68	0xbda93d6f	-0.08263671
69	0x3c840934	0.01611767
70	0x3c86ed0c	0.016470455
71	0x3cd44129	0.025909977
72	0x3c5d74a2	0.013516577
73	0xbd6e6493	-0.058201384
74	0xbd162076	-0.03665205
75	0xbb8c187d	-0.00427538
76	0xbd86a39d	-0.065741755
77	0xbcb383e8	-0.021913484
78	0xbcd6a031	-0.026199432
79	0x3c30d147	0.010792083
80	0x3cfce513	0.03087095
81	0x3bb40277	0.005493458
82	0xbbbfebb0	-0.0058569536
83	0xbd1776a6	-0.036978386
84	0xbd2699a7	-0.040673878
85	0xbde6554b	-0.11246737
86	0x3c930525	0.017946789
87	0xbd8d6485	-0.06903938
88	0xbb1d80be	-0.0024033035
89	0xbc459679	-0.012059801
90	0xbc003eb3	-0.007827449
91	0xbce7f4eb	-0.028315028
92	0xbd6d796b	-0.05797712
93	0xbd8cef55	-0.068815865
94	0xbd843e55	-0.064572014
95	0xbc5567b2	-0.013025211
96	0x3cb314f7	0.021860583
97	0x3cc0a5a0	0.023516476
98	0xbd4b94d9	-0.0497025
99	0x3cd67f61	0.026183786
100	0xbd9cf356	-0.076636
101	0x3d1f570d	0.038901377
102	0xbc836395	-0.016038695
103	0xbb35b0f0	-0.0027723871
104	0xbd5b69fa	-0.053567864
105	0xbc47bae9	-0.012190559
106	0x3d17e01d	0.037078965
107	0x3d0573b4	0.032581046
108	0xbd54d4d2	-0.051960774
109	0xbc59390a	-0.013258228
110	0x3c455348	0.012043782
111	0xbd9942ce	-0.07483445
112	0x3c1b114d	0.009464574
113	0x3d052a44	0.03251101
114	0xbdadc277	-0.08484357
115	0x3c1be1e5	0.009514307
116	0xbd61527b	-0.0550103
117	0x3c875e54	0.016524471
118	0xbded6f43	-0.11593487
119	0xbd67bd73	-0.056577157
120	0xbd4fd779	-0.0507426
121	0xbd8f468d	-0.06995878
122	0xbd5ce992	-0.053933688
123	0xbda8d0d7	-0.08242958
124	0x3c681fe2	0.014167758
125	0x3a419bb8	0.00073855696
126	0xbd4842d9	-0.048891876
127	0xbca73c27	-0.020414425
128	0x3c37ee5f	0.011226266
129	0x3bda85da	0.0066687884
130	0xbcb307b0	-0.021854252
131	0xbd1a2626	-0.037634037
132	0xbc2e8c07	-0.010653502
133	0xbcee862b	-0.02911671
134	0xbdab0fd7	-0.083526306
135	0xbde15efb	-0.11004444
136	0xbd98ca7e	-0.07460497
137	0xbd3ecaa0	-0.046579957
138	0xbbb3ddc0	-0.005489081
139	0xbc2f8f67	-0.010715342
140	0x3c4ed670	0.012624368
141	0xbd754263	-0.059877764
142	0x3d1cc925	0.038277764
143	0xbd5e692a	-0.05429951
144	0xbd82fc75	-0.063958086
145	0x3ca5475f	0.020175634
146	0xbc54764a	-0.012967655
147	0x3cd24171	0.02566597
148	0xbca5cdbf	-0.020239709
149	0xbdf02694	-0.11726108
150	0xbda03e4f	-0.078243844
151	0xbc20e007	-0.009819037
152	0xbdc6c8b9	-0.097062536
153	0xbd8e3e7d	-0.069455124
154	0xb9b7ea78	-0.00035079173
155	0xbdac8547	-0.08423858
156	0x3bee59a2	0.0072738687
157	0xbd3da800	-0.046302795
158	0xbc497ce9	-0.012297847
159	0xbb1f7d56	-0.002433618
160	0xbd1f16fe	-0.038840286
161	0xbd087e9d	-0.033323873
162	0xbd9fdfc6	-0.07806353
163	0xbd8cc5ed	-0.06873689
164	0xbc8c01d5	-0.017090717
165	0xbd3cb058	-0.046066612
166	0xbd23e31f	-0.04001152
167	0xbd8b9c44	-0.06816915
168	0xbd1ab5e6	-0.037771128
169	0xbdcdd631	-0.100506194
170	0xb89063b6	-6.885028e-05
171	0xbc5793f2	-0.0131578315
172	0xbd300ad8	-0.04297909
173	0xbdadd6c7	-0.08488231
174	0xbccbe7a9	-0.024890738
175	0xbcd5b2b1	-0.026086183
176	0xbd9b12de	-0.07571958
177	0x3c2946cf	0.0103318235
178	0xbd06d985	-0.032922287
179	0x3be5b45a	0.007010025
180	0xbdb5b280	-0.08871937
181	0x3ceb3a6a	0.028714377
182	0xbd05bb95	-0.032649595
183	0xbdac22d7	-0.08405083
184	0xbdb530d0	-0.08847201
185	0xbd9f9656	-0.07792346
186	0xbaf0b7e4	-0.001836535
187	0xbd132916	-0.035927854
188	0xbd4e98b9	-0.050438616
189	0xbd702694	-0.05863054
190	0xbd0637cd	-0.03276806
191	0xbd10c176	-0.03534075
192	0xbcaeedaf	-0.02135357
193	0x3cb9e57f	0.02269244
194	0xbcd1cc42	-0.025610093
195	0x3d254e67	0.040357973
196	0xbcc6a659	-0.024249243
197	0xbd79348c	-0.06084113
198	0x3c28f71e	0.010312824
199	0xbca5a6af	-0.020221082
200	0x3d575bb1	0.052577678
201	0xbd58aba2	-0.052898057
202	0xbd2de7f7	-0.042457547
203	0x3d290c36	0.04127141
204	0xbcaaff6f	-0.020873753
205	0xbc696e43	-0.01424748
206	0x3b192a95	0.0023371328
207	0xbd523e52	-0.051328965
208	0xbcb8bfbf	-0.02255237
209	0xbd7e7384	-0.062121883
210	0xbc59a8c2	-0.013284864
211	0xbd2f57ef	-0.04280847
212	0xbe0eee45	-0.1395808
213	0xbbed606a	-0.0072441595
214	0xbcba3787	-0.022731556
215	0xbd496641	-0.049169783
216	0xbd512832	-0.051063724
217	0xbc7187b4	-0.014741827
218	0xbc519a42	-0.012793126
219	0x3c735313	0.014851349
220	0x3d03a214	0.03213699
221	0x3bc2f2b0	0.0059493408
222	0xbcdfbb72	-0.02731106
223	0x3c96af6d	0.018394196
224	0xbc9a59b6	-0.018841606
225	0xbda1d2ff	-0.079015724
226	0xbdb4b498	-0.08823508
227	0xbd48b8d1	-0.04900438
228	0x3ca411ff	0.020028112
229	0xbd8a2c4d	-0.06746731
230	0xbd83a3a5	-0.06427697
231	0xbc0c4d9d	-0.008563426
232	0xbd3c22f0	-0.045931756
233	0x3c131015	0.008976002
234	0xbd305380	-0.04304838
235	0xbb77b044	-0.0037794271
236	0xbd1e0d5e	-0.038586967
237	0x3cc82f50	0.024436623
238	0xbd1c131d	-0.038104165
239	0xbd642e83	-0.05570842
240	0xbcac5b17	-0.021039529
241	0xbcb594cf	-0.022165684
242	0x3d4020d1	0.046906296
243	0x3cfa3594	0.030543126
244	0xbbc0d099	-0.005884242
245	0xbd92fe1e	-0.07177375
246	0xbc9e5476	-0.019327383
247	0xbca82817	-0.020526929
248	0xbd81a25d	-0.063297965
249	0x3d01f464	0.03172721
250	0x3ce71bba	0.028211463
251	0xba617733	-0.0008600831
252	0x3c6b4d2a	0.014361659
253	0x3be71d4a	0.007053052
254	0xbd393298	-0.045214266
255	0xbd38a468	-0.045078665

l2.bias f4 [300]
0	0x3c016ae4	0.00789902
1	0xbe6710ae	-0.22564957
2	0xbfbe4b0a	-1.486665
3	0xbd6f39dc	-0.05840479
4	0xbd24e1cf	-0.04025441
5	0xbd0c718d	-0.034287978
6	0xbf3d27d5	-0.73888904
7	0xbd45eec1	-0.048323397
8	0xbeb533c7	-0.35391065
9	0x3eb0fb4a	0.34566718
10	0xbd1eb876	-0.038750134
11	0xbd01a325	-0.031649727
12	0xbece54f2	-0.40299183
13	0xbd32b288	-0.043627292
14	0xbe3b891a	-0.18314019
15	0xbec0976e	-0.37615532
16	0xbc9f3aee	-0.01943728
17	0xbd6a131b	-0.057147127
18	0xbd7516a4	-0.059836045
19	0xbf9febac	-1.2493796
20	0xbd1b4d76	-0.03791567
21	0xbc24a5a7	-0.01004926
22	0x3dbf1fb0	0.09332216
23	0xbe210e1f	-0.15728043
24	0xbef7a337	-0.4836671
25	0xbd6b824b	-0.057497304
26	0xbf9161d7	-1.1357983
27	0xbf02685a	-0.5094048
28	0xbf2a6c16	-0.66571176
29	0xbf0efd52	-0.55855286
30	0xbea2bd21	-0.3178492
31	0xbf0e4199	-0.55568844
32	0x3e530025	0.20605524
33	0xbe7c2640	-0.24623966
34	0xbf3eaf6b	-0.74486417
35	0xbd90dfee	-0.07073961
36	0xbf11be5b	-0.56931084
37	0xbd3a4d68	-0.045483977
38	0xbe8974ac	-0.26846826
39	0xbd389658	-0.045065254
40	0xbf326de4	-0.6969893
41	0xbd64c933	-0.05585594
42	0xbec8cca5	-0.3921863
43	0xbd8c7e0d	-0.0685998
44	0xbf35101e	-0.7072772
45	0xbda3bf2f	-0.0799545
46	0xbeb74ddd	-0.35801592
47	0xbe691f10	-0.22765756
48	0xbecaea4b	-0.39631876
49	0x3ebd84b7	0.37015316
50	0xbda1ebff	-0.07906341
51	0xbd20d76f	-0.039267953
52	0xbe67315d	-0.22577424
53	0xbd0c13cd	-0.03419857
54	0x3f9d3ff0	1.2285137
55	0xbd0d2605	-0.034460086
56	0x3f106a2c	0.56412005
57	0xbec7247d	-0.38895026
58	0x3e9d8327	0.30764124
59	0xbf2076ab	-0.6268107
60	0x3f7810f2	0.96900856
61	0xbda6528f	-0.081212156
62	0xbea86747	-0.32891294
63	0xbd23f12f	-0.040024932
64	0xbfa7b2f6	-1.310149
65	0xbf1972bd	-0.599407
66	0x3e006596	0.12538752
67	0x3f08d3da	0.5344826
68	0x3e8778cf	0.26459357
69	0xbde22313	-0.11041846
70	0xbf4a71e4	-0.79080033
71	0xbdd4a912	-0.1038381
72	0xbc4cd209	-0.012501248
73	0xbf6217a0	-0.883173
74	0x3b09f59c	0.0021050936
75	0xbc334b2c	-0.010943215
76	0xbcd7f342	-0.026361112
77	0xbd44f331	-0.048083488
78	0xbe834593	-0.25639018
79	0xbf243ce1	-0.64155394
80	0xbd3946e8	-0.045233637
81	0xbf528499	-0.8223358
82	0xbd443b90	-0.047908366
83	0x3fab75d8	1.3395338
84	0xbd99ba52	-0.07506241
85	0xbcda3ada	-0.02663939
86	0xbdad9b67	-0.08476906
87	0xbdbbb658	-0.09165639
88	0xbf522079	-0.820808
89	0xbf2475b0	-0.64242077
90	0x3e930ba9	0.28719833
91	0xbd5fd472	-0.054645963
92	0x3f0f4d66	0.55977476
93	0xbd9e80fe	-0.07739447
94	0xbd83aaad	-0.06429038
95	0xbd31f708	-0.043448478
96	0x3f2ee924	0.68324494
97	0xbf80f8e3	-1.0075954
98	0xbe2e5237	-0.1702355
99	0xbd93158e	-0.071818456
100	0xbdcd41c1	-0.10022307
101	0xbdbf3fcf	-0.093383424
102	0xbeb9ce10	-0.36290026
103	0xbd6ce36b	-0.05783407
104	0xbd7c160c	-0.061544463
105	0xbd994a9e	-0.07484935
106	0xbcd89d92	-0.026442323
107	0xbdb4e9b8	-0.08833641
108	0xbd03bb15	-0.032160837
109	0xbdca7c61	-0.09887005
110	0xbe1e747e	-0.15474126
111	0xbf860701	-1.0470887
112	0x3e84c946	0.2593481
113	0xbd15be06	-0.036558174
114	0xbeafd516	-0.3434226
115	0x3e62fc28	0.22166502
116	0xbd469b69	-0.048488054
117	0x3e0b01f6	0.13574967
118	0xbf8ad1c2	-1.0845263
119	0xbce4808a	-0.027893323
120	0x3d31cff5	0.043411214
121	0xbf169723	-0.58824366
122	0x3e0a9b51	0.13535811
123	0xbce9ad8b	-0.028525135
124	0x3f85aa3d	1.0442578
125	0xbc4e3329	-0.01258544
126	0xbc9efd36	-0.01940785
127	0xbda14407	-0.07874303
128	0xbf32024b	-0.6953475
129	0x38e3192a	0.00010828891
130	0xbd9eab2e	-0.07747494
131	0xbcd2c89a	-0.02573042
132	0xbd179776	-0.03700968
133	0xbd6972f3	-0.05699439
134	0x3dbd552f	0.09244763
135	0x3eca9ecf	0.39574286
136	0xbd174dd9	-0.036939476
137	0x3cdaa901	0.026691915
138	0x3db7ce2b	0.0897487
139	0xbe03e971	-0.1288202
140	0xbf783106	-0.96949804
141	0x3cd47faa	0.025939781
142	0x3d2272e6	0.039660357
143	0xbe24f978	-0.1611079
144	0xbf18f97e	-0.59755695
145	0xbd5d6692	-0.054052897
146	0x3f2237df	0.633665
147	0xbf87cc1e	-1.0609167
148	0xbc6e7d93	-0.014556306
149	0xbfa3fae6	-1.2810943
150	0xbf49cc7e	-0.78827655
151	0xbd139036	-0.036026202
152	0xbef70f54	-0.48253882
153	0xbdc5c559	-0.09656782
154	0xbd82ed9d	-0.063929774
155	0x3f09e9cd	0.53872377
156	0x3f3ff47e	0.7498244
157	0xbf9ebe7b	-1.240188
158	0xbb8b345d	-0.0042481855
159	0xbf32af6b	-0.69798917
160	0xbd631093	-0.05543573
161	0xbeb99819	-0.36248854
162	0xbd11e0f6	-0.03561493
163	0x3f06443b	0.5244786
164	0xbd22789f	-0.039665814
165	0xbc40d7a1	-0.01177016
166	0x3f8ca6d2	1.098841
167	0xbd16e0a6	-0.036835335
168	0xbe877f1a	-0.26464158
169	0xbc955ace	-0.018231776
170	0xbc0adcdc	-0.008475509
171	0xbbfe9c24	-0.0077700783
172	0xbf89a998	-1.0754881
173	0x3d7db6aa	0.06194178
174	0xbf2dba86	-0.6786274
175	0xbe19620e	-0.14978811
176	0x3d3b6504	0.045750633
177	0xbd530bca	-0.051524915
178	0xbd0e63fd	-0.034763325
179	0xbe9d7c0e	-0.3075871
180	0xbd21a807	-0.039466884
181	0xbf635080	-0.8879471
182	0xbf572af8	-0.8404994
183	0xbd62f53b	-0.05540965
184	0xbd6f87fb	-0.05847929
185	0x3e6cb48b	0.23115747
186	0xbd3bc918	-0.045846075
187	0x3ee3390c	0.4437946
188	0xbcea2b53	-0.028585112
189	0xbf09c605	-0.5381778
190	0xbe4a6249	-0.19764055
191	0xbdf8c664	-0.12147215
192	0xbd3bb901	-0.04583073
193	0xbcf9a13d	-0.030472392
194	0xbf0f0eac	-0.5588176
195	0xbdcab0b9	-0.098969884
196	0x3cbdf270	0.023186892
197	0xbd00ff15	-0.031493265
198	0xbd799bac	-0.060939476
199	0xbecf9ec3	-0.40550813
200	0xbf96fd27	-1.1796006
201	0xbeb3abc0	-0.35091972
202	0xbd81fbbf	-0.06346845
203	0xbe28edbf	-0.16496943
204	0xbd0e496d	-0.034737993
205	0xbd932b6e	-0.07186018
206	0xbd4a45b1	-0.04938287
207	0x3f1f3e7c	0.6220472
208	0xbd34c438	-0.04413244
209	0xbf04b7b2	-0.51842797
210	0xbea1c3ca	-0.31594688
211	0xbfb67da9	-1.4257098
212	0x3f2b4603	0.66903704
213	0xbcfdc2f4	-0.03097675
214	0xbd006c03	-0.031353008
215	0xbd73e2d4	-0.059542492
216	0xbc07bda5	-0.008284961
217	0xbe0a5074	-0.13507253
218	0x3f141c1d	0.578554
219	0xbd1be506	-0.03806021
220	0xbd1c613e	-0.038178675
221	0xbe082210	-0.13294244
222	0x3dfe72ea	0.12424262
223	0x3d589538	0.05287668
224	0xbe420851	-0.18948485
225	0xbdcdbe10	-0.10046017
226	0xbd1fe85d	-0.03903996
227	0xbd335f30	-0.04379195
228	0xbd0dba75	-0.034601647
229	0xbe06de35	-0.13170703
230	0xbd792fdc	-0.060836658
231	0xbea8264d	-0.3284172
232	0xbdf2ff7c	-0.11865136
233	0x3eb2cba7	0.34921
234	0x3e71d45f	0.2361617
235	0xbd123236	-0.035692416
236	0xbf54256c	-0.828696
237	0x3e03becc	0.12865752
238	0xbf21c675	-0.63193446
239	0xbdfded24	-0.123987466
240	0xbd1b4b1e	-0.037913434
241	0xbcaab6c7	-0.020839108
242	0x3c62a661	0.013833613
243	0xbdf7052c	-0.12061533
244	0x3efea390	0.49734163
245	0xbfc7022c	-1.5547538
246	0xbd763494	-0.060108736
247	0xbf8a4015	-1.0800806
248	0xbd6361d3	-0.055513214
249	0xbf1977ef	-0.5994863
250	0xbcf474ec	-0.029840909
251	0xbe10133e	-0.1406984
252	0xbf38b530	-0.7215147
253	0x3dae700f	0.08517467
254	0xbcd215b2	-0.02564511
255	0xbda95a57	-0.08269184

l3.weight f4 [3, 300]
0	0x3cc5e498	0.024156854
1	0xbfb682bb	-1.4258646
2	0x3e9ef31d	0.31044856
3	0xbc766e64	-0.015040968
4	0x3da0a3df	0.07843756
5	0xbbe4006b	-0.0069580576
6	0xbfdec23f	-1.7403029
7	0xbd600352	-0.054690666
8	0x3f433d12	0.7626506
9	0xbfe4d981	-1.7878877
10	0x3d21627f	0.039400574
11	0xbc834455	-0.016023794
12	0x3e5b8f22	0.2144132
13	0x3d4efbf1	0.05053324
14	0x3e52e090	0.20593476
15	0xbf3112d8	-0.6916938
16	0x3ca7fc9c	0.020506196
17	0xbd4c2241	-0.049837355
18	0xbd46f799	-0.04857597
19	0xbef61400	-0.48062134
20	0xbb10598d	-0.0022026033
21	0x3c33705f	0.010952084
22	0xbe4f2499	-0.20228805
23	0x3df19d93	0.11797633
24	0x40023e83	2.0350654
25	0xbbb7ddf8	-0.0056111775
26	0x3fd013b8	1.6256018
27	0xbf251f0d	-0.64500505
28	0xbe7773ed	-0.24165316
29	0x3f2858f9	0.6576076
30	0xbe9ca0af	-0.30591342
31	0x3f6bad24	0.92061067
32	0x3f7afb39	0.98039585
33	0x3f7057ad	0.9388378
34	0x3f54c030	0.83105755
35	0xbc67e163	-0.0141528575
36	0x3de17500	0.11008644
37	0xbcacb427	-0.021081997
38	0xbf84516b	-1.0337347
39	0xbb53eb3a	-0.003233625
40	0xbe5bfc10	-0.21482873
41	0x3da8cdb7	0.08242362
42	0x3f009d47	0.50239986
43	0x3cd16521	0.025560917
44	0x3e128eeb	0.14312331
45	0x3cbba77f	0.022907017
46	0xbfed8499	-1.855609
47	0xbed06f6d	-0.4071001
48	0xbd78ec9a	-0.060772516
49	0xbf810019	-1.0078155
50	0xbc1a944d	-0.009434772
51	0x3cbf4610	0.023348838
52	0xbf92f3b8	-1.1480627
53	0x3d3773b7	0.04478809
54	0x3f007eee	0.5019368
55	0xbca5f1ae	-0.020256843
56	0xbf8db061	-1.1069452
57	0x3eeaacef	0.45835063
58	0xbf8e8402	-1.1134036
59	0x3fca1368	1.5787172
60	0xbf5ac4ad	-0.85456353
61	0xbcefb2f2	-0.029260132
62	0xbf5d8f10	-0.8654642
63	0xbd0a2f6c	-0.03373663
64	0x3f0b812c	0.54493976
65	0xbeab4e4f	-0.33458182
66	0xbf2e2007	-0.6801762
67	0x3f0e76ac	0.5564983
68	0xbf382692	-0.71933854
69	0xbd329987	-0.043603446
70	0x3f8a39ca	1.0798886
71	0x3d83eabc	0.064412564
72	0x3d21ddee	0.03951829
73	0x3df73df4	0.120723635
74	0xbd192135	-0.037385184
75	0x3e6c9b22	0.23106053
76	0x3e47dbb8	0.1951741
77	0x3cd6c80a	0.026218433
78	0x3edae5fb	0.42753586
79	0xbf59ec22	-0.85125935
80	0x3ceaeea2	0.028678242
81	0xbf2b16c4	-0.6683161
82	0x3e000f7f	0.12505911
83	0xbcb0768c	-0.021540903
84	0x3ea06e6a	0.3133424
85	0xbcb3b9cf	-0.021939186
86	0x3cd00c9a	0.025396634
87	0x3d143e6d	0.036192346
88	0x3fee0441	1.8595048
89	0xbfdd051f	-1.7267188
90	0xbfa31586	-1.2740943
91	0x3c0d69fd	0.008631227
92	0x3f5010c2	0.8127557
93	0xbc757cfb	-0.014983411
94	0xbca269c6	-0.019825827
95	0x3d0c57c4	0.034263387
96	0xbe544bd7	-0.20732056
97	0xbf30b356	-0.69023645
98	0x3ccc8e10	0.024970084
99	0x3d93a09d	0.07208369
100	0xbbb7f180	-0.005613506
101	0x3b8d0854	0.0043039713
102	0xbece26a9	-0.4026387
103	0xbc77692b	-0.015100758
104	0x3bbb7bc0	0.0057215393
105	0xbd4c2880	-0.04984331
106	0x3d8ecbe4	0.06972483
107	0x3ca1546e	0.01969358
108	0x3c00d8cd	0.007864189
109	0x3bc05208	0.005869154
110	0x3c4bb800	0.012434006
111	0x3f1d754a	0.61507094
112	0xbf4f2972	-0.80922616
113	0xbcac9a5e	-0.021069702
114	0xc0006b44	-2.006547
115	0xbd82808f	-0.06372177
116	0xbcab64fe	-0.02092218
117	0xbe533231	-0.20624615
118	0x4006c130	2.1055412
119	0xbcf2e294	-0.029649056
120	0x3f4f8933	0.81068724
121	0x3eddd915	0.43329683
122	0x3fde1ee2	1.7353175
123	0x3bd11d42	0.0063816616
124	0xbf9b2e03	-1.2123417
125	0x3c9d6a15	0.019215623
126	0xbd1e058d	-0.038579512
127	0x3cab2cbf	0.02089536
128	0xbda77864	-0.081772596
129	0xbc735bab	-0.014853398
130	0xbc3f06c8	-0.011659332
131	0x3d1e8a5e	0.038706176
132	0x3c980a4d	0.0185596
133	0x3ca75dbe	0.020430442
134	0xbedcbb79	-0.4311178
135	0x3eb7d02d	0.35901013
136	0x3ef34392	0.4751249
137	0x3d7965c3	0.060888063
138	0xbfe77de3	-1.8085293
139	0xbf812960	-1.0090752
140	0x3fabb390	1.3414173
141	0xbc817b4c	-0.015805863
142	0xbfe32481	-1.7745515
143	0x4005a615	2.0882618
144	0xbf059010	-0.52172947
145	0xbcd9e741	-0.026599528
146	0x3ffd2c3f	1.9779128
147	0xbeedd497	-0.46451256
148	0xbc91ebe5	-0.017812679
149	0xbedd80fd	-0.43262473
150	0xbf92eeb0	-1.1479092
151	0x3c0cbc8d	0.008589876
152	0x3cc5dfe8	0.024154618
153	0xbd5f4001	-0.0545044
154	0x3cc54921	0.024082722
155	0x3fca338a	1.5796978
156	0xbebc80f8	-0.36817145
157	0x3f2707b4	0.6524613
158	0xbbdcfde2	-0.0067441324
159	0x3f2da2b8	0.67826414
160	0x3d1ea99d	0.038735975
161	0xbf0dc917	-0.55384964
162	0xbd99bd75	-0.07506839
163	0xbf7d08f4	-0.98841786
164	0x3d018ed4	0.031630352
165	0xbcdfd151	-0.02732149
166	0xbf76ae16	-0.96359384
167	0x3cd7a459	0.026323484
168	0xbf42a323	-0.76030177
169	0xbd34b6ef	-0.04411977
170	0x3d3f95c0	0.046773672
171	0x39d29829	0.0004016769
172	0x3e1d169f	0.1534066
173	0xc03aad00	-2.916809
174	0x3eedb09c	0.46423805
175	0x3d18d955	0.03731664
176	0xbf6ee096	-0.9331144
177	0x3d66b242	0.056322344
178	0x3c1ef6f5	0.009702434
179	0xbe9ee8e5	-0.3103706
180	0x3c5b302a	0.013378182
181	0x3f98cfbf	1.1938399
182	0x3f74360e	0.9539498
183	0xbc8244dc	-0.015901975
184	0xbc484080	-0.012222409
185	0x3f8c593d	1.0964733
186	0xbc6a2b52	-0.014292555
187	0x3fc9777d	1.573959
188	0x3abf302f	0.0014586503
189	0x3e4cc845	0.19998272
190	0xbf3f249d	-0.7466524
191	0x3e193a35	0.1496361
192	0x3e9fc256	0.31202954
193	0x3f9c1713	1.2194542
194	0xbf827c86	-1.0194252
195	0xbc93ead5	-0.018056313
196	0x3d4e1f2a	0.05032269
197	0x3a06c535	0.00051410805
198	0x3da49477	0.0803613
199	0xbf042df5	-0.51632625
200	0xbe45a7d2	-0.193023
201	0xbf188f1d	-0.59593374
202	0xbf4d4a99	-0.8019195
203	0xbdbe5637	-0.09293788
204	0x3c9f7c8e	0.019468572
205	0xbabe21e0	-0.0014505945
206	0xbc81d5ec	-0.015849076
207	0xbf3409f4	-0.7032769
208	0xbcdb6f72	-0.02678654
209	0xbf488ce6	-0.78339994
210	0x3ef1425e	0.47120947
211	0x3f1986fd	0.599716
212	0x3f2b80cd	0.6699341
213	0xbd14ce2e	-0.03632944
214	0x3c6a3193	0.014294046
215	0xbc94094d	-0.018070841
216	0x3c2cc556	0.010545095
217	0x3f0ab662	0.54184544
218	0x3f601698	0.87534475
219	0xbcb099cf	-0.021557717
220	0xbd78e283	-0.060762893
221	0x3f6e9521	0.931963
222	0x3f10bdfb	0.5653989
223	0x3eedbd7f	0.46433637
224	0x3da02eae	0.078214034
225	0x3e8f9590	0.28043795
226	0x3ae8705b	0.001773368
227	0xbce607f3	-0.028079962
228	0x3b027165	0.0019904014
229	0xbc881075	-0.01660941
230	0x3bf036fc	0.0073307734
231	0xbf962d3b	-1.1732553
232	0xbd84d455	-0.064858116
233	0x3fa933c6	1.3218925
234	0xbf9dfe6d	-1.234327
235	0xbcda3a11	-0.026639016
236	0xbee20012	-0.4414068
237	0xc004aa4d	-2.0728943
238	0x3fe8235d	1.8135792
239	0xbd411eb9	-0.04714844
240	0x3be3ef3a	0.0069560083
241	0xbca889bf	-0.020573495
242	0x3e37e45e	0.17958209
243	0xbd07975d	-0.033103336
244	0x3bb086bb	0.005387155
245	0x3eac84ab	0.33694968
246	0xbb680232	-0.00354017
247	0x3fc9424e	1.572336
248	0xbc33afa7	-0.010967172
249	0xc023e8f0	-2.5610924
250	0x3d31360f	0.043264445
251	0xbd211846	-0.03932979
252	0x3e5ed9e9	0.21762814
253	0x3fd74796	1.6818721
254	0xbd69880a	-0.057014503
255	0x3d018a24	0.03162588

l3.bias f4 [3]
0	0xbf64e163	-0.8940641
1	0xbf18ab24	-0.5963614
2	0x3f3b43f9	0.73150593
