DataShared/results/Hopper-v2_buffer_td3_final/bcq_actor.pt (torch_old, 509836 bytes, 6 tensors)

l1.weight f4 [400, 14]
0	0xbfc5e52e	-1.5460565
1	0x402d7bae	2.7106738
2	0xbf3f19f2	-0.74648964
3	0xbff55841	-1.9167558
4	0xbf7f6907	-0.99769634
5	0x3e04e204	0.12976843
6	0xbe99fc1d	-0.3007516
7	0x3f6b16f2	0.91831887
8	0xbf57ddf4	-0.8432305
9	0xbee0c83e	-0.43902773
10	0xbb4379cb	-0.0029827233
11	0xbea90908	-0.33014703
12	0xbec6debd	-0.3884181
13	0x3e839764	0.2570144
14	0xbf289fff	-0.65869135
15	0xc0934ca0	-4.6031036
16	0x3fd8b681	1.6930696
17	0x3f7f70c2	0.9978143
18	0x3f808795	1.0041376
19	0xbe9bd9c5	-0.30439582
20	0xbf52b801	-0.8231202
21	0x3e54cb19	0.207806
22	0xbf1b9c2e	-0.60785186
23	0x3f018d1c	0.5060594
24	0x3d98d00a	0.07461555
25	0xbf2afae0	-0.66789055
26	0x3f4a7268	0.7908082
27	0xbe6b69c9	-0.22989573
28	0xbf08a072	-0.5336982
29	0xbcce0c6d	-0.02515241
30	0x3e55a494	0.20863563
31	0x3f258a7f	0.64664453
32	0xbe1d4e9a	-0.15362015
33	0xbee380f7	-0.4443433
34	0xbda56e6c	-0.08077702
35	0xbe0bf4f1	-0.13667656
36	0x3d3ad06a	0.045608915
37	0x3e38538a	0.18000618
38	0x3d8b2bbf	0.06795453
39	0x3ce1fd02	0.027586464
40	0xbdf7638a	-0.120795324
41	0xbe8227e3	-0.25421056
42	0xbedd9c50	-0.4328332
43	0xc015d376	-2.3410316
44	0xbdc6bf72	-0.09704484
45	0x3f2f35ca	0.6844145
46	0xbefa26a7	-0.48857614
47	0x3f461129	0.77369934
48	0xbf2c9f49	-0.6743055
49	0xbfa98f92	-1.3246939
50	0x3fa0652a	1.2530873
51	0x3f45ba67	0.7723755
52	0x3e1be37e	0.152235
53	0xbe88daf7	-0.26729557
54	0xbdd2a096	-0.102845356
55	0xbf1889e0	-0.5958538
56	0xbfbe33cd	-1.4859558
57	0x3f547bb3	0.8300125
58	0xc034e611	-2.8265421
59	0x3f98a57a	1.19255
60	0xbedcba86	-0.43111056
61	0x3f27e224	0.6557944
62	0xbdb3e4dd	-0.087838866
63	0xbf337b70	-0.70110226
64	0x3ebdc197	0.3706176
65	0x3e08ea31	0.13370587
66	0xbd9f4982	-0.077776924
67	0xbd539210	-0.051652968
68	0xbda2883b	-0.0793614
69	0xbe1cf214	-0.1532672
70	0xbee79b2d	-0.45235577
71	0xc05b48fd	-3.4263299
72	0x3fd75ad1	1.682459
73	0x3fe14287	1.7598428
74	0x3ffd759e	1.9801519
75	0x3e7921f5	0.2432936
76	0xbdad25dc	-0.08454487
77	0x3e67bd7e	0.2263088
78	0xbedd141b	-0.43179402
79	0xbb0ad028	-0.00211812
80	0xbef4eb70	-0.47835875
81	0xbecf0e59	-0.40440634
82	0xbecc1f67	-0.39867708
83	0x3e3d69f1	0.18497445
84	0xbeea46a3	-0.45757017
85	0x4079e9af	3.904888
86	0x3f412c82	0.7545854
87	0x3e5baae0	0.21451902
88	0x3f94ff24	1.1640363
89	0xbfa37f71	-1.2773267
90	0x3f719cbe	0.94379795
91	0x3e0a80b0	0.13525653
92	0x3e4909b9	0.19632615
93	0xbc92fca3	-0.017942732
94	0xbea95853	-0.330752
95	0x3f79f8b1	0.976451
96	0x3d9907e1	0.07472206
97	0x3e9196f3	0.28435478
98	0xbf5b7e9e	-0.8574008
99	0xc0eced26	-7.403949
100	0xbe2bd755	-0.16781361
101	0xbf14eeaf	-0.581767
102	0xbf42319c	-0.7585695
103	0xbe1e406e	-0.15454265
104	0xbf9a7ee9	-1.206998
105	0x3f777a82	0.9667131
106	0xbf7e97da	-0.9945046
107	0xbf10a9a7	-0.5650887
108	0x3de249a0	0.11049199
109	0xbe924663	-0.28569326
110	0xbe7a4b94	-0.24442893
111	0x3ee05851	0.4381738
112	0xbe74431c	-0.23853725
113	0x41089ef8	8.538811
114	0xbee41d19	-0.4455345
115	0xbfd07f9f	-1.6288947
116	0xbeaf1bdc	-0.34200943
117	0xbe878f50	-0.26476526
118	0x3fefddda	1.8739579
119	0x3ebaa8b6	0.3645684
120	0xbdc60c9f	-0.09670376
121	0xbe27969a	-0.16366044
122	0x3e7100d8	0.23535478
123	0xbd6dbead	-0.05804317
124	0xbc597c25	-0.013274227
125	0x3e0016d8	0.12508714
126	0xbf8bfb23	-1.0936016
127	0x4083a648	4.114048
128	0xc002f126	-2.0459685
129	0xbf99c4cf	-1.2013186
130	0xbf1f0177	-0.6211161
131	0x3eaf2105	0.3420488
132	0xbf1d18d9	-0.6136604
133	0xbebb6b45	-0.36605278
134	0x3e3c4134	0.18384248
135	0x3cd5a81d	0.02608114
136	0xbe440474	-0.19142324
137	0x3e4d636c	0.20057458
138	0xbd2412e1	-0.040057067
139	0x3dfd59bb	0.1237063
140	0xbd8a0e35	-0.06740991
141	0xc010731f	-2.2570264
142	0x3fd481a8	1.6602068
143	0x3eb1e877	0.3474767
144	0xbfa1b04a	-1.2631924
145	0xbe94221c	-0.28932273
146	0x3ed1a443	0.40945634
147	0x3f7bbf01	0.98338324
148	0xbf524e57	-0.8215079
149	0xbf138dd9	-0.5763832
150	0xbe8ea21a	-0.2785805
151	0xbee15c02	-0.4401551
152	0xbe1172c2	-0.14203933
153	0x3ef14047	0.47119352
154	0xbe944716	-0.28960484
155	0xc065c3ba	-3.5900712
156	0x3e4262d8	0.18983018
157	0xbd05d531	-0.03267402
158	0x3f0720ea	0.527846
159	0xbfc839a0	-1.5642586
160	0x3ea3a9e7	0.31965563
161	0xbe3e2c85	-0.1857167
162	0x3df0a096	0.11749379
163	0xbf69fce4	-0.91401505
164	0x3e8d8dde	0.276473
165	0xbd226f9f	-0.03965723
166	0xbfa13b9a	-1.2596314
167	0x3ef9f694	0.48820937
168	0xbf0dfdaf	-0.55465215
169	0x3f47df9f	0.78075594
170	0x3fc65df7	1.5497426
171	0xbf14603c	-0.5795934
172	0x3fc4aed3	1.5365852
173	0xbf4b6bf1	-0.7946158
174	0x3f407538	0.7517886
175	0x3e066cf1	0.13127495
176	0x3f04c53e	0.5186347
177	0xbf0d6d52	-0.55244935
178	0xbbc56b32	-0.0060247416
179	0x3f3dc9e5	0.7413619
180	0xbfa16c11	-1.2611104
181	0x3e0653b2	0.13117865
182	0xbe379490	-0.17927766
183	0x3ee30119	0.44336775
184	0x3f5317ef	0.82458395
185	0x3e86bb6b	0.26314864
186	0xbedf2e82	-0.4359017
187	0xbf08be10	-0.5341501
188	0xbd71d7f8	-0.059043854
189	0xbe4239fa	-0.18967429
190	0x3e179047	0.14801131
191	0x3e4467d5	0.19180234
192	0x3d18e051	0.0373233
193	0x3d60b738	0.05486223
194	0xbf06809b	-0.52539986
195	0xbd4dc910	-0.050240576
196	0xbf156234	-0.5835297
197	0xc0cc874c	-6.3915157
198	0xbff82dfb	-1.9389032
199	0xbfae94a8	-1.3639116
200	0x3f13eac6	0.5778011
201	0x3f0202fb	0.507858
202	0xbe3d0a38	-0.1846093
203	0xbe5fa11f	-0.21838807
204	0xbe9d5403	-0.30728158
205	0xbe197a92	-0.14988163
206	0x3c55408f	0.01301588
207	0xbe889e86	-0.26683444
208	0xbe0e3466	-0.13887176
209	0xbe275e9b	-0.16344683
210	0xbf90ddb0	-1.1317654
211	0xbeaf92b6	-0.3429162
212	0xbf2bfcd0	-0.67182636
213	0xbf828555	-1.019694
214	0xc006c71f	-2.1059034
215	0xbf29b370	-0.66289425
216	0xbf763276	-0.9617075
217	0x3dcdd641	0.10050631
218	0x3dd0ca95	0.101948895
219	0xbe2e83ba	-0.17042437
220	0xbe74fcc5	-0.23924549
221	0x3f82a612	1.0206931
222	0xbf092b85	-0.5358203
223	0xbea41b6e	-0.32052177
224	0xbf112096	-0.5669035
225	0x3e796474	0.24354726
226	0x3e01a985	0.12662323
227	0x3e806b68	0.25081944
228	0xbdbf1c77	-0.09331601
229	0xbec331c1	-0.38123897
230	0xbd750fd0	-0.059829533
231	0x3df71b48	0.1206575
232	0x3db2695d	0.08711503
233	0x3dd59c03	0.104301475
234	0x3d958614	0.07300964
235	0xbdadf732	-0.084944144
236	0xbd07317f	-0.033006188
237	0xbe015c62	-0.12632897
238	0xbf63f47d	-0.89044935
239	0xc0452173	-3.0801666
240	0x3eb498d5	0.35272852
241	0x3f661348	0.8987317
242	0x3f178d23	0.5919973
243	0xbd0463eb	-0.03232185
244	0x3edfe72b	0.43731055
245	0x3f43f907	0.7655186
246	0xbf2dc7f5	-0.67883235
247	0xbe8efe39	-0.27928331
248	0x3cd41e5a	0.025893379
249	0xbedb2d07	-0.4280779
250	0xbfa3e9cd	-1.2805725
251	0xbec649dd	-0.38728228
252	0xbf54fc75	-0.8319772
253	0xc020326d	-2.5030777
254	0xbe3ea3fc	-0.18617243
255	0x3fe69758	1.8014936

l1.bias f4 [400]
0	0xbf8d2dc2	-1.1029589
1	0xbf36f6a6	-0.71470106
2	0xbeffbe11	-0.49949697
3	0xbf2b63c9	-0.66949135
4	0xbf6a44f7	-0.9151148
5	0xbdb6798c	-0.08909902
6	0xbea00447	-0.31253263
7	0x3da72deb	0.08163055
8	0x3ebb6b39	0.36605242
9	0xbf6a2851	-0.9146777
10	0xbf70140e	-0.937806
11	0xbf2428e4	-0.64124894
12	0xbecedf7b	-0.40404877
13	0xbf16624f	-0.58743757
14	0x3dfb60f2	0.1227435
15	0xbf7171ed	-0.9431446
16	0xbf095cde	-0.5365733
17	0xbf063934	-0.52431035
18	0xbf6b49ed	-0.91909677
19	0xbf2ea7ac	-0.68224597
20	0xbf73fa0f	-0.95303434
21	0xbd14467b	-0.036200028
22	0xbf16d280	-0.5891495
23	0xbf6f7afc	-0.93547034
24	0xbe001dae	-0.12511322
25	0xbef9685e	-0.48712438
26	0x3e946c20	0.28988743
27	0xbf164850	-0.5870409
28	0xbf5be9e2	-0.8590375
29	0xbf03a056	-0.5141653
30	0xbe62a6bc	-0.22133917
31	0xbf145be8	-0.5795274
32	0xbe96a5c1	-0.29423335
33	0xbf2a7541	-0.66585165
34	0xbeae18d7	-0.34003326
35	0xbec5c683	-0.38628015
36	0xbf16cbe1	-0.58904845
37	0x3e44bf79	0.19213666
38	0x3e3bbdd4	0.18334132
39	0xbed030af	-0.40662143
40	0xbf141011	-0.57837015
41	0xbf802221	-1.0010415
42	0xbf23c7b5	-0.63976604
43	0xbf493412	-0.7859508
44	0xbf388303	-0.7207491
45	0x3f1ac26d	0.6045292
46	0xbec25996	-0.37958974
47	0xbeabd110	-0.3355794
48	0xbf4deaea	-0.80436575
49	0xbf66386a	-0.8992983
50	0xbf52d41a	-0.8235489
51	0xbfae8777	-1.363509
52	0x3f0c121d	0.5471514
53	0xbefc754e	-0.49308246
54	0xbf8e27c5	-1.1105887
55	0xbf0c5863	-0.5482237
56	0xbea9638f	-0.3308377
57	0xbe842c5f	-0.25815102
58	0xbf4f025b	-0.8086297
59	0xbf314c3f	-0.6925697
60	0xbe897c95	-0.2685286
61	0x3e47e4cc	0.19520873
62	0xbef107e8	-0.47076344
63	0xbe0b1876	-0.1358355
64	0xbeb82858	-0.3596828
65	0xbeff4069	-0.4985383
66	0xbf0f2ab2	-0.5592452
67	0xbf11a6f7	-0.56895393
68	0xbeb6019a	-0.35548097
69	0x3e526596	0.20546564
70	0xbe879274	-0.26478922
71	0xbf2b8c89	-0.67011315
72	0xbf0ebf8c	-0.5576103
73	0x3de9a22e	0.114078864
74	0xbee5bb71	-0.4486957
75	0xbf848e4e	-1.0355928
76	0xbf53bc52	-0.8270923
77	0x3bba0f56	0.0056780977
78	0xbf500616	-0.81259286
79	0xbe93bec0	-0.28856468
80	0xbf93e2ab	-1.1553549
81	0x3cb1b829	0.02169426
82	0xbf05054d	-0.51961213
83	0xbefcfa2a	-0.4940961
84	0xbe865f14	-0.26244414
85	0xbe68f653	-0.22750215
86	0xbf28cfa2	-0.6594182
87	0xbf00251c	-0.50056624
88	0xbf07af9e	-0.53002346
89	0xbc80202a	-0.015640337
90	0xbf4255c3	-0.7591211
91	0xbf4c7795	-0.7986997
92	0xbec3c8d1	-0.38239148
93	0x3f86fd13	1.0545982
94	0xbf2fcc19	-0.68670803
95	0xbf3c7f03	-0.73631305
96	0xbee372f1	-0.4442363
97	0xbf53c255	-0.827184
98	0xbea0a770	-0.31377745
99	0xbfb13b0e	-1.3846147
100	0xbf881493	-1.0631279
101	0xbf8f4e6e	-1.119581
102	0xbf6e4a11	-0.93081766
103	0xbe4bf439	-0.19917382
104	0xbf5fa139	-0.8735538
105	0x3e3ddc94	0.18541175
106	0xbe4a3460	-0.19746542
107	0xbf20923d	-0.6272314
108	0xbf4f0414	-0.808656
109	0xbf36be02	-0.7138368
110	0xbede505f	-0.43420693
111	0xbf120b6e	-0.5704869
112	0xbd26a8ed	-0.040688444
113	0xbf4e181c	-0.8050554
114	0xbeb5ac44	-0.3548299
115	0xbf627ef0	-0.8847494
116	0xbf6e759c	-0.9314821
117	0x3f7c70a8	0.986094
118	0xbedb934f	-0.42885825
119	0xbf3029c9	-0.6881376
120	0xbf22aac2	-0.63541806
121	0xbf51c386	-0.8193897
122	0xbf2849b9	-0.6573749
123	0xbf4e6969	-0.80629593
124	0xbf92eb52	-1.1478064
125	0xbd9e6eb2	-0.07735957
126	0x3f16c417	0.5889296
127	0xbf2ff956	-0.6873983
128	0xbeae78b7	-0.34076473
129	0xbf0828f1	-0.5318747
130	0xbec3925e	-0.38197607
131	0xbf5953de	-0.84893596
132	0xbf14cfef	-0.5812978
133	0xbf331b6e	-0.6996373
134	0xbf0b8f3d	-0.5451544
135	0xbe9d95be	-0.30778307
136	0xbf9bd3e6	-1.2174041
137	0xbf5758d8	-0.8411994
138	0xbf2e086b	-0.67981595
139	0xbe9007de	-0.28131002
140	0x3e4f1416	0.20222506
141	0x3eb0d741	0.34539226
142	0xbed03392	-0.40664345
143	0xbeb8bbe4	-0.3608085
144	0xbdb5c816	-0.08876054
145	0xbfa95d4e	-1.3231599
146	0x3e00252a	0.12514177
147	0xbe6f6823	-0.23379569
148	0xbf2f0191	-0.68361765
149	0xbda4b2ef	-0.080419414
150	0xbf8bbbae	-1.091665
151	0xbf1999ad	-0.60000116
152	0xbed7f219	-0.42176893
153	0xbf57d634	-0.84311223
154	0xbee39541	-0.4444981
155	0xbfaa023b	-1.3281931
156	0xbf2f1668	-0.68393564
157	0xbf35ba94	-0.7098782
158	0xbdec6052	-0.11541809
159	0xbf05d7af	-0.5228223
160	0xbf94ea0f	-1.1633929
161	0xb7a6a1f3	-1.9864156e-05
162	0xbf38600f	-0.72021574
163	0xbe3031c2	-0.17206481
164	0x3b4af5c7	0.0030969249
165	0xbf236bfc	-0.63836646
166	0xbcd2165a	-0.025645424
167	0xbdf6176d	-0.12016187
168	0xbf47785f	-0.77918047
169	0xbeec09f2	-0.46101338
170	0xbf4a0dfa	-0.78927577
171	0xbf36839c	-0.7129457
172	0xbf652127	-0.8950371
173	0x3e5e9c07	0.21739207
174	0xbf809d07	-1.0047921
175	0xbf074108	-0.52833605
176	0xbfa34c02	-1.2757571
177	0xbf5bf93a	-0.85927165
178	0xbf14f3c1	-0.5818444
179	0xbf7e98b3	-0.9945175
180	0xbd820751	-0.06349052
181	0xbef362ae	-0.47536224
182	0xbdbfaff4	-0.09359732
183	0xbf211ad6	-0.62931573
184	0xbef41710	-0.47673845
185	0xbf79f911	-0.9764567
186	0xbec71ad5	-0.3888766
187	0xbf932218	-1.149478
188	0xbf7829ec	-0.9693897
189	0xbf435224	-0.7629721
190	0xbe7dc291	-0.24781252
191	0xbf8d05fd	-1.1017452
192	0xbfa187ce	-1.2619569
193	0xbf18c23f	-0.59671396
194	0xbf838e07	-1.0277718
195	0xbe5bcd8d	-0.2146513
196	0xbf4ce512	-0.80037034
197	0xbe80aaa5	-0.2513019
198	0xbe85ed78	-0.26157737
199	0xbef33903	-0.47504434
200	0xbf0c47f9	-0.5479732
201	0xbf636648	-0.88827944
202	0xbf8878ae	-1.0661829
203	0xbf8a95f8	-1.0827017
204	0xbf19fbcb	-0.6014983
205	0xbebfcf41	-0.3746281
206	0xba14eb04	-0.0005680772
207	0xbea5fdad	-0.32420102
208	0xbf12b9a4	-0.57314515
209	0xbe9d23ad	-0.3069128
210	0xbf695160	-0.91139793
211	0xbe3736da	-0.17892018
212	0xbf40059e	-0.7500857
213	0xbdb75070	-0.08950889
214	0xbf3258af	-0.6966657
215	0xbf703518	-0.93831015
216	0xbf7825e3	-0.9693281
217	0xbe7d3537	-0.24727331
218	0xbf47cdfd	-0.7804869
219	0xbf8e95c4	-1.1139455
220	0xbf68b80a	-0.9090582
221	0xbf2add64	-0.66744065
222	0xbf14bd0a	-0.5810095
223	0xbf242e7c	-0.6413343
224	0xbfccf0bb	-1.6010965
225	0xbd82c563	-0.06385305
226	0xbf127567	-0.5721039
227	0xbf85026c	-1.0391364
228	0xbf030578	-0.5118022
229	0xbf540811	-0.8282481
230	0xbeddc118	-0.4331138
231	0x3f27c031	0.65527636
232	0xbf5b1a60	-0.8558712
233	0xbdc90376	-0.09815113
234	0xbf8e4636	-1.1115177
235	0xbf049c94	-0.5180142
236	0xbf28b9dc	-0.659086
237	0xbf00c6d2	-0.50303376
238	0xbd136675	-0.035986383
239	0x3c96857d	0.018374199
240	0xbf7b982a	-0.9827906
241	0xbf65ffa4	-0.898432
242	0xbebe5ac7	-0.37178633
243	0xbe2f34a5	-0.17109926
244	0x3ca61007	0.020271314
245	0xbf7dc7f6	-0.9913324
246	0xbf022277	-0.5083384
247	0x3d622b01	0.055216793
248	0x3d516945	0.051125783
249	0xbe200520	-0.15626955
250	0xbf58ba40	-0.84659195
251	0xbf0c7338	-0.5486331
252	0xbf68dbcf	-0.909604
253	0xbf4f9728	-0.8109002
254	0xbeeda0da	-0.46411783
255	0x3e4b7134	0.19867402

l2.weight f4 [300, 400]
0	0x3d5e0d95	0.05421217
1	0xbc19d0cf	-0.009388163
2	0xbdd85016	-0.1056215
3	0xbc64339f	-0.013928323
4	0xbd54ac41	-0.051922087
5	0xbbe05fbc	-0.00684735
6	0x3d66bf07	0.05633452
7	0xbcaaaa2e	-0.020833101
8	0xbd3a9166	-0.04554882
9	0xbc99d762	-0.01877946
10	0xbc026fdd	-0.007961241
11	0x3c7b9d43	0.015357318
12	0xbda44410	-0.080207944
13	0x3d22e4a1	0.03976882
14	0xbd8185dd	-0.063243605
15	0xbd95348c	-0.07285413
16	0xbd7a8eb3	-0.061171245
17	0xbdb35c24	-0.08757809
18	0xbc8e5a3b	-0.01737701
19	0xbb91a91a	-0.0044452073
20	0xbca4a9e3	-0.02010054
21	0xbda41463	-0.08011701
22	0xbd3595bd	-0.044332255
23	0xbdd6db94	-0.104911
24	0x3bce5625	0.0062968903
25	0x3c050f9b	0.008121396
26	0x3d01acac	0.031658813
27	0x3c4b3c09	0.01240445
28	0x3ce7e37c	0.028306715
29	0x3c8a54fe	0.01688623
30	0x3d31f02c	0.043441936
31	0xbce2fe25	-0.027709076
32	0xbcf85ce3	-0.03031773
33	0xbd2ea5d1	-0.042638604
34	0xbd8b750f	-0.068094365
35	0x3d31514a	0.043290414
36	0xbc78208b	-0.015144478
37	0xbd6ac0fa	-0.057312943
38	0x3bb08f4d	0.0053881765
39	0x3d1bc74e	0.03803187
40	0x3b728155	0.0037003357
41	0xbd7d739d	-0.061877836
42	0xbc1ec4d8	-0.009690486
43	0xbd99ff19	-0.07519359
44	0xbd8a2a5a	-0.06746359
45	0x3c93a497	0.018022818
46	0xbcc59e8b	-0.02412345
47	0x3d101d08	0.035183936
48	0xbb02bbc3	-0.001994834
49	0xbd6b146a	-0.057392515
50	0xbd2c656a	-0.042088903
51	0xbc5d55a8	-0.013509192
52	0x3cbc2e17	0.022971196
53	0xbcf9b74c	-0.03048291
54	0x3d208ddd	0.03919779
55	0xbbddb4da	-0.006765944
56	0xbc8a9db8	-0.01692091
57	0xbc245621	-0.0100303
58	0xbc8c4ed5	-0.017127434
59	0xbc12e8e3	-0.008966657
60	0xbc9af260	-0.018914402
61	0xbdd4cbd8	-0.103904426
62	0x3d2a5d98	0.041593164
63	0xbb0915d3	-0.002091755
64	0x3d319fbd	0.04336523
65	0xbd947df2	-0.07250585
66	0xbd877c7f	-0.066155426
67	0xbd538f37	-0.051650252
68	0xbda93d89	-0.0826369
69	0x3c840872	0.016117308
70	0x3c86ec5e	0.01647013
71	0x3cd440fb	0.025909891
72	0x3c5d7522	0.013516696
73	0xbd6e6544	-0.058202043
74	0xbd1620de	-0.03665244
75	0xbb8c1937	-0.004275467
76	0xbd86a401	-0.0657425
77	0xbcb3840c	-0.02191355
78	0xbcd6a018	-0.026199386
79	0x3c30d131	0.010792063
80	0x3cfce4ca	0.030870814
81	0x3bb401e8	0.0054933913
82	0xbbbfec4b	-0.0058570257
83	0xbd177757	-0.036979046
84	0xbd269a06	-0.040674232
85	0xbde65582	-0.11246778
86	0x3c9304c8	0.017946616
87	0xbd8d64bb	-0.069039784
88	0xbb1d80e2	-0.002403312
89	0xbc4596e5	-0.012059902
90	0xbc003f09	-0.007827529
91	0xbce7f53e	-0.028315183
92	0xbd6d7a17	-0.057977762
93	0xbd8ceffd	-0.06881712
94	0xbd843f09	-0.064573355
95	0xbc556801	-0.013025285
96	0x3cb31476	0.021860342
97	0x3cc0a508	0.023516193
98	0xbd4b952a	-0.0497028
99	0x3cd67eae	0.026183452
100	0xbd9cf353	-0.07663598
101	0x3d1f5686	0.038900875
102	0xbc83643a	-0.016039003
103	0xbb35b196	-0.0027724258
104	0xbd5b6a51	-0.053568188
105	0xbc47bb7d	-0.012190697
106	0x3d17df59	0.037078235
107	0x3d057397	0.03258094
108	0xbd54d4ec	-0.05196087
109	0xbc593983	-0.013258341
110	0x3c45532a	0.012043754
111	0xbd994309	-0.07483489
112	0x3c1b10c0	0.009464443
113	0x3d0529c0	0.03251052
114	0xbdadc286	-0.08484368
115	0x3c1be1a6	0.009514248
116	0xbd6152c5	-0.055010576
117	0x3c875de6	0.016524266
118	0xbded6f54	-0.115935
119	0xbd67bded	-0.05657761
120	0xbd4fd7c9	-0.050742898
121	0xbd8f4708	-0.0699597
122	0xbd5ce9f1	-0.05393404
123	0xbda8d13d	-0.08243034
124	0x3c681f50	0.014167622
125	0x3a419aee	0.0007385452
126	0xbd484350	-0.04889232
127	0xbca73cac	-0.020414673
128	0x3c37edb8	0.01122611
129	0x3bda8658	0.006668847
130	0xbcb307f7	-0.021854384
131	0xbd1a2657	-0.03763422
132	0xbc2e8c5f	-0.010653584
133	0xbcee866b	-0.02911683
134	0xbdab1064	-0.08352736
135	0xbde15fa5	-0.11004571
136	0xbd98cb1a	-0.074606135
137	0xbd3ecb58	-0.046580642
138	0xbbb3de33	-0.0054891347
139	0xbc2f9004	-0.010715488
140	0x3c4ed59f	0.012624173
141	0xbd754236	-0.059877597
142	0x3d1cc90d	0.038277674
143	0xbd5e6961	-0.054299716
144	0xbd82fc7e	-0.06395815
145	0x3ca547fa	0.020175923
146	0xbc5476e3	-0.012967798
147	0x3cd240e9	0.025665717
148	0xbca5ce33	-0.020239925
149	0xbdf0272a	-0.1172622
150	0xbda03e52	-0.07824387
151	0xbc20e0b4	-0.009819198
152	0xbdc6c943	-0.097063564
153	0xbd8e3f04	-0.06945613
154	0xb9b7eaa6	-0.00035079307
155	0xbdac85bc	-0.08423945
156	0x3bee5919	0.007273805
157	0xbd3da83e	-0.046303026
158	0xbc497d69	-0.0122979665
159	0xbb1f7d7a	-0.0024336264
160	0xbd1f1775	-0.03884073
161	0xbd087ebf	-0.033324
162	0xbd9fe069	-0.07806475
163	0xbd8cc65d	-0.06873772
164	0xbc8c0224	-0.017090864
165	0xbd3cb07e	-0.046066754
166	0xbd23e399	-0.040011976
167	0xbd8b9bf1	-0.06816853
168	0xbd1ab635	-0.037771422
169	0xbdcdd6c7	-0.10050731
170	0xb8906401	-6.885082e-05
171	0xbc5793f3	-0.013157832
172	0xbd300b34	-0.042979434
173	0xbdadd776	-0.084883615
174	0xbccbe7a2	-0.024890725
175	0xbcd5b256	-0.026086014
176	0xbd9b1396	-0.07572095
177	0x3c29472f	0.010331913
178	0xbd06da1f	-0.03292286
179	0x3be5b3d7	0.007009964
180	0xbdb5b2a6	-0.08871965
181	0x3ceb3a1c	0.028714232
182	0xbd05bc03	-0.032650005
183	0xbdac238b	-0.08405217
184	0xbdb530de	-0.08847211
185	0xbd9f9691	-0.0779239
186	0xbaf0b844	-0.0018365462
187	0xbd13296b	-0.03592817
188	0xbd4e9958	-0.05043921
189	0xbd7026af	-0.05863064
190	0xbd06382a	-0.032768406
191	0xbd10c189	-0.03534082
192	0xbcaeedb5	-0.021353582
193	0x3cb9e55e	0.022692379
194	0xbcd1cc9e	-0.025610264
195	0x3d254e66	0.04035797
196	0xbcc6a6e9	-0.02424951
197	0xbd7934f7	-0.060841527
198	0x3c28f6e3	0.010312769
199	0xbca5a6f6	-0.020221215
200	0x3d575ae8	0.05257693
201	0xbd58abdf	-0.052898284
202	0xbd2de84a	-0.042457856
203	0x3d290bb7	0.041270938
204	0xbcaaffc9	-0.020873921
205	0xbc696ef9	-0.014247649
206	0x3b192a73	0.002337125
207	0xbd523ea7	-0.05132928
208	0xbcb8befe	-0.02255201
209	0xbd7e7431	-0.062122528
210	0xbc59a934	-0.01328497
211	0xbd2f583f	-0.042808767
212	0xbe0eeeeb	-0.13958327
213	0xbbed5fc8	-0.007244084
214	0xbcba36f2	-0.022731278
215	0xbd4966cb	-0.049170297
216	0xbd5128d3	-0.051064324
217	0xbc718842	-0.014741959
218	0xbc519a3f	-0.012793123
219	0x3c7352be	0.01485127
220	0x3d03a18e	0.032136492
221	0x3bc2f27b	0.005949316
222	0xbcdfbbbd	-0.0273112
223	0x3c96aefb	0.018393984
224	0xbc9a59d2	-0.018841658
225	0xbda1d36c	-0.07901654
226	0xbdb4b499	-0.08823509
227	0xbd48b8d1	-0.04900438
228	0x3ca41275	0.020028332
229	0xbd8a2cec	-0.067468494
230	0xbd83a3d6	-0.064277336
231	0xbc0c4db0	-0.008563444
232	0xbd3c236f	-0.04593223
233	0x3c130f8b	0.008975874
234	0xbd3053d8	-0.04304871
235	0xbb77b03b	-0.003779425
236	0xbd1e0d99	-0.038587186
237	0x3cc82ece	0.02443638
238	0xbd1c1312	-0.038104124
239	0xbd642f03	-0.055708896
240	0xbcac5bc0	-0.021039844
241	0xbcb5948d	-0.022165561
242	0x3d4020ea	0.04690639
243	0x3cfa3604	0.030543335
244	0xbbc0d0a2	-0.005884246
245	0xbd92fed5	-0.071775116
246	0xbc9e54b1	-0.019327493
247	0xbca82887	-0.020527137
248	0xbd81a2d4	-0.06329885
249	0x3d01f435	0.031727035
250	0x3ce71ae7	0.02821107
251	0xba6177c3	-0.0008600915
252	0x3c6b4cf6	0.014361611
253	0x3be71cde	0.007053002
254	0xbd393311	-0.045214716
255	0xbd38a48a	-0.04507879

l2.bias f4 [300]
0	0x3c016a34	0.007898856
1	0xbe5ff017	-0.21868931
2	0xbfbe9058	-1.48878
3	0xbd6f3a94	-0.058405474
4	0xbd24e262	-0.040254958
5	0xbd0c71b3	-0.03428812
6	0xbf3aeab1	-0.7301436
7	0xbd45ef14	-0.048323706
8	0xbea97851	-0.33099607
9	0x3eb5b38e	0.35488552
10	0xbd1eb8fe	-0.03875064
11	0xbd01a375	-0.031650025
12	0xbece36d9	-0.4027622
13	0xbd32b2c1	-0.043627504
14	0xbe414334	-0.18873292
15	0xbec4a0ad	-0.38403836
16	0xbc9f3b03	-0.019437319
17	0xbd6a133b	-0.057147246
18	0xbd75169c	-0.059836015
19	0xbf9ea195	-1.2393061
20	0xbd1b4dc0	-0.037915945
21	0xbc24a5db	-0.010049309
22	0x3dbbf6e1	0.09177948
23	0xbe210e86	-0.15728197
24	0xbef5a28d	-0.4797558
25	0xbd6b8254	-0.057497337
26	0xbf91a1ad	-1.1377465
27	0xbf031b07	-0.51213115
28	0xbf2b7d4b	-0.66988057
29	0xbf1000e0	-0.56251335
30	0xbea40748	-0.32036805
31	0xbf06adb8	-0.52608824
32	0x3e51bba4	0.20481735
33	0xbe7a32f7	-0.24433504
34	0xbf3df339	-0.74199253
35	0xbd90dfec	-0.0707396
36	0xbf15828b	-0.5840232
37	0xbd3a4d9a	-0.045484163
38	0xbe89507d	-0.2681922
39	0xbd3896fd	-0.04506587
40	0xbf321100	-0.6955719
41	0xbd64c9e3	-0.055856597
42	0xbecab097	-0.39587852
43	0xbd8c7e8c	-0.068600744
44	0xbf37b034	-0.7175324
45	0xbda3bf9a	-0.079955295
46	0xbeb65fa4	-0.35619843
47	0xbe6b6f31	-0.22991635
48	0xbecb1474	-0.39664042
49	0x3eb6dd87	0.35715887
50	0xbda1ec5f	-0.07906412
51	0xbd20d782	-0.039268024
52	0xbe7907a9	-0.24319328
53	0xbd0c146b	-0.03419916
54	0x3f9d6f76	1.229964
55	0xbd0d267e	-0.034460537
56	0x3f13095a	0.57436144
57	0xbec7f16d	-0.3905138
58	0x3e9948b7	0.2993829
59	0xbf1f13e6	-0.6213974
60	0x3f725428	0.9465966
61	0xbda652e7	-0.08121281
62	0xbea6599d	-0.32490245
63	0xbd23f148	-0.040025026
64	0xbfa7f5d1	-1.3121892
65	0xbf192ce6	-0.59834135
66	0x3df5561c	0.11979315
67	0x3f0d3807	0.55163616
68	0x3e81b74c	0.25335157
69	0xbde22323	-0.11041858
70	0xbf4ee719	-0.8082138
71	0xbdd4a949	-0.10383851
72	0xbc4cd233	-0.012501287
73	0xbf6738d4	-0.9032109
74	0x3b09f529	0.0021050668
75	0x3ba0a261	0.0049021696
76	0xbcd7f34e	-0.026361134
77	0xbd44f389	-0.048083816
78	0xbe88319d	-0.26600352
79	0xbf23eaad	-0.6402996
80	0xbd3946f2	-0.045233674
81	0xbf58b98a	-0.8465811
82	0xbd84f19a	-0.06491394
83	0x3faa2293	1.3291801
84	0xbd913750	-0.07090628
85	0xbcda3ae5	-0.026639411
86	0xbdad9b82	-0.084769264
87	0xbdbbb682	-0.0916567
88	0xbf515014	-0.81762815
89	0xbf2611ad	-0.6487072
90	0x3e8d7b6f	0.27633235
91	0xbd5fd4d4	-0.054646328
92	0x3f11b65c	0.56918883
93	0xbd9e817a	-0.077395394
94	0xbd83aabe	-0.06429051
95	0xbd31f73d	-0.043448675
96	0x3f2e49e5	0.68081504
97	0xbf807c80	-1.0037994
98	0xbe2e52cb	-0.1702377
99	0xbd931608	-0.071819365
100	0xbdcd4248	-0.10022408
101	0xbdbf3f53	-0.0933825
102	0xbeb9ce93	-0.36290416
103	0xbd6ce405	-0.057834644
104	0xbd7c1636	-0.06154462
105	0xbd994abb	-0.07484957
106	0xbcd89de2	-0.026442472
107	0xbdb4ea25	-0.08833722
108	0xbd03bbbe	-0.032161467
109	0xbdca7cb5	-0.09887067
110	0xbe1e74a4	-0.15474182
111	0xbf86703c	-1.0503001
112	0x3e8963f1	0.26834062
113	0xbd15bea1	-0.03655875
114	0xbeaf6f83	-0.34264764
115	0x3e663661	0.22481681
116	0xbd469bd0	-0.048488438
117	0x3e0d77e0	0.1381526
118	0xbf8ab134	-1.0835328
119	0xbce48060	-0.027893245
120	0x3d37aa1e	0.04483997
121	0xbf179b50	-0.59221363
122	0x3e047369	0.1293465
123	0xbce9ae0c	-0.028525375
124	0x3f852bab	1.0403951
125	0xbc4e33e2	-0.012585612
126	0xbc9efdbd	-0.019408101
127	0xbda1441a	-0.078743175
128	0xbf2fa8fd	-0.6861723
129	0x38e318c0	0.000108288135
130	0xbd9eab91	-0.077475674
131	0xbcd2c950	-0.025730759
132	0xbd1797db	-0.037010055
133	0xbd6972f1	-0.056994382
134	0x3dbd5461	0.092446096
135	0x3ec081dd	0.37599078
136	0xbcef501f	-0.02921301
137	0x3cdaa8f3	0.02669189
138	0x3dbab482	0.091164604
139	0xbdf9cc6d	-0.12197194
140	0xbf79c37d	-0.97563916
141	0x3cd47fc3	0.025939828
142	0x3d21780c	0.039421126
143	0xbe2209c3	-0.15824036
144	0xbf17660b	-0.5914008
145	0xbd5d6697	-0.054052915
146	0x3f21ca3f	0.6319923
147	0xbf87fe90	-1.0624561
148	0xbc6e7d8a	-0.014556298
149	0xbfa216a2	-1.2663157
150	0xbf4b1b08	-0.7933812
151	0xbd1390e8	-0.036026865
152	0xbef70fa7	-0.4825413
153	0xbdc5c58e	-0.09656821
154	0xbd82ed98	-0.06392974
155	0x3f07acd5	0.52998096
156	0x3f429857	0.760137
157	0xbf9eefd5	-1.2416941
158	0xbb8b34d1	-0.0042482396
159	0xbf310252	-0.69144166
160	0xbd63109f	-0.055435773
161	0xbeb37f04	-0.35057843
162	0xbd11e11c	-0.03561507
163	0x3f045813	0.5169689
164	0xbd2278f0	-0.039666116
165	0xbc40d7c8	-0.011770196
166	0x3f8f06f4	1.1173997
167	0xbd16e149	-0.036835942
168	0xbe8aecda	-0.27133828
169	0xbc955b04	-0.018231876
170	0xbc0adc4a	-0.008475373
171	0xbbfe9c88	-0.007770125
172	0xbf881cb1	-1.0633756
173	0x3da3b0d1	0.079927094
174	0xbf2fe5b7	-0.6870989
175	0xbe1962ba	-0.14979067
176	0x3d4af6ab	0.049551647
177	0xbd530bd2	-0.051524945
178	0xbd0e6450	-0.034763634
179	0xbe9d7c20	-0.30758762
180	0xbd21a8ab	-0.039467495
181	0xbf63c1ad	-0.889674
182	0xbf554412	-0.8330699
183	0xbd62f5ea	-0.055410303
184	0xbd6f8806	-0.05847933
185	0x3e6c3f23	0.2307096
186	0xbd3bc979	-0.045846436
187	0x3ee7f59d	0.45304576
188	0xbcea2bf7	-0.028585417
189	0xbf07cc79	-0.53046376
190	0xbe4623b1	-0.19349553
191	0xbdf8c6d9	-0.12147302
192	0xbd47fd07	-0.04882529
193	0xbc96dc6b	-0.01841565
194	0xbf0de103	-0.55421466
195	0xbdcab12f	-0.09897076
196	0x3cc945d8	0.024569437
197	0xbd00ff2f	-0.031493362
198	0xbd799bd4	-0.060939625
199	0xbed4216f	-0.41431758
200	0xbf9580e2	-1.1679957
201	0xbeb3ac3c	-0.35092342
202	0xbd77fd66	-0.060544394
203	0xbe28edea	-0.16497007
204	0xbd0e49be	-0.034738295
205	0xbd932bbf	-0.07186078
206	0xbd4a4656	-0.049383484
207	0x3f1e66d1	0.61875635
208	0xbd34c48a	-0.044132747
209	0xbf062711	-0.5240336
210	0xbea7bcac	-0.32761133
211	0xbfb78b16	-1.4339321
212	0x3f2cc796	0.67492044
213	0xbcfdc308	-0.030976787
214	0xbd006c31	-0.03135318
215	0xbd73e38b	-0.059543174
216	0xbc07be4b	-0.0082851155
217	0xbe05e220	-0.13074541
218	0x3f1912f7	0.59794563
219	0xbd1be5b2	-0.03806085
220	0xbd1c61d8	-0.03817925
221	0xbe13758d	-0.14400311
222	0x3df66477	0.12030881
223	0x3d53aa64	0.05167617
224	0xbe4208c6	-0.1894866
225	0xbdbeb16e	-0.09311186
226	0xbd1fe829	-0.039039765
227	0xbd335f53	-0.04379208
228	0xbd0dbb03	-0.034602176
229	0xbe06ded8	-0.13170946
230	0xbd792fd3	-0.060836624
231	0xbeafe81d	-0.34356776
232	0xbdf30015	-0.1186525
233	0x3ead4b06	0.338463
234	0x3e65cbc4	0.22441012
235	0xbd12323f	-0.03569245
236	0xbf4f6ce2	-0.81025517
237	0x3e031769	0.12801899
238	0xbf241f4c	-0.64110255
239	0xbdfded40	-0.123987675
240	0xbd1b4b7d	-0.037913788
241	0xbcaab777	-0.020839436
242	0x3bfa09b9	0.0076305536
243	0xbdf7055d	-0.1206157
244	0x3f02fb07	0.5116429
245	0xbfc789ac	-1.5588889
246	0xbd7634fc	-0.060109124
247	0xbf8bfc88	-1.0936441
248	0xbd6361d7	-0.05551323
249	0xbf16f6c8	-0.5897031
250	0xbcf47567	-0.029841138
251	0xbe1013bc	-0.14070028
252	0xbf3b2bce	-0.73113716
253	0x3dc2854c	0.094980806
254	0xbcd215e1	-0.025645198
255	0xbda95a5b	-0.08269187

l3.weight f4 [3, 300]
0	0x3cc5e3fa	0.02415656
1	0xbfb74c2e	-1.4320123
2	0x3e9be7be	0.30450243
3	0xbc766f07	-0.015041119
4	0x3da0a3d9	0.078437515
5	0xbbe400b8	-0.0069580935
6	0xbfdf61f6	-1.745177
7	0xbd60030a	-0.0546904
8	0x3f418308	0.7559056
9	0xbfe542f2	-1.7911055
10	0x3d216287	0.039400604
11	0xbc834488	-0.01602389
12	0x3e6287dd	0.2212214
13	0x3d4efc35	0.050533492
14	0x3e606f12	0.2191737
15	0xbf3136ec	-0.6922443
16	0x3ca7fcc9	0.02050628
17	0xbd4c22cd	-0.049837876
18	0xbd46f850	-0.048576653
19	0xbef2f37b	-0.47451386
20	0xbb1058c3	-0.0022025562
21	0x3c337052	0.010952072
22	0xbe419bff	-0.18907164
23	0x3df19cdb	0.11797496
24	0x40024773	2.035611
25	0xbbb7de51	-0.005611219
26	0x3fd01f7d	1.625961
27	0xbf23fc7a	-0.64057124
28	0xbe746d4d	-0.2386982
29	0x3f287c83	0.6581499
30	0xbe967e63	-0.293933
31	0x3f73426c	0.95023227
32	0x3f7b1f92	0.9809505
33	0x3f7131cd	0.94216615
34	0x3f5398a7	0.82654804
35	0xbc67e19c	-0.014152911
36	0x3dd5f25d	0.10446618
37	0xbcacb457	-0.021082086
38	0xbf8417f6	-1.0319812
39	0xbb53ebbf	-0.003233656
40	0xbe52a034	-0.20568925
41	0x3da8ce3b	0.0824246
42	0x3f033541	0.51253134
43	0x3cd164e5	0.025560806
44	0x3e0d0f00	0.13775253
45	0x3cbba6ca	0.02290668
46	0xbfeebed8	-1.8651991
47	0xbecfdf58	-0.40600085
48	0xbd64bc8c	-0.055843875
49	0xbf7b4f5e	-0.9816798
50	0xbc1a9409	-0.009434708
51	0x3cbf4622	0.023348872
52	0xbf92038a	-1.140733
53	0x3d377353	0.044787716
54	0x3f05d26f	0.5227422
55	0xbca5f144	-0.020256646
56	0xbf8e8040	-1.1132889
57	0x3ee9be6f	0.45653102
58	0xbf8e121f	-1.109928
59	0x3fc96675	1.5734392
60	0xbf55ccbd	-0.8351553
61	0xbcefb278	-0.029259905
62	0xbf5e37e2	-0.8680402
63	0xbd0a2ee2	-0.033736117
64	0x3f09e069	0.5385805
65	0xbeb53f3e	-0.35399812
66	0xbf2ee5d1	-0.6831942
67	0x3f102428	0.5630517
68	0xbf3931c4	-0.7234156
69	0xbd329917	-0.04360303
70	0x3f8bc105	1.091828
71	0x3d83ea22	0.06441142
72	0x3d21dd88	0.03951791
73	0x3de22b14	0.11043373
74	0xbd19208b	-0.03738455
75	0x3e66f8cc	0.22555846
76	0x3e47daf4	0.19517118
77	0x3cd6c88a	0.026218671
78	0x3edaf528	0.42765164
79	0xbf5cb810	-0.8621836
80	0x3ceaee5d	0.028678114
81	0xbf2862c3	-0.657757
82	0x3dfa4c3b	0.12221571
83	0xbcf03511	-0.029322179
84	0x3eba964b	0.3644279
85	0xbcb3b952	-0.021938954
86	0x3cd00cc4	0.025396712
87	0x3d143dcb	0.036191743
88	0x3fedacd7	1.8568372
89	0xbfdc2b8c	-1.720079
90	0xbfa10b87	-1.2581643
91	0x3c0d6aba	0.008631403
92	0x3f4eaf63	0.8073637
93	0xbc757cc6	-0.014983362
94	0xbca26978	-0.019825682
95	0x3d0c5743	0.034262907
96	0xbe53ac26	-0.20671138
97	0xbf331a40	-0.6996193
98	0x3ccc8df8	0.02497004
99	0x3d93a05d	0.07208321
100	0xbbb7f205	-0.005613568
101	0x3b8d0812	0.0043039406
102	0xbece26ba	-0.4026392
103	0xbc776903	-0.01510072
104	0x3bbb7be9	0.0057215584
105	0xbd4c2821	-0.049842957
106	0x3d8ecb53	0.06972375
107	0x3ca15443	0.0196935
108	0x3c00d915	0.007864256
109	0x3bc051b2	0.005869114
110	0x3c4bb792	0.012433903
111	0x3f1e7396	0.6189512
112	0xbf518051	-0.8183642
113	0xbcac9a16	-0.021069568
114	0xc000b9fe	-2.011352
115	0xbd8cadf9	-0.0686912
116	0xbcab643d	-0.02092182
117	0xbe59aee6	-0.21258125
118	0x4007da8c	2.122714
119	0xbcf2e30e	-0.029649284
120	0x3f4fd872	0.81189644
121	0x3edc8b5f	0.43075082
122	0x3fdc66be	1.7218854
123	0x3bd11da9	0.0063817096
124	0xbf9baf18	-1.2162809
125	0x3c9d69b7	0.019215448
126	0xbd1e0547	-0.03857925
127	0x3cab2cc6	0.020895373
128	0xbdb35463	-0.0875633
129	0xbc735b18	-0.014853261
130	0xbc3f06ce	-0.011659337
131	0x3d1e8a6a	0.03870622
132	0x3c9809b2	0.01855931
133	0x3ca75d07	0.020430101
134	0xbedcbade	-0.43111318
135	0x3ebd2ccc	0.3694824
136	0x3ef66681	0.4812508
137	0x3d796515	0.060887415
138	0xbfe6d307	-1.803315
139	0xbf8219ea	-1.0164158
140	0x3faaaf05	1.3334662
141	0xbc817b38	-0.015805826
142	0xbfe15bf4	-1.7606187
143	0x40069a4d	2.1031678
144	0xbf04f20f	-0.5193185
145	0xbcd9e6a1	-0.02659923
146	0x3ffc3eba	1.9706643
147	0xbeec7044	-0.46179402
148	0xbc91eb6c	-0.017812453
149	0xbede5f71	-0.4343219
150	0xbf9308bf	-1.1487044
151	0x3c0cbd1f	0.008590012
152	0x3cc5df5d	0.02415436
153	0xbd5f3fb8	-0.054504126
154	0x3cc54987	0.024082912
155	0x3fc8c136	1.5683963
156	0xbec604a0	-0.38675404
157	0x3f25f40e	0.6482552
158	0xbbdcfe5e	-0.00674419
159	0x3f2da887	0.6783528
160	0x3d1ea8ea	0.038735308
161	0xbf101fc7	-0.5629849
162	0xbd99bd57	-0.07506817
163	0xbf7e432c	-0.99321246
164	0x3d018e17	0.031629648
165	0xbcdfd12f	-0.027321426
166	0xbf79cb1e	-0.9757556
167	0x3cd7a3cf	0.026323227
168	0xbf421ac2	-0.7582208
169	0xbd34b6af	-0.044119533
170	0x3d3f962c	0.046774074
171	0x39d2975e	0.000401671
172	0x3e1a201e	0.15051314
173	0xc03bbc18	-2.9333553
174	0x3eea8b05	0.45809188
175	0x3d18d934	0.037316516
176	0xbf6ecbd1	-0.9327975
177	0x3d66b211	0.05632216
178	0x3c1ef6ea	0.009702424
179	0xbe9ee84e	-0.3103661
180	0x3c5b3082	0.013378264
181	0x3f985b8e	1.190294
182	0x3f74ae64	0.955786
183	0xbc8244a5	-0.015901873
184	0xbc48403d	-0.012222347
185	0x3f8bf8e6	1.0935333
186	0xbc6a2b0c	-0.01429249
187	0x3fca2247	1.5791711
188	0x3abf2f5f	0.0014586261
189	0x3e4676d3	0.19381265
190	0xbf42321c	-0.7585771
191	0x3e19399c	0.14963382
192	0x3e98ba2d	0.2982954
193	0x3f9d230e	1.2276323
194	0xbf842c62	-1.0326045
195	0xbc93eaa9	-0.01805623
196	0x3d57cd3f	0.052685972
197	0x3a06c57c	0.0005141122
198	0x3da4952b	0.08036264
199	0xbf05e57a	-0.5230328
200	0xbe4ce515	-0.20009263
201	0xbf188f13	-0.59593314
202	0xbf4d44a0	-0.8018284
203	0xbdbe5591	-0.09293664
204	0x3c9f7d28	0.019468859
205	0xbabe2246	-0.0014506064
206	0xbc81d538	-0.015848741
207	0xbf34d8bb	-0.70643204
208	0xbcdb6fa0	-0.026786625
209	0xbf4994db	-0.7874276
210	0x3ef31120	0.47474003
211	0x3f1632cf	0.5867128
212	0x3f2fa759	0.6861473
213	0xbd14ceac	-0.03632991
214	0x3c6a3244	0.014294211
215	0xbc940912	-0.018070731
216	0x3c2cc517	0.010545037
217	0x3f0a4527	0.5401177
218	0x3f5f0da1	0.8713017
219	0xbcb0994a	-0.021557469
220	0xbd78e23b	-0.060762625
221	0x3f6df2eb	0.9294879
222	0x3f11b768	0.5692048
223	0x3eeed501	0.46646884
224	0x3da02de8	0.07821256
225	0x3e96c77e	0.29449075
226	0x3ae870b9	0.0017733789
227	0xbce607eb	-0.028079947
228	0x3b0271a8	0.001990417
229	0xbc8810e0	-0.01660961
230	0x3bf03710	0.0073307827
231	0xbf9521ac	-1.1650901
232	0xbd84d4aa	-0.06485875
233	0x3fa94f4c	1.3227324
234	0xbf9be3ce	-1.2178895
235	0xbcda39b3	-0.026638841
236	0xbede3934	-0.43403018
237	0xc0053d44	-2.0818644
238	0x3fe7b628	1.8102465
239	0xbd411ebb	-0.047148447
240	0x3be3eeac	0.006955942
241	0xbca889f3	-0.020573592
242	0x3e377a32	0.17917708
243	0xbd0797db	-0.033103805
244	0x3cda49e7	0.026646568
245	0x3ea939eb	0.33052
246	0xbb680208	-0.0035401601
247	0x3fc87485	1.5660559
248	0xbc33aee6	-0.010966992
249	0xc02419f3	-2.5640838
250	0x3d313568	0.043263823
251	0xbd2117d6	-0.039329372
252	0x3e585a92	0.211283
253	0x3fd71f08	1.6806345
254	0xbd698784	-0.057014003
255	0x3d0189b1	0.031625453

l3.bias f4 [3]
0	0xbf61f88d	-0.88269883
1	0xbf16c07b	-0.5888745
2	0x3f384384	0.7197802
