DataShared/Reacher-v2/actor_target_td3.pt (torch_old, 503833 bytes, 6 tensors)

fc1.weight f4 [400, 11]
000000 d2 eb 27 bd c5 45 38 bf 57 0c 56 3e 93 15 05 bf
       -0.04099638 -0.7198146 0.20903145 -0.51986045
000010 96 58 b2 3f 87 8a e5 3f 79 48 b4 bc 4a 59 f4 bd
       1.3933284 1.79329 -0.022007214 -0.11931093
000020 4a 72 ba be 0c d9 26 c0 30 ef c7 bc 0e 74 5a 3f
       -0.3641532 -2.6069975 -0.024406046 0.85333335
000030 40 ee c6 bd 42 d5 2b bf fb 6b 44 bf ac 40 08 c0
       -0.09713411 -0.6712228 -0.76727265 -2.1289473
000040 39 5d df bd 6e 54 89 3d 1f 7b a3 3d a6 1e bd 3f
       -0.10906453 0.06705557 0.07982468 1.4774978
000050 aa c8 53 c0 45 5e 8d 3e 69 4e 5b 3e 6c e2 98 be
       -3.3091226 0.27610984 0.2141663 -0.29860246
000060 ab fd 3b bf 41 1f 68 be 8f 11 65 c0 00 23 47 c0
       -0.7343394 -0.22668172 -3.5791967 -3.1115112
000070 2a 8e 02 be b0 f2 2b 3c e7 0b 27 40 df 6a df 3f
       -0.12749544 0.010494873 2.6101015 1.745449
000080 e0 88 05 3c 79 b4 04 bf 34 96 89 3f 56 50 fd be
       0.008150309 -0.5183788 1.0748963 -0.49475354
000090 1a 1e 52 3f ae ef 08 40 a2 df 30 bf 11 eb c1 bd
       0.8207718 2.139629 -0.69091237 -0.094686635
0000a0 dd 61 a1 bc fd 2a b0 bf 39 f6 b5 bf 8e d6 10 be
       -0.019699985 -1.3763119 -1.4215766 -0.14144346
0000b0 aa 92 87 3d 28 e0 05 bf 38 47 bd be 0f f5 63 3e
       0.06619771 -0.5229516 -0.36968398 0.22261451
0000c0 45 07 86 3e 90 69 8d c0 32 7b be bd 92 49 c8 bd
       0.2617742 -4.419136 -0.093008414 -0.097796574
0000d0 11 10 b6 c0 8e 5b cf 3f 80 c0 85 bb 22 d3 d4 bd
       -5.689461 1.6199815 -0.0040817857 -0.10391833
0000e0 80 66 c4 be e9 8f cd 3e 3b 41 87 3e 77 04 0c 40
       -0.3835945 0.40148857 0.26416954 2.1877725
0000f0 ae 52 93 3f 2f e2 d7 3d 56 05 cc 3d b5 31 ab c0
       1.1509607 0.10541188 0.09961955 -5.3498178
000100 4a 48 af 3e 80 f5 d9 bd 52 e1 f9 bd 29 52 70 3e
       0.3423484 -0.106425285 -0.122011796 0.23468842
000110 01 5d 58 be 47 5f 67 bf a4 4a ea 3f 36 3c 18 3e
       -0.21129228 -0.90379757 1.8304029 0.14866719
000120 90 a6 68 3d 03 02 fb 3c 4b c6 08 bf 3a c2 7e bf
       0.05679947 0.030640608 -0.5342757 -0.99515116
000130 e6 dc a5 bd d0 07 c0 be 6d 01 01 3e 55 e6 01 be
       -0.08098774 -0.3750596 0.125982 -0.12685521
000140 13 28 76 3e b1 c6 da bf 47 29 b3 be 40 f0 b2 3a
       0.24038725 -1.7091886 -0.3499243 0.0013651922
000150 99 61 46 bb f6 f1 a3 3e 9d 1a 08 3e 80 63 2a bb
       -0.0030270575 0.3202054 0.13291402 -0.0025999248
000160 88 0d 16 3e ce 4f 8b 3e 7f 0c 7c bf f9 c8 cc bd
       0.146536 0.27209324 -0.9845657 -0.0999927
000170 11 86 0e c0 14 c9 a7 bf 01 31 ce 3d f7 84 3f 3d
       -2.2269328 -1.3108239 0.100679405 0.046757665
000180 00 ea ec 3f ef fc 01 c0 00 9a 54 ba 13 19 3f bf
       1.8508911 -2.0310628 -0.0008110106 -0.74647635
000190 a9 ab 44 bf fd 40 83 3f 1a 2a fb 3e 59 22 ba bf
       -0.7682443 1.0254208 0.49055558 -1.4541732
0001a0 60 19 93 3f 5f 91 c8 bd 7f b5 19 bd 2a 56 58 40
       1.1492119 -0.09793352 -0.037526604 3.380259
0001b0 c1 22 d7 bf b0 e3 73 be 00 57 38 bf cf 6a 3b 3e
       -1.6807481 -0.23817325 -0.7200775 0.18302463
0001c0 02 5a 52 bf 40 5a 38 be 6f e7 26 c0 0c 5a 34 3e
       -0.8216859 -0.18003178 -2.6078756 0.17612475
0001d0 65 ff 16 3e 8d bc 39 bd 3c b6 05 40 79 74 de bf
       0.14745863 -0.04534583 2.0892477 -1.7379295
0001e0 b0 9e c6 3d c1 75 6a 3e f2 59 d3 3d 3c 70 b8 bd
       0.09698236 0.22896482 0.1031989 -0.09005782
0001f0 62 65 c9 bd 21 28 bc 40 bc cb 51 3e e1 e9 ee bc
       -0.0983379 5.8798985 0.20487875 -0.029164257
000200 6e c1 02 bd 9b ff 1c c0 eb 1e f7 be 03 1c e5 ba
       -0.03192275 -2.453101 -0.48265776 -0.0017479662
000210 1a 1e 55 bf 7b c9 1e bf d4 4c 0d 3f ce c2 fd 3e
       -0.83249056 -0.62026185 0.55195355 0.49562687
000220 29 27 0d c0 b6 36 b0 40 6b 0a 12 3e 82 fc 13 3e
       -2.2055151 5.5066786 0.14261787 0.14451793
000230 f0 1d a8 be cd 59 1c c0 4a 37 07 3e eb c2 88 bf
       -0.3283534 -2.442981 0.13204685 -1.0684484
000240 1e 19 33 3f 1a bb cd bd 5a 5c 02 bf 8e 24 c5 bd
       0.699602 -0.100454524 -0.5092217 -0.09626113
000250 43 e6 06 c0 3d fc 1c be 8b 57 af bd 6f b3 50 bf
       -2.107804 -0.15330596 -0.08561619 -0.81523794
000260 84 fb 5e 40 78 77 a7 3d 02 81 ca 3e 45 e6 bb be
       3.4841013 0.08177084 0.3955155 -0.3669912
000270 74 0b 96 be d3 86 25 be 11 93 97 c0 24 a2 46 bf
       -0.29305613 -0.16164713 -4.7367024 -0.77591157
000280 5d 7c e1 3b 3a fd 54 3b 44 c9 f4 3f 7b 51 56 3e
       0.0068812803 0.0032499568 1.9123921 0.2092952
000290 1e 16 17 3e 61 3d 41 3e 94 bd 10 be 5b ee 04 3f
       0.14754531 0.1887107 -0.14134818 0.519262
0002a0 80 86 61 3d 6c 39 8e 40 02 91 94 3f 78 69 a6 bd
       0.05505991 4.4445095 1.1606753 -0.08125585
0002b0 72 4a aa bd bd 0d 21 bf 95 62 d0 c0 88 e4 7b 3e
       -0.083149806 -0.6291159 -6.512034 0.24598897
0002c0 c6 2a 36 3c db ee d6 be 3c 99 6b bd d9 56 28 bd
       0.011118596 -0.41979107 -0.057519183 -0.04109845
0002d0 d6 f9 93 40 7e 75 88 c0 e3 e2 b5 bc 23 8f 78 bd
       4.6242476 -4.2643423 -0.022202915 -0.06068338
0002e0 08 62 32 c0 11 59 91 3f fc 9c 68 bd 4e e4 d0 3e
       -2.7872334 1.1355306 -0.056790337 0.40799183
0002f0 0f b2 c7 3c 4b 10 78 3d f8 e4 83 3f 3a 68 7c 3f
       0.024376897 0.060562413 1.0304251 0.9859654
000300 57 7b 44 bf 00 6b f1 3d a4 3d 2b bd 29 28 81 bf
       -0.767507 0.11787987 -0.041806832 -1.0090381
000310 a0 64 0c 40 40 07 32 3e b5 a4 a5 bf 72 65 7f bf
       2.1936417 0.17385578 -1.294089 -0.9976417
000320 de d7 33 bf 2a f7 88 be f4 3b eb 3f b7 9d 06 c0
       -0.7025126 -0.2675107 1.8377671 -2.1033762
000330 9c cb 01 3e f9 18 3f 3d 7b c2 8b 3f 36 31 db 3f
       0.12675327 0.046654675 1.0918726 1.7124393
000340 cc 8c a9 3d ba 97 06 3e ed 85 9a 3e 63 d5 e4 be
       0.08278808 0.13143817 0.30180302 -0.4469405
000350 cc 14 c8 be a7 63 5b 40 d6 a3 04 bb df a5 3f bc
       -0.39078367 3.4279573 -0.0020239255 -0.011697262
000360 df 17 e8 bb 2c 2c 94 c0 16 45 09 c0 54 ce 86 3d
       -0.007082924 -4.630392 -2.1448417 0.06582323
000370 29 c0 3e bf 40 68 f3 be 5b 20 bf 3e 9f 95 28 3e
       -0.74511963 -0.47540474 0.37329373 0.16463326
000380 43 17 19 bf f2 f3 92 40 fe ad 28 3e 4f 39 04 3e
       -0.5980112 4.5922785 0.16472623 0.12912486
000390 45 43 08 c0 56 e1 92 c0 c8 9f 67 3e ab c5 72 be
       -2.1291058 -4.590007 0.22619545 -0.23708217
0003a0 58 4a 4d 3f a6 8e ac be 79 ad 56 3d 7d 58 12 3f
       0.80191565 -0.33702582 0.05241153 0.5716627
0003b0 ef 26 33 bf 01 63 d5 3b bd 7c 8d bc 37 d9 bd bf
       -0.6998128 0.0065120463 -0.017271394 -1.4831914
0003c0 73 6b 7d bd e0 f2 4b 3e b9 0c e3 3e da 24 e0 be
       -0.06187005 0.19916868 0.44345644 -0.43778116
0003d0 4b ba 27 bf 22 b8 54 3f a7 e4 41 40 d5 eb b1 bf
       -0.65518636 0.83093464 3.0295808 -1.3900095
0003e0 d7 bf 32 3d 95 97 19 3d 29 76 22 c0 a7 62 b8 3f
       0.043639984 0.037498076 -2.538462 1.4405106
0003f0 8e 13 a9 bd 52 8c de bc 19 0f 41 bd 80 ef 48 3d
       -0.08255683 -0.02716652 -0.04713354 0.04905653

fc1.bias f4 [400]
000000 9d 86 fe bf 39 84 c4 bf b8 52 d3 bf 25 fe 18 c0
       -1.9884831 -1.5352851 -1.6509619 -2.3905118
000010 c5 0f 0a bf 97 ea e5 bd 76 6d 53 bf 8d 97 8e bf
       -0.5393031 -0.11226385 -0.825889 -1.114
000020 da 73 d2 bf b2 83 05 c0 86 8d b6 bf 25 9f 8a bf
       -1.6441605 -2.086163 -1.426194 -1.0829817
000030 4b 05 00 c0 52 34 e0 bf 87 1e 49 bf 4a ce 63 bf
       -2.000323 -1.7515967 -0.78562206 -0.8898665
000040 be 05 e3 be 04 20 95 bf 0e 54 03 c0 5e 34 81 bf
       -0.44340318 -1.1650395 -2.0520053 -1.0094106
000050 27 20 d7 be dc 55 fb bf d4 51 ab bf 37 12 a8 be
       -0.42016718 -1.9635577 -1.3384347 -0.32826397
000060 04 13 f3 bf 42 fe d1 bf 92 62 9b bf 77 2c d4 bf
       -1.8990178 -1.6405718 -1.2139456 -1.657607
000070 59 03 e8 bf 8e 16 ed be f9 dd b2 bf 95 6e 89 bf
       -1.8126022 -0.4630627 -1.3973991 -1.0736872
000080 18 da a8 bf 18 5a b9 bf ab 89 9b bf 8b ea e3 bf
       -1.3191557 -1.448062 -1.2151388 -1.7805952
000090 d5 29 ad bf 3c f9 ca bf 2d 23 f5 bf c2 52 47 bf
       -1.3528391 -1.585731 -1.915136 -0.77860653
0000a0 ed 2b ba bf d2 79 df bf 65 4b e3 bf c3 53 9c bf
       -1.4544655 -1.7459052 -1.7757384 -1.2213062
0000b0 cf 77 b2 bf 0e 1a 8a bf cc b5 71 bf e0 0a 6d be
       -1.3942813 -1.0789201 -0.94418025 -0.2314868
0000c0 bf ac 95 bf 30 a4 30 bf 6e 31 b0 bf e4 c8 c8 bf
       -1.1693343 -0.6900053 -1.3765085 -1.5686307
0000d0 9c d1 bc bf e3 ed 68 bf 8b 36 89 bf 8a e7 89 bf
       -1.4751468 -0.90987986 -1.071977 -1.0773785
0000e0 02 05 d4 bf 76 fa 63 bf 55 f9 ac bf 8c ab fa be
       -1.6564028 -0.8905405 -1.351359 -0.48959005
0000f0 e1 c7 a3 bf 6d 2e b7 bf f0 d0 3b bf eb e4 bc bf
       -1.2795373 -1.4311043 -0.7336569 -1.475736
000100 80 52 9e bf 79 97 c9 bf 62 4e 28 bf f7 4a 2a c0
       -1.2368927 -1.5749351 -0.657446 -2.6608255
000110 38 1b be bd cc ca 97 bf 45 3c eb be 02 1f af bf
       -0.09282535 -1.1858764 -0.4594442 -1.3681338
000120 4b c7 0f c0 16 75 0c c0 37 16 84 bf 4b f1 07 c0
       -2.2465389 -2.1946464 -1.031928 -2.1241024
000130 a5 32 7f bf d3 d1 61 bf 96 6f c5 bf b5 9c 9a bf
       -0.9968665 -0.8821079 -1.5424678 -1.2079073
000140 81 9f ad bf e0 80 f3 bf d0 20 e1 bf c0 af e7 bf
       -1.3564302 -1.9023705 -1.7588139 -1.810051
000150 47 ca 2d c0 e6 48 cb bf 1d 38 81 bf 05 d3 8e bf
       -2.715471 -1.5881622 -1.009525 -1.1158148
000160 46 66 fd bf 17 4d 09 c0 94 75 c7 bf ce 12 bf bf
       -1.9796836 -2.1453302 -1.5582757 -1.4927614
000170 ab 4f f8 bf 59 18 7f bf 74 6a 23 c0 d2 e2 00 c0
       -1.9399313 -0.99646527 -2.5533724 -2.013844
000180 f4 cb 0c c0 c4 71 a6 bf 8e c0 9c bf 62 0e a1 bf
       -2.1999483 -1.3003469 -1.2246263 -1.2582514
000190 00 bf 0d c0 68 1c 8a bf 2e 65 88 bf d5 80 f2 be
       -2.2147827 -1.0789919 -1.0655878 -0.47363916
0001a0 fc 95 74 bf 22 5a 57 bf bb 05 25 bf 66 61 28 bf
       -0.9554136 -0.84121907 -0.6446187 -0.6577362
0001b0 63 e9 a3 bf 57 79 e0 bf d9 95 eb bf f4 d8 f6 bf
       -1.2805599 -1.753703 -1.8405105 -1.9284959
0001c0 4f 78 be bf 20 12 e4 bf 8c 7d a2 bf 98 83 a2 bf
       -1.4880465 -1.7818031 -1.2694564 -1.2696409
0001d0 ac e2 e8 bf f5 08 42 bf db c2 ed bf cb a2 c9 bf
       -1.8194175 -0.7579492 -1.857509 -1.5752805
0001e0 83 4a 85 bf f9 4c fb be c3 e4 e8 bf 78 2f 0e c0
       -1.0413364 -0.49082163 -1.8194813 -2.2216473
0001f0 86 1c db bf a5 50 5f bf f3 92 c7 bf e0 54 2c bf
       -1.711808 -0.8723243 -1.559172 -0.6731701
000200 50 af bb bf ed 99 c1 bf 33 44 1b c0 02 f4 0c c0
       -1.4662876 -1.51251 -2.4260375 -2.202393
000210 75 17 8b bf 73 31 8f bf 04 3a fc bf 56 fd ae bf
       -1.0866534 -1.1186966 -1.9705205 -1.3671062
000220 21 cb 90 bf 50 32 bb bf 50 60 bb bf 22 57 b9 bd
       -1.131199 -1.4624729 -1.4638767 -0.090498224
000230 18 46 cd bf 9a 84 f8 bf 47 d6 ab bf 25 3a 06 c0
       -1.6037016 -1.9415467 -1.3424767 -2.0972989
000240 a3 a3 c3 bf 62 a4 c9 bf d8 f9 b6 bf d6 e5 18 c0
       -1.5284313 -1.5753291 -1.4294996 -2.389028
000250 dd 47 eb bf 59 ad c8 bf 80 3e 18 be 44 20 02 c0
       -1.8381306 -1.5677902 -0.14867592 -2.0332193
000260 7b f1 ed bf 5d 74 6d bf 89 33 c3 bf 28 ba c5 bf
       -1.8589319 -0.9275568 -1.5250102 -1.5447435
000270 7e 7d f6 bf 1f 73 a5 bf 9e d9 7b bf e4 6f 8b bf
       -1.9257047 -1.2925757 -0.9837893 -1.0893521
000280 b8 da 8f bf f2 34 88 be c5 1c c9 bf b1 7f 88 bf
       -1.1238623 -0.26602894 -1.5711905 -1.0663968
000290 d7 38 a0 bf db 11 ab bf 69 68 c9 bf 97 ed 91 bf
       -1.2517346 -1.3364824 -1.5734988 -1.1400632
0002a0 e7 77 b3 bf 86 c4 16 c0 21 87 0f c0 25 fc e4 bf
       -1.4020966 -2.3557448 -2.2426226 -1.7889448
0002b0 1e e8 ec bf ca 59 ec bf 45 9d ef bf d6 7b b6 bf
       -1.8508337 -1.8464901 -1.871987 -1.4256542
0002c0 35 c3 a4 bf 26 50 09 c0 54 bc a9 bf c2 fb e4 bf
       -1.2872072 -2.1455169 -1.3260598 -1.788933
0002d0 a2 67 db bf f8 52 8f bf a3 9b 0f c0 a2 10 10 c0
       -1.7141001 -1.1197195 -2.2438743 -2.2510152
0002e0 e5 b0 e0 bf 22 dc 67 bf ab d0 ab bf ec 18 fb bf
       -1.7553984 -0.9057027 -1.3423055 -1.961698
0002f0 2f 34 16 c0 ae c6 21 bf 4e eb 8d bf 82 12 76 bf
       -2.346935 -0.63193786 -1.1087434 -0.9612199
000300 d7 33 03 c0 92 f5 df bf fb 31 de bf ad bf 6d bf
       -2.050039 -1.7496817 -1.7359003 -0.928706
000310 f8 67 b1 bf de 15 a8 bf 13 27 dd bf 37 7c f3 bf
       -1.3859854 -1.3131673 -1.727755 -1.9022282
000320 6c 0c aa bf 25 5f c5 bf 63 61 3b bf 45 3d d0 bf
       -1.3285041 -1.5419661 -0.73195475 -1.6268698
000330 0c 9e cf bf d5 6c a3 bf 39 1a 06 c0 a5 86 9c bf
       -1.6220107 -1.2767588 -2.0953505 -1.222859
000340 39 9a a3 bf ca 62 02 c0 2c d5 8d bf ba c8 80 bf
       -1.278144 -2.0372796 -1.108068 -1.0061257
000350 64 aa de bf 4b 64 04 c0 b1 7f 85 bf f8 eb ac bf
       -1.7395749 -2.0686214 -1.0429593 -1.3509512
000360 b3 83 cf bf 04 1d b5 bf 12 14 8a bf 81 d5 26 bf
       -1.6212066 -1.414948 -1.0787375 -0.6516953
000370 ee 03 a6 bf 71 fa 82 bf e8 e0 ce bf 18 9a ab be
       -1.2969949 -1.0232679 -1.6162386 -0.33516002
000380 5c 91 a8 bf ce 81 86 bf 31 82 10 c0 0b 6b 90 bf
       -1.316936 -1.0508363 -2.2579463 -1.1282667
000390 ff 9d aa bf 27 64 c8 bf 9e 40 f5 be 0f cf d2 bf
       -1.3329467 -1.5655564 -0.47900862 -1.6469439
0003a0 1b 11 43 bf 8b 66 93 bf b4 4a cc bf 33 c2 94 bf
       -0.76197976 -1.1515669 -1.5960298 -1.1621765
0003b0 f8 8d 94 bf 18 fd 90 be af 9d ae bf d3 30 e7 bf
       -1.1605825 -0.28318095 -1.3641871 -1.8061775
0003c0 08 ef fd bf fe cb 8f bf af 19 ac bf 88 49 d3 be
       -1.9838572 -1.1234128 -1.3445338 -0.41267037
0003d0 a3 61 8d bf f1 fe 41 bf dd a3 07 bf 83 2c 9d bf
       -1.1045421 -0.75779635 -0.5298441 -1.2279209
0003e0 65 1a d5 bf 36 f3 d4 bf c8 0b 78 bf da 09 a0 bf
       -1.664868 -1.6636722 -0.96892977 -1.2503006
0003f0 f9 3a 4e bf 44 1c f4 bf fb a5 89 bf 11 6f 26 c0
       -0.80558735 -1.9071126 -1.0753778 -2.600529

fc2.weight f4 [300, 400]
000000 76 76 10 bd ea 8b 53 bd ce fd 17 bd 65 10 8e bc
       -0.035269223 -0.051647104 -0.03710728 -0.017341802
000010 56 42 94 bd 6b 64 64 bd 25 5e 99 3c 12 77 54 bd
       -0.07239215 -0.05575983 0.01872165 -0.051871367
000020 e8 74 42 3c 6d fd 89 bc 7c 42 85 3c 29 65 4e bc
       0.011868693 -0.016844476 0.016267054 -0.012597361
000030 9b 30 e3 bc ae 8f 14 bd c6 ca 2f 3b 86 d2 1c bd
       -0.027733138 -0.036269836 0.0026823743 -0.03828671
000040 44 8a 0e 3b b1 ad 41 bd 35 33 16 3c 25 dc 04 bd
       0.0021749893 -0.047284786 0.009167482 -0.03243651
000050 9d 12 81 bd f1 31 df 3b c6 fb 12 bd b8 9d b0 bc
       -0.06302378 0.0068113734 -0.03588464 -0.021559581
000060 dd 39 08 bd e6 cd 96 bb 8d d0 11 3c 79 99 d1 3b
       -0.033258308 -0.0046021817 0.00889982 0.006396469
000070 e9 cb d9 3c 25 db 80 bc 3c d6 fc bc 38 5a 35 bd
       0.02658649 -0.015729496 -0.030863874 -0.044275492
000080 38 85 b2 bc e7 f0 be 3c b8 4a c2 3c 45 7b 84 bd
       -0.02179204 0.02330823 0.02371727 -0.06468824
000090 c4 57 f3 bb ea 8d 5b bd 03 41 fc 3b 9f f5 3b 3b
       -0.007426234 -0.053602137 0.0076981797 0.0028680337
0000a0 b6 27 1a bd 7f cc 20 bc 17 ca 26 bd 41 45 db 3c
       -0.037635528 -0.009814381 -0.04072007 0.026766421
0000b0 c6 15 17 bd 7a c5 52 bd 6e 50 11 bd e2 2d 55 bd
       -0.036886 -0.05145786 -0.035477094 -0.05204571
0000c0 f7 ba a8 bb 11 37 4e bc 23 e7 65 bd 49 36 4e bd
       -0.005149241 -0.012586371 -0.056128632 -0.05034474
0000d0 4e 2e 12 bd 15 e6 00 bd 26 59 9e bd c6 99 9a bb
       -0.03568869 -0.031469423 -0.077318475 -0.0047180383
0000e0 4b 1a f4 3b 3f ed bf 3b 09 86 48 bd b1 b0 cd bc
       0.0074494234 0.0058571394 -0.04895595 -0.025108667
0000f0 20 ab 3d bb 9e f8 95 bc 97 0a 2f bd ff 63 27 bd
       -0.002894111 -0.018307026 -0.04273471 -0.040866848
000100 43 44 70 3a fb 4b 60 bd e5 d0 89 bc fc 5a 6a bc
       0.0009165445 -0.05475996 -0.016823241 -0.014303919
000110 38 15 b4 bc 58 38 b7 bc 44 e4 ff bc 47 fd b1 3b
       -0.021982774 -0.022365734 -0.031236775 0.0054318043
000120 c2 72 62 3c 38 60 34 ba cc 4c 0f 3c de 30 af 3c
       0.013821306 -0.0006880793 0.008746337 0.021385606
000130 b9 0e 4c bd bf 31 26 bd 46 c3 aa 3c 1c be 8c 3c
       -0.049818728 -0.040574785 0.020845067 0.017180495
000140 88 8d cd 3c c2 1c 68 3c 8f 4b a3 bb 73 c1 f7 3c
       0.025091901 0.014167013 -0.0049833725 0.030243611
000150 fe 9f 9d bd 58 ec 32 bd 4f a2 39 3c 95 a9 88 bd
       -0.07696532 -0.043682426 0.011330201 -0.0667297
000160 81 34 ca bc e3 55 78 3b 72 b0 e5 3c 77 b4 a7 bc
       -0.024683239 0.003789299 0.028038237 -0.020471795
000170 01 05 d4 3b 1f 54 26 bd 2a 48 57 bd 98 82 cd 3c
       0.006470323 -0.040607568 -0.052559055 0.025086686
000180 24 1f 7e bb 1f 8d a9 bc 65 df 91 3c 33 bc fb 3c
       -0.0038775885 -0.020697175 0.017806718 0.030729389
000190 c2 f7 d0 ba 5e 67 28 3c b0 6c 37 bd e2 35 5c bc
       -0.0015942978 0.010278551 -0.044781387 -0.013440581
0001a0 b1 2d ce bb 95 c9 8b bd 35 94 0a bd 8d c8 8a bc
       -0.006292068 -0.06825558 -0.033832747 -0.016941333
0001b0 6b 32 64 bd d8 c5 c7 3c 8a bb d6 bc 56 bf 14 bd
       -0.055712145 0.024386331 -0.026212472 -0.036315285
0001c0 aa 99 58 bd 0c 44 05 3d 09 34 45 bd f4 f5 81 3b
       -0.05288092 0.032535598 -0.048145328 0.0039660875
0001d0 1c f9 7e bd 45 05 87 bd 72 de d5 bc 8f ab ac bc
       -0.062249288 -0.06592802 -0.026107047 -0.0210779
0001e0 88 c8 3f bd 1d 88 15 3c 4a 39 da bc 3b 03 e9 bc
       -0.0468221 0.00912669 -0.026638646 -0.028443923
0001f0 eb ca ee bc 9e d5 9f bc 6d 2c 17 3b 69 fe 42 bd
       -0.029149493 -0.01951104 0.0023067251 -0.047605906
000200 96 aa a5 3c ed 33 03 bd b7 00 2d bd f9 e7 c6 bc
       0.020222943 -0.032031942 -0.04223701 -0.024280535
000210 f1 15 53 3a 5d 00 83 bc e4 76 7f bd a5 c9 05 bd
       0.0008052281 -0.015991384 -0.062369242 -0.032663006
000220 35 0c 90 3c 70 bd 35 bb fd 87 88 bd c5 f7 9b 3c
       0.017583946 -0.0027731322 -0.06666563 0.019039044
000230 ba e4 eb 3c d4 7f 77 bd 16 12 1b bc 21 43 46 bd
       0.028795589 -0.06042464 -0.009464761 -0.048403863
000240 f5 c9 80 bc 1c eb 78 bd bf 7d 2a bd 1f 14 a0 bb
       -0.0157213 -0.060771093 -0.041623827 -0.004885211
000250 a7 ff 2e bd 47 50 00 bd ea f7 da bb c1 2b 59 3c
       -0.042724278 -0.03132656 -0.0066823857 0.013255061
000260 a0 38 35 bd bb 2e e8 bb 5d e1 83 bd b5 10 89 bd
       -0.044243455 -0.007085649 -0.06439469 -0.0669264
000270 d0 a0 33 bd fa 1f 5f bd c3 84 f8 3b 1d d0 89 bc
       -0.043854535 -0.054473855 0.007584186 -0.016822869
000280 85 cb 00 bb 8f 70 ba 3c ba 35 52 bd b3 f6 6b bd
       -0.0019652557 0.02275875 -0.05132077 -0.057608318
000290 44 f0 fd bc bf c7 26 bd 17 86 29 bd e3 fa e9 bc
       -0.030998357 -0.040717836 -0.041387644 -0.028562015
0002a0 e2 f5 d5 bc 29 5c c3 bb 2c 6d 07 3d 6c 4c 01 3d
       -0.026118223 -0.005961914 0.0330631 0.031567022
0002b0 6a c0 5d bd af b9 26 bd 0f e2 a5 bc 63 d9 60 bd
       -0.05413858 -0.040704425 -0.020249395 -0.054894816
0002c0 46 6f 9f bc 04 9c f1 bb 9e 49 ae 3c 6d b8 08 bb
       -0.019462239 -0.007373335 0.021275338 -0.002086188
0002d0 c8 55 36 bc d1 90 d7 3c 73 96 61 bd 67 cc 29 bd
       -0.01112885 0.026314171 -0.05507512 -0.0414547
0002e0 44 f9 08 3c 5c a7 fc bc 5e 22 a7 3c 03 74 e7 bc
       0.008360211 -0.030841522 0.02040213 -0.02825356
0002f0 db 6a 6b bd 1b c7 65 bd 19 a2 4e bd 50 d9 34 bd
       -0.057474952 -0.056098085 -0.050447557 -0.044152558
000300 03 d0 79 3c d0 f5 42 3c bc 48 85 3c a1 23 c5 bc
       0.015247348 0.011899427 0.016270034 -0.02406484
000310 2a ae df bc 28 e1 b1 bc 55 af 06 bd 7b 62 ef bc
       -0.027304728 -0.021713808 -0.032882053 -0.029221764
000320 79 f5 ca bc 22 fb 51 bd e2 3c 5f bd 6a dd 54 bd
       -0.024775254 -0.05126489 -0.05450142 -0.05196897
000330 41 f9 56 3c 8b ac fe 3b 94 94 ff bc 79 33 49 bd
       0.01312095 0.0077720336 -0.031198777 -0.049121354
000340 93 54 60 ba a2 00 68 3b f5 ea 87 bd c1 0e 49 bb
       -0.00085575244 0.0035400768 -0.06636611 -0.003067896
000350 2e 2c 16 bc 5a bb 68 3c 6d 6c 04 bd 16 69 19 bd
       -0.009165807 0.014204824 -0.032329965 -0.037453733
000360 9f f9 b2 3c d0 f3 ba bb f5 41 06 ba a5 80 8d bc
       0.021847544 -0.0057053342 -0.00051215227 -0.017273257
000370 1a 2d ee 3c aa f0 56 bd fa 8f 5d bd 02 a1 d3 bb
       0.02907424 -0.05247561 -0.054092385 -0.0064584026
000380 cb 3a 80 bd e7 6c a2 bd 7d 5c 09 bd 55 58 88 bc
       -0.06261214 -0.07930928 -0.03353547 -0.016643682
000390 dd be 0f bd 9c ec 7e bd ba e4 52 bc 7a 28 68 3c
       -0.03509413 -0.062237367 -0.0128719155 0.014169807
0003a0 30 0e 34 bd 59 aa d6 3c 3a 51 dc ba 57 73 29 bd
       -0.043958843 0.026204275 -0.0016808875 -0.041369762
0003b0 83 fc e3 bc 88 be b0 bd 9d f4 05 bd d0 0b 37 bd
       -0.027830368 -0.08630091 -0.032703985 -0.044689
0003c0 e1 6f 4a bc 82 8a dd bc cd 62 1c 3c 7d a6 85 bd
       -0.012355776 -0.027043585 0.00954504 -0.06525896
0003d0 87 0f b0 3b 03 88 6c bd e8 e2 b8 bb 61 8d dc 3c
       0.0053729448 -0.0577469 -0.0056422837 0.026922883
0003e0 b4 29 70 bd b1 c7 c5 bc 83 a8 f1 3b 5c 6f fd bc
       -0.05863352 -0.024143072 0.0073748245 -0.03093689
0003f0 80 ca b1 bc a6 5c 13 bd 93 49 ff 3b 07 92 2d bd
       -0.021703005 -0.03597703 0.007790753 -0.04237559

fc2.bias f4 [300]
000000 a0 90 37 bd 32 ac d4 bd 78 d2 a2 bd 69 e1 4b bd
       -0.04481566 -0.10384406 -0.079503 -0.049775515
000010 7d f9 8c bd 13 24 e6 bd 16 54 10 bd 82 5b 50 bd
       -0.068835236 -0.11237349 -0.03523644 -0.05086852
000020 9f d1 28 be c5 74 83 bd 23 d2 40 3e 2f c5 e8 3e
       -0.16486214 -0.064187564 0.18830161 0.4546294
000030 94 46 21 bc 1a 7b 4d bf e8 4d 3c bd af 55 12 3e
       -0.009843487 -0.80265963 -0.045972735 0.14290498
000040 e4 4e 75 bd 66 68 90 bd 7e 43 22 39 ac ce fd bd
       -0.05988969 -0.070511624 0.00015474667 -0.12392935
000050 44 ea fe bd 71 4b 48 bd 3e dc 94 bd 3e 35 9b bd
       -0.12447026 -0.04890007 -0.0726857 -0.075785145
000060 47 77 a6 bd 92 c1 d2 bd ca e6 54 bd bd 5b 86 bd
       -0.08128219 -0.10290827 -0.05197791 -0.065604664
000070 23 e1 ff 3b 9c 93 f8 bd 22 78 52 bd bf 0b a4 bd
       0.007808821 -0.12137529 -0.0513841 -0.08010053
000080 c1 01 c7 bd a0 98 3e bd d6 92 a7 bf d3 2c 9e 3e
       -0.097171314 -0.046532273 -1.3091686 0.30893573
000090 8a 2d dd bd 33 70 86 3f fd 02 01 be cd 87 81 bd
       -0.107997015 1.050299 -0.12598796 -0.0632473
0000a0 6b 91 e9 bd 3d d8 84 bd 19 e0 06 3f 81 c2 c3 bd
       -0.114046894 -0.06486557 0.52685696 -0.09558583
0000b0 18 63 b3 bd 99 6c 40 bd fe 65 16 be 99 69 cd bd
       -0.08759135 -0.046978567 -0.14687344 -0.10029907
0000c0 81 cb 4e bd 4b e9 83 bf 68 39 35 bd 54 84 70 bd
       -0.050487045 -1.030557 -0.0442442 -0.058719948
0000d0 19 b8 c2 bd 93 cb 61 bd 65 dd 89 bd 65 e9 07 bd
       -0.0950777 -0.055125784 -0.06731681 -0.033181567
0000e0 8f 19 a3 bd 23 1c db 3e 75 79 83 bd ce 5c 9d bd
       -0.07963859 0.42794904 -0.064196505 -0.07683717
0000f0 a6 8f 17 bd d1 99 02 bf 02 fb 5d bd 13 81 e3 bd
       -0.03700223 -0.51015955 -0.054194458 -0.11108603
000100 8b c0 6a bd 0e 49 19 bd c7 20 aa bd 7e 8d 1e bd
       -0.05731253 -0.037423186 -0.08307033 -0.038709156
000110 c9 91 2b bd a0 96 b6 bd 64 3a 83 bf 7b 16 eb bc
       -0.04188708 -0.08915448 -1.0252194 -0.028697243
000120 6f cb 22 be b6 d0 9b bd 45 81 83 bd b7 7b a5 bd
       -0.15897916 -0.07608168 -0.064211406 -0.08080237
000130 07 c7 a0 bd 3d ce 0e be 83 29 69 bd ef a1 ab bd
       -0.078504615 -0.13945861 -0.056924354 -0.08380496
000140 0f 83 a0 bd ce 80 12 bf d9 15 43 bd e4 a6 f7 bc
       -0.078374974 -0.5722779 -0.047628257 -0.030230947
000150 f7 30 a6 bd f8 ff 14 3d c9 b7 c7 bd 81 0f 4c bd
       -0.08114808 0.036376923 -0.09751851 -0.049819473
000160 93 bb ec bc 27 3c d1 bf 71 8b ce bd 57 be 87 be
       -0.028898036 -1.6346482 -0.1008519 -0.26512405
000170 8f 91 a8 bc 9d e2 88 bd 43 dd e3 bc 42 c9 5e bd
       -0.02057722 -0.06683848 -0.027815467 -0.054391153
000180 8c 7e f5 bd ee ef 9e bd e7 d8 a9 bd cc 8a f4 bd
       -0.119870275 -0.07760607 -0.08293324 -0.11940536
000190 d9 a5 44 bd d9 43 cc bd bd 8d 86 bd 5d 64 68 bf
       -0.048009727 -0.099738784 -0.06570003 -0.9077814
0001a0 8d f8 82 bd d2 c3 db bd 51 f0 c5 bd c1 24 51 bf
       -0.063950635 -0.10730709 -0.09664977 -0.81696707
0001b0 09 54 48 bd 13 76 e9 bd 6b 09 6f bd 5e 8a 9e bd
       -0.048908267 -0.11399474 -0.05835859 -0.07741235
0001c0 30 74 3c bd 0b ec e9 bd 22 c9 51 bd cd 4c 0f be
       -0.046009243 -0.11421975 -0.051217206 -0.13994141
0001d0 a7 fe aa bd e6 a9 9c bd b1 50 c4 bd 88 e6 ba bd
       -0.08349352 -0.07649593 -0.09585703 -0.091260016
0001e0 4a 72 5d bd aa 65 50 bd 41 98 c9 bd 00 5c b9 bd
       -0.054064073 -0.050878204 -0.09843493 -0.09050751
0001f0 67 ad aa bd ec 3c 75 bd 8b 74 66 bd d0 a8 3a bd
       -0.08333855 -0.059872553 -0.056263488 -0.04557115
000200 fd 2b 0f be 72 78 a2 bf 0c 8a f1 bd c7 a9 a8 bd
       -0.13981624 -1.2693007 -0.117939085 -0.082355075
000210 9f 3d 30 bf 0f 88 98 be 4e 08 86 bf ae 90 98 bd
       -0.68844026 -0.29791304 -1.0471284 -0.074494705
000220 18 6b ba bd ec d7 f1 bf 7e fd 1c be d1 7b 86 be
       -0.09102458 -1.8894019 -0.15331075 -0.2626634
000230 f1 77 4b bd de fd 91 bd ea 69 78 bf 40 4d b0 bd
       -0.049674932 -0.071284994 -0.9703661 -0.08608484
000240 a5 72 87 bd fa 60 50 bd 69 75 c4 bd c3 aa e1 bd
       -0.066136636 -0.050873734 -0.09592707 -0.11018898
000250 a2 66 57 bd 2d f1 0a bd 3f 59 d8 be 7f b0 ad be
       -0.052588113 -0.03392141 -0.4225559 -0.33923718
000260 bf fe 52 bf f5 f8 0d bf c7 89 25 bd 9f d7 a7 bd
       -0.8241996 -0.55458003 -0.040414598 -0.08195423
000270 d8 ce b9 bd ef ab a1 bd 57 ef 25 bd 51 e3 c3 bd
       -0.090726554 -0.07894122 -0.040511455 -0.095648415
000280 d8 62 32 bd 07 7d a4 bd c6 6d 99 bd b5 61 88 bd
       -0.043551296 -0.080316596 -0.07491641 -0.06659261
000290 85 9b 88 bd 8b 41 62 bd c1 d5 45 bd a1 a5 40 bd
       -0.06670288 -0.055238288 -0.048299555 -0.047032956
0002a0 0b 2a e8 bd fa 16 d4 bd d7 f6 aa bd 8b 76 6e bd
       -0.11336144 -0.10355945 -0.08347862 -0.05821852
0002b0 bd c2 1a bf 3f da a5 bd 82 2b 58 bd c0 62 9b 3e
       -0.604534 -0.08098268 -0.052775867 0.30348778
0002c0 af 16 a4 bd 8b c7 ed bd 68 8d a7 bd 49 a6 cc bd
       -0.08012139 -0.116103254 -0.08181268 -0.09992654
0002d0 a7 f6 a3 bd e5 fa 02 bd ba 6d d1 bd 86 1b 15 bd
       -0.080060296 -0.031977553 -0.10226007 -0.0364032
0002e0 c8 c6 b8 bd 33 d7 6a bd cc 41 7c bd 6d a0 89 be
       -0.090222895 -0.057334136 -0.061586186 -0.26880208
0002f0 f5 b0 00 be f2 3c 59 bd 21 f1 c2 bd d2 e7 c5 bf
       -0.12567504 -0.053036638 -0.09518648 -1.5461371
000300 7e 98 98 bd 8a 50 53 bd 77 2a 25 bd 12 15 dc bd
       -0.074509606 -0.05159048 -0.0403237 -0.10746206
000310 3a e6 d8 bd fd bf 87 bd a9 5e 4d bd b3 59 e8 bd
       -0.10590787 -0.06628416 -0.050139103 -0.11345234
000320 36 19 92 bd 0b af 6f bd 1a 67 dc bd a5 34 09 be
       -0.07133715 -0.058516543 -0.107618526 -0.13398989
000330 83 6e 6a bd bf 7c a6 bd a1 50 4a bd c1 1f 42 bd
       -0.0572343 -0.08129262 -0.0493933 -0.047393564
000340 3d f8 07 bd 5a f0 db bd 09 b3 4d bd 9f 75 2f bd
       -0.033195723 -0.10739203 -0.05021957 -0.04283678
000350 85 cc ac be 4a 4a d3 bd 16 fa 9e bd f1 70 48 bd
       -0.33749786 -0.10316904 -0.07762544 -0.048935834
000360 51 22 80 bf 57 db a0 bd b9 56 c0 bd 97 33 a4 bd
       -1.0010473 -0.07854336 -0.09391541 -0.080176525
000370 68 d7 bc bd e6 4f 92 bd 76 70 91 bd e7 5f a0 bd
       -0.09220773 -0.07144146 -0.07101528 -0.07830792
000380 e5 85 31 bf 15 4b 05 be a8 0f 65 3f f2 13 86 3e
       -0.6934493 -0.13016923 0.89477015 0.26187092
000390 0a 46 db bd 0e b3 98 bd e3 14 6e bd e7 a7 88 bf
       -0.10706718 -0.07456027 -0.058125388 -1.067624
0003a0 a9 58 ce bd 7f 0e 2f bd 05 b5 8a bd 4e e2 24 3e
       -0.10075504 -0.042738434 -0.06772808 0.16101953
0003b0 fc ba f3 bc bd 57 8f bd d7 5e a2 bd 3f 38 a7 bd
       -0.029752247 -0.069991566 -0.079282455 -0.08165025
0003c0 7b bc e0 bd 59 d7 c2 bd 80 2e 32 bd 59 ac c5 bd
       -0.1097345 -0.095137306 -0.043501377 -0.09652013
0003d0 e5 8a 84 bd 57 d1 aa bd d8 d7 19 3f 68 2e bb bd
       -0.064718045 -0.0834071 0.60094976 -0.09139711
0003e0 60 92 3e bd 58 67 b9 bd e2 40 56 bd 26 ff 93 bd
       -0.046526313 -0.090529144 -0.05230797 -0.072264
0003f0 bc aa 7d bd 7f 74 d4 bf 36 d5 94 bd 9f 29 83 bf
       -0.061930403 -1.6598052 -0.07267229 -1.0247077

fc3.weight f4 [2, 300]
000000 71 aa 4d 3d 80 47 32 bb 15 1f 04 bd ff f4 2c 3d
       0.050211374 -0.0027203262 -0.032256205 0.042225834
000010 6c 7f 85 bb 73 65 65 bd 79 57 c3 3c 9a 3b 5d 3d
       -0.0040740278 -0.056004953 0.023845421 0.05401192
000020 7c 70 0e bc 61 f7 42 3d dc 2e f8 3c 07 c4 83 bd
       -0.008693811 0.0475992 0.030295782 -0.064338736
000030 da 9c 38 bd cf f5 bd 3d 15 f4 86 bc 1f 6e 5e bc
       -0.04507146 0.092754 -0.01647381 -0.01357606
000040 c2 db 5d 3d ac d4 7c b8 2c da e0 bc 52 6a 53 bc
       0.054164656 -6.0279548e-05 -0.027447782 -0.012903767
000050 40 ca 49 3c d0 63 b9 bc a4 1a 05 bb 50 da 38 bc
       0.012316287 -0.022630602 -0.0020310069 -0.0112825185
000060 20 ea bf 3b 27 60 a1 bc 5c 15 73 bc 1d 28 8c bc
       0.0058567673 -0.01969917 -0.014836635 -0.017108971
000070 be fb 15 3b 13 27 72 3c 2f 48 a2 3b 2f 77 2f 3c
       0.0022885646 0.014779824 0.0049524526 0.010709568
000080 60 b1 bd 3c 8c 09 fc bc fc 12 31 3d a4 fe bb 3c
       0.023155868 -0.030766271 0.043230996 0.02294857
000090 ed 33 83 bc b9 8c 15 be fd 4f 09 3d 0e d1 93 bc
       -0.016015971 -0.14604463 0.03352355 -0.018044021
0000a0 50 66 c3 bb b2 28 53 bb 8b 78 ac 3d d7 66 29 3d
       -0.0059631243 -0.0032220301 0.08421429 0.04135784
0000b0 16 36 15 3d 8f c4 2c ba 80 91 47 3d c7 38 26 3b
       0.036428533 -0.0006590569 0.048722744 0.0025363432
0000c0 ba 28 e9 3c e6 29 31 bd 57 07 a2 b8 13 9a 63 3b
       0.028461803 -0.043252848 -7.726129e-05 0.0034729287
0000d0 97 2f 2d bd 72 e4 54 3d f3 c1 e0 bc c1 32 c3 bc
       -0.042281713 0.051975675 -0.027436232 -0.023827912
0000e0 e4 c2 83 3a 9c 19 9c 3d 06 16 18 bd 63 d2 f6 3b
       0.0010052589 0.07622072 -0.03713038 0.0075324043
0000f0 7d 95 0c bd 64 be af 3d 12 45 54 3c de 64 1e bc
       -0.03432225 0.08581236 0.012955921 -0.009667603
000100 11 41 c4 bc 5e 2a 95 bc b6 8b 1a 3c 03 d2 e8 bb
       -0.023956807 -0.018208679 0.009432724 -0.0071051135
000110 63 65 c0 3e 2f 38 2d bb 00 31 88 bd 47 f9 a1 3c
       0.37577352 -0.0026431193 -0.06649971 0.019772185
000120 0a 0e dc bc ef e0 2d 3c 63 3f 69 3c b1 dc ce bc
       -0.026862163 0.01061271 0.014236304 -0.025251718
000130 05 18 07 bc b0 58 32 bd 57 8c a9 3c f7 bd b4 3c
       -0.008245473 -0.04354161 0.020696802 0.022063239
000140 26 ec 12 bd d4 3c 4f bd 03 29 e7 bb fb 33 e4 bb
       -0.03586974 -0.05059512 -0.0070544495 -0.0069642044
000150 af 5d ad 3c e4 80 70 3d e2 9d 53 3d ec 20 82 bd
       0.021162836 0.05871667 0.05166424 -0.063539356
000160 6c 16 f1 3b 15 24 b5 3d 1a 91 55 bc c5 a9 26 3d
       0.007357409 0.08844773 -0.013035083 0.04068925
000170 10 9a 31 bc 99 a6 47 3c 17 a6 2c bc 6c 83 fc 3c
       -0.010839954 0.012185716 -0.010537646 0.030824386
000180 9d da 81 3a b9 4f 56 3c 99 34 41 3c c5 2f 82 bc
       0.0009907071 0.013080531 0.011792325 -0.015891919
000190 18 bd a4 bb ef 1d a8 bc 8e 34 92 bc ce ee c7 3c
       -0.0050274245 -0.020522086 -0.017847326 0.024405863
0001a0 29 29 58 bb c6 e5 9e b9 07 d7 2e bc 74 5d 0e 3e
       -0.0032983518 -0.00030307303 -0.010671384 0.13902837
0001b0 60 69 30 3d 3f 51 27 bd 58 4c bc bc ed d5 01 bd
       0.043069243 -0.040848967 -0.022985622 -0.031698156
0001c0 59 79 41 bc 39 90 c5 bb db ce 6b 3c 2d 2d 81 3b
       -0.011808717 -0.0060291556 0.01439258 0.003942153
0001d0 bb 7a ec bb 90 ee 3e 3c 2e 99 21 3d ce 6e 1a 3d
       -0.007216779 0.011653557 0.039452724 0.037703328
0001e0 6e 26 98 3c 9e f8 95 bc ff 6a aa bc b3 89 00 bd
       0.018573012 -0.018307026 -0.020802973 -0.03138132
0001f0 ae 97 1b bb b7 d3 a7 3c 74 13 fb bc a8 6a 32 bd
       -0.0023741531 0.020486696 -0.030648924 -0.043558747
000200 31 2a d9 3b 8d e3 e7 3c 30 fb 32 3c 70 c7 44 bd
       0.006627344 0.028306747 0.010924146 -0.04804176
000210 48 95 6e 3d ac 99 a9 3d 32 78 84 bd ec bd 85 bb
       0.058247834 0.08281264 -0.06468238 -0.0040814783
000220 67 bf a7 3c 75 76 60 bd 23 7c 62 3d f8 a4 3f bd
       0.02047701 -0.05480047 0.055294167 -0.046788186
000230 87 71 a8 3c c8 5d bd bc 16 d1 2b 3d 23 ec 60 bc
       0.020561947 -0.023116007 0.041947447 -0.013728174
000240 56 f3 9c bc 1d 8c 8c bd ff 43 3d 3c 46 71 27 38
       -0.019159 -0.06862662 0.011551856 3.9921397e-05
000250 25 11 91 ba b6 fa 14 bc f8 74 39 bd 16 5f a3 3d
       -0.0011067732 -0.009092977 -0.045277566 0.079771206
000260 d3 15 92 bd 7c 4b f7 3c e4 f7 76 3b 66 9d 1c bd
       -0.07133069 0.030187361 0.0037684375 -0.038236044
000270 3a a7 d6 bc b1 30 c1 bc 66 e7 18 3d 42 37 d5 bc
       -0.026202787 -0.023582788 0.037330054 -0.026027326
000280 26 49 10 bd d7 39 24 3d 91 91 41 3c 0e df 19 3c
       -0.03522601 0.040094223 0.011814491 0.009391559
000290 e8 7c 30 3d 6a 5b 59 3c bf 23 a0 3c ae da 94 3c
       0.04308787 0.013266424 0.019548295 0.01817068
0002a0 f5 61 09 bd 88 83 be bc 34 0c f7 3b 6b d4 62 3c
       -0.033540685 -0.023256078 0.0075392965 0.01384459
0002b0 a6 77 09 bd f5 3b 87 ba f3 00 e3 bc 20 b4 7d 3c
       -0.03356137 -0.0010317551 -0.027710414 0.01548484
0002c0 5e 48 29 3a 86 ae 22 b9 39 e2 c8 bb 18 7b c8 3b
       0.0006457622 -0.00015514539 -0.0061304835 0.0061181895
0002d0 10 f5 bf 3c a5 07 1d bc 43 63 6f bd ce 7a 18 3d
       0.023432285 -0.009584342 -0.058444273 0.03722649
0002e0 e8 ab 3d bc 6f a0 a5 3c df d7 a8 bb 6b 2d 9c 3d
       -0.01157663 0.020218102 -0.005152687 0.0762585
0002f0 c2 30 54 bd f3 51 62 bc 26 1c 24 bc 5e c7 1b bd
       -0.05180431 -0.0138134835 -0.010016477 -0.03803193
000300 42 34 e2 3c 33 62 71 bb ce 78 10 bd e7 12 b1 3b
       0.02761281 -0.0036832213 -0.03527146 0.0054038647
000310 9f 92 26 bd a1 4f 46 bd 88 2b 3c bd ee d4 16 bd
       -0.040667173 -0.048415784 -0.045939952 -0.03682416
000320 e3 b3 60 bb 16 a6 93 3b 0a 5e d7 bc 49 f0 c8 bc
       -0.0034286908 0.004505883 -0.026289959 -0.02452864
000330 df 07 a1 bc 46 54 17 3b a7 68 aa bc a8 40 39 bd
       -0.019657074 0.0023091002 -0.020801855 -0.045227677
000340 16 0c 9c bc da e2 d7 3c bd 31 0d bd c1 39 c6 3c
       -0.019048732 0.026353288 -0.034471262 0.024197461
000350 f0 12 82 3c d5 61 95 bc 3e 8c 99 bc 99 34 c1 3c
       0.01587817 -0.018235127 -0.01874363 0.02358465
000360 4f 40 58 bd a1 d0 56 ba c0 82 be bc 39 02 4c 3c
       -0.052795704 -0.000819454 -0.023255706 0.012451702
000370 c6 09 99 bc a7 78 b8 bb ab 86 f0 bc e4 b0 86 bb
       -0.018681418 -0.0056296173 -0.02936109 -0.0041104425
000380 3a fa f8 3c 7e db 2a 3c eb 73 c0 bd 1a 86 6f 3d
       0.030392755 0.010428308 -0.093971096 0.0584775
000390 4e 92 92 3c 2f 54 20 3c 0f a9 a2 bb c2 44 6d bd
       0.01789203 0.009785696 -0.004964001 -0.0579269
0003a0 67 61 a6 bb 0c 90 f0 3c 9e f2 16 bd c5 33 96 bd
       -0.0050775292 0.029365562 -0.03685247 -0.07334093
0003b0 52 ae d0 bb d9 df 4b bc d0 83 bc bc 22 c3 d2 bb
       -0.006368437 -0.012443506 -0.023012072 -0.006431953
0003c0 7b 0e 7d bb 9f bb b4 bb c8 39 43 bc 67 f7 a6 bd
       -0.0038613367 -0.0055155302 -0.011915632 -0.08152657
0003d0 6f e5 26 bb 7e f0 1a bb 5e bc c1 3d b8 4a 42 3c
       -0.0025466343 -0.002364188 0.09459756 0.011858635
0003e0 66 c7 15 3c d2 30 a9 be be 9d 14 3d f5 d9 8e bc
       0.009141779 -0.3304506 0.036283247 -0.017437914
0003f0 5b a1 e4 3b e6 ff 00 be 6f 0c ad bc 1d cb 4c 3d
       0.006977243 -0.12597618 -0.021124093 0.04999839

fc3.bias f4 [2]
000000 6f 0b 29 3d f6 f3 73 3b
       0.04127067 0.003722427
