DataShared/Reacher-v2/actor_td3.pt (torch_old, 503833 bytes, 6 tensors)

fc1.weight f4 [400, 11]
00000000: f482 07bd 956b 37bf 4ce3 503e 0aca 04bf
00000010: 7eea b03f c010 e43f 20e0 e8bc 1123 f8bd
00000020: 9d65 b6be 2781 26c0 30ef c7bc 2122 5c3f
00000030: 7fc4 cfbd 003e 2dbf 8c02 46bf c417 08c0
00000040: e67c e9bd 8994 903d 5f26 bc3d 0013 bd3f
00000050: 8cca 53c0 405e 8d3e d4c3 5e3e e135 93be
00000060: 0535 3abf 9d9c 69be a5de 65c0 85b8 47c0
00000070: 2f72 fabd 3dba f13b 96cc 2740 cc79 df3f
00000080: e088 053c cfd0 02bf 7ee2 893f f84d febe
00000090: c64e 513f b915 0940 fb48 31bf 1c25 bebd
000000a0: 6458 58bc 8fb1 afbf 52cc b5bf 8cd6 10be
000000b0: f9ad 863d 3d51 05bf eaaa bfbe ce0f 5e3e
000000c0: 0573 823e ea95 8dc0 166d a9bd 0e6a cfbd
000000d0: 0e1e b6c0 d5fd cf3f 80c0 85bb 04c6 e4bd
000000e0: 2f57 c4be c8b0 c93e d8e2 803e 2212 0c40
000000f0: 8879 923f e9da f03d 0f5b c93d 8559 abc0
00000100: bf82 aa3e 80f5 d9bd 8d36 0fbe aa38 5e3e
00000110: 5084 57be 9440 65bf b0f8 e73f a57d 223e
00000120: 6474 463d 1590 773c 819e 0abf 1065 7dbf
00000130: e6dc a5bd 7207 c0be f301 013e 9ee6 01be
00000140: e627 763e 0bc6 dabf c928 b3be 45f0 b23a
00000150: 3262 46bb ebf1 a33e 051b 083e 8063 2abb
00000160: 1f60 153e 4dee 883e 4777 7dbf a9d3 e6bd
00000170: 4d41 0ec0 5925 a8bf bd3a cf3d 139d 2f3d
00000180: 21e2 eb3f a033 02c0 009a 54ba 35cb 40bf
00000190: cf5f 49bf 5d4a 823f b6f6 fa3e 08ec bcbf
000001a0: 9139 943f e6c8 e0bd 56c1 61bd c682 5940
000001b0: 5062 d9bf b0e3 73be 50ff 37bf fd47 3f3e
000001c0: d01c 55bf 3868 3bbe 89e8 26c0 62a0 233e
000001d0: 9923 083e 95d7 60bd ab76 0540 4ee7 debf
000001e0: b09e c63d 8551 683e 6107 d63d c359 b9bd
000001f0: 9582 e6bd 7338 bc40 ea1e 523e ccf7 dcbc
00000200: 9109 01bd 4b31 1dc0 dc5e febe 001c e5ba
00000210: ada7 55bf db07 21bf 8ea0 0a3f 37fc f73e
00000220: c960 0cc0 f5f3 af40 d332 093e b4f0 093e
00000230: 39e8 acbe e2f9 1cc0 4a37 073e 6c6c 8abf
00000240: c2c4 353f 4cc3 d2bd 4f9b 02bf 8d35 dbbd
00000250: 6d89 07c0 93a7 1fbe 5e0a 97bd 7bf6 50bf
00000260: 08a9 5f40 7877 a73d 0089 cc3e d41e b5be
00000270: dd5b 91be fcf2 1ebe dbc7 97c0 6f8a 44bf
00000280: f2b7 bb3c 1981 743b fc13 f63f 1063 563e
00000290: 1e16 173e 8d65 413e d325 12be e039 063f
000002a0: d0e5 4d3d bb6a 8e40 2744 943f ed10 a7bd
000002b0: 1629 abbd f845 21bf 1326 d0c0 88e4 7b3e
000002c0: 2025 623c d644 d7be 25c7 70bd 9c30 11bd
000002d0: ba04 9440 2764 88c0 abc8 c8bc 3a45 87bd
000002e0: 0e2a 32c0 74e4 913f fc9c 68bd 06d3 ce3e
000002f0: 4041 ce3c 4baa 7f3d 1775 833f f761 7e3f
00000300: 9120 44bf 4b38 df3d e39b 40bd 24f3 82bf
00000310: 5822 0c40 4007 323e c55f a6bf 5f97 7fbf
00000320: 73e4 2dbf 7b28 7fbe aecb ea3f c30f 06c0
00000330: 3c42 143e 9ffe 3b3d 4805 8c3f 32bc d93f
00000340: cc8c a93d 1881 ff3d 3e6a 973e 8cee e4be
00000350: 3216 cabe 3cb9 5a40 1533 c3bb 2f19 5fbc
00000360: 6beb a3bc 2d5b 94c0 0f65 08c0 54ce 863d
00000370: ad96 3ebf c104 f0be 2937 bf3e 51ac 253e
00000380: 7742 19bf 2bea 9240 80db 293e f526 073e
00000390: 8b1e 08c0 9b63 92c0 c89f 673e 3fc5 72be
000003a0: 024a 4d3f 528e acbe 46ad 563d 6458 123f
000003b0: 3c26 33bf de62 d53b 037d 8dbc acd8 bdbf
000003c0: ae6a 7dbd e0f2 4b3e e3f8 e73e 8718 e2be
000003d0: 016d 26bf 9790 553f 01c6 4140 9a96 b0bf
000003e0: 2c1a 1a3d c13b 143d 28fe 21c0 d033 b93f
000003f0: 8e13 a9bd 4e8c debc 660f 41bd ceee 483d
-0.03308387 -0.7164853 0.20399207 -0.5187079 1.3821561 1.7817612 -0.028427184 -0.121160634
-0.356244 -2.6016328 -0.024406046 0.85989577 -0.101449005 -0.6767273 -0.77347636 -2.1264505
-0.114007756 0.07059581 0.09187006 1.4771423 -3.3092375 0.2761097 0.2175439 -0.28752044
-0.7273715 -0.2281365 -3.5917141 -3.1206372 -0.1222881 0.0073769377 2.621862 1.7459044
0.008150309 -0.51099867 1.0772245 -0.4966886 0.81760824 2.1419508 -0.69251984 -0.09284422
-0.013204668 -1.3726062 -1.4202979 -0.14144343 0.065761514 -0.52077085 -0.37435085 0.21685717
0.25478378 -4.42455 -0.082727596 -0.1012765 -5.691169 1.6249338 -0.0040817857 -0.11170581
-0.38347766 0.39392686 0.25173068 2.1886067 1.1443338 0.11760504 0.09831821 -5.3546777
0.33302876 -0.106425285 -0.13985653 0.21701303 -0.21046567 -0.89551663 1.8122768 0.15868242
0.048450842 0.015110035 -0.5414811 -0.98982334 -0.08098774 -0.3750568 0.125984 -0.1268563
0.24038658 -1.7091688 -0.34992054 0.0013651928 -0.0030270931 0.32020506 0.13291557 -0.0025999248
0.14587449 0.2674431 -0.9901013 -0.1127084 -2.2227356 -1.3136398 0.10118625 0.042874407
1.8428384 -2.034401 -0.0008110106 -0.7531007 -0.7866182 1.0178944 0.4901635 -1.4759531
1.1580068 -0.10975818 -0.05511602 3.3986068 -1.6983128 -0.23817325 -0.7187395 0.18679805
-0.8324709 -0.18301475 -2.6079428 0.1597915 0.1329483 -0.054893095 2.085368 -1.7414339
0.09698236 0.22687347 0.10450626 -0.09050324 -0.11255375 5.881891 0.20519605 -0.026973628
-0.031503264 -2.4561336 -0.49681747 -0.0017479658 -0.8345898 -0.6290261 0.54151237 0.48434612
-2.1934073 5.49853 0.13398294 0.13470727 -0.33770922 -2.4527516 0.13204685 -1.0814338
0.71003354 -0.10291156 -0.5101823 -0.107035734 -2.1177628 -0.15591268 -0.07375024 -0.816261
3.4946918 0.08177084 0.39948273 -0.35375082 -0.283904 -0.15522379 -4.7431464 -0.7677373
0.02291486 0.0037308394 1.9224849 0.20936227 0.14754531 0.18886395 -0.14272241 0.5243206
0.050267994 4.4505286 1.1583298 -0.08157525 -0.08357446 -0.6299739 -6.5046477 0.24598897
0.013802797 -0.42044705 -0.05878367 -0.03544675 4.625577 -4.2622256 -0.024509748 -0.06605001
-2.7838168 1.1397843 -0.056790337 0.40395373 0.025177598 0.062418263 1.0270108 0.9936823
-0.7661219 0.10899409 -0.047023665 -1.0230451 2.1895962 0.17385578 -1.2997977 -0.9984035
-0.6792671 -0.24917786 1.8343408 -2.094712 0.14478391 0.045897122 1.0939112 1.7010558
0.08278808 0.124757946 0.29573244 -0.44713247 -0.3947006 3.4175558 -0.005957017 -0.013616844
-0.020009717 -4.63613 -2.1311681 0.06582323 -0.74448663 -0.46878627 0.3734677 0.16179015
-0.5986704 4.591085 0.16587639 0.13198455 -2.1268642 -4.574659 0.22619545 -0.23708056
0.8019105 -0.33702332 0.05241134 0.57166123 -0.69980216 0.00651203 -0.017271524 -1.4831748
-0.061869316 0.19916868 0.45307073 -0.44159338 -0.65010077 0.8342375 3.0277102 -1.379596
0.037622616 0.0361898 -2.5311375 1.4468937 -0.08255683 -0.027166512 -0.047133826 0.049055867

fc1.bias f4 [400]
00000000: cbbd febf 0a77 c3bf b803 d3bf d11b 19c0
00000010: 9d85 09bf 5d26 f5bd 49b2 56bf f597 8ebf
00000020: 9348 d2bf f2b0 04c0 dd28 b6bf cd7a 8abf
00000030: 84c3 00c0 ee23 dfbf a38f 48bf c3fc 62bf
00000040: b960 e2be e380 95bf 2c2f 03c0 59aa 81bf
00000050: bd93 d7be 5656 fbbf 5e1f abbf 9412 a8be
00000060: 7413 f3bf a9fe d1bf d1d8 99bf c518 d4bf
00000070: 9aa5 e8bf aa91 efbe b524 b2bf 7f9e 88bf
00000080: e4dc a7bf 706d b8bf 7b52 9bbf 0ceb e3bf
00000090: f852 adbf 743c ccbf 130c f5bf fd99 46bf
000000a0: e45f babf 837a dfbf 3edd e4bf f791 9cbf
000000b0: 9058 b2bf 09fe 88bf 85b6 71bf 4439 64be
000000c0: 2f65 95bf 4db1 32bf ba0e afbf d465 c8bf
000000d0: 81ef bebf 9f58 69bf 8fa1 88bf e480 89bf
000000e0: 9f05 d4bf a87e 65bf 5031 aebf a0ab fabe
000000f0: 0e26 a4bf 6f47 b7bf 5241 3abf 17e8 bcbf
00000100: 73b7 9dbf cf97 c9bf 3b9f 27bf a94b 2ac0
00000110: e7d1 bebd c12c 98bf 063d ecbe 42a7 aebf
00000120: 2df4 0fc0 1402 0dc0 d6ed 82bf 6310 08c0
00000130: 0bbf 7fbf 6fd2 61bf 2a12 c6bf 2b5d 9abf
00000140: 74e7 acbf 9d77 f3bf d00d e1bf 457c e8bf
00000150: b8ca 2dc0 0d00 cdbf 5538 81bf 34c6 8dbf
00000160: 26a4 fdbf 816c 09c0 0bad c8bf 6212 bfbf
00000170: 2b55 f8bf f0d6 7dbf ed5f 23c0 ce02 01c0
00000180: dbe4 0cc0 37b7 a6bf fbc0 9cbf 804d a1bf
00000190: 2b88 0dc0 b71f 8bbf ceb2 87bf af60 f2be
000001a0: 39a2 75bf b55a 57bf f173 24bf abe3 27bf
000001b0: c79e a2bf a231 e2bf 0b33 ecbf 99d4 f6bf
000001c0: 3915 bfbf 83b2 e4bf a1df a2bf eba4 a3bf
000001d0: 0c7b eabf 7a41 42bf f6c2 edbf 7457 c9bf
000001e0: 14ac 85bf 64d6 fdbe 65e5 e8bf c0c8 0dc0
000001f0: b97b dbbf f5c5 5fbf 8358 c9bf 42ce 2cbf
00000200: cd19 bbbf f8f3 c1bf e8c4 1bc0 67b5 0cc0
00000210: fe17 8bbf e745 8fbf 8c78 fcbf 8423 afbf
00000220: 6e3b 91bf 6432 bbbf ed11 bcbf 3bc8 b6bd
00000230: 12a7 cdbf ac8a f8bf e8d6 abbf d43a 06c0
00000240: b8be c3bf 58c7 c9bf e2f9 b6bf 91e6 18c0
00000250: 7076 ebbf f7d8 c9bf 0597 17be f413 02c0
00000260: 7974 eebf aaff 6cbf c033 c3bf c872 c5bf
00000270: 29b9 f5bf 2b73 a5bf 6296 7cbf c0a5 8bbf
00000280: 1563 8fbf 5fdc 86be 240e c9bf 5e19 88bf
00000290: f238 a0bf 6566 acbf 0c6e c9bf 0aeb 93bf
000002a0: 45fd b2bf abc4 16c0 6200 10c0 fe62 e6bf
000002b0: 0e0c ecbf 26a5 ebbf 9d6c f0bf d583 b7bf
000002c0: 5db8 a4bf 4c58 09c0 5b0c abbf 3780 e6bf
000002d0: 1a68 dbbf 633e 8fbf 6a69 0fc0 77d1 0fc0
000002e0: d370 e0bf ac95 66bf 01b7 adbf 4119 fbbf
000002f0: 1454 16c0 252a 21bf 5a0b 8dbf 5c38 75bf
00000300: 45bc 02c0 e85c e0bf 0146 e1bf 87b7 6ebf
00000310: 1f81 b1bf 9962 a8bf 8613 dcbf b30e f4bf
00000320: 70fa a9bf 7093 c4bf edd7 3dbf 9e86 d0bf
00000330: 8017 d0bf ceae a2bf 7b75 06c0 3b9e 9cbf
00000340: d5aa a2bf a188 02c0 48e7 8ebf 7a9f 7fbf
00000350: 7e52 dfbf d14c 04c0 949a 85bf 2517 adbf
00000360: cd75 cebf ebe5 b2bf 2eb4 89bf 76d9 28bf
00000370: 3323 a6bf 8bd4 82bf 3541 cfbf 3181 aabe
00000380: 0989 a9bf f537 86bf 48c9 10c0 89f7 8fbf
00000390: 8c40 acbf ebe4 c7bf 6476 f5be 5da5 d2bf
000003a0: 4c32 44bf 9fc2 93bf e17d cabf 74f4 94bf
000003b0: da25 94bf c95e 92be 77ab afbf 3431 e7bf
000003c0: 441f fdbf b175 8fbf 137a abbf 924b d5be
000003d0: 3f84 8dbf 6dff 41bf 83a4 07bf 0767 9dbf
000003e0: 764a d6bf 9885 d2bf 884a 77bf f6f5 9fbf
000003f0: f93a 4ebf ce0c f5bf 4540 88bf 06e8 25c0
-1.990167 -1.5270703 -1.648551 -2.3923228 -0.537195 -0.11970208 -0.8386579 -1.1140124
-1.6428398 -2.0733 -1.423122 -1.0818726 -2.0119333 -1.743284 -0.7834417 -0.88666934
-0.4421442 -1.1679958 -2.0497541 -1.0130111 -0.42104903 -1.9635723 -1.3368948 -0.32826674
-1.8990312 -1.6405841 -1.2019292 -1.6570059 -1.8175538 -0.4679082 -1.3917452 -1.0673369
-1.3114285 -1.4408398 -1.2134546 -1.7806106 -1.3540945 -1.5955949 -1.914431 -0.7757872
-1.4560513 -1.7459263 -1.7880018 -1.2232045 -1.3933277 -1.0702525 -0.9441913 -0.2228747
-1.1671504 -0.6980179 -1.3676369 -1.5656075 -1.4916841 -0.9115085 -1.0674304 -1.0742459
-1.6564215 -0.8964639 -1.3608799 -0.48959064 -1.2824113 -1.4318675 -0.7275592 -1.4758328
-1.2321609 -1.5749453 -0.6547734 -2.660868 -0.093173794 -1.1888658 -0.46140307 -1.3644793
-2.2492783 -2.2032518 -1.0228832 -2.1260002 -0.99900883 -0.8821172 -1.5474293 -1.2059683
-1.3508134 -1.9020878 -1.758234 -1.8162924 -2.715498 -1.601564 -1.0095316 -1.1076112
-1.9815719 -2.1472476 -1.5677809 -1.4927485 -1.9400991 -0.99156094 -2.5527298 -2.0157962
-2.2014682 -1.3024663 -1.2246393 -1.2601776 -2.211436 -1.0869054 -1.0601442 -0.4733939
-0.9595066 -0.8412278 -0.6423941 -0.6558177 -1.2704705 -1.7671397 -1.8453077 -1.928363
-1.4928352 -1.7866977 -1.2724496 -1.2784704 -1.8318801 -0.7588116 -1.8575122 -1.5729814
-1.0443139 -0.4957763 -1.8195006 -2.2153778 -1.7147132 -0.87411433 -1.5730137 -0.67502224
-1.4617249 -1.5152578 -2.4338932 -2.198572 -1.0866697 -1.1193208 -1.9724288 -1.3682714
-1.1346262 -1.4624753 -1.469297 -0.0892491 -1.6066611 -1.9417319 -1.3424959 -2.0973406
-1.5292578 -1.576396 -1.4295008 -2.3890727 -1.8395519 -1.5769337 -0.14803703 -2.0324678
-1.8629295 -0.9257761 -1.5250168 -1.5425653 -1.9197131 -1.2925771 -0.98666966 -1.0909958
-1.1202112 -0.26340005 -1.570744 -1.0632741 -1.2517378 -1.3468748 -1.5736709 -1.1556103
-1.3983542 -2.3557537 -2.2500234 -1.799896 -1.8441179 -1.8409774 -1.8783146 -1.4337107
-1.2868763 -2.1460142 -1.3363146 -1.8007878 -1.7141144 -1.1190914 -2.240809 -2.2471597
-1.7534431 -0.9007213 -1.3571473 -1.9617082 -2.3488817 -0.6295493 -1.1019089 -0.9578912
-2.042741 -1.7528353 -1.7599488 -0.9324879 -1.386753 -1.315509 -1.7193458 -1.9066986
-1.3279552 -1.5357494 -0.741576 -1.6291082 -1.6257172 -1.2709596 -2.1009204 -1.2235788
-1.2708384 -2.0395892 -1.1164331 -0.99852717 -1.744705 -2.0671885 -1.0437799 -1.3522688
-1.61297 -1.3976415 -1.0758111 -0.6595682 -1.2979492 -1.0221113 -1.6191775 -0.3330169
-1.3244945 -1.0485827 -2.2622852 -1.1247417 -1.3457198 -1.5616735 -0.47941887 -1.6456715
-0.76639247 -1.1543769 -1.5819665 -1.1637101 -1.1574051 -0.2858794 -1.3724202 -1.8061891
-1.9775167 -1.1207792 -1.3396629 -0.41659218 -1.1055983 -0.75780374 -0.529854 -1.2297066
-1.6741474 -1.644702 -0.965981 -1.2496936 -0.80558735 -1.9144533 -1.0644614 -2.5922866

fc2.weight f4 [300, 400]
00000000: fa76 10bd a38c 53bd 6bfe 17bd b010 8ebc
00000010: bb42 94bd 7f64 64bd a05d 993c 1777 54bd
00000020: 7374 423c 8efd 89bc 1f42 853c cc65 4ebc
00000030: e730 e3bc c38f 14bd 83ca 2f3b 13d3 1cbd
00000040: 108a 0e3b 45ae 41bd 7332 163c 48dc 04bd
00000050: 1f13 81bd c231 df3b 31fc 12bd f89d b0bc
00000060: 023a 08bd dfcd 96bb 1dd0 113c df98 d13b
00000070: 8bcb d93c 8cdb 80bc 59d6 fcbc 455a 35bd
00000080: de85 b2bc c1f0 be3c 4a4a c23c 7f7b 84bd
00000090: 4e58 f3bb 5d8e 5bbd 5340 fc3b 87f5 3b3b
000000a0: ef27 1abd 9ecc 20bc c1ca 26bd 7144 db3c
000000b0: e415 17bd eec5 52bd f950 11bd 292e 55bd
000000c0: 71bb a8bb c237 4ebc 95e7 65bd c636 4ebd
000000d0: 632e 12bd b0e6 00bd 1e59 9ebd 359a 9abb
000000e0: 8219 f43b acec bf3b 7686 48bd 22b1 cdbc
000000f0: 6fab 3dbb fff8 95bc 040b 2fbd 8664 27bd
00000100: fa43 703a 754c 60bd 04d1 89bc b55b 6abc
00000110: e915 b4bc ea38 b7bc e7e4 ffbc bcfc b13b
00000120: 4772 623c c660 34ba 714c 0f3c a230 af3c
00000130: 520f 4cbd 5832 26bd 8cc2 aa3c a1bd 8c3c
00000140: 2c8d cd3c 131c 683c fe4b a3bb b2c0 f73c
00000150: 38a0 9dbd 9fec 32bd e7a1 393c f5a9 88bd
00000160: ea34 cabc 2b55 783b b5af e53c b7b4 a7bc
00000170: b304 d43b 6054 26bd d648 57bd cd81 cd3c
00000180: af1f 7ebb 988d a9bc a9de 913c 8dbb fb3c
00000190: 6df8 d0ba 0667 283c 246d 37bd fa35 5cbc
000001a0: d02d cebb e4c9 8bbd 5a94 0abd e2c8 8abc
000001b0: 2133 64bd 13c5 c73c c8bb d6bc 7ebf 14bd
000001c0: a399 58bd 4443 053d 2d34 45bd 5ff5 813b
000001d0: a2f9 7ebd e605 87bd d6de d5bc 18ac acbc
000001e0: 0bc9 3fbd d987 153c 4939 dabc ee03 e9bc
000001f0: 62cb eebc 3ed6 9fbc b82b 173b 6dfe 42bd
00000200: cba9 a53c 8b34 03bd 0201 2dbd 39e8 c6bc
00000210: a815 533a c100 83bc 4677 7fbd 0dca 05bd
00000220: c40b 903c 04be 35bb 3288 88bd 5bf7 9b3c
00000230: 9fe4 eb3c 0080 77bd bf12 1bbc 6943 46bd
00000240: a9ca 80bc 80eb 78bd c87d 2abd 5614 a0bb
00000250: 1a00 2fbd 8550 00bd 2ff8 dabb 042b 593c
00000260: c838 35bd 672f e8bb f9e1 83bd fc10 89bd
00000270: 61a1 33bd 7120 5fbd f283 f83b 95d0 89bc
00000280: 8acb 00bb 2270 ba3c 6136 52bd 2ef7 6bbd
00000290: 42f0 fdbc f1c7 26bd be86 29bd 76fb e9bc
000002a0: e1f5 d5bc 945c c3bb db6c 073d 2e4c 013d
000002b0: e3c0 5dbd 31ba 26bd 82e2 a5bc 14da 60bd
000002c0: 476f 9fbc 5f9c f1bb 7349 ae3c b4b8 08bb
000002d0: 7c56 36bc 4a90 d73c 0597 61bd dacc 29bd
000002e0: 92f8 083c e8a7 fcbc f721 a73c 4874 e7bc
000002f0: 4f6b 6bbd a8c7 65bd 80a2 4ebd 71d9 34bd
00000300: 61cf 793c 1ff5 423c 3348 853c a223 c5bc
00000310: 47ae dfbc 96e1 b1bc e7af 06bd 8562 efbc
00000320: 32f6 cabc 57fb 51bd 763d 5fbd efdd 54bd
00000330: e9f8 563c daab fe3b 1d95 ffbc bc33 49bd
00000340: d154 60ba 4300 683b 80eb 87bd f40e 49bb
00000350: 592c 16bc abba 683c e26c 04bd 6a69 19bd
00000360: 04f9 b23c fef3 babb 2b42 06ba e880 8dbc
00000370: 5c2c ee3c cef0 56bd 0f90 5dbd b6a1 d3bb
00000380: 453b 80bd 916d a2bd 0b5d 09bd c758 88bc
00000390: 12bf 0fbd 92ec 7ebd 2ce5 52bc e227 683c
000003a0: 850e 34bd 2caa d63c a651 dcba 9073 29bd
000003b0: 8ffc e3bc c7be b0bd 34f5 05bd f60b 37bd
000003c0: e96f 4abc 918a ddbc 4162 1c3c 0ba7 85bd
000003d0: 380f b03b 5b88 6cbd 03e3 b8bb cd8c dc3c
000003e0: e129 70bd 2bc8 c5bc cba7 f13b c46f fdbc
000003f0: a0ca b1bc 0f5d 13bd e748 ff3b 8d92 2dbd
-0.035269715 -0.051647794 -0.037107866 -0.017341942 -0.0723929 -0.055759903 0.018721402 -0.051871385
0.011868584 -0.016844537 0.01626688 -0.012597512 -0.02773328 -0.036269914 0.0026823587 -0.038287234
0.0021749772 -0.047285337 0.0091673015 -0.03243664 -0.06302475 0.0068113515 -0.03588504 -0.0215597
-0.033258446 -0.0046021785 0.008899716 0.0063963975 0.026586315 -0.015729688 -0.030863928 -0.04427554
-0.021792348 0.02330816 0.023717064 -0.064688675 -0.007426298 -0.053602565 0.0076980977 0.0028680281
-0.03763574 -0.00981441 -0.040720705 0.026766034 -0.03688611 -0.05145829 -0.035477612 -0.052045975
-0.005149298 -0.012586536 -0.056129057 -0.050345205 -0.03568877 -0.03147 -0.077318415 -0.00471809
0.00744933 0.005857071 -0.048956357 -0.025108878 -0.0028941294 -0.018307207 -0.042735115 -0.04086735
0.0009165403 -0.054760415 -0.0168233 -0.014304091 -0.021983104 -0.022366006 -0.031237079 0.0054317396
0.013821191 -0.00068808754 0.008746252 0.021385495 -0.049819298 -0.040575355 0.02084472 0.017180266
0.02509173 0.01416685 -0.004983424 0.030243251 -0.07696575 -0.04368269 0.011330104 -0.06673042
-0.024683435 0.003789256 0.028037885 -0.020471914 0.0064702868 -0.04060781 -0.052559696 0.025086308
-0.003877621 -0.0206974 0.017806368 0.03072908 -0.0015943177 0.010278469 -0.04478182 -0.013440603
-0.0062920824 -0.06825617 -0.033832885 -0.016941492 -0.055712823 0.024385964 -0.026212588 -0.036315434
-0.052880894 0.032534853 -0.04814546 0.003966018 -0.062249787 -0.06592922 -0.026107233 -0.021078154
-0.04682259 0.009126627 -0.026638644 -0.028444257 -0.029149715 -0.019511338 0.002306683 -0.04760592
0.020222565 -0.03203253 -0.04223729 -0.024280654 0.0008052238 -0.01599157 -0.062369607 -0.032663394
0.017583735 -0.0027731666 -0.06666602 0.019038847 0.028795538 -0.060424805 -0.009464919 -0.04840413
-0.015721636 -0.060771465 -0.04162386 -0.0048852367 -0.042724706 -0.03132679 -0.006682418 0.013254885
-0.044243604 -0.007085729 -0.06439585 -0.06692693 -0.043855075 -0.054474298 0.0075840885 -0.016823092
-0.0019652569 0.022758547 -0.05132139 -0.057608776 -0.030998353 -0.040718023 -0.041388266 -0.028562289
-0.02611822 -0.005961964 0.033062797 0.03156679 -0.05413903 -0.04070491 -0.020249609 -0.054895476
-0.01946224 -0.007373377 0.021275258 -0.0020862045 -0.011129018 0.02631392 -0.055075664 -0.041455127
0.008360045 -0.030841783 0.020401938 -0.02825369 -0.057475384 -0.05609861 -0.05044794 -0.04415268
0.015247197 0.011899262 0.016269779 -0.024064843 -0.027304782 -0.021714013 -0.032882597 -0.029221782
-0.024775598 -0.051265087 -0.054501973 -0.051969465 0.013120868 0.007771951 -0.031199032 -0.049121603
-0.00085575605 0.0035400547 -0.06636715 -0.0030679079 -0.009165847 0.014204661 -0.0323304 -0.037454046
0.021847256 -0.0057053557 -0.0005121554 -0.017273381 0.029073887 -0.052475743 -0.054092463 -0.0064584864
-0.06261305 -0.079310544 -0.033536 -0.016643895 -0.03509433 -0.06223733 -0.012872022 0.014169665
-0.04395916 0.026204191 -0.0016809001 -0.041369975 -0.02783039 -0.08630138 -0.032704547 -0.04468914
-0.012355783 -0.027043613 0.00954491 -0.065260015 0.005372908 -0.057747226 -0.0056422963 0.026922608
-0.05863369 -0.0241433 0.007374739 -0.030937083 -0.021703064 -0.03597742 0.007790673 -0.04237609

fc2.bias f4 [300]
00000000: d190 37bd c0ac d4bd 34d3 a2bd 18e2 4bbd
00000010: c5f9 8cbd 7524 e6bd 6754 10bd c35b 50bd
00000020: 19d2 28be 3575 83bd 4628 453e 9f55 e83e
00000030: 2ebe c9bb 88a9 4dbf fd4d 3cbd fd08 133e
00000040: 3f4f 75bd f268 90bd c842 2239 a8ce fdbd
00000050: b0ea febd 664b 48bd d8dc 94bd 5735 9bbd
00000060: 6677 a6bd 0fc2 d2bd d8e6 54bd 645c 86bd
00000070: f6e0 ff3b ab93 f8bd c378 52bd e70b a4bd
00000080: 2402 c7bd 2499 3ebd e170 a6bf 5400 a03e
00000090: 8e2d ddbd 2647 863f ff02 01be 2188 81bd
000000a0: 0692 e9bd d7d8 84bd 9850 063f 2dc3 c3bd
000000b0: 2063 b3bd c96c 40bd fb65 16be 3d6a cdbd
000000c0: 97cb 4ebd e358 85bf 7839 35bd 8484 70bd
000000d0: acb8 c2bd e8cb 61bd 60dd 89bd 82e9 07bd
000000e0: 8a19 a3bd d8bf d93e d479 83bd ed5c 9dbd
000000f0: 9f8f 17bd 9270 04bf 6ffb 5dbd 0881 e3bd
00000100: e6c0 6abd 6249 19bd 6421 aabd c58d 1ebd
00000110: 7afe 24bd bc96 b6bd 3851 83bf 1117 ebbc
00000120: c4cb 22be 2bd1 9bbd a881 83bd 667c a5bd
00000130: 55c7 a0bd b7ce 0ebe 072a 69bd 44a2 abbd
00000140: 4f83 a0bd 1250 12bf e815 43bd 93a7 f7bc
00000150: 2b31 a6bd 930a a73c f6b7 c7bd c40f 4cbd
00000160: 99bb ecbc 1aa9 d0bf a78b cebd cd29 91be
00000170: cf91 a8bc 07e3 88bd ecdd e3bc 59c9 5ebd
00000180: 2f7f f5bd 0af0 9ebd f8d8 a9bd d88a f4bd
00000190: 87a6 44bd 0644 ccbd 0c8e 86bd c40c 6abf
000001a0: aaf8 82bd 1cc4 dbbd 6af0 c5bd 49af 4ebf
000001b0: 2554 48bd 4076 e9bd f609 6fbd d68a 9ebd
000001c0: cc74 3cbd 0dec e9bd c5c9 51bd 474d 0fbe
000001d0: 39ff aabd e6a9 9cbd 3e51 c4bd b1e6 babd
000001e0: e972 5dbd b265 50bd e798 c9bd 305c b9bd
000001f0: c2ad aabd 773d 75bd a674 66bd dda8 3abd
00000200: 8a2c 0fbe d69b a0bf 6d8a f1bd f1a9 a8bd
00000210: 36ff 30bf e322 98be fc8e 85bf d690 98bd
00000220: 696b babd e991 f1bf cffd 1cbe 0b7e 87be
00000230: 0478 4bbd 1dfe 91bd 605b 79bf a84d b0bd
00000240: 4473 87bd 3c61 50bd d475 c4bd 69ab e1bd
00000250: 4a67 57bd 89f1 0abd bdf2 dabe b7b0 adbe
00000260: 210e 53bf 1df9 0dbf 3f8a 25bd 44d8 a7bd
00000270: 74cf b9bd 39ac a1bd 5def 25bd 50e3 c3bd
00000280: 6d63 32bd 117d a4bd 7f6e 99bd c861 88bd
00000290: 1e9c 88bd 1942 62bd 5bd6 45bd eaa5 40bd
000002a0: 6b2a e8bd 6017 d4bd 33f7 aabd 8376 6ebd
000002b0: 4f89 1bbf 47da a5bd c72b 58bd 4b1c 983e
000002c0: ff16 a4bd 32c8 edbd 248e a7bd e1a6 ccbd
000002d0: eff6 a3bd 21fb 02bd b36d d1bd 141c 15bd
000002e0: 7ec7 b8bd 2ad7 6abd 7842 7cbd 0ddd 89be
000002f0: 32b1 00be 833d 59bd 8cf1 c2bd 56af c6bf
00000300: 9598 98bd 2c51 53bd d32a 25bd b915 dcbd
00000310: c5e6 d8bd 77c0 87bd ef5e 4dbd bc59 e8bd
00000320: 8719 92bd acaf 6fbd 1867 dcbd cf34 09be
00000330: c16e 6abd 487d a6bd a050 4abd 2a20 42bd
00000340: 37f8 07bd e7f0 dbbd 8ab3 4dbd 2b76 2fbd
00000350: acca b2be 4c4a d3bd a6fa 9ebd 2271 48bd
00000360: 62e8 7dbf e4db a0bd df56 c0bd 2034 a4bd
00000370: cdd7 bcbd 7a50 92bd 1671 91bd f25f a0bd
00000380: e9f7 31bf 1b4b 05be 60d3 643f 2c7e 863e
00000390: 2e46 dbbd 95b3 98bd e614 6ebd 3c6a 88bf
000003a0: fa58 cebd 330f 2fbd bcb5 8abd d77e 203e
000003b0: 20bb f3bc e157 8fbd 295f a2bd 8638 a7bd
000003c0: 07bd e0bd 4fd7 c2bd b52e 32bd fdac c5bd
000003d0: 558b 84bd c4d1 aabd fcf4 193f 962e bbbd
000003e0: 8892 3ebd 3e4b b5bd e540 56bd 22ff 93bd
000003f0: caaa 7dbd ede6 d5bf 43d5 94bd bd4e 83bf
-0.044815842 -0.10384512 -0.0795044 -0.049776167 -0.06883577 -0.112374224 -0.035236742 -0.05086876
-0.16486396 -0.0641884 0.19253644 0.45377824 -0.0061567044 -0.8033681 -0.045972813 0.14358898
-0.059890028 -0.07051267 0.00015474402 -0.12392932 -0.12447107 -0.04890003 -0.07268685 -0.07578533
-0.08128242 -0.1029092 -0.051977962 -0.06560591 0.0078088 -0.121375404 -0.0513847 -0.08010083
-0.09717205 -0.046532765 -1.3003198 0.3125025 -0.107997045 1.0490463 -0.12598799 -0.06324793
-0.11404805 -0.064866714 0.52466726 -0.09558711 -0.08759141 -0.046978746 -0.1468734 -0.10030029
-0.050487127 -1.0417751 -0.04424426 -0.058720127 -0.095078796 -0.0551261 -0.06731677 -0.033181675
-0.079638556 0.42529178 -0.06419721 -0.0768374 -0.037002202 -0.5173427 -0.054194864 -0.11108595
-0.05731287 -0.0374235 -0.0830715 -0.03870942 -0.04028175 -0.08915469 -1.0259161 -0.028697522
-0.15898043 -0.07608255 -0.06421214 -0.08080368 -0.078505196 -0.13946043 -0.056924846 -0.08380559
-0.07837545 -0.5715343 -0.047628313 -0.030231273 -0.08114847 0.020390784 -0.09751885 -0.049819723
-0.028898047 -1.6301606 -0.1008523 -0.28352204 -0.02057734 -0.06683927 -0.027815782 -0.05439124
-0.11987149 -0.077606276 -0.08293337 -0.11940545 -0.048010375 -0.09973912 -0.06570062 -0.9142573
-0.06395085 -0.10730764 -0.09664996 -0.80736214 -0.04890837 -0.113995075 -0.05835911 -0.077413246
-0.046009824 -0.11421976 -0.051217813 -0.13994323 -0.08349461 -0.07649593 -0.09585808 -0.09126032
-0.054064665 -0.050878234 -0.09843617 -0.090507865 -0.08333923 -0.05987307 -0.05626359 -0.045571197
-0.13981834 -1.2547557 -0.11793981 -0.08235539 -0.6913942 -0.29714116 -1.043426 -0.074495
-0.09102518 -1.8872653 -0.15331195 -0.2646335 -0.049675003 -0.071285464 -0.9740505 -0.08608562
-0.06613782 -0.05087398 -0.095927864 -0.11019022 -0.05258874 -0.033921752 -0.4276332 -0.33923885
-0.82443434 -0.5545824 -0.040415045 -0.08195546 -0.09072772 -0.07894177 -0.040511478 -0.09564841
-0.04355185 -0.08031667 -0.074917786 -0.06659275 -0.06670402 -0.055238817 -0.04830013 -0.047033228
-0.113362156 -0.10356021 -0.08347931 -0.05821849 -0.6075639 -0.08098274 -0.052776124 0.29709086
-0.08012199 -0.1161045 -0.08181408 -0.09992767 -0.08006083 -0.031977776 -0.102260016 -0.03640373
-0.09022425 -0.057334103 -0.061586827 -0.2692646 -0.12567595 -0.053037178 -0.09518728 -1.5522258
-0.07450978 -0.051591083 -0.040324043 -0.10746331 -0.10590891 -0.06628507 -0.050139364 -0.113452405
-0.07133775 -0.058517143 -0.10761851 -0.13399051 -0.05723453 -0.08129364 -0.049393296 -0.047393955
-0.0331957 -0.10739308 -0.05022005 -0.042837303 -0.3492025 -0.103169054 -0.07762651 -0.048936017
-0.99182713 -0.07854441 -0.09391569 -0.080177546 -0.09220848 -0.07144256 -0.071016476 -0.078308
-0.69518906 -0.13016932 0.8938503 0.26268137 -0.10706745 -0.074561276 -0.0581254 -1.065742
-0.10075565 -0.042739104 -0.06772944 0.15673386 -0.029752314 -0.069991834 -0.079283066 -0.08165078
-0.10973554 -0.09513723 -0.043501575 -0.096521355 -0.06471888 -0.08340791 0.6013944 -0.09139745
-0.04652646 -0.08852242 -0.052307982 -0.07226397 -0.061930455 -1.6711098 -0.07267239 -1.0258404

fc3.weight f4 [2, 300]
00000000: 6eaa 4d3d 3948 32bb ca1f 04bd b9f5 2c3d
00000010: 337f 85bb 6a65 65bd b657 c33c 1f3c 5d3d
00000020: 1670 0ebc 9df7 423d 2ce6 d73c a923 7dbd
00000030: feee 33bd af33 d93d aaf4 86bc 2a0b 31bc
00000040: 4fdc 5d3d 50d5 7cb8 e4da e0bc b16a 53bc
00000050: b7c9 493c 0264 b9bc 931a 05bb 8dda 38bc
00000060: a1ea bf3b b460 a1bc d515 73bc 2b28 8cbc
00000070: 17fc 153b 7c26 723c 5f48 a23b 8377 2f3c
00000080: 0eb2 bd3c ce09 fcbc 2efa 2d3d 645c be3c
00000090: f033 83bc f1fd 15be 6650 093d 3ed1 93bc
000000a0: 1266 c3bb 2729 53bb f540 b53d 3467 293d
000000b0: cd36 153d 3cc5 2cba ec90 473d fc38 263b
000000c0: 9328 e93c af8b 28bd f007 a2b8 169a 633b
000000d0: 1c30 2dbd bee4 543d 74c2 e0bc eb32 c3bc
000000e0: 9cc2 833a 6652 973d 6f16 18bd 9fd1 f63b
000000f0: a995 0cbd cc28 a83d 3745 543c 3c65 1ebc
00000100: ad41 c4bc c12a 95bc 1a8c 1a3c 3ad2 e8bb
00000110: ffd7 c23e 3c38 2dbb fab2 99bd 46f9 a13c
00000120: a50e dcbc a4e1 2d3c ac3f 693c e0dc cebc
00000130: 8d18 07bc e258 32bd fb8c a93c 64bd b43c
00000140: 96ec 12bd 049e 4fbd 1929 e7bb 9e34 e4bb
00000150: c45d ad3c 34e7 6a3d 5f9e 533d 5820 82bd
00000160: da16 f13b fda2 b03d c591 55bc d10e 183d
00000170: b69a 31bc baa6 473c 58a6 2cbc 7183 fc3c
00000180: a4da 813a 0f4f 563c df34 413c c12f 82bc
00000190: d4bd a4bb 691e a8bc eb34 92bc b3c1 903c
000001a0: a728 58bb 60e6 9eb9 00d7 2ebc 184c 123e
000001b0: 6369 303d 7e51 27bd fb4c bcbc 86d6 01bd
000001c0: 057a 41bc 3f90 c5bb 55cf 6b3c b62d 813b
000001d0: e37a ecbb 23ef 3e3c 0e99 213d f36e 1a3d
000001e0: b326 983c a4f8 95bc 296b aabc 318a 00bd
000001f0: ad97 1bbb b6d3 a73c 2414 fbbc 006b 32bd
00000200: 7729 d93b f0ca 163d c4fb 323c 5bc7 44bd
00000210: 5486 8f3d aebe af3d 8715 8dbd 63bd 85bb
00000220: f6bf a73c 3f46 68bd d77c 623d 6561 25bd
00000230: a471 a83c 2d5e bdbc 650c 263d 9bec 60bc
00000240: ddf3 9cbc a78c 8cbd 7843 3d3c 1d71 2738
00000250: 9310 91ba d5fa 14bc 2299 29bd cd5e a33d
00000260: f5cf 98bd e94b f73c 36f8 763b b69d 1cbd
00000270: bba7 d6bc ec30 c1bc a1e7 183d 9637 d5bc
00000280: 3f49 10bd 613a 243d 2c92 413c 28df 193c
00000290: 877d 303d 205c 593c 2924 a03c 35db 943c
000002a0: fc61 09bd c083 bebc 540c f73b 04d5 623c
000002b0: 68b6 15bd 793c 87ba 8401 e3bc b32e 913c
000002c0: 3a48 293a 48ae 22b9 a2e2 c8bb a87a c83b
000002d0: 75f5 bf3c 0f07 1dbc c863 6fbd 127b 183d
000002e0: 7bac 3dbc 78a0 a53c 8ad8 a8bb ae2e 933d
000002f0: 0331 54bd 1752 62bc d01b 24bc 0577 09bd
00000300: 8133 e23c c161 71bb 3d79 10bd 7312 b13b
00000310: 4e93 26bd be4f 46bd fa2b 3cbd 28d5 16bd
00000320: 20b4 60bb 3fa6 933b 1a5e d7bc b7f0 c8bc
00000330: 4d08 a1bc be54 173b 2969 aabc df40 39bd
00000340: c50c 9cbc 4fe3 d73c b831 0dbd fe39 c63c
00000350: 5780 7b3c 2c61 95bc 9c8c 99bc f734 c13c
00000360: e0bf 4ebd 06d0 56ba 7083 bebc b102 4c3c
00000370: 370a 99bc 3a78 b8bb 3786 f0bc 85b0 86bb
00000380: 0ab4 cb3c e9da 2a3c 93d0 c3bd b9ac 6f3d
00000390: 8f92 923c 9554 203c 6ca9 a2bb 2cd7 7cbd
000003a0: 1662 a6bb 5c90 f03c 29f3 16bd e0fe 93bd
000003b0: fdae d0bb 71e0 4bbc ed83 bcbc 98c3 d2bb
000003c0: b70d 7dbb 0abb b4bb 4639 43bc f4f7 a6bd
000003d0: 1ae6 26bb cbf0 1abb 1343 bc3d 944a 423c
000003e0: c6c7 153c ff8a aabe e69d 143d 96da 8ebc
000003f0: f9a1 e43b 01ac 04be 170d adbc bd09 633d
0.050211363 -0.0027203693 -0.03225688 0.042226527 -0.004074001 -0.05600492 0.023845535 0.054012414
-0.008693716 0.047599424 0.026354872 -0.061801586 -0.043929093 0.10605561 -0.016474087 -0.010805884
0.05416518 -6.0280145e-05 -0.027448125 -0.012903855 0.012316159 -0.022630695 -0.002031003 -0.011282575
0.0058568274 -0.019699432 -0.014836748 -0.017108997 0.0022885853 0.014779683 0.004952475 0.010709646
0.023156192 -0.030766394 0.042474918 0.023237415 -0.016015977 -0.14647652 0.03352394 -0.01804411
-0.0059630955 -0.0032220574 0.0885028 0.041358188 0.036429215 -0.00065906695 0.048722193 0.0025363555
0.02846173 -0.041148838 -7.7262404e-05 0.0034729294 -0.04228221 0.051975958 -0.027436472 -0.02382799
0.0010052505 0.07388763 -0.03713077 0.007532313 -0.034322415 0.082109064 0.012955955 -0.009667691
-0.023957098 -0.018208863 0.009432817 -0.007105139 0.38055417 -0.0026431223 -0.0750484 0.019772183
-0.026862452 0.010612879 0.014236372 -0.025251806 -0.008245599 -0.043541797 0.020697108 0.022062965
-0.035870157 -0.050687805 -0.00705446 -0.0069642803 0.021162875 0.0573494 0.051664706 -0.06353825
0.0073574604 0.086248375 -0.013035242 0.037123505 -0.010840109 0.012185747 -0.010537706 0.030824395
0.0009907079 0.0130803725 0.011792391 -0.015891911 -0.005027512 -0.020522313 -0.017847499 0.017670488
-0.0032983215 -0.0003030775 -0.010671377 0.1428684 0.043069255 -0.0408492 -0.022985926 -0.031698726
-0.011808877 -0.0060291584 0.0143926935 0.0039422167 -0.0072167977 0.011653694 0.039452605 0.037703466
0.01857314 -0.018307038 -0.020803051 -0.03138179 -0.002374153 0.020486694 -0.030649252 -0.043559074
0.0066272574 0.03681463 0.010924283 -0.048041683 0.07008043 0.08581291 -0.06888872 -0.0040814145
0.020477276 -0.056707617 0.055294838 -0.040376086 0.020562 -0.023116196 0.040539164 -0.013728286
-0.019159252 -0.06862765 0.01155173 3.9921248e-05 -0.0011067562 -0.009093006 -0.041405804 0.07977066
-0.0746154 0.030187564 0.0037684566 -0.038236342 -0.026203027 -0.023582898 0.037330274 -0.026027482
-0.035226103 0.040094737 0.011814635 0.0093915835 0.043088462 0.013266593 0.019548493 0.018170932
-0.03354071 -0.023256183 0.0075393114 0.013844732 -0.03655091 -0.0010317705 -0.027710684 0.017722463
0.0006457601 -0.00015514449 -0.0061305324 0.0061181374 0.023432473 -0.009584202 -0.05844477 0.037226744
-0.011576767 0.020218119 -0.0051527666 0.07186638 -0.051804554 -0.013813517 -0.010016397 -0.03356077
0.02761245 -0.0036831948 -0.03527187 0.0054038106 -0.040667824 -0.04841589 -0.045940377 -0.036824375
-0.003428705 0.004505902 -0.026289988 -0.024528844 -0.019657278 0.0023091282 -0.020802097 -0.04522788
-0.019049058 0.026353506 -0.034471244 0.024197575 0.015350423 -0.018234812 -0.018743806 0.023584826
-0.050475955 -0.000819445 -0.023256034 0.012451814 -0.018681629 -0.0056295665 -0.029360874 -0.0041103982
0.024866123 0.010428169 -0.09561267 0.05851433 0.01789215 0.009785791 -0.0049640443 -0.06172864
-0.0050776107 0.02936571 -0.03685299 -0.07226348 -0.0063685165 -0.012443648 -0.023012126 -0.006432008
-0.003861291 -0.005515461 -0.0119155105 -0.08152762 -0.002546674 -0.002364206 0.09192481 0.011858601
0.009141868 -0.3330917 0.036283396 -0.017438214 0.0069773165 -0.1295624 -0.021124406 0.05542921

fc3.bias f4 [2]
00000000: 0f1f 2a3d edd4 d13b
0.041533526 0.0064035566
