DataShared/results/Reacher-v2_buffer_mod_p_mixed_0.8_final/bcq_actor_tmp.pt (torch_old, 507034 bytes, 6 tensors)

l1.weight f4 [400, 13]
000000 4b 26 76 be 5b f1 81 3e 43 4b 13 c0 2e 43 14 bf
       -0.24038045 0.25379452 -2.3014686 -0.5791501
000010 b6 9a 3b be 51 03 30 3f 89 c8 ff be 42 70 f6 be
       -0.18320736 0.6875506 -0.49957684 -0.4813252
000020 2b 79 99 3c 83 88 55 c0 34 a9 ab bd 01 9a 16 40
       0.018734535 -3.336457 -0.08381882 2.3531497
000030 3c 1d 61 bf dc c0 d6 bf 6a 24 16 bf ef a2 89 be
       -0.87935233 -1.6777606 -0.58649313 -0.2688212
000040 31 85 85 3d d7 34 82 3e a4 8f 34 bf c1 02 02 bf
       0.06519545 0.2543094 -0.7053168 -0.5078545
000050 be 9e ad 3e b1 f8 92 bf 8b ed 04 c0 80 86 54 3e
       0.33910173 -1.1482145 -2.0769985 0.20754433
000060 9e 19 33 bf 33 dd 3e 3f 83 6d 26 bf 3a fb 19 bf
       -0.69960964 0.74556273 -0.6501085 -0.60148966
000070 d6 50 6d bf 60 53 8d 3d fc d9 a6 3f 2f 66 a9 bf
       -0.9270147 0.06900668 1.3035274 -1.3234309
000080 93 6e 60 bf 0d ef 35 bf d8 b5 c4 bf 4d 0b 1d 40
       -0.8766872 -0.7106789 -1.5367994 2.4538147
000090 3d c9 25 be 64 30 cb be bf 6c a4 bd 78 b6 b8 3d
       -0.16190048 -0.39685357 -0.08028554 0.09019178
0000a0 db 57 08 bf 02 22 0a be 2b 76 bf bd be da 5e c0
       -0.53259057 -0.13489535 -0.093487106 -3.482101
0000b0 e4 18 6f c0 b6 f5 f5 be 26 46 5d be 04 c8 9c 3f
       -3.7358942 -0.48039025 -0.21608791 1.224854
0000c0 ee 6b 86 40 40 f6 23 bc 1c 22 cc bf 42 ed 40 bf
       4.200675 -0.010007441 -1.5947909 -0.75362027
0000d0 b8 20 c5 bf 58 ac 0c bf c6 11 66 bd 6c d2 46 bf
       -1.540061 -0.54950476 -0.056169294 -0.7766483
0000e0 d9 dc 7f 3c 88 39 a7 3e aa 64 19 be 3a c9 27 3e
       0.015616619 0.3266108 -0.14979807 0.16385356
0000f0 0b da 2b 3d 3a 1b 0c 3e 62 3b 28 be a0 eb 3e bf
       0.04195599 0.13682261 -0.16428903 -0.74578285
000100 48 9a ee bd 95 86 e1 be 93 57 68 3e e6 0d 01 3c
       -0.116505206 -0.4404799 0.22689657 0.007876849
000110 ee fb 97 bf a4 27 04 3d 0c 4c 89 c0 5b 4c 6b be
       -1.1873758 0.032264367 -4.290533 -0.22978346
000120 33 96 71 be 2c 1f 16 3b 9d 9e aa 40 56 98 7a 3e
       -0.23592453 0.0022906763 5.331862 0.24472174
000130 cd 8b f7 bf a0 fb ea bf 60 5f 06 bf e6 8d c7 be
       -1.9339539 -1.835804 -0.5248928 -0.38975447
000140 ee 99 18 bf 6b ca 62 bf 1f 3c 09 bf e4 57 26 c0
       -0.5960988 -0.88590115 -0.5360736 -2.5991144
000150 7b a4 13 be 7e 07 34 bf 25 cd 50 3f bc 58 9f 40
       -0.14418213 -0.7032393 0.81563026 4.979582
000160 d4 6e da 3d 1c 3d 88 bf af 52 a0 3f af a9 07 3e
       0.1066567 -1.0643649 1.2525233 0.13248323
000170 f3 89 05 3e 2b 97 fc 3e 26 47 0d 3f 98 63 f7 bf
       0.13040905 0.49334082 0.5518669 -1.9327269
000180 d2 8f 5d 3f 06 15 60 3f 9f 6f 55 bf aa 93 cf 3f
       0.8654758 0.8753208 -0.83373445 1.6216938
000190 42 e3 24 bf 60 5e 3f 3e e0 b1 58 3f a9 8e 18 c0
       -0.6440927 0.18688345 0.84646416 -2.3837073
0001a0 12 30 b6 3e 61 b7 14 be b7 3b 9b 3d 83 58 21 bf
       0.3558355 -0.14523079 0.07579749 -0.63025683
0001b0 bd d8 09 40 fd d7 05 c0 5b 0d 48 bf 31 3b 4b bf
       2.1538537 -2.0913079 -0.7814538 -0.79387194
0001c0 18 7e 5e bf 56 11 aa 40 2e a1 42 3e 85 a7 0d c0
       -0.86911154 5.314616 0.19006798 -2.2133496
0001d0 56 ca 54 c0 e7 15 c8 bd a7 ca d1 3e c4 a0 3f bc
       -3.3248496 -0.097698025 0.40974924 -0.011696044
0001e0 a9 b1 ba 3e 8d 7a ca 3d 63 4c 93 3f 0f 33 0d 3f
       0.3646367 0.09886656 1.1507686 0.55156034
0001f0 c5 76 b2 bf 51 25 4e bf ec 3c 4d bf e6 57 0a be
       -1.3942496 -0.8052569 -0.80171084 -0.13510093
000200 ec a4 19 c0 7d 0d 3f c0 83 7d a0 be 25 8a eb bd
       -2.400691 -2.9851983 -0.31345758 -0.11500958
000210 3a 13 44 bf 10 8c 21 be f8 79 c0 3f 2f 3c b9 3f
       -0.7659184 -0.15776086 1.5037222 1.4471492
000220 33 a8 88 3e d1 33 ec 3e 22 6b 85 bf 5e 45 f0 bf
       0.26690826 0.46133283 -1.0423319 -1.8771169
000230 15 83 86 3e c0 1e 0d be f4 e6 0a 40 1a 9b 13 bd
       0.26271883 -0.13781261 2.1703463 -0.03603659
000240 8e 29 98 bf 6d 6f a0 3c b2 be e1 3d ed 4c 80 3e
       -1.1887681 0.019584382 0.110227 0.2505869
000250 a4 94 f9 3e d2 59 39 bf 91 c9 55 bf eb d8 68 bf
       0.48746216 -0.7240268 -0.8351069 -0.9095599
000260 5b f6 95 40 3a c0 1b 3e b6 97 7f c0 63 15 90 c0
       4.6863227 0.15210047 -3.9936347 -4.5026107
000270 ce 27 c4 be 3e 08 96 bf 9c 20 41 3f 0c fe ed be
       -0.3831162 -1.1721265 0.7544038 -0.46482885
000280 fa ce 00 c0 b1 6e 68 3f 2a dc 1d be 1f c9 48 bd
       -2.0126328 0.907939 -0.15416017 -0.04901993
000290 88 4d 75 be a5 6c eb bf 5c 04 01 be 06 4b 05 3f
       -0.23955357 -1.8392531 -0.12599319 0.520676
0002a0 fe 53 c2 bf ee 53 47 bf 51 dd 4f bf 82 24 15 bd
       -1.5181882 -0.7786244 -0.8119708 -0.03641177
0002b0 6a 85 b0 3e 15 60 2b bf 7f 8e 9a bf f7 87 fd bd
       0.34476787 -0.66943485 -1.2074736 -0.12379449
0002c0 55 b2 12 bf 18 6b 2e bf 12 fc 89 40 1a 81 65 be
       -0.57303363 -0.6813216 4.3120203 -0.2241253
0002d0 da 8f b1 be 8e 21 8d bf bd 36 ef 3d 84 75 bf be
       -0.34680063 -1.1025865 0.116803624 -0.37394345
0002e0 90 08 7e 3e ea 2b 6b be df 90 8a bf 93 6d 23 c0
       0.24807954 -0.2296597 -1.0825461 -2.5535629
0002f0 df b5 27 3f cd 65 40 3e cd 69 88 3f f5 b7 a3 40
       0.6551189 0.18788834 1.0657288 5.1162057
000300 00 55 48 be 00 00 0d bf 1d e1 b6 bc ed 45 85 bf
       -0.19563675 -0.55078125 -0.02232414 -1.0411965
000310 dc 52 db bf 95 51 0c 3e cf ba cc bd 65 e7 de 3d
       -1.7134662 0.13702996 -0.099965684 0.10883979
000320 94 8d 72 3f 26 cf ec 3e da 1e 8f be 03 04 d3 bf
       0.9474728 0.46251792 -0.27953225 -1.6485599
000330 47 e4 3e c0 20 c9 46 3e df 5b 1e 3f 57 d1 86 3e
       -2.982683 0.1941266 0.61858934 0.2633159
000340 38 ca 3b bf 1a 8e cc be 96 52 6d bf 2f 3c 7a bf
       -0.73355436 -0.39952165 -0.9270414 -0.9774808
000350 9f 4e a0 bf c8 ec b7 bf b3 b9 04 bf a1 fe 29 3f
       -1.2523993 -1.4369135 -0.51845855 0.6640416
000360 d0 e4 df be 98 9b 6b bf 4a 55 65 3e 91 f0 7e 3f
       -0.43729258 -0.9203429 0.22395816 0.99585825
000370 55 82 8b 3f 03 cc 83 be 2b a3 9d bf 83 2b a9 be
       1.0899149 -0.25741586 -1.231542 -0.3304101
000380 91 6d d9 bd 26 72 b5 3e 75 63 64 3e 87 f0 24 3f
       -0.10616601 0.3543865 0.22303565 0.64429516
000390 59 b5 d2 be bc 20 58 bf 02 28 ec bf 2e 40 6a 3e
       -0.41153982 -0.8442495 -1.844971 0.22876045
0003a0 10 78 77 bf fa 7e c9 bf 77 74 b3 bf 2d c7 24 bf
       -0.96667576 -1.5741875 -1.4019917 -0.6436642
0003b0 cf 77 8f 3d 2c fd c9 bf 67 d6 17 40 87 12 a4 be
       0.070052736 -1.5780387 2.372461 -0.32045385
0003c0 d9 62 8a 3d bd 1e ce 3e 75 ce 2f c0 be 07 c5 bf
       0.06757135 0.40257826 -2.7469761 -1.5392988
0003d0 96 36 12 3e 36 1d 08 40 3b 95 0a 40 33 1d 9a bf
       0.14278635 2.126783 2.1653583 -1.2040161
0003e0 13 dc c6 bf 16 93 da 3e 6f b9 ac be 73 69 d7 be
       -1.5535911 0.42690343 -0.33735225 -0.4207264
0003f0 48 01 62 3f 4c 35 b5 3e 80 c3 01 be 3c e1 26 bf
       0.88283205 0.35392225 -0.12672234 -0.6518743

l1.bias f4 [400]
000000 eb 1e 25 bf 0b e9 74 bf ac 88 4d bf 90 f8 8c 3b
       -0.645003 -0.95668095 -0.8028667 0.004302092
000010 b0 ac 40 bf 51 40 ea be 6d ce d5 be f3 af 54 bd
       -0.752635 -0.45752195 -0.41759053 -0.05192561
000020 3e 39 bc be bd 47 91 be cc b8 4c bf 22 ce 3c bf
       -0.36762422 -0.28375044 -0.7996948 -0.73752034
000030 57 0d 55 bf 05 a5 09 bf 0e 01 c8 be 55 a8 4e be
       -0.8322348 -0.53767425 -0.39063305 -0.20181401
000040 42 17 8f bf 9c f9 2d bf 37 0c 9f bf 4b 99 08 bf
       -1.1178973 -0.67959 -1.2425603 -0.53358907
000050 3b 54 ee be 8e c5 14 bf 68 32 de be f0 fb a3 bf
       -0.46548638 -0.58113945 -0.43397832 -1.281126
000060 33 6d 4d bf 3e 81 cb 3d 1d 4b f2 be 5b 76 81 bf
       -0.8024475 0.0993676 -0.47322932 -1.0114244
000070 6e 6a 0e 3d ba fa b5 be 58 7b 32 bf 71 ad b8 bf
       0.034769468 -0.35542852 -0.6971946 -1.442793
000080 0b 2d 6c bf 5e 37 bb bf 4b ce 8f bf 47 e1 d6 be
       -0.9225623 -1.4626272 -1.1234831 -0.41968748
000090 b0 55 fe be c2 08 b6 3e 38 11 17 bf 20 cb 98 bf
       -0.4967475 0.35553557 -0.5901065 -1.1936989
0000a0 d7 da 70 bf a4 a3 60 bf a4 a8 14 bf 9c f4 07 bf
       -0.94083923 -0.87749696 -0.58069825 -0.5310762
0000b0 34 1b a1 be 2c 33 91 bf 4f b3 94 bf 0f 69 71 bf
       -0.31466067 -1.1343741 -1.1617221 -0.9430093
0000c0 c9 cc 06 3e 69 7d 18 be 0c 0f 91 bf 56 e4 00 bf
       0.13164057 -0.1489159 -1.1332717 -0.50348413
0000d0 7c 91 18 3d 82 61 2c bf e5 64 8a bf 38 05 02 bf
       0.03724812 -0.67336285 -1.081204 -0.50789213
0000e0 6e 0c 76 bf 23 dd 99 be f8 31 a2 bf 2f 9e 7a bd
       -0.96112716 -0.30051526 -1.2671499 -0.061186012
0000f0 e6 4a 04 bf 31 2a 57 bf 1a 01 37 be 4d c1 85 bf
       -0.51676786 -0.84048754 -0.17871514 -1.0449616
000100 99 c0 20 bf 0c c2 f1 be 43 b4 09 bf be fe a7 be
       -0.6279388 -0.4721836 -0.5379068 -0.3281154
000110 aa 76 3c bf aa 6e 32 be 4b 30 e7 be d1 e7 bd bf
       -0.73618567 -0.17425027 -0.45154032 -1.483637
000120 5c ba 70 be 2e 87 c1 3d 7f e9 78 bf 6c 79 33 be
       -0.2350859 0.094496116 -0.97231287 -0.17526788
000130 9f 72 d3 be 91 2f da bf 05 9b 68 bf 87 30 ee be
       -0.41298386 -1.7045766 -0.9086154 -0.46521398
000140 37 9d 58 bf 62 4f 0a bf bf cd 04 bf 4d 75 79 bf
       -0.8461489 -0.5402738 -0.51876444 -0.9744461
000150 a2 c5 4f bf d6 0b de be 6f 9a a3 bd 82 8d 98 bf
       -0.8116094 -0.43368405 -0.0798844 -1.1918185
000160 9d ab e4 bd 3b d2 36 bf 15 7e 3c bf c7 d8 74 bf
       -0.11165545 -0.71414536 -0.73629886 -0.95643276
000170 a3 fb 46 bf 2d b5 06 bf 20 61 fd be 49 11 4a bf
       -0.7772772 -0.526202 -0.49488163 -0.78932625
000180 90 dd 4b bf e8 3b ab bf 83 cf 52 bf 17 f3 ba bf
       -0.7963495 -1.3377657 -0.8234789 -1.4605435
000190 3d da 0e be d3 6f 7d be f9 1e 3c bf 0f 8f b8 bf
       -0.13950439 -0.24749689 -0.7348476 -1.4418658
0001a0 19 39 b4 bd 65 a9 26 bf 86 f9 8f 3e 2f 03 53 bf
       -0.08799953 -0.65102226 0.2812006 -0.8242673
0001b0 c5 20 7d bf 71 f4 06 bf 4c 0e fa be 1a a9 7c ba
       -0.9887813 -0.5271674 -0.48839033 -0.0009638235
0001c0 f8 15 ff be 55 7b 28 bf 5f a0 ab be f7 d6 74 bf
       -0.49821448 -0.6581319 -0.3352079 -0.9564051
0001d0 e7 02 76 3d 9b 1e 15 be 60 62 83 3b 57 d1 28 bf
       0.06006136 -0.14562456 0.00400953 -0.6594443
0001e0 e6 14 e1 be b3 fc 77 be cc 8f 5d be 18 63 f7 be
       -0.43961257 -0.24217491 -0.21636885 -0.4831779
0001f0 48 1e db be 34 ff db be 1f 3e 15 be 53 1a 4c bf
       -0.4279654 -0.42968142 -0.14574479 -0.7972767
000200 00 ac 4c bf 3b e3 d3 be 94 83 17 bf 7e d3 5c 3e
       -0.7994995 -0.413843 -0.5918515 0.21565053
000210 a2 56 2b bf 4b f9 fd bd 8d 48 d4 bd 7d c2 ec bd
       -0.66929066 -0.124010645 -0.103654005 -0.11560533
000220 46 7a 34 3e 3d c4 f2 be 36 45 08 bf b7 60 74 bf
       0.17624769 -0.47415343 -0.5323061 -0.95460075
000230 0d b6 9e bf 40 5c ed be 75 04 26 bf 00 66 62 bf
       -1.2399307 -0.46359444 -0.6485055 -0.8843689
000240 b4 76 0b bf dc 2f f4 be 71 2f 6e bf 3b c1 01 bf
       -0.54478 -0.47692764 -0.9304114 -0.5068547
000250 91 6f 04 bf 8a b1 7f bf 30 7c 50 bf 85 05 5a bd
       -0.51732737 -0.9988028 -0.81439495 -0.05322792
000260 b1 be 41 bf 50 3e 53 bf af 2d c6 be 01 32 93 bf
       -0.75681597 -0.82516956 -0.3870673 -1.1499635
000270 d9 3e 86 bf 6b 6c 6b bf 2a 7d 18 bf 77 9e 58 bf
       -1.048793 -0.9196231 -0.59565985 -0.846168
000280 c8 e4 d5 be 41 09 7a bf c4 8a 1d bf 0c ef c3 be
       -0.4177611 -0.9767037 -0.61539865 -0.38268316
000290 69 f8 93 bf 7c 62 b3 bd 0c 42 37 bf 16 a9 ad be
       -1.1560184 -0.08759019 -0.71585155 -0.33918065
0002a0 8c 08 12 3f 62 56 1d bf 23 1f 3e bf 05 81 0b bf
       0.5704429 -0.61459935 -0.7426626 -0.54493743
0002b0 6c 8c 13 bf e4 0b 16 bf 01 78 1b bf 9c 84 81 be
       -0.5763614 -0.58611894 -0.60729986 -0.25296485
0002c0 f7 f7 8e bf 01 85 0f 39 67 f3 1b bf b7 26 10 3e
       -1.1169423 0.0001368709 -0.6091828 0.14077269
0002d0 a5 12 94 be 41 10 09 bf 7c b3 34 3f fb aa 16 bf
       -0.28920475 -0.53540426 0.7058637 -0.58854645
0002e0 d9 96 b7 be 52 f1 0b bf db c7 a0 be eb 0a 91 3d
       -0.35857275 -0.546651 -0.31402478 0.070821606
0002f0 a9 5d 32 bf 62 97 10 bf 5f 73 9d be d0 bc 58 bf
       -0.69674164 -0.5648099 -0.30752084 -0.84663105
000300 5a 36 84 bf 83 a8 5f bf 84 44 16 bf b7 c6 63 bf
       -1.0329087 -0.87366503 -0.58698297 -0.8897509
000310 b6 6b b8 be 57 47 15 bf fe bc 3b bf 47 4c 26 bf
       -0.36019677 -0.5831198 -0.73335254 -0.6496014
000320 4c 40 d6 bf 40 b2 25 be 2f 8f a3 bf 37 b2 a2 be
       -1.6738372 -0.16181278 -1.2778071 -0.31776592
000330 39 85 08 bf 1a 1e 28 bf c5 4c b8 3e bd b4 7c be
       -0.5332828 -0.6567093 0.3599607 -0.24678321
000340 e8 41 0b bf da cb 31 be e1 96 50 3d 76 66 14 be
       -0.5439744 -0.1736292 0.05092514 -0.14492211
000350 3e 59 b8 bd 43 42 93 bf 07 ab 4f be f1 9f 9e be
       -0.090013966 -1.1504596 -0.20280086 -0.309814
000360 e2 39 6f be 37 75 79 bf 52 eb 5c bf 3f c7 ae be
       -0.23361924 -0.9744448 -0.8629657 -0.34136388
000370 5b e2 a1 be 76 ce 5e bf e2 0b 71 bf 57 38 f8 bd
       -0.31618008 -0.87033784 -0.94158757 -0.12120121
000380 79 de 85 bf 67 df 17 bf 56 f0 99 bf 02 cf c9 3e
       -1.0458518 -0.5932526 -1.202647 0.39415747
000390 4a 79 1c bf 6c bd 57 be af 66 1c bf 41 ec 40 bf
       -0.6112257 -0.21068352 -0.6109418 -0.75360495
0003a0 39 64 40 bf d5 11 57 bf e8 cb 14 3c bf 3f c1 be
       -0.7515293 -0.84011585 0.009081818 -0.37743947
0003b0 e7 16 54 bf ca e6 29 bf 56 35 3c bf fa 55 8c be
       -0.82847446 -0.6636778 -0.73518884 -0.27409345
0003c0 0e b7 78 bf ab 51 2b bf 0e 83 01 bf e6 e9 af 3e
       -0.9715432 -0.6692149 -0.505906 0.34358138
0003d0 dd 5b b3 be 70 7e e5 bf 6b 32 28 bd 51 9b 4d be
       -0.35031024 -1.7929211 -0.041063707 -0.2007878
0003e0 86 9e 0d bf ff 8f 01 bf ad ea 7d be c1 9c 89 bf
       -0.5532001 -0.50610346 -0.24796553 -1.0750962
0003f0 b9 84 9e 3e ce 1b 8b bf 64 91 2c bf 0f 45 18 bf
       0.30960634 -1.086786 -0.6740935 -0.59480375

l2.weight f4 [300, 400]
000000 cf c0 11 c0 46 0f b6 bf ca 5b 5f 3d 48 da 40 3f
       -2.277393 -1.4223411 0.054530896 0.7533307
000010 10 82 d2 3e 05 8f 49 be f4 87 43 3f 46 3d 1a be
       0.41114855 -0.19683464 0.76379323 -0.15062436
000020 29 ff 06 3e e8 57 7b be 0a 45 8a be 6f 11 c7 3f
       0.13183273 -0.24545252 -0.27005798 1.5552195
000030 eb 47 8a bf a1 52 d3 bf 81 6d 5c bf 82 2e 1f c0
       -1.0803198 -1.6509591 -0.8610459 -2.4872136
000040 96 1d d1 bd 44 b6 12 c0 c7 c6 69 bf 8b d6 88 bd
       -0.10210721 -2.2923746 -0.91318935 -0.06681546
000050 36 57 e8 3e 9f 68 43 bf a7 57 c8 bf 51 16 81 bf
       0.45379037 -0.76331514 -1.5651749 -1.0084935
000060 d6 84 07 be b7 10 99 bf 0b ca 0e 40 6d f2 ee bc
       -0.13234267 -1.1958226 2.2310817 -0.029168332
000070 5d 8f bc be b7 69 8d 3f 28 4f 07 c0 76 dd 17 c0
       -0.36828128 1.1047887 -2.1142063 -2.372892
000080 f8 e7 43 bf aa 04 90 3e 33 e5 83 3f a5 18 65 3e
       -0.7652583 0.28128558 1.0304321 0.22372682
000090 cd 54 52 3f 64 f1 dd bf 27 37 40 bf 89 f3 b0 be
       0.82160646 -1.7339292 -0.75084156 -0.34560803
0000a0 eb d8 bc be 94 2b 23 3f ee ab 05 c0 46 36 46 3e
       -0.36884245 0.6373837 -2.0886188 0.19356641
0000b0 f3 53 39 bf 92 d7 90 3f 47 ce cb bf fe ab 37 bf
       -0.7239372 1.1315787 -1.5922326 -0.71746814
0000c0 ac 59 19 3f a1 6b 54 be 7b 0b 52 3f b0 26 95 3d
       0.59902453 -0.20744182 0.8204877 0.0728277
0000d0 ae cf 10 3f 9e f8 de 3e 30 40 79 3e d5 d7 a8 3f
       0.56566894 0.43549055 0.24340892 1.3190867
0000e0 54 a5 c6 3e 3b 59 99 3f fc 44 ab 3e 1d ac ff 3e
       0.3879801 1.1980356 0.33451068 0.49936
0000f0 0c 43 6b 3f 96 6b f4 be bd f1 9a bf 7a ad 03 bf
       0.9189918 -0.47738332 -1.2105023 -0.5143658
000100 d9 89 26 be a7 97 d7 3e 01 1f 7f bf 26 9c ac 3f
       -0.16263522 0.4210789 -0.99656683 1.3485153
000110 69 52 eb 3e 15 9a 8e 3f 17 a3 98 3f 8c 20 86 bf
       0.4596131 1.1140772 1.1924771 -1.0478683
000120 22 1a 4b bf 01 d5 08 3d 97 68 c7 bb 80 86 1d bd
       -0.7933675 0.03340626 -0.006085466 -0.038458347
000130 60 28 11 bf 1f ab 75 3e 32 1d 52 bf b0 80 80 3f
       -0.5670223 0.23991059 -0.820758 1.0039272
000140 31 09 76 bf 53 3d 73 3f db 39 c8 3f 89 97 d2 bf
       -0.96107775 0.9501545 1.5642656 -1.6452495
000150 df c1 c0 bf 9f 0e d3 bf 85 2a b9 be e9 42 8e bf
       -1.5059165 -1.6488837 -0.36165252 -1.1114169
000160 38 71 94 3f 8b d7 25 bf 0d 87 f4 bf 57 47 9f be
       1.1597052 -0.6478202 -1.9103714 -0.31109115
000170 7c 94 a7 3e bc 30 91 bf dd 61 9e bf 30 d0 39 be
       0.32730472 -1.1342998 -1.2373616 -0.18145823
000180 cc 9b 8d bd f6 ec 81 3e e4 04 85 3f 9c 8c d7 3e
       -0.069144815 0.253761 1.0392118 0.42099464
000190 2c e6 8c 3e 13 63 9e be 62 83 95 bf be 7f c3 3c
       0.27519357 -0.30934963 -1.168072 0.023864623
0001a0 84 39 a8 be e2 9e bf be 03 b8 a7 bf a1 72 38 bf
       -0.3285638 -0.37425905 -1.3103031 -0.7204991
0001b0 fe 04 9f bf ae 30 4e 3f 1f 5d c3 be 53 55 c8 bf
       -1.2423398 0.8054303 -0.38156983 -1.5651039
0001c0 90 73 d3 bd be 0a 13 bf 22 05 e5 be 02 4a 50 bf
       -0.10324776 -0.57438266 -0.4473048 -0.81362927
0001d0 b5 a0 c2 be 89 03 f0 be df b2 5b bf 67 af 14 bd
       -0.38013235 -0.46877697 -0.8581981 -0.03630009
0001e0 50 0e 6f 3f e5 7b e1 3e 72 a4 42 3f 58 d9 94 bf
       0.93381214 0.44039837 0.76032174 -1.1628828
0001f0 37 e1 c7 3f c3 94 74 be c7 35 d2 bd 5a 22 1d bf
       1.5615605 -0.23884873 -0.102641635 -0.6138054
000200 92 ab 4f be ad 2c be 3e 42 e7 81 bf 47 b5 e4 bf
       -0.20280293 0.3714346 -1.0148699 -1.7867821
000210 e1 45 8b 3f 48 2a 3a 3f 30 51 1b 3e 49 28 93 be
       1.08807 0.72720766 0.1516769 -0.28741673
000220 61 f0 66 be e3 3d 46 bf 5f 91 8e 3f e7 19 15 bf
       -0.22552635 -0.7743818 1.1138114 -0.5824265
000230 f4 f6 74 be 3c 17 51 3f f7 3e 97 3f d9 d4 aa 3e
       -0.2392233 0.8167608 1.181609 0.33365515
000240 9f 3b 17 be 9a 0b 1d c0 c4 80 0c bf 26 6a 01 c0
       -0.14768837 -2.453833 -0.5488398 -2.0221038
000250 8d ca 92 3e 52 0f ad 3d 4f b0 d9 bf 93 3f f1 3e
       0.2867016 0.08450188 -1.700693 0.47118816
000260 f5 71 c2 bf 04 8a 9e bf 1f ca 83 be 17 c5 26 3f
       -1.5191027 -1.2385869 -0.25740144 0.65144485
000270 3f 36 04 c0 0b da 06 bf 46 fe e4 be b6 61 97 bf
       -2.065811 -0.5267646 -0.44725245 -1.1826694
000280 d0 d3 44 bf d8 e0 21 bf d1 d4 83 bf 00 1d 93 3f
       -0.768857 -0.6323371 -1.0299321 1.1493225
000290 fc 75 df bf 62 51 03 c0 2d b3 80 be a8 a7 97 bf
       -1.7457881 -2.0518422 -0.251367 -1.184804
0002a0 b8 4b 4d c0 44 96 46 bf 61 0e 7b bf c4 b3 fe 3c
       -3.2077465 -0.7757304 -0.98068815 0.031091578
0002b0 8f a0 a0 3f e7 d7 ae 3f 9a 73 19 bf 96 b6 47 bf
       1.2548999 1.3659638 -0.5994202 -0.7801298
0002c0 f9 e7 da bd bd d8 e4 3e ae 85 6b 3f 53 40 7d c0
       -0.106887765 0.44696608 0.92000854 -3.957051
0002d0 4f df c5 be 19 45 1c c0 dc d8 37 3e d3 e2 f0 bd
       -0.38646933 -2.4417174 0.17953819 -0.11762013
0002e0 6f fa 0b c0 5d 04 91 bc 18 bf 73 bf 50 57 38 3e
       -2.1871603 -0.017702276 -0.9521346 0.18002057
0002f0 51 32 f1 3d 01 96 b9 be f9 7c a4 be ee ba b2 be
       0.11777175 -0.36247256 -0.32126597 -0.3490824
000300 00 f8 99 3e a5 9c 0a bf c1 ec 43 3f d0 a0 f6 bd
       0.3007202 -0.5414527 0.7653313 -0.12042391
000310 9a 06 ad 3e a1 bb 05 40 08 1c 26 bf 60 71 85 3e
       0.337941 2.089577 -0.6488652 0.2606306
000320 ac 17 55 3f 4f 1e f9 be cc 24 ae be 5b 9c f5 be
       0.83239245 -0.48655936 -0.3401245 -0.47970852
000330 40 23 a4 bf 4d 93 09 3f b2 d3 cb bf 74 c2 6c 3e
       -1.2823257 0.5374039 -1.5923979 0.23121053
000340 c6 aa c7 3e eb ce c4 be 31 4b 88 3c 00 5e d4 bf
       0.38997477 -0.38439116 0.016637417 -1.6591187
000350 92 1b 5f be b3 79 01 c0 be 50 4e bf c7 05 18 bf
       -0.21787861 -2.023053 -0.8059195 -0.59383816
000360 20 4d fb bb 42 16 8f be 5d 7b 2c 3f b5 82 6b be
       -0.007669106 -0.2794667 0.6737574 -0.2299908
000370 b9 6b 17 bf fa e4 0e 3f 4a 32 dc 3e 4f 51 b2 3f
       -0.59148747 0.5581814 0.43007118 1.3931063
000380 c1 e1 13 bf e1 98 6e be 76 0e fb be 2d 99 82 bf
       -0.5776635 -0.23300506 -0.4903447 -1.0202996
000390 43 dc 62 be 73 92 68 be 8b 7c a9 3e c4 bb 3d 3d
       -0.22154336 -0.22712116 0.3310283 0.046321645
0003a0 72 29 16 c0 fe 79 e8 bf 4c bf 49 bf e8 1d e2 be
       -2.3462796 -1.8162229 -0.7880752 -0.44163442
0003b0 4d 2d ac 3e 14 ac 1e 40 fb d9 d1 bf 10 68 e5 bf
       0.33628312 2.4792528 -1.6394647 -1.7922382
0003c0 85 1a 96 bf 99 3c a5 3f 46 95 08 bf 89 6e 49 3f
       -1.1726843 1.2909118 -0.53352773 0.7868429
0003d0 1e c1 12 3f 3a 35 52 be 5a 8e bb bf 16 92 1b be
       0.57325923 -0.20528117 -1.4652817 -0.15192446
0003e0 61 e0 a9 3f 8a 89 e2 bf 7f f1 e8 3d 01 18 01 c0
       1.32716 -1.7698224 0.11374187 -2.01709
0003f0 8a 54 1e c0 e9 8a 02 c0 9c 8b bc bd f5 ef aa 3f
       -2.4739099 -2.0397284 -0.09206316 1.3354479

l2.bias f4 [300]
000000 04 ba 8d 3e 6c 11 70 bc 9a 85 15 bd ed ee 80 bc
       0.2768098 -0.014652591 -0.036504366 -0.015738929
000010 e6 dd a8 bd 05 03 3e bc 97 30 c6 bd 03 57 f4 bc
       -0.08245449 -0.0115974 -0.096772365 -0.029826647
000020 a1 40 84 bd 15 a2 1b 3d f8 5c 0a bd 87 7f 82 be
       -0.064576395 0.03799637 -0.03378007 -0.2548792
000030 60 50 7c bd c4 26 71 bd a5 49 8c bc 45 ac 70 bd
       -0.06160009 -0.05887486 -0.01712496 -0.05875804
000040 86 5f 10 be 82 6e 95 bd c4 6f ad bd b1 6e ae bc
       -0.1409894 -0.07296468 -0.08468583 -0.021293016
000050 76 2d 43 3f 42 ec e4 bc 53 d6 a7 3d 73 52 a7 bd
       0.7624124 -0.027944688 0.08195176 -0.08170023
000060 b0 ef e5 be b6 0b 1b 3e 54 54 d5 be eb 57 0b bf
       -0.4490943 0.15141186 -0.416659 -0.5443103
000070 07 f3 0d 3e 8a 08 d3 be 4e 37 06 3f cf 64 70 be
       0.13862239 -0.41217452 0.5242814 -0.23475955
000080 ad 8b 93 bc 27 92 b8 3e ad 09 a1 be c8 d5 0a bd
       -0.018010939 0.36049005 -0.31452695 -0.033895284
000090 f4 02 8f be 83 2f d1 be 3b 7a aa bd ab 47 a7 3d
       -0.2793194 -0.4085656 -0.08324095 0.081679665
0000a0 dd fb 10 bd ba 26 1b bd 99 f4 93 bd ad ca 04 bd
       -0.035396446 -0.03787873 -0.07224388 -0.03241985
0000b0 68 44 3a bf 47 dd 8c bd 09 b3 fc 3e 4d 6a 93 bd
       -0.7276063 -0.06878143 0.49355343 -0.0719801
0000c0 04 83 03 bf 46 c0 36 bc ee 35 15 bd e8 1d 44 be
       -0.5137179 -0.01115424 -0.036428384 -0.19152033
0000d0 cd 8e b0 3d f0 d5 8e bc f5 ae a9 bd 7f 3f 34 bc
       0.08620987 -0.017435998 -0.082853235 -0.011001467
0000e0 b2 bd ad bd ce 3c 24 bd 53 d9 59 be b8 ab 4a bd
       -0.08483447 -0.04009705 -0.21274309 -0.04948017
0000f0 fd 80 0d 3f b9 5b c8 bc 0d 01 b6 bc 51 85 18 bb
       0.55274945 -0.0244578 -0.022217298 -0.0023272822
000100 4e 93 02 3f 0f d9 e5 3d 7b 16 84 3d b0 ff b1 3e
       0.5100602 0.11223041 0.064496 0.34765387
000110 d2 45 2a bc b4 51 13 bd f0 85 9c bc 4f 32 ba bc
       -0.010392623 -0.03596659 -0.019106835 -0.022729067
000120 aa 09 bf 3d 99 2c 69 be cd db 91 be 93 63 8c bd
       0.09328015 -0.22770919 -0.28488007 -0.0685493
000130 38 cb 6f bd 09 76 91 bb 1c c9 96 bd 84 d0 ca be
       -0.058543414 -0.0044391197 -0.07362577 -0.3961221
000140 cb 84 19 bf de f8 18 bd 14 c2 60 bd 95 16 60 bd
       -0.5996825 -0.037346713 -0.054872587 -0.054709036
000150 d3 e2 66 bf cd e6 fd bc ce a7 58 bb 85 c4 74 bd
       -0.90189856 -0.030993843 -0.0033059004 -0.059757728
000160 1a ca 9e 3d 57 d7 99 3e 30 8a 00 be d3 18 9c 3e
       0.077533916 0.30047104 -0.12552714 0.3048769
000170 a4 b0 75 bd ed 10 45 bd fb d2 e8 bc 2b 5f 15 be
       -0.05998291 -0.048111845 -0.028420916 -0.14587085
000180 62 bf 81 3b e9 9b ed bc 18 fc 57 bd a5 eb 97 3e
       0.003959582 -0.029005008 -0.05273065 0.2967197
000190 9e b5 4d bd 89 14 b1 bf 07 28 2b bd 4b 42 8e be
       -0.05022203 -1.3834392 -0.04178622 -0.27784953
0001a0 76 7d 41 bd 0f eb d9 bd 98 4a f7 3e 14 c3 4f bd
       -0.04723879 -0.10640537 0.48299098 -0.05072315
0001b0 1e 24 2d 3e 23 b8 1e bf c0 d8 20 bd 73 ff b2 3e
       0.16908309 -0.6199972 -0.03926921 0.34960517
0001c0 a9 de 22 bd e5 f7 5e 3e 74 cf f8 bd 83 4e 7b be
       -0.039763127 0.21774252 -0.121489435 -0.24541669
0001d0 07 53 82 bc d5 cc fc 3e 8e c2 09 bd 52 fc 1f bf
       -0.015908731 0.49375024 -0.033632807 -0.62494385
0001e0 7d a1 11 bd ac f6 ab bc a9 0c fe bc 62 f4 bc 3a
       -0.035554398 -0.020991646 -0.031011896 0.0014416093
0001f0 47 ed 7b 3e 93 bb 4b bd 99 e1 ad bd 36 7d 55 bd
       0.24602233 -0.04973943 -0.08490295 -0.052121364
000200 ab 75 87 bd 2b 4e 1d bd 4f 9a b0 bd 36 79 54 bd
       -0.0661424 -0.038404625 -0.08623182 -0.05187341
000210 a2 f9 45 bd fc a5 f4 3c 4a 8e d3 bc b0 77 9a bd
       -0.04833377 0.029864304 -0.025824685 -0.0754236
000220 bc e4 18 3b e8 18 fd 3c 33 8f 6f be 2d 27 c1 bc
       0.0023329696 0.030895665 -0.2339447 -0.02357825
000230 ac e2 d1 bd c0 2e b7 bd 0f 21 49 bd 62 74 88 be
       -0.10248312 -0.08944464 -0.049103793 -0.26651293
000240 1a 8f 7a bd 34 7e 34 3f 27 ce c1 bd c0 23 37 be
       -0.06117163 0.7050507 -0.094631486 -0.17884731
000250 38 d0 e1 3c b2 87 5d be 7c 04 43 3e 9f 2e 25 bd
       0.027565107 -0.21633795 0.1904468 -0.040327664
000260 ed 04 cc be 3d 64 a1 bc 9c bd 35 be 4a 1a df 3d
       -0.39847508 -0.019701118 -0.17748111 0.10893686
000270 b2 d7 99 be 91 18 76 bd 9c d0 d3 bd b0 f4 21 bc
       -0.30047375 -0.060082022 -0.103425235 -0.009884998
000280 db 30 30 bd 5e 87 79 3f e7 44 d6 bd 8f 4b e6 bc
       -0.043015342 0.9747218 -0.10462361 -0.028112201
000290 02 af 0d 3e e9 f6 8a bb 56 e6 54 bd 66 f4 8c bd
       0.13836291 -0.0042408598 -0.051977478 -0.06882553
0002a0 e1 b9 28 bd 1e 63 0a bd 8b 33 75 3e d4 80 00 bd
       -0.041192893 -0.03378593 0.23945443 -0.03137286
0002b0 ab df 80 bd b5 7e 14 bd a5 6a d9 bd 1b 0f 21 bd
       -0.06292661 -0.03625365 -0.10616044 -0.039321046
0002c0 7a 80 6c bc 5f 90 11 bd 91 ac 95 bd b1 34 58 bd
       -0.014434928 -0.035538074 -0.07308305 -0.052784625
0002d0 cc 12 29 bb 9c 56 a9 bd ba 7b 67 bc a0 c4 98 bd
       -0.0025798557 -0.082684726 -0.01412862 -0.07459378
0002e0 ae e7 2a be 42 25 0f bd 28 0c d5 bc dd 60 98 be
       -0.16689941 -0.03494764 -0.026006773 -0.297614
0002f0 e1 8e 30 bb c5 74 5c be 67 8d 46 3e 78 62 9b 3d
       -0.0026940631 -0.21528919 0.19389878 0.07587141
000300 32 64 ba bd 67 33 a8 bd a2 87 e6 be 98 44 26 bd
       -0.09101142 -0.08212929 -0.45025355 -0.04059276
000310 96 bc b0 3e b1 76 28 3a 84 23 df bc 9b 0e c4 bd
       0.3451888 0.0006426378 -0.027238615 -0.09573098
000320 5e 58 e8 bd 3b ea 2e bd ea 16 41 bd 75 1b ea 3e
       -0.1134498 -0.04270385 -0.047140993 0.45724073
000330 d3 de 32 bc 7c 44 a0 3d 03 55 31 bd de f1 63 be
       -0.010917383 0.07825562 -0.043293964 -0.22260234
000340 da ed 9f bd 95 ed 79 bd 43 a0 f0 be b5 fe 8e bd
       -0.078090385 -0.06101759 -0.4699727 -0.06982175
000350 f5 9c af 3e bf 1d 68 3d ee 8a 46 3f 49 21 3e bd
       0.34299436 0.056668993 0.7755574 -0.046418462
000360 2b ef 9a 3e 6e 49 89 bc 63 09 51 bd 55 0f e0 bc
       0.30260596 -0.016758647 -0.051034342 -0.02735106
000370 d0 30 ce be 1d 5a ee bb 75 8a 35 3f 31 86 b3 bd
       -0.40271616 -0.007273926 0.70914394 -0.08765829
000380 a1 4b fd be e7 f0 f1 3b 73 5e 90 be 93 24 96 bd
       -0.49471763 0.007383454 -0.2819706 -0.07331195
000390 5e 7c 42 bd 91 fb de 3b df 09 fd bd ff 14 b1 bd
       -0.047481887 0.0068048914 -0.123553984 -0.08646583
0003a0 cd e9 79 bd ed 4d 99 bc 70 16 71 bd c8 19 94 bd
       -0.061013985 -0.018713916 -0.05885929 -0.0723148
0003b0 8b 60 1e bf 79 6d 66 ba 45 54 5e 3e 9c 81 3d bd
       -0.6186606 -0.00087901164 0.21711834 -0.046266183
0003c0 9a c1 54 bd eb a6 15 3e c0 6c fc 3d a8 d7 b1 be
       -0.051942445 0.14614455 0.1232543 -0.34734845
0003d0 65 d0 2a bd e2 58 04 3e 0f 2e 43 be 72 dc dd 3d
       -0.041702647 0.12924531 -0.19060539 0.10833062
0003e0 7e c2 fe bd a2 7a 9b 3d 7e e5 1c bf 11 b0 f0 3d
       -0.1243944 0.0759175 -0.6128768 0.11752332
0003f0 4a 67 4c bd fe 07 de be f6 db 71 be be 78 13 be
       -0.04990319 -0.43365473 -0.23619065 -0.14401528

l3.weight f4 [2, 300]
000000 86 6b 1b c0 1a d6 a3 bc d4 2f 16 bc db d9 65 3c
       -2.4284377 -0.019999553 -0.009166677 0.014028992
000010 31 03 2c 3b b2 9b 7c 3b 98 2c e7 bf 2b dd 76 bc
       0.002624702 0.003854495 -1.8060484 -0.015067379
000020 33 8b 6d bb 62 0b 12 3f 8f 60 ca 3c 92 2e 0e 40
       -0.00362463 0.5704862 0.024704246 2.2215924
000030 83 b0 9a bc 50 9c 07 3b 45 98 51 3b e8 27 d0 3a
       -0.018882995 0.0020692535 0.003198163 0.0015881034
000040 e0 79 ed 3b 0c 51 13 3d ed 8a 83 bf ee 41 13 bd
       0.0072471946 0.035965964 -1.0276772 -0.035951547
000050 cf 88 e8 bf a5 a7 cc 3b 90 9d 7c bf 00 8e 5c bc
       -1.8166751 0.0062455707 -0.9867792 -0.01346159
000060 86 d0 de bf b7 4f a7 3f b7 c8 83 bf 38 ca 51 3e
       -1.7407386 1.3071202 -1.0295628 0.20487297
000070 d3 97 4a 3f 9f f0 a4 bf e0 d5 92 bf 91 d1 f9 be
       0.79137915 -1.2885932 -1.147152 -0.487927
000080 be f6 d5 3e 67 b1 50 bf e5 5a 58 3d 46 c3 bb 3b
       0.41789812 -0.81520694 0.05282106 0.0057300655
000090 62 f0 a6 bf 07 fe de be d2 b2 bf 3d cb b8 41 3f
       -1.3042109 -0.43553182 0.09360279 0.75672597
0000a0 78 60 b5 bc 60 36 dc bc a6 8f 37 3c 18 f5 f3 ba
       -0.022140726 -0.026881397 0.011203682 -0.0018612472
0000b0 57 6f f6 be 03 fb 28 3d 47 8e 82 be 1e 05 63 3b
       -0.4813182 0.04125501 -0.25499174 0.0034640501
0000c0 7b 31 86 3f c2 b5 d7 bc 94 12 19 3b 0f 69 d4 3f
       1.048385 -0.026331786 0.002335702 1.6594561
0000d0 82 19 e8 bf c1 64 ff bc e0 2e 10 3c 81 da e4 39
       -1.8132784 -0.031175973 0.008800238 0.00043650347
0000e0 ad ee 6c 3b b8 90 ed bc 7e 7c a8 bf 41 4d d5 3b
       0.0036153004 -0.028999671 -1.3162992 0.0065094535
0000f0 60 75 c0 bf c3 53 5f 3c 27 5a 3d b9 6b 65 b0 3c
       -1.503582 0.01363081 -0.00018058029 0.021532735
000100 0d 51 a2 3f bd 29 5d bf 44 47 51 3f 37 3f b0 be
       1.2680985 -0.8639181 0.8174937 -0.3442323
000110 8f 0b 52 3d 08 78 10 3f c4 44 03 bd 28 c2 df bc
       0.051280554 0.56433153 -0.032048002 -0.02731426
000120 d7 5e 0e bf 07 f5 76 3f bf 45 2c bf 18 c3 9e bc
       -0.55613464 0.9646763 -0.67293924 -0.019380137
000130 11 cd 24 3d 92 ec b6 3c 67 2b 54 3f 49 dc 82 3e
       0.04023463 0.022329602 0.82878727 0.2555869
000140 ca 2e 6a bc ba e4 05 3d 9b a4 9a 3b 24 a3 7d 3c
       -0.014293382 0.032688834 0.0047193295 0.01548079
000150 d4 94 2b bf 40 22 ee 3c 60 14 b8 3f 6d 81 9e 3c
       -0.6702397 0.029069066 1.4381218 0.019348824
000160 b7 3b 62 bf c4 15 b4 be 8c 4a ac be e1 ad 34 3f
       -0.8837237 -0.35172856 -0.33650625 0.7057782
000170 ae 85 ae 3c 6b d0 30 bc a0 53 d1 3f 07 5c 64 bf
       0.021303978 -0.010791878 1.6353645 -0.8920292
000180 aa 69 0b 3c ad 49 11 3c 20 95 c9 3b 6e 75 e4 be
       0.008509079 0.008867663 0.0061518103 -0.44620842
000190 1b c3 55 3d ca 65 01 bf 62 8f 1f bd 3f 24 1a bd
       0.05218802 -0.5054594 -0.0389551 -0.037632223
0001a0 f3 55 5e bc 9e 4a 7a 3d 07 7a 09 bf ad d5 0f bc
       -0.013570297 0.061106317 -0.53701824 -0.008778972
0001b0 69 95 81 bf e2 a2 0d bf 84 33 ab 3c c9 7f a6 3f
       -1.0123721 -0.55326664 0.020898588 1.3007747
0001c0 1c 72 e1 3b de 39 0c 3f 04 ed 88 3e c8 ad 8d 3e
       0.006880058 0.547758 0.2674333 0.27671647
0001d0 35 91 dc bc 84 37 aa 3f 8b 3d 6a bc 8b ee 50 3e
       -0.026924709 1.3298192 -0.0142969 0.20403497
0001e0 e9 ba f6 bc 56 ba 8c 3c 2d 08 76 3c d8 15 fc bc
       -0.030118423 0.017178696 0.015016598 -0.030772135
0001f0 0b 06 99 bd b3 1c 0d 3d 54 4b 1f 3c e6 83 75 bb
       -0.07471856 0.034451198 0.0097225495 -0.003746265
000200 1f 9b 25 3d 9a e5 30 bf 1f 75 1c 3d 2a 50 de bc
       0.040431138 -0.69100344 0.038197633 -0.027137835
000210 07 eb 8f 3c 0b ac c2 3f 83 ad df bc 63 0e 46 bc
       0.017568124 1.5208753 -0.027304417 -0.012088391
000220 69 9f 8f 3f fa b5 84 3f 02 3e 95 3d 60 91 17 3d
       1.1220523 1.0368035 0.07287218 0.037003875
000230 75 a1 5f bc 43 f3 a2 3c a5 4b 18 3c 4f a3 21 3f
       -0.013649334 0.019891387 0.009295379 0.63139814
000240 1a cf b8 bb ab fd 16 c0 1f 4c 38 3c 81 32 96 3b
       -0.005639923 -2.3592327 0.011248617 0.0045836573
000250 70 86 16 3d 7b c9 06 3f 96 bf e0 3c 4b a7 2c 3c
       0.036749303 0.52651185 0.027435105 0.010537933
000260 95 8a 53 bf 12 da 5a bc 92 46 5c 3f 2a e5 80 bf
       -0.82633334 -0.013357656 0.8604518 -1.0069935
000270 bc 8e cb bf 0e 21 44 bd 61 28 9b 3a 34 c6 d9 bc
       -1.5902934 -0.047883086 0.0011837595 -0.026583768
000280 ea 85 13 3c 22 99 8e 3f a4 a5 44 bc a4 e7 55 3c
       0.009004096 1.1140482 -0.012002382 0.013055716
000290 20 e8 35 c0 de a0 b4 b9 e9 34 16 bd 20 e7 15 3d
       -2.8422928 -0.0003445213 -0.036671553 0.03659737
0002a0 c1 d9 2c bd 62 23 00 bf f5 30 07 bf 86 18 b1 3c
       -0.042199854 -0.5005399 -0.5280908 0.021618139
0002b0 7b 2c 6b bd 58 2d b4 3b 26 0a 3c 3d c4 93 06 3c
       -0.057415467 0.0054985695 0.045908116 0.008213941
0002c0 8e 51 25 3d 34 b2 fe bc 97 ee 7b 3c d9 07 58 bc
       0.04036098 -0.031090833 0.0153767085 -0.013185465
0002d0 93 1b b0 bc 19 59 84 bc 49 f1 3e 3c ee d6 3d bc
       -0.021497523 -0.016155766 0.011654207 -0.011586888
0002e0 bc 30 2e bf e0 b6 43 3d 05 83 b9 3c f3 ca 83 3d
       -0.6804311 0.047781825 0.022645483 0.06435194
0002f0 88 83 e6 bc 62 32 91 3f f1 3b dd 3f 31 35 46 be
       -0.02813889 1.1343501 1.7283918 -0.19356228
000300 0d 2f 22 bc 3f 5c 0e c0 ba af f5 bf c5 8b 20 bb
       -0.009898913 -2.2243803 -1.9194252 -0.0024497372
000310 c6 94 a6 3f 0a a6 1b 40 4d a2 aa bc 7e b2 25 3c
       1.3014152 2.4320092 -0.020829344 0.010113357
000320 d9 f2 97 bc 50 34 49 bc 16 4b a1 3b 6c a1 ae 3f
       -0.018548416 -0.012280539 0.004922281 1.3643012
000330 19 82 8f bf 71 0c b6 bf e9 51 64 3c 89 1f ed be
       -1.1211578 -1.4222547 0.0139355445 -0.46313122
000340 d2 a6 4f be a3 68 bc 3b ad 8b 2d bf 67 fc b6 3c
       -0.2027848 0.0057497784 -0.67791253 0.022337152
000350 a8 3e 91 be cc 06 a6 3e b8 82 71 3f 66 3d aa bc
       -0.28368115 0.3242706 0.94340086 -0.02078123
000360 1b e6 cc be 03 62 f6 bc fa 60 b7 3a 4d d9 18 3f
       -0.40019307 -0.030076033 0.0013990693 0.59706575
000370 59 34 9e 3f 53 9f e6 bc 0f c1 d0 3f 41 71 ae 3b
       1.2359725 -0.028152144 1.6308917 0.0053235595
000380 ef 04 8e bf 8d ac ce bc ea 69 2d bf 4b 7b 99 3c
       -1.1095256 -0.025228763 -0.6773974 0.018735548
000390 28 d2 26 3d 13 13 48 3b 01 0a 24 3c e8 9d 5b bc
       0.040727764 0.0030528947 0.010012151 -0.013404347
0003a0 68 a2 b4 3c e8 06 60 bd 07 2c 09 3d 36 3f b7 bc
       0.022050098 -0.054694086 0.033489253 -0.022369009
0003b0 3b 46 30 bf ec 6f cf 3c 5c 5e ab bf 5e 24 62 bc
       -0.68857163 0.025321923 -1.3388171 -0.013802616
0003c0 8f f8 ca bb a7 b1 a0 3f 04 ff 2b 3f 79 59 40 3e
       -0.0061941813 1.2554215 0.67186 0.18784131
0003d0 c9 4b 2f b9 3c 34 6f bd 5c dc 79 bf 3f f3 db be
       -0.00016717533 -0.058399424 -0.97601867 -0.4295902
0003e0 bf 48 a9 bd 4a bf 38 3f 31 70 e7 3e e8 9b 78 3f
       -0.08265828 0.72166884 0.45202783 0.97112894
0003f0 da 5c a2 3c 29 1c 07 bf 91 ce 46 3e e8 e5 ee 3e
       0.019819666 -0.52777344 0.19414736 0.4665978

l3.bias f4 [2]
000000 d9 04 fd 3e fd fe d1 3d
       0.4941776 0.10253713
