DataShared/results/Reacher-v2_buffer_mod_p_mixed_0.8_final/bcq_actor_target_tmp.pt (torch_old, 507028 bytes, 6 tensors)

l1.weight f4 [400, 13]
0	0xbe7a287c	-0.24429506
1	0x3e7d173c	0.24715894
2	0xc013de8f	-2.310459
3	0xbf14621c	-0.57962203
4	0xbe4e7682	-0.20162395
5	0x3f30b6ef	0.69029135
6	0xbf012caa	-0.50458777
7	0xbeeccf0c	-0.46251714
8	0x3cc2f933	0.023800468
9	0xc055a75b	-3.3383396
10	0xbdaba934	-0.08381882
11	0x4016fc55	2.3591511
12	0xbf6012a9	-0.87528473
13	0xbfd6f148	-1.6792383
14	0xbf16a31b	-0.5884263
15	0xbe8d4d37	-0.27597973
16	0x3d74e3fb	0.05978773
17	0x3e7f5a2b	0.2493674
18	0xbf3626ec	-0.7115314
19	0xbf007798	-0.50182486
20	0x3eb0d138	0.3453462
21	0xbf927439	-1.1441718
22	0xc00521eb	-2.0801952
23	0x3e548680	0.20754433
24	0xbf327555	-0.69710284
25	0x3f3fa162	0.74855626
26	0xbf24c73e	-0.6436652
27	0xbf1b90ae	-0.6076764
28	0xbf6dc9cb	-0.92886037
29	0x3d953799	0.07285995
30	0x3fa7659b	1.3077883
31	0xbfa8d803	-1.3190922
32	0xbf6048b0	-0.8761091
33	0xbf355d6d	-0.7084568
34	0xbfc48950	-1.5354404
35	0x401d2740	2.4555206
36	0xbe25c93d	-0.16190048
37	0xbec83584	-0.3910333
38	0xbd9b9fcd	-0.07598839
39	0x3da5f659	0.08103628
40	0xbf0c1247	-0.5471539
41	0xbe00b1f2	-0.12567881
42	0xbdb7460d	-0.08948908
43	0xc05da12b	-3.462962
44	0xc06dd948	-3.7163868
45	0xbefd5b4e	-0.49483722
46	0xbe67c61d	-0.22634168
47	0x3f99dd7b	1.2020715
48	0x40858e83	4.1736465
49	0xbc23f640	-0.010007441
50	0xbfc915b9	-1.5709754
51	0xbf3d6629	-0.7398401
52	0xbfc502b7	-1.5391454
53	0xbf0d21db	-0.55129784
54	0xbd6505e5	-0.055913825
55	0xbf46731c	-0.7751939
56	0x3c8a36c9	0.016871827
57	0x3ea6eb55	0.3260142
58	0xbe214a4d	-0.15751
59	0x3e1f85f5	0.15578444
60	0x3d289438	0.041156977
61	0x3e0e86a5	0.1391855
62	0xbe283b62	-0.16428903
63	0xbf3d5729	-0.7396112
64	0xbdf3b196	-0.11899106
65	0xbee5a869	-0.4485505
66	0x3e5966bc	0.21230596
67	0x3bf4aa1f	0.007466569
68	0xbf978bb9	-1.1839515
69	0x3cf74446	0.030183922
70	0xc088fdb0	-4.2809677
71	0xbe7642bf	-0.24048899
72	0xbe736850	-0.23770261
73	0xbc67b88c	-0.0141431205
74	0x40a9d0d2	5.3067408
75	0x3e7a9856	0.24472174
76	0xbff569fa	-1.9172966
77	0xbfe9aaae	-1.8255212
78	0xbf05c692	-0.5225612
79	0xbec67794	-0.38763106
80	0xbf19cd52	-0.6007892
81	0xbf645f73	-0.89208144
82	0xbf0a4fce	-0.5402802
83	0xc026a095	-2.6035511
84	0xbe08797f	-0.13327597
85	0xbf348f20	-0.7053089
86	0x3f520348	0.82036257
87	0x409f1fb7	4.9726214
88	0x3dda6ed4	0.1066567
89	0xbf8805dd	-1.0626789
90	0x3fa16055	1.2607523
91	0x3e07eae7	0.13273202
92	0x3e068380	0.13136101
93	0x3efda7fb	0.4954222
94	0x3f0cf451	0.550603
95	0xbff6e78e	-1.9289415
96	0x3f5c83ec	0.86138797
97	0x3f5ec541	0.87019736
98	0xbf568c39	-0.8380771
99	0x3fcf2687	1.6183633
100	0xbf2233eb	-0.6336047
101	0x3e3f5e60	0.18688345
102	0x3f560817	0.83606094
103	0xc0193bd1	-2.394276
104	0x3eb8e270	0.36110258
105	0xbe1ff62a	-0.15621248
106	0x3da92e73	0.082608126
107	0xbf22dbee	-0.63616836
108	0x4009b38b	2.1515834
109	0xc005e7fe	-2.0922847
110	0xbf4885c4	-0.7832911
111	0xbf4b4bd4	-0.7941258
112	0xbf5d25af	-0.86385626
113	0x40a9cbd6	5.3061323
114	0x3e42a12e	0.19006798
115	0xc00da60e	-2.2132602
116	0xc0552a9d	-3.330726
117	0xbdcefce2	-0.10106827
118	0x3ed2aef8	0.41149116
119	0xbc988e74	-0.018622614
120	0x3eb76b84	0.35824215
121	0x3dbf4bb7	0.09340613
122	0x3f924e1e	1.143009
123	0x3f0dffa7	0.5546822
124	0xbfb216c9	-1.3913203
125	0xbf4a4c71	-0.7902289
126	0xbf4d9955	-0.8031209
127	0xbe0a57e6	-0.13510093
128	0xc019e651	-2.4046824
129	0xc03fe1b4	-2.9981508
130	0xbea5054d	-0.32230607
131	0xbe00112a	-0.12506548
132	0xbf462db8	-0.7741351
133	0xbe231cef	-0.15929006
134	0x3fc0fa68	1.5076418
135	0x3fb7b740	1.4352798
136	0x3e834731	0.25640252
137	0x3eeae283	0.4587594
138	0xbf8760f5	-1.0576464
139	0xbfee02c4	-1.8594594
140	0x3e868315	0.26271883
141	0xbe202c81	-0.15641977
142	0x4009ae9e	2.1512828
143	0xbce8cc33	-0.028417682
144	0xbf99022e	-1.195379
145	0x3c8499c5	0.016186604
146	0x3e03817a	0.1284236
147	0x3e83bc5f	0.25729653
148	0x3f018fc5	0.5061
149	0xbf3ca9c8	-0.73696566
150	0xbf550cb3	-0.832225
151	0xbf6ad0c2	-0.9172479
152	0x40958a48	4.67313
153	0x3e1bc03a	0.15210047
154	0xc07ec785	-3.9809277
155	0xc0906527	-4.5123477
156	0xbec38543	-0.38187608
157	0xbf962fed	-1.1733376
158	0x3f3e2d5d	0.7428797
159	0xbedeb198	-0.43494868
160	0xc001d4e2	-2.0286183
161	0x3f709e75	0.93991786
162	0xbe2b8cd7	-0.16752945
163	0xbd2bfe59	-0.04199061
164	0xbe7d18e6	-0.24716529
165	0xbfedff03	-1.8593448
166	0xbe01045c	-0.12599319
167	0x3f09e33c	0.5386236
168	0xbfc38367	-1.5274476
169	0xbf46e08a	-0.7768637
170	0xbf51075c	-0.81651855
171	0xbd192a49	-0.037393842
172	0x3eaddbbc	0.33956707
173	0xbf2a442b	-0.66510266
174	0xbf9b0ce1	-1.2113305
175	0xbdf8b6a6	-0.121442124
176	0xbf125c51	-0.57172114
177	0xbf2ea38a	-0.6821829
178	0x408a086c	4.313528
179	0xbe65811a	-0.2241253
180	0xbeb2a6e2	-0.34892946
181	0xbf8c1c44	-1.0946126
182	0x3dfde3d6	0.12396972
183	0xbeb99060	-0.36242962
184	0x3e76d2ef	0.24103902
185	0xbe6f0c6f	-0.23344587
186	0xbf8aa3c5	-1.0831228
187	0xc0231708	-2.5482807
188	0x3f2845d2	0.6573154
189	0x3e43e2aa	0.19129434
190	0x3f8a0e0c	1.0785537
191	0x40a36270	5.1057663
192	0xbe485500	-0.19563675
193	0xbf0d1740	-0.551136
194	0xbc95091a	-0.018192817
195	0xbf867693	-1.0504936
196	0xbfd9d4b3	-1.7018036
197	0x3e03af02	0.12859729
198	0xbdbc267e	-0.09187029
199	0x3dd88d83	0.10573866
200	0x3f73e11a	0.9526535
201	0x3eec4ba3	0.46151456
202	0xbe91901d	-0.28430262
203	0xbfd2e20e	-1.6475236
204	0xc03f0b2f	-2.9850576
205	0x3e46c920	0.1941266
206	0x3f1ffbaa	0.62493384
207	0x3e86e041	0.26342967
208	0xbf3a8347	-0.72856563
209	0xbec8cd74	-0.39219248
210	0xbf6cc525	-0.9248832
211	0xbf7a3da5	-0.9775031
212	0xbf9f990b	-1.246858
213	0xbfb7c03f	-1.4355544
214	0xbf041c51	-0.5160571
215	0x3f2a0361	0.66411406
216	0xbedec8c2	-0.4351254
217	0xbf6c7b99	-0.92376095
218	0x3e65554a	0.22395816
219	0x3f7f7520	0.99788094
220	0x3f8cd00a	1.1000988
221	0xbe86185b	-0.26190457
222	0xbf9cdf23	-1.2255596
223	0xbead2b91	-0.338223
224	0xbddc1ac8	-0.107472956
225	0x3eb58fcd	0.35461274
226	0x3e676085	0.22595413
227	0x3f23b053	0.63940924
228	0xbed40214	-0.41407835
229	0xbf57cd62	-0.84297764
230	0xbfec0c0b	-1.8441175
231	0x3e6a402e	0.22876045
232	0xbf75499d	-0.9581545
233	0xbfc97d4e	-1.5741365
234	0xbfb3cd68	-1.404706
235	0xbf231b40	-0.63713455
236	0x3d8960e4	0.067079335
237	0xbfcaf374	-1.5855546
238	0x40175414	2.3645067
239	0xbea9b1c4	-0.33143437
240	0x3d9b4273	0.075810336
241	0x3ed3ca5c	0.41365325
242	0xc0300d39	-2.750807
243	0xbfc50568	-1.5392275
244	0x3e123696	0.14278635
245	0x4008b8fc	2.1362906
246	0x400ad1cc	2.169055
247	0xbf9ab684	-1.2086949
248	0xbfc63161	-1.5483819
249	0x3ed99e54	0.42503607
250	0xbeaa262e	-0.33232254
251	0xbed91965	-0.42402187
252	0x3f62f302	0.8865205
253	0x3eb7577c	0.35808933
254	0xbdf575df	-0.11985373
255	0xbf25fe7b	-0.6484143

l1.bias f4 [400]
0	0xbf241cec	-0.6410663
1	0xbf734b1a	-0.9503647
2	0xbf4c849b	-0.7988984
3	0xbbca8517	-0.0061804163
4	0xbf40aaa8	-0.752604
5	0xbeee9a83	-0.46602258
6	0xbed2af4f	-0.41149375
7	0xbd5c8574	-0.05383821
8	0xbeb87b20	-0.36031437
9	0xbe93f4a8	-0.28897595
10	0xbf4d1ec7	-0.8012509
11	0xbf3a5bd9	-0.727964
12	0xbf55811c	-0.8340013
13	0xbf09c672	-0.5381843
14	0xbec4bd93	-0.38425884
15	0xbe5aa0a4	-0.21350342
16	0xbf8f2b59	-1.1185104
17	0xbf2f6c9a	-0.6852509
18	0xbf9e09d0	-1.2346745
19	0xbf0963e5	-0.5366805
20	0xbef0da85	-0.47041717
21	0xbf13c88f	-0.57727903
22	0xbedb9f18	-0.42894816
23	0xbfa38703	-1.2775577
24	0xbf4b59be	-0.7943381
25	0x3dc8f745	0.09812788
26	0xbef5ea6c	-0.48030412
27	0xbf80b60a	-1.0055554
28	0x3ce03c42	0.027372483
29	0xbeb20049	-0.34765843
30	0xbf3139bc	-0.6922872
31	0xbfb76f63	-1.4330868
32	0xbf6ab066	-0.9167541
33	0xbfbb3700	-1.462616
34	0xbf90157e	-1.1256559
35	0xbed67347	-0.41884825
36	0xbf01eb35	-0.5074952
37	0x3eb8a804	0.36065686
38	0xbf14d3aa	-0.58135474
39	0xbf98ca7e	-1.1936796
40	0xbf6dcb15	-0.92888004
41	0xbf615100	-0.8801422
42	0xbf14bb7c	-0.5809858
43	0xbf07d96f	-0.5306615
44	0xbea003d1	-0.31252912
45	0xbf908342	-1.1290057
46	0xbf94cdc5	-1.1625296
47	0xbf6f9cc4	-0.9359858
48	0x3e011b09	0.1260797
49	0xbe113354	-0.14179736
50	0xbf916116	-1.1357753
51	0xbf00918d	-0.5022209
52	0x3d2e998d	0.042626906
53	0xbf2e07bb	-0.67980546
54	0xbf8a6b6e	-1.0814035
55	0xbf01f399	-0.50762326
56	0xbf77d4ba	-0.9680897
57	0xbe9bcf9e	-0.30431837
58	0xbfa29c91	-1.270403
59	0xbd67ae64	-0.056562796
60	0xbf04b4f4	-0.5183861
61	0xbf584d28	-0.8449273
62	0xbe316c61	-0.173265
63	0xbf85c88b	-1.0451826
64	0xbf23ad7e	-0.63936603
65	0xbef0e1ae	-0.4704718
66	0xbf089e97	-0.5336699
67	0xbea7f069	-0.32800606
68	0xbf3ff186	-0.7497791
69	0xbe350df4	-0.17681104
70	0xbee41639	-0.44548205
71	0xbfbd46f5	-1.4787279
72	0xbe737032	-0.23773268
73	0x3dcabb97	0.09899061
74	0xbf790b75	-0.9728311
75	0xbe331c4c	-0.17491263
76	0xbed50014	-0.41601622
77	0xbfd98d56	-1.6996257
78	0xbf6809ac	-0.9063976
79	0xbee9ba48	-0.45649934
80	0xbf555fab	-0.833491
81	0xbf088299	-0.53324276
82	0xbf051dad	-0.51998407
83	0xbf7506f0	-0.9571371
84	0xbf50ab59	-0.81511456
85	0xbee06122	-0.43824106
86	0xbdc4a856	-0.0960242
87	0xbf98d8d7	-1.1941174
88	0xbdee3de9	-0.11632902
89	0xbf382d99	-0.71944577
90	0xbf3d7ba7	-0.74016804
91	0xbf74481c	-0.9542253
92	0xbf465333	-0.774707
93	0xbf05f739	-0.52330357
94	0xbefd0543	-0.49418077
95	0xbf4969d0	-0.7867708
96	0xbf4b5302	-0.79423535
97	0xbfab3b97	-1.337756
98	0xbf50f2a6	-0.8162025
99	0xbfbaf308	-1.4605417
100	0xbe0d6876	-0.1380938
101	0xbe7f073c	-0.24905103
102	0xbf3d7266	-0.74002683
103	0xbfb71a14	-1.4304833
104	0xbdb68f2c	-0.089140266
105	0xbf26323b	-0.64920396
106	0x3e97bb45	0.29635063
107	0xbf534ae5	-0.82536155
108	0xbf7cda2f	-0.9877042
109	0xbf06a317	-0.52592605
110	0xbefb2353	-0.49050388
111	0x3c87fd96	0.016600411
112	0xbefce5dc	-0.4939412
113	0xbf26d518	-0.65168905
114	0xbeb03124	-0.3441249
115	0xbf747f43	-0.95506686
116	0x3d84e0c4	0.06488183
117	0xbe1da821	-0.15396167
118	0x3b433bec	0.0029790355
119	0xbf29a3dd	-0.6626566
120	0xbee07b69	-0.43844154
121	0xbe7bb768	-0.24581683
122	0xbe5a9aaa	-0.21348062
123	0xbef7e0ff	-0.48413846
124	0xbed78085	-0.4209024
125	0xbed89ce7	-0.42307207
126	0xbe0cef0e	-0.13763067
127	0xbf4cc5e5	-0.79989463
128	0xbf49c554	-0.78816724
129	0xbed92fb1	-0.42419198
130	0xbf17c7db	-0.5928933
131	0x3e607aa7	0.21921788
132	0xbf2d5cec	-0.6771991
133	0xbe060612	-0.13088253
134	0xbdd86c49	-0.10567529
135	0xbe014b5a	-0.126264
136	0x3e39506d	0.18097086
137	0xbeedb561	-0.46427444
138	0xbf0af60a	-0.54281676
139	0xbf738de0	-0.9513836
140	0xbf9db3f8	-1.2320547
141	0xbeec0252	-0.4609552
142	0xbf24ee46	-0.64426076
143	0xbf620814	-0.88293576
144	0xbf0ade1d	-0.5424517
145	0xbeef59ce	-0.46748203
146	0xbf6e2f73	-0.9304115
147	0xbefe47f6	-0.49664277
148	0xbf0423e6	-0.51617277
149	0xbf8027ec	-1.0012183
150	0xbf512d14	-0.8170941
151	0xbd78e856	-0.060768448
152	0xbf43683c	-0.76330924
153	0xbf5233ee	-0.8211049
154	0xbecb71ce	-0.39735264
155	0xbf943933	-1.1579956
156	0xbf84f665	-1.0387694
157	0xbf68f716	-0.91002023
158	0xbf182fb6	-0.594478
159	0xbf575074	-0.84107137
160	0xbecd9a5a	-0.40156823
161	0xbf7a68f4	-0.97816396
162	0xbf1a6808	-0.6031499
163	0xbec0afeb	-0.37634215
164	0xbf9300a8	-1.1484575
165	0xbda0787c	-0.078354806
166	0xbf34b739	-0.70592076
167	0xbeab3d7d	-0.3344535
168	0x3f134922	0.57533467
169	0xbf19f087	-0.6013264
170	0xbf3daafc	-0.74089026
171	0xbf0c80e7	-0.5488419
172	0xbf1246a1	-0.5713902
173	0xbf1688ad	-0.588023
174	0xbf1ca5c2	-0.61190426
175	0xbe8180d0	-0.2529359
176	0xbf8f2839	-1.118415
177	0xbc365971	-0.011129723
178	0xbf1d722b	-0.6150233
179	0x3e08bb3f	0.13352679
180	0xbe90447a	-0.28177243
181	0xbf05ef87	-0.52318615
182	0x3f3309b8	0.69936705
183	0xbf180841	-0.59387594
184	0xbeb4cbaa	-0.35311633
185	0xbf0b8ed2	-0.545148
186	0xbe9fedb1	-0.31236032
187	0x3d946f09	0.07247741
188	0xbf333fa3	-0.70018977
189	0xbf107f84	-0.56444573
190	0xbe9d32b3	-0.30702743
191	0xbf5571a4	-0.83376527
192	0xbf82e285	-1.0225378
193	0xbf608d05	-0.8771518
194	0xbf16ccfe	-0.58906543
195	0xbf634f56	-0.8879293
196	0xbeb8256b	-0.35966048
197	0xbf13d4ce	-0.5774659
198	0xbf3d3873	-0.7391426
199	0xbf271ddb	-0.6527993
200	0xbfd659eb	-1.6746191
201	0xbe2a477c	-0.16628832
202	0xbfa21dac	-1.2665305
203	0xbe9d1207	-0.30677816
204	0xbf078de9	-0.5295091
205	0xbf29a3ef	-0.6626577
206	0x3eb53b9f	0.3539705
207	0xbe7bf6d5	-0.24605878
208	0xbf0b1b19	-0.5433822
209	0xbe2eb503	-0.17061238
210	0x3d65cf4b	0.056105893
211	0xbe0d56f5	-0.13802703
212	0xbdaf639d	-0.085639216
213	0xbf93bb33	-1.1541504
214	0xbe51033c	-0.2041139
215	0xbe9bee8e	-0.3045544
216	0xbe6f39db	-0.23361914
217	0xbf7a826b	-0.9785525
218	0xbf5a2f68	-0.85228586
219	0xbeaead52	-0.34116608
220	0xbe9a72f8	-0.3016584
221	0xbf5cd9ff	-0.86270136
222	0xbf6f6c1d	-0.9352434
223	0xbdf278a6	-0.11839418
224	0xbf8551c7	-1.0415581
225	0xbf1626af	-0.58652776
226	0xbf9afeeb	-1.2109045
227	0x3ecb388a	0.39691573
228	0xbf1ab771	-0.6043616
229	0xbe542e24	-0.20720726
230	0xbf1c8da3	-0.6115362
231	0xbf4147a4	-0.7549994
232	0xbf41153a	-0.75423014
233	0xbf572396	-0.84038675
234	0x3b6784af	0.0035326888
235	0xbec8402d	-0.39111462
236	0xbf534f5d	-0.82542974
237	0xbf285ed0	-0.6576967
238	0xbf3ea47e	-0.74469745
239	0xbe903923	-0.28168592
240	0xbf7818ab	-0.9691264
241	0xbf2c85a3	-0.67391413
242	0xbf026737	-0.50938743
243	0x3eae4bcb	0.340422
244	0xbeb363f8	-0.35037208
245	0xbfe6d147	-1.8032616
246	0xbd33316f	-0.043748315
247	0xbe4007f9	-0.18753041
248	0xbf0f4f00	-0.5597992
249	0xbf01789a	-0.5057465
250	0xbe838fb6	-0.2569558
251	0xbf8a3268	-1.0796633
252	0x3ea3745b	0.3192471
253	0xbf8bce83	-1.0922397
254	0xbf28c2c7	-0.65922207
255	0xbf17c60a	-0.5928656

l2.weight f4 [300, 400]
0	0xc0118978	-2.2740154
1	0xbfb60eb0	-1.4223232
2	0x3d7279b0	0.05919808
3	0x3f423a79	0.7587047
4	0x3ed28182	0.41114432
5	0xbe494191	-0.19653918
6	0x3f434c78	0.7628856
7	0xbe1bd7d5	-0.15219052
8	0x3e08fb36	0.1337708
9	0xbe79900c	-0.24371356
10	0xbe96c1fb	-0.2944487
11	0x3fc7829c	1.5586734
12	0xbf894c67	-1.0726441
13	0xbfd314a7	-1.6490678
14	0xbf5bb37d	-0.8582075
15	0xc01f32ab	-2.4874675
16	0xbdd11e09	-0.10210807
17	0xc012dd1c	-2.2947454
18	0xbf6ab5cb	-0.91683644
19	0xbd8795f7	-0.066204004
20	0x3ee1fb57	0.4413707
21	0xbf4368a9	-0.76331574
22	0xbfc9d1ba	-1.5767128
23	0xbf811684	-1.0084996
24	0xbe0eea3c	-0.13956541
25	0xbf999ce9	-1.200101
26	0x400ec722	2.230904
27	0xbcede90b	-0.029041788
28	0xbebf240a	-0.37332183
29	0x3f8d4aaa	1.1038411
30	0xc007cb0e	-2.1217685
31	0xc017967f	-2.3685606
32	0xbf43e801	-0.76525885
33	0x3e90052d	0.2812895
34	0x3f83e47d	1.0304104
35	0x3e652047	0.22375594
36	0x3f5373d3	0.8259861
37	0xbfdc9607	-1.7233285
38	0xbf415d90	-0.7553339
39	0xbeb0f2e0	-0.345603
40	0xbebcd830	-0.36883688
41	0x3f2292a6	0.6350502
42	0xc005d83f	-2.0913236
43	0x3e498a84	0.19681746
44	0xbf3aa89b	-0.7291352
45	0x3f921284	1.14119
46	0xbfcbcde1	-1.5922204
47	0xbf37acbf	-0.71747965
48	0x3f196114	0.59913754
49	0xbe505e25	-0.20348413
50	0x3f533ff2	0.8251945
51	0x3d93aae7	0.072103314
52	0x3f11f146	0.5700878
53	0x3eea6674	0.4578129
54	0x3e81cb42	0.25350386
55	0x3fa86ddd	1.3158528
56	0x3ec3d959	0.3825176
57	0x3f98e12b	1.1943716
58	0x3eab45be	0.33451647
59	0x3efefebf	0.4980373
60	0x3f6c7bc4	0.9237635
61	0xbef21236	-0.4727952
62	0xbf9ad73e	-1.2096937
63	0xbf03ad05	-0.5143588
64	0xbe268a06	-0.1626359
65	0x3ed8c7d4	0.42339957
66	0xbf7f02e8	-0.9961381
67	0x3fac9560	1.3483086
68	0x3ee7b85f	0.4525785
69	0x3f8d80a3	1.1054882
70	0x3f97c1ee	1.1856058
71	0xbf862124	-1.0478864
72	0xbf4bb4be	-0.79572666
73	0x3cfb6ec5	0.030692467
74	0xbbc76819	-0.0060854075
75	0xbd0f5359	-0.034991596
76	0xbf11dbad	-0.56975824
77	0x3e75abdb	0.23991339
78	0xbf522041	-0.82080466
79	0x3f806b95	1.0032831
80	0xbf7e523b	-0.99344224
81	0x3f70e42d	0.9409817
82	0x3fc7ef0a	1.5619824
83	0xbfd29762	-1.6452448
84	0xbfc09d8a	-1.5048077
85	0xbfd1ac15	-1.638064
86	0xbec479b4	-0.38374102
87	0xbf8b9f3d	-1.0907971
88	0x3f952a35	1.1653506
89	0xbf24e2ea	-0.64408743
90	0xbff42575	-1.9073931
91	0xbea0ba60	-0.31392193
92	0x3ea79c35	0.32736364
93	0xbf913066	-1.1342895
94	0xbf9ee8cf	-1.2414798
95	0xbe39cfa0	-0.18145609
96	0xbd8d9b35	-0.06914369
97	0x3e81ec95	0.2537581
98	0x3f84ca07	1.0374154
99	0x3ed78ce9	0.42099693
100	0x3e8e6a58	0.2781551
101	0xbe9959dd	-0.29951373
102	0xbf957db2	-1.1678984
103	0x3cdc6b0e	0.026906516
104	0xbeae7e4b	-0.3408073
105	0xbebe9cbd	-0.37228957
106	0xbfa6e434	-1.3038392
107	0xbf38732f	-0.72050756
108	0xbf9ce640	-1.2257767
109	0x3f4e13f7	0.80499214
110	0xbec11acc	-0.37715757
111	0xbfc838d4	-1.5642343
112	0xbde72322	-0.11285998
113	0xbf12ad09	-0.5729528
114	0xbee4ecca	-0.44711906
115	0xbf50498a	-0.8136221
116	0xbec22ac0	-0.3792324
117	0xbef3641c	-0.47537315
118	0xbf5b0d33	-0.85567015
119	0xbc9bb923	-0.019009179
120	0x3f69bf58	0.9130759
121	0x3ede1b08	0.43379998
122	0x3f42ee04	0.76144433
123	0xbf94c696	-1.1623104
124	0x3fc7d790	1.561266
125	0xbe7a40c0	-0.24438763
126	0xbdd91992	-0.1060058
127	0xbf1d2236	-0.61380327
128	0xbe4faaf1	-0.20280053
129	0x3eb8ecca	0.36118156
130	0xbf823307	-1.0171822
131	0xbfe63b9b	-1.798694
132	0x3f8c7eef	1.0976237
133	0x3f3a5302	0.7278291
134	0x3e19645d	0.14979692
135	0xbe9a7662	-0.30168444
136	0xbe68698a	-0.2269651
137	0xbf46b742	-0.7762338
138	0x3f8ae779	1.085189
139	0xbf15192e	-0.58241546
140	0xbe71657e	-0.23573872
141	0x3f4a7adf	0.79093736
142	0x3f982c27	1.1888474
143	0x3ea83cb2	0.32858807
144	0xbe13eec6	-0.14446554
145	0xc01d0b8e	-2.4538302
146	0xbf0c812c	-0.548846
147	0xc00174e8	-2.0227604
148	0x3e8ee94e	0.27912372
149	0x3dabfbb4	0.08397618
150	0xbfd9afca	-1.7006772
151	0x3eef88ab	0.46783957
152	0xbfc24c48	-1.5179529
153	0xbf9e869f	-1.2384833
154	0xbe924015	-0.28564516
155	0x3f2945a8	0.6612191
156	0xc0043684	-2.0658274
157	0xbf06d6ba	-0.52671397
158	0xbee813b3	-0.4532753
159	0xbf97ac60	-1.184948
160	0xbf42f471	-0.7615424
161	0xbf21e047	-0.63232845
162	0xbf844b04	-1.0335393
163	0x3f936a9a	1.1516907
164	0xbfdf76b1	-1.7458097
165	0xc00350d5	-2.0518086
166	0xbe82ca48	-0.25544953
167	0xbf9852ce	-1.190027
168	0xc04d8540	-3.211258
169	0xbf44eee8	-0.7692704
170	0xbf7b1a51	-0.9808703
171	0x3d0a6079	0.03378341
172	0x3fa0c281	1.2559358
173	0x3faea793	1.364489
174	0xbf19afc8	-0.60033846
175	0xbf4770cd	-0.77906495
176	0xbddae849	-0.10688836
177	0x3ee503f6	0.44729584
178	0x3f6fce9d	0.9367464
179	0xc07e34b8	-3.9719677
180	0xbec5df21	-0.38646796
181	0xc01c451e	-2.4417186
182	0x3e31f725	0.17379434
183	0xbde93a17	-0.11388033
184	0xc00b3046	-2.1748214
185	0xbc8b1976	-0.016979914
186	0xbf73f23b	-0.9529149
187	0x3e331de6	0.17491874
188	0x3deafb46	0.11473708
189	0xbeb88da5	-0.36045566
190	0xbeab13cd	-0.33413544
191	0xbeb2aa21	-0.34895423
192	0x3e99f80d	0.3007206
193	0xbf0a0d13	-0.539262
194	0x3f42daf6	0.7611536
195	0xbdf6a12b	-0.12042459
196	0x3eaebc09	0.34127834
197	0x40051479	2.0793746
198	0xbf26da0a	-0.6517645
199	0x3e830737	0.25591442
200	0x3f553de5	0.8329757
201	0xbefb93ae	-0.49136108
202	0xbeafb31c	-0.34316337
203	0xbef72e53	-0.4827753
204	0xbfa4252b	-1.2823843
205	0x3f09b6a0	0.5379429
206	0xbfccf409	-1.6011974
207	0x3e647c51	0.22313048
208	0x3ec9bbea	0.3940118
209	0xbec4cf40	-0.3843937
210	0x3ca0fe76	0.019652586
211	0xbfd4b759	-1.6618453
212	0xbe62c696	-0.22146067
213	0xc001964b	-2.0247982
214	0xbf4d4fe9	-0.8020006
215	0xbf17ee97	-0.59348434
216	0xbbfb4d43	-0.0076691224
217	0xbe8f161d	-0.2794656
218	0x3f2a6263	0.66556376
219	0xbe6d8783	-0.23196225
220	0xbf1829b0	-0.5943861
221	0x3f0edc00	0.55804443
222	0x3edc32c1	0.43007472
223	0x3fb2b345	1.3960959
224	0xbf0f1fd6	-0.5590795
225	0xbe7d79e4	-0.24753529
226	0xbefb1797	-0.49041435
227	0xbf83c0d5	-1.0293223
228	0xbe5f8ad3	-0.21830301
229	0xbe700bf6	-0.23442063
230	0x3ea9404d	0.3305687
231	0x3d3dbc4f	0.046322163
232	0xc016290e	-2.3462558
233	0xbfe879bb	-1.8162149
234	0xbf4a0825	-0.7891868
235	0xbee70d62	-0.45127398
236	0x3eac2cff	0.3362808
237	0x401ee19f	2.4825208
238	0xbfd11b63	-1.6336483
239	0xbfe3ae43	-1.7787555
240	0xbf961a36	-1.1726749
241	0x3fa4bb9f	1.2869757
242	0xbf09152a	-0.5354792
243	0x3f481e09	0.7817083
244	0x3f139cb1	0.5766097
245	0xbe5234f2	-0.2052801
246	0xbfbb9c64	-1.4657102
247	0xbe216075	-0.15759452
248	0x3fa9e0b6	1.3271701
249	0xbfe2dc2d	-1.7723442
250	0x3de70e91	0.11282075
251	0xc001519d	-2.0206063
252	0xc01eadd3	-2.4793594
253	0xc00312db	-2.0480258
254	0xbdbc8ba0	-0.09206319
255	0x3fa9eed3	1.3276008

l2.bias f4 [300]
0	0x3e8a1d6e	0.26975578
1	0xbc7010b4	-0.01465242
2	0xbd1584fe	-0.036503784
3	0xbc80eead	-0.01573881
4	0xbda8dd57	-0.08245342
5	0xbc3e02a0	-0.011597306
6	0xbdceca51	-0.100971825
7	0xbcf45674	-0.02982638
8	0xbd843fe5	-0.064574994
9	0x3d30e7f1	0.043189947
10	0xbd0a5cbd	-0.03377985
11	0xbe84bf78	-0.2592733
12	0xbd7c4fdc	-0.061599597
13	0xbd71260c	-0.058874175
14	0xbc8c48ed	-0.017124617
15	0xbd70ac2c	-0.058757946
16	0xbe105f06	-0.14098749
17	0xbd956e56	-0.072964355
18	0xbdad6fa7	-0.084685616
19	0xbcae6e57	-0.021292849
20	0x3f43b780	0.76451874
21	0xbce4eb93	-0.027944362
22	0x3dc60ee0	0.09670806
23	0xbda75207	-0.08169942
24	0xbef11333	-0.4708496
25	0x3e150ff1	0.14556862
26	0xbed2d4fc	-0.4117812
27	0xbf0b5785	-0.5443042
28	0x3e0df37c	0.13862413
29	0xbed5bc17	-0.41745064
30	0x3f037cdd	0.513624
31	0xbe70644c	-0.2347576
32	0xbc938b86	-0.018010866
33	0x3eb2644b	0.34842142
34	0xbe9d8aec	-0.3077005
35	0xbd0ad50d	-0.033894587
36	0xbe9844a2	-0.29739863
37	0xbecf3b25	-0.4047481
38	0xbdaa79d7	-0.0832402
39	0x3da747de	0.081680045
40	0xbd10fb46	-0.035395883
41	0xbd1b2666	-0.037878416
42	0xbd93f436	-0.07224314
43	0xbd04ca2d	-0.032419372
44	0xbf3a4408	-0.7276006
45	0xbd8cdc95	-0.0687801
46	0x3efdd775	0.49578443
47	0xbd9369ee	-0.07197939
48	0xbf0382d5	-0.5137151
49	0xbc36c008	-0.011154182
50	0xbd15354e	-0.03642779
51	0xbe40dbe7	-0.18833886
52	0x3da95c6c	0.08269581
53	0xbc8ed545	-0.01743568
54	0xbda9aeb7	-0.08285277
55	0xbc343f68	-0.011001445
56	0xbdadbcff	-0.08483314
57	0xbd243c2f	-0.040096458
58	0xbe521a9d	-0.20517965
59	0xbce4bffc	-0.027923577
60	0x3f11b9e4	0.5692427
61	0xbcc85b11	-0.024457486
62	0xbcb600a0	-0.022217095
63	0xbb1884f6	-0.002327261
64	0x3f02a830	0.51037884
65	0x3de5d9da	0.112231925
66	0x3d840513	0.0644628
67	0x3eb20067	0.34765932
68	0xbc2a457f	-0.010392546
69	0xbd1351b6	-0.035966597
70	0xbc9c85f6	-0.019106846
71	0xbcba3210	-0.02272895
72	0x3dbf8d03	0.09353068
73	0xbe6cdcf6	-0.23131165
74	0xbe8f1de3	-0.2795249
75	0xbd8c637d	-0.068549134
76	0xbd6fcb2b	-0.058543365
77	0xbb9175ee	-0.004439107
78	0xbda9ceeb	-0.082914196
79	0xbecacff9	-0.39611796
80	0xbf19846e	-0.59967697
81	0xbd18f896	-0.037346445
82	0xbd60c1f3	-0.054872464
83	0xbd601613	-0.05470855
84	0xbf66e2b3	-0.90189666
85	0xbcfde61c	-0.030993514
86	0xbbdc980f	-0.006731994
87	0xbd74c3d4	-0.05975707
88	0x3d9eca6d	0.077534534
89	0x3e9d0d0f	0.30674025
90	0xbe0089b3	-0.12552528
91	0x3e969059	0.29407004
92	0xbd75b153	-0.059983563
93	0xbd4510e1	-0.0481118
94	0xbc806469	-0.01567288
95	0xbe155eb6	-0.1458691
96	0x3b81c00c	0.0039596613
97	0xbced9bcb	-0.029004952
98	0xbd57fbda	-0.05273042
99	0x3e97ebd5	0.29672113
100	0xbd4db561	-0.050221805
101	0xbfb0eca0	-1.3822212
102	0xbd2b280f	-0.04178625
103	0xbe8e419d	-0.27784434
104	0xbd417d41	-0.047238592
105	0xbdd9ea62	-0.10640408
106	0x3ef5b34b	0.47988352
107	0xbd4fc261	-0.050722484
108	0x3e340d7a	0.17583266
109	0xbf1fd634	-0.62436223
110	0xbd20d837	-0.0392687
111	0x3eb5f1eb	0.3553613
112	0xbd22de2f	-0.039762672
113	0x3e6c8696	0.23098215
114	0xbdf8cefc	-0.12148854
115	0xbe7b4e0c	-0.24541491
116	0xbc8252ed	-0.015908683
117	0x3ef63c44	0.48092854
118	0xbd09c20d	-0.033632327
119	0xbf1d3d05	-0.61421233
120	0xbd11a0e6	-0.035553835
121	0xbcabf64f	-0.020991473
122	0xbcfe0c64	-0.031011768
123	0x3abcf517	0.0014416304
124	0x3e83f863	0.25775442
125	0xbd4bbb21	-0.049739007
126	0xbdade0ef	-0.08490168
127	0xbd557d91	-0.052121703
128	0xbd8774fd	-0.066141106
129	0xbd1f8070	-0.038940847
130	0xbdb099d0	-0.086230874
131	0xbd5478a2	-0.051872857
132	0xbd45f8e9	-0.048333082
133	0x3cac749c	0.021051697
134	0xbcd38e42	-0.02582467
135	0xbd9a7766	-0.07542305
136	0x3c6b9015	0.014377614
137	0x3d0c30bf	0.034226175
138	0xbe6f8f03	-0.23394398
139	0xbcc12689	-0.023577945
140	0xbdd1e222	-0.102482095
141	0xbdb72e30	-0.089443564
142	0xbd4920b9	-0.049103472
143	0xbe8b557c	-0.27213657
144	0xbd7a8ea4	-0.06117119
145	0x3f357da8	0.7089486
146	0xbdc1cdb9	-0.094630666
147	0xbe372340	-0.1788454
148	0x3ce1d10a	0.027565498
149	0xbe4f9450	-0.2027142
150	0x3e4e04fb	0.20119087
151	0xbd252e5f	-0.040327426
152	0xbecc0491	-0.39847234
153	0xbca1640f	-0.019701032
154	0xbe34eef2	-0.17669275
155	0x3ddd9682	0.10819723
156	0xbe98f211	-0.29872182
157	0xbd761874	-0.060081914
158	0xbdd3cfe2	-0.10342385
159	0xbc21f497	-0.009884975
160	0xbd303058	-0.043014854
161	0x3f7942fc	0.97367835
162	0xbdd644ca	-0.10462339
163	0xbce64b23	-0.028112
164	0x3e05a490	0.13051057
165	0xbb8af6a5	-0.004240828
166	0xbd54e602	-0.051977165
167	0xbd8cf405	-0.068824805
168	0xbd28b967	-0.04119244
169	0xbd05dc9c	-0.032681093
170	0x3e753453	0.23945741
171	0xbd008053	-0.03137238
172	0xbd80df0d	-0.062925436
173	0xbd147e7e	-0.036253445
174	0xbdd96a42	-0.1061597
175	0xbd210ee7	-0.039320853
176	0xbc6c8033	-0.014434862
177	0xbd118fb6	-0.035537444
178	0xbd95ac0e	-0.073082075
179	0xbd58341a	-0.052784063
180	0xbb291277	-0.002579836
181	0xbda9566f	-0.08268439
182	0xbc677b0b	-0.014128457
183	0xbd98c43e	-0.07459305
184	0xbe2ae737	-0.16689764
185	0xbd0f24f5	-0.034947354
186	0xbcd50b82	-0.026006464
187	0xbe993700	-0.29924774
188	0xbb308ee0	-0.002694063
189	0xbe60d838	-0.21957481
190	0x3e468d59	0.19389857
191	0x3d97f6a8	0.07420093
192	0xbdba6410	-0.09101117
193	0xbd9a82e4	-0.07544497
194	0xbee6874b	-0.45025095
195	0xbd26447f	-0.040592667
196	0x3eb0bcf7	0.3451917
197	0x3a2876fe	0.00064264226
198	0xbcdf231a	-0.027238417
199	0xbdc40e49	-0.09573037
200	0xbde85823	-0.11344936
201	0xbd2ee9c7	-0.042703416
202	0xbd4116e9	-0.04714099
203	0x3eea1bb2	0.45724255
204	0xbc32df0f	-0.010917439
205	0x3da0448e	0.07825576
206	0xbd315488	-0.043293506
207	0xbe63f25a	-0.22260419
208	0xbd9fedd6	-0.078090355
209	0xbd79ecec	-0.061016962
210	0xbeeeca51	-0.4663873
211	0xbd8efead	-0.06982169
212	0x3eb31f88	0.34984994
213	0x3d681e52	0.05666954
214	0x3f46926d	0.7756718
215	0xbd3e2118	-0.04641828
216	0x3ea1337c	0.31484592
217	0xbc8948f5	-0.016758421
218	0xbd5108f2	-0.05103392
219	0xbce00f0b	-0.027350923
220	0xbecdc09d	-0.40186015
221	0xbbee59a3	-0.007273869
222	0x3f3706d6	0.71494806
223	0xbdb38578	-0.087656915
224	0xbefc9648	-0.49333405
225	0x3bf1f12b	0.007383486
226	0xbe904235	-0.28175512
227	0xbd96245e	-0.07331155
228	0xbd427bf1	-0.04748148
229	0x3bdefc09	0.0068049473
230	0xbdfd09cc	-0.12355384
231	0xbdb11478	-0.08646482
232	0xbd79e9cc	-0.06101398
233	0xbc994e85	-0.018714199
234	0xbd71166c	-0.058859274
235	0xbd9419b6	-0.072314665
236	0xbf1e5997	-0.61855453
237	0xba666d83	-0.0008790122
238	0x3e62e6bb	0.22158329
239	0xbd3d80f0	-0.046265543
240	0xbd54c14a	-0.051942147
241	0x3e15a75d	0.14614625
242	0x3dfc70d2	0.12326206
243	0xbeb1d700	-0.34734344
244	0xbd2acfc7	-0.04170206
245	0x3e0459ac	0.12924832
246	0xbe4e89c3	-0.2016974
247	0x3df0a751	0.11750663
248	0xbdfec26c	-0.12439427
249	0x3d9b7ac5	0.07591776
250	0xbf1df174	-0.61696553
251	0x3df0b0db	0.117524825
252	0xbd4c6701	-0.04990292
253	0xbede005e	-0.43359655
254	0xbe71dc13	-0.23619108
255	0xbe1378c6	-0.1440154

l3.weight f4 [2, 300]
0	0xc01af9de	-2.4215007
1	0xbca3d69e	-0.019999798
2	0xbc162f4e	-0.009166552
3	0x3c65d9db	0.014028992
4	0x3b2c0396	0.0026247255
5	0x3b7c9c6b	0.003854538
6	0xbfe6a46e	-1.801893
7	0xbc76dc8c	-0.015067231
8	0xbb6d8a9b	-0.0036245945
9	0x3f124e6a	0.571509
10	0x3cca6041	0.0247041
11	0x400e2851	2.2212107
12	0xbc9ab135	-0.018883327
13	0x3b079c0d	0.0020692379
14	0x3b5198b1	0.003198188
15	0x3ad028b9	0.0015881277
16	0x3bed796b	0.00724714
17	0x3d1350ee	0.035965852
18	0xbf838aa5	-1.0276686
19	0xbd13414e	-0.03595095
20	0xbfe83d41	-1.8143693
21	0x3bcca7d8	0.0062455945
22	0xbf7e60d9	-0.9936653
23	0xbc5c8e29	-0.013461628
24	0xbfde9031	-1.7387754
25	0x3fa7aff7	1.3100575
26	0xbf83685b	-1.0266222
27	0x3e51cab1	0.20487477
28	0x3f4a9880	0.79138947
29	0xbfa4c161	-1.2871515
30	0xbf925976	-1.1433551
31	0xbef9d25b	-0.487933
32	0x3ed5f771	0.41790345
33	0xbf5075cc	-0.81429744
34	0x3d54e88f	0.051979598
35	0x3bbbc2d8	0.0057300143
36	0xbfa53663	-1.2907223
37	0xbee1b6c9	-0.44084767
38	0x3dbfb2a8	0.09360248
39	0x3f41b8a1	0.75672346
40	0xbcb5613f	-0.022141097
41	0xbcdc36a9	-0.026881533
42	0x3c378fd7	0.011203728
43	0xbaf3f4cc	-0.0018612384
44	0xbef66f2c	-0.48131692
45	0x3d28fb07	0.041255023
46	0xbe801e82	-0.25023276
47	0x3b6304db	0.0034640345
48	0x3f86318c	1.048387
49	0xbcd7b651	-0.026332052
50	0x3b19125e	0.0023356895
51	0x3fd41431	1.6568662
52	0xbfe87e64	-1.8163571
53	0xbcff6424	-0.03117568
54	0x3c102e96	0.008800169
55	0x39e4da63	0.0004365026
56	0x3b6cef22	0.0036153276
57	0xbced9013	-0.028999364
58	0xbfa9b6f9	-1.3258964
59	0x3c62e0e1	0.013847561
60	0xbfc07c53	-1.5037941
61	0x3c5f538a	0.013630757
62	0xb93d59e0	-0.00018057926
63	0x3cb06577	0.021532757
64	0x3fa18e32	1.262152
65	0xbf5d2a69	-0.8639284
66	0x3f5179da	0.81826556
67	0xbeb03f30	-0.34423208
68	0x3d520c51	0.051281277
69	0x3f1078cd	0.5643433
70	0xbd034455	-0.03204759
71	0xbcdfc279	-0.027314411
72	0xbf0dcf53	-0.55394477
73	0x3f75db14	0.9603741
74	0xbf2afb6f	-0.6678991
75	0xbc9ec29e	-0.01937991
76	0x3d24cd7e	0.040235035
77	0x3cb6ec90	0.022329599
78	0x3f555b83	0.8334276
79	0x3e82dba5	0.255582
80	0xbc6a2f3a	-0.014293486
81	0x3d05e4fc	0.03268908
82	0x3b9aa4b5	0.0047193416
83	0x3c7da3b3	0.0154809235
84	0xbf2b956e	-0.67024887
85	0x3cee222b	0.029069027
86	0x3fb7ad53	1.4349769
87	0x3c9e80fe	0.019348618
88	0xbf623c12	-0.8837291
89	0xbeb7361d	-0.35783473
90	0xbeac4aae	-0.33650726
91	0x3f3043a1	0.68853194
92	0x3cae85c6	0.021304023
93	0xbc30cfb8	-0.0107917115
94	0x3fd2223a	1.6416695
95	0xbf645c9a	-0.892038
96	0x3c0b6a44	0.008509222
97	0x3c114a2d	0.008867783
98	0x3bc995e8	0.0061519034
99	0xbee4759a	-0.44620973
100	0x3d55c31a	0.052188016
101	0xbf0093e2	-0.5022565
102	0xbd1f8f4e	-0.038955025
103	0xbd1a23ce	-0.037631802
104	0xbc5e55a2	-0.013570221
105	0x3d7a4aac	0.06110637
106	0xbf0b05db	-0.5430581
107	0xbc0fd64c	-0.00877912
108	0xbf81b06b	-1.0131963
109	0xbf0d8fe8	-0.5529771
110	0x3cab33c6	0.020898711
111	0x3fa63343	1.2984394
112	0x3be17282	0.0068801055
113	0x3f0e5979	0.55605274
114	0x3e88ed8c	0.26743734
115	0x3e8dadf4	0.27671778
116	0xbcdc9082	-0.026924375
117	0x3fa86e00	1.3158569
118	0xbc6a3d4b	-0.01429684
119	0x3e4e2ad6	0.20133528
120	0xbcf6baf4	-0.030118443
121	0x3c8cba35	0.017178634
122	0x3c7608d3	0.015016752
123	0xbcfc160b	-0.03077223
124	0xbda8185d	-0.08207772
125	0x3d0d1ca5	0.034451146
126	0x3c1f4b56	0.009722551
127	0xbb758403	-0.0037462718
128	0x3d259bbe	0.04043173
129	0xbf309b37	-0.6898684
130	0x3d1c74c6	0.0381973
131	0xbcde502a	-0.027137835
132	0x3c8feb64	0.017568298
133	0x3fc262d5	1.5186411
134	0xbcdfae29	-0.027304726
135	0xbc460ec8	-0.012088485
136	0x3f8fddeb	1.1239599
137	0x3f84c682	1.037308
138	0x3d953ead	0.07287345
139	0x3d1791fd	0.03700446
140	0xbc5fa1a9	-0.013649383
141	0x3ca2f40e	0.019891765
142	0x3c184bed	0.009295446
143	0x3f21a112	0.631364
144	0xbbb8ce98	-0.0056398623
145	0xc016cc97	-2.3562372
146	0x3c384c20	0.011248618
147	0x3b96326e	0.0045836484
148	0x3d1686cd	0.03674965
149	0x3f06826e	0.5254277
150	0x3ce583d1	0.028016957
151	0x3c2ca7a6	0.010538017
152	0xbf538b21	-0.8263417
153	0xbc5ad972	-0.013357507
154	0x3f5c3be6	0.860289
155	0xbf80d657	-1.0065411
156	0xbfcb5960	-1.588665
157	0xbd442109	-0.047883067
158	0x3a9b27f6	0.0011837471
159	0xbcd9c5aa	-0.026583511
160	0x3c13860d	0.009004128
161	0x3f8eaf00	1.1147156
162	0xbc44a511	-0.0120022455
163	0x3c55e7d1	0.013055758
164	0xc0352c37	-2.8308237
165	0xb9b4a10f	-0.00034452273
166	0xbd16358d	-0.036672164
167	0x3d15e76d	0.036597658
168	0xbd2cd9a7	-0.042199757
169	0xbeffe5e6	-0.49980086
170	0xbf073104	-0.52809167
171	0x3cb11860	0.021618068
172	0xbd6b2c5b	-0.057415348
173	0x3bb42ca8	0.0054984875
174	0x3d3c09f0	0.045907915
175	0x3c0693fc	0.008213993
176	0x3d255187	0.040360954
177	0xbcfeb204	-0.031090744
178	0x3c7beefb	0.015376802
179	0xbc580859	-0.013185584
180	0xbcb01b40	-0.021497369
181	0xbc8458e5	-0.01615567
182	0x3c3ef0e8	0.011654116
183	0xbc3dd6e0	-0.011586875
184	0xbf2e309f	-0.6804294
185	0x3d43b790	0.04778248
186	0x3cb98310	0.022645503
187	0x3d931757	0.07182186
188	0xbce68363	-0.028138822
189	0x3f9131f6	1.1343372
190	0x3fdd3c61	1.7284051
191	0xbe488674	-0.1958254
192	0xbc222e67	-0.0098987585
193	0xc00df277	-2.2179239
194	0xbff5b08b	-1.9194502
195	0xbb208ba7	-0.0024497302
196	0x3fa694f6	1.3014209
197	0x401ba5be	2.431991
198	0xbcaaa1af	-0.02082905
199	0x3c25b267	0.010113335
200	0xbc97f3a5	-0.018548796
201	0xbc493508	-0.01228071
202	0x3ba14b0f	0.0049222778
203	0x3faea1e6	1.3643157
204	0xbf8f81ed	-1.1211525
205	0xbfb60c58	-1.4222517
206	0x3c645272	0.013935672
207	0xbeed205a	-0.46313745
208	0xbe4fa641	-0.20278265
209	0x3bbc693f	0.005749851
210	0xbf2e9372	-0.68193734
211	0x3cb6fcf7	0.02233742
212	0xbe90b22c	-0.28260934
213	0x3ea6078e	0.3242764
214	0x3f732485	0.949776
215	0xbcaa3dae	-0.020781364
216	0xbec89eeb	-0.39183745
217	0xbcf662ab	-0.030076345
218	0x3ab760f8	0.0013990691
219	0x3f18da1d	0.59707814
220	0x3f9e495e	1.236614
221	0xbce69f82	-0.028152231
222	0x3fd2284f	1.6418551
223	0x3bae7176	0.005323584
224	0xbf8f46bf	-1.1193465
225	0xbccead08	-0.025228992
226	0xbf2d578f	-0.6771173
227	0x3c997b0e	0.018735435
228	0x3d26d1e7	0.040727522
229	0x3b481330	0.0030529015
230	0x3c240967	0.010012007
231	0xbc5b9d8a	-0.013404259
232	0x3cb4a29f	0.0220502
233	0xbd600673	-0.05469365
234	0x3d092cd4	0.033490017
235	0xbcb73f5f	-0.022369085
236	0xbf2f50a5	-0.6848243
237	0x3ccf7058	0.025322124
238	0xbfab439e	-1.338001
239	0xbc6224a2	-0.013802679
240	0xbbcaf899	-0.006194186
241	0x3fa0b127	1.2554063
242	0x3f2bffae	0.6718701
243	0x3e405911	0.18783976
244	0xb92f4c36	-0.00016717691
245	0xbd6f3462	-0.058399566
246	0xbf7b7573	-0.9822609
247	0xbedc3b73	-0.43014106
248	0xbda94926	-0.08265905
249	0x3f38bfbf	0.7216758
250	0x3ee5bb3d	0.44869414
251	0x3f789b6c	0.97112155
252	0x3ca25c7f	0.019819496
253	0xbf051648	-0.51987123
254	0x3e46ce31	0.19414593
255	0x3eeee642	0.46660048

l3.bias f4 [2]
0	0x3efb6808	0.49102807
1	0x3de0a720	0.109693766
