DataShared/Hopper-v2/actor_td3.pt (torch_old, 505037 bytes, 6 tensors)

fc1.weight f4 [400, 11]
000000 ee 00 1c be e8 6d 76 40 ae df d1 be 7d 03 0c 3f
       -0.1523473 3.8504581 -0.40990967 0.5469282
000010 30 e1 b2 bf f5 cb d0 bf 3c 4c 30 bf da d9 ff 3e
       -1.3974972 -1.6312243 -0.68866324 0.49970895
000020 d6 f7 2e bf 94 64 33 be 87 88 0c bf c0 47 fe bf
       -0.6834692 -0.17518836 -0.54895824 -1.9865646
000030 b7 7b 8c 40 3b 98 be bf fd 01 cb 3f 39 5c 9d 3e
       4.390102 -1.4890207 1.5859982 0.30734423
000040 57 04 bd 3e de 73 3b 3f 18 a7 a9 3e 21 51 6e bf
       0.36917374 0.73223674 0.33135295 -0.9309254
000050 9d e4 0d bf 23 ed ca 3e fd ce cd bf 1c 16 f0 be
       -0.5542696 0.39634046 -1.6078793 -0.46891868
000060 89 e3 39 bf 47 36 d8 3f bc aa b6 bf e4 08 91 bf
       -0.72612816 1.6891564 -1.4270854 -1.1330838
000070 79 70 9b bf 79 df d3 be e8 88 36 3e d7 0c 83 be
       -1.2143699 -0.41381434 0.17825663 -0.25595734
000080 5a cc 5b be 0f 64 79 bf 25 66 2a 3f f9 33 56 3f
       -0.21464673 -0.974183 0.6656211 0.83673054
000090 f0 7d 96 3f fe 66 c5 bf 6d 44 f2 bf e4 7a ad 3d
       1.1757183 -1.5422056 -1.8927132 0.08470705
0000a0 75 c0 99 be c0 73 9d 3d 93 41 26 3e 05 d7 5c 3d
       -0.30029646 0.07688093 0.16235952 0.053915996
0000b0 1e 29 ab bf 6a a2 0f 3f 7d d4 8c 3e f8 a7 58 3e
       -1.3371923 0.561072 0.27505866 0.21157825
0000c0 42 f1 54 bf 60 75 c1 bf ac 8e 9a be 49 e4 aa 3e
       -0.8318063 -1.5113945 -0.30186975 0.33377293
0000d0 05 c1 4e be 24 7b 2a bc 10 41 2c be e4 a2 65 3f
       -0.20190819 -0.010405336 -0.16821694 0.89701676
0000e0 15 cf 1a c0 4d ae 25 40 63 ce 4d 40 fe a0 44 3f
       -2.4188893 2.5887635 3.2157218 0.76808155
0000f0 ca 39 33 bf f9 bd 18 bd d3 a8 24 be f8 22 0d 3e
       -0.70010054 -0.037290547 -0.16080026 0.13782871
000100 8d 54 66 3c 82 27 fb be b6 c8 83 bf 26 b5 9d 40
       0.014058244 -0.4905358 -1.0295627 4.928363
000110 44 92 29 40 d3 68 e5 3d 93 b7 00 3f c1 a5 33 be
       2.6495523 0.11201634 0.5028011 -0.17543699
000120 64 68 bf 3e 7a 8a 13 3f 3a 09 a9 be 0b 21 73 be
       0.3738433 0.57633173 -0.33014852 -0.23743074
000130 83 db 56 bd b8 84 b9 bf 74 02 cd be f0 b7 2e bf
       -0.052455436 -1.4493628 -0.40040934 -0.68249416
000140 99 74 03 3f a1 fe 71 c0 51 ed fe 3e 25 29 cb 3d
       0.5134979 -3.7811663 0.49790433 0.09919957
000150 8a d1 a2 be db f8 1c 3e eb 49 50 bc 3f 09 83 3d
       -0.3180049 0.15329306 -0.012712936 0.06398248
000160 90 e4 3c bf 40 e7 44 40 de 7c b3 bf 43 cd e3 bf
       -0.7378626 3.0766144 -1.4022481 -1.7797016
000170 90 86 0f be cd 6a c0 be fd 0e 5e 3f 2f 45 d3 3e
       -0.14016175 -0.37581483 0.8674162 0.4126372
000180 aa 30 b8 be 0e 39 e9 bd 3c b3 dd bc 03 49 c3 be
       -0.35974628 -0.113878354 -0.027063005 -0.3814164
000190 a7 aa b0 3f 83 32 e5 3f e3 78 c7 bd 05 6f c0 be
       1.3802079 1.790604 -0.09739854 -0.375847
0001a0 3e 3a fc be 75 b0 09 40 56 44 c3 3e 1f c2 37 be
       -0.49263185 2.151395 0.38138074 -0.17945145
0001b0 5d e2 39 3d bc 52 a8 3e c5 44 13 bf ba e6 58 3f
       0.045381892 0.3287562 -0.5752681 0.8472706
0001c0 1c 49 0c 40 04 84 53 3f 14 74 09 c0 00 91 eb be
       2.1919622 0.82623315 -2.1477098 -0.46009064
0001d0 55 81 62 3f ec a7 01 bf 28 75 fb 3e cf 4e 86 bd
       0.88478595 -0.50646853 0.4911282 -0.06558
0001e0 67 dc 14 be b6 41 fc bf 57 de de 40 de 81 c6 bf
       -0.14537202 -1.9707553 6.964641 -1.5508382
0001f0 dd 6d a8 bf fa 03 1a bd bd 09 8b 3f 21 32 cc be
       -1.3158528 -0.03760145 1.0862347 -0.39881995
000200 1c 4e 48 be 7d 57 00 3e 85 59 8f 3d 2f 02 07 be
       -0.19561046 0.12533374 0.06999496 -0.13184427
000210 a2 d4 35 bf 91 63 62 bf ce 34 20 3d 65 a0 c1 3d
       -0.71027577 -0.88433176 0.03911286 0.09454421
000220 cc e6 48 c0 32 34 af be 24 72 c3 be 5c 5f 12 bd
       -3.1390867 -0.3421951 -0.3817302 -0.035735473
000230 5d af 52 3d 9a 71 1e 3e d8 90 00 bf 16 0a 09 bf
       0.05143677 0.15473023 -0.50221014 -0.53531015
000240 b5 89 93 bf dd 04 98 3e a0 85 54 bf 13 b1 a9 3e
       -1.15264 0.2969121 -0.83016396 0.3314291
000250 e6 09 62 be 5d 09 55 3e 4a 8d 5d bd 79 17 f4 bb
       -0.22074088 0.20804353 -0.054089822 -0.007449087
000260 3f bf 8a 3d 62 34 42 3d ec f9 76 bf d6 0e ac 40
       0.067747585 0.047413237 -0.964751 5.376811
000270 7c b3 80 be c0 16 12 40 56 83 ee 3f ac 7a 33 3f
       -0.25136936 2.2826385 1.863383 0.7010906
000280 e9 21 7e 3f 18 b4 e9 3e 05 ca 37 be 54 9b ad be
       0.9927049 0.45645213 -0.17948158 -0.33907568
000290 b1 d6 41 3e e2 89 ee be c2 b7 30 40 8a ec 97 40
       0.18929555 -0.4658957 2.7612157 4.7476244
0002a0 95 fc 22 40 97 33 17 3f 41 7c 85 bf 87 54 c9 3e
       2.5466664 0.59063095 -1.0428544 0.39322302
0002b0 61 34 31 bb 18 ff ea be 7e 6c 10 bd 09 0e d1 3e
       -0.0027039277 -0.45897746 -0.035259716 0.4083102
0002c0 f4 15 3a 3e cc 09 06 40 e1 fc 9d be f5 40 3e be
       0.18172437 2.094348 -0.30856994 -0.18579467
0002d0 5f 92 a7 3f 05 1d dc bf 73 2d 71 bd 6c c1 0f 3f
       1.3091544 -1.7196356 -0.058881234 0.56154513
0002e0 44 27 9a be 68 04 7d ba 19 3f e4 3d 5d 1b 83 3f
       -0.30108082 -0.00096518407 0.111448474 1.0242726
0002f0 53 28 94 3f 0d a4 05 40 aa 4b 43 3f d6 09 5b 3f
       1.1574806 2.0881379 0.7628733 0.85561883
000300 aa f9 c7 bf 1b a8 96 bd 2f 6a 6b 3f 52 cf 25 bf
       -1.5623066 -0.07356282 0.919589 -0.6476947
000310 46 10 e0 be 29 17 2e 3d 25 87 b6 3f 5b 83 69 40
       -0.43762416 0.042502556 1.4259993 3.6486423
000320 5e c0 ff 3f f3 03 1b 40 e9 51 b3 bf d5 3d e6 be
       1.9980581 2.422116 -1.4009372 -0.4496905
000330 b4 88 cb be 78 c8 44 bf a9 21 67 3f 4c 70 06 3f
       -0.39752734 -0.7686839 0.90285736 0.525151
000340 a2 e7 b1 bc 5f 04 0c bf 9a 17 f9 3f 8e b4 1c 3f
       -0.021716896 -0.5469417 1.9460328 0.61213005
000350 1f 6e 95 bb 96 37 22 be 6b 92 98 be c1 cc 9b 3e
       -0.0045602466 -0.15841517 -0.29799208 0.30429652
000360 6a 63 a5 be 03 91 d5 3e e9 d5 bc 3d 78 c1 0f 3e
       -0.3230241 0.41712198 0.092204876 0.14038646
000370 00 ec 14 bf 63 d2 be 3e 6c c2 a7 3f c2 f3 d0 3c
       -0.5817261 0.37269887 1.3106208 0.025506858
000380 10 d4 3b bf c5 f5 00 c0 a9 2b 1b bf 9e 57 c8 bd
       -0.73370457 -2.0150006 -0.60613495 -0.09782337
000390 2e 39 6e 3f 61 56 c3 bd 5e 29 2c 3e 58 b1 4e bf
       0.93056 -0.0953796 0.16812655 -0.80739355
0003a0 73 a7 8f 40 92 b5 a0 3f 1d c8 58 be 1b 23 a3 3f
       4.4891906 1.2555411 -0.21170087 1.2745088
0003b0 c0 a9 9e bf 74 b1 a7 bd 7b b2 0e 3f 67 63 f5 3e
       -1.2395554 -0.081881434 0.5574109 0.479274
0003c0 c0 b5 76 3e c6 3d a6 be 85 dd 53 3f 71 44 48 c0
       0.2409277 -0.32469004 0.82759887 -3.1291773
0003d0 43 1f 33 40 c8 2a 95 be 36 41 ac 3f 7c e1 d2 3d
       2.798783 -0.29134202 1.3457401 0.10296914
0003e0 8b 2c ae 3e c0 d5 94 bf 0d 41 70 3f a9 78 f4 3e
       0.3401836 -1.1627731 0.9384926 0.47748306
0003f0 ba 7e b8 bd db 5a 52 be 7e 4a 27 c0 15 f9 e1 be
       -0.09008546 -0.20542471 -2.6139216 -0.44135347

fc1.bias f4 [400]
000000 05 f3 81 bf b2 f7 ab bf d9 74 4c be 2e 8c 3f bf
       -1.0152289 -1.3434966 -0.19966449 -0.7482327
000010 e0 97 88 bf 0f b7 b3 be b0 66 96 bf 16 35 be bf
       -1.0671349 -0.351006 -1.1750088 -1.485995
000020 85 fe c1 3e d4 78 53 bf 25 0c 69 bf 69 9f 72 bf
       0.37889495 -0.82606244 -0.91034156 -0.9477449
000030 cc 38 be bf 91 93 fc be 4e 0a 99 bf 87 48 26 bd
       -1.4861083 -0.49331334 -1.195627 -0.04059651
000040 6e 4b ed 3e eb 0e e8 3e bf 7c dc 3e 11 48 93 bf
       0.4634661 0.45323882 0.43063924 -1.1506368
000050 91 4e 39 bf b3 76 15 bf 7c 29 e1 be 46 b8 e9 bf
       -0.7238551 -0.58384246 -0.43976963 -1.8259361
000060 e4 a5 e7 3e d9 77 2f bf 86 e5 28 bf 8d 3d 2d bf
       0.45243752 -0.6854225 -0.65975225 -0.67672044
000070 b6 7a d7 bf 16 b4 07 3f b2 d1 b0 3f 7d b3 1a bc
       -1.6834323 0.53009164 1.3813994 -0.009442207
000080 5c 5a 62 3e f5 c6 ee be 92 32 b7 bd e4 7d 7e bf
       0.22104782 -0.46636167 -0.089451924 -0.99410844
000090 ce 54 93 be d4 e6 a2 bf 49 6b 5b bf 4c e2 49 b9
       -0.28775638 -1.2726693 -0.8571058 -0.00019253156
0000a0 8b dc 9c be b0 01 03 bf 4f f5 97 bf 52 b4 2f be
       -0.3063701 -0.5117445 -1.1871737 -0.1715863
0000b0 e7 fe 1d bf b7 be 98 3d 04 1c 8b bf 6b 51 4e bf
       -0.61717075 0.07458251 -1.0867925 -0.80592984
0000c0 5d a7 47 bf 41 73 c9 be 96 5f 4b 3f 30 45 ac bf
       -0.7798975 -0.39345744 0.7944273 -1.3458614
0000d0 5c 8c 46 bf 1e f1 2d bf d3 e8 17 bf 6a ac 0e be
       -0.7755792 -0.6794604 -0.59339637 -0.13932958
0000e0 32 c0 35 bf 50 84 b4 3e 18 05 97 3e 2c 08 07 bf
       -0.7099639 0.35257196 0.29496074 -0.52746844
0000f0 6b 72 07 be dd 7c 41 bf e0 37 19 be e3 d8 aa be
       -0.1322724 -0.7558115 -0.14962721 -0.33368596
000100 4b 90 87 bf 6e e4 6a bf 90 ca 12 bf 73 0c 31 be
       -1.059091 -0.91754806 -0.57340336 -0.17289905
000110 01 ba 01 bf e4 cd 4e 3f 2f 1b 25 bf e8 e5 a9 be
       -0.50674444 0.80782914 -0.64494604 -0.33183217
000120 06 15 f4 be e4 eb 1e bf 9c 9e 33 bf 12 0d 2c bf
       -0.4767229 -0.6207869 -0.70163894 -0.67207444
000130 fa 99 35 bf 04 47 0d bf dd d5 14 bf b6 3c 0e 3f
       -0.70938075 -0.55186486 -0.5813883 0.5556139
000140 2f 7b d6 be 11 03 af bf 79 66 10 bf e0 03 52 bf
       -0.41890857 -1.3672811 -0.5640636 -0.8203716
000150 76 d1 d2 bf 9a 60 24 bf d3 65 88 bf 04 01 fb bd
       -1.6470172 -0.642099 -1.0656074 -0.12256053
000160 2e be c6 be f8 61 61 bf a6 93 85 be 60 75 18 bf
       -0.3881697 -0.88040113 -0.2608921 -0.595541
000170 6e 16 66 bf 95 98 d1 be e3 02 10 3f 7c fb ec bf
       -0.89877975 -0.40936723 0.56254405 -1.8514247
000180 9e d6 a2 bf 1e fe 44 3e 61 59 94 be 72 56 9f bf
       -1.2721746 0.19237563 -0.2897444 -1.2448256
000190 ea 73 6a be 3d 4a 9e bf c5 e1 ed be e3 5f 63 bf
       -0.2289578 -1.2366406 -0.4646131 -0.88818187
0001a0 79 8c 08 be e2 5d 21 bf c7 e5 a7 3d a0 90 25 bf
       -0.13334836 -0.6303388 0.081981234 -0.64673805
0001b0 d3 6a 83 be ed 72 fd 3b 75 6e 7e 3f 89 73 90 3e
       -0.25667438 0.0077346475 0.99387294 0.28213146
0001c0 4a 0a a8 bf 23 9a 86 bf b0 ef 9b 3e 3e 1f f1 3e
       -1.312814 -1.0515789 0.30456305 0.47094148
0001d0 4f 0c 25 bf 17 4f 9b 3e 5b 6f ba 3f fa 12 91 bf
       -0.64471906 0.30333778 1.4565233 -1.1333916
0001e0 f3 fd 88 bf 32 67 a1 bf 17 f1 ae be 7d 4b 0b 3f
       -1.0702499 -1.2609618 -0.34168312 0.5441206
0001f0 53 f9 ca be 6f af 4c 3f f2 0f cc bf 05 38 b9 bd
       -0.39643344 0.7995519 -1.5942366 -0.09043888
000200 e2 7e 87 bf ad 41 98 3f 10 5d 29 bf 4b 54 3b bf
       -1.0585597 1.1895043 -0.6615763 -0.73175496
000210 ba f4 3a bf 46 c1 11 3e 11 e8 9f bf f4 de 38 3f
       -0.73029673 0.14233884 -1.2492696 0.722152
000220 d1 b8 3d bf 31 b8 e4 3b 55 56 5e bf 98 81 65 bf
       -0.7411013 0.006979965 -0.8685048 -0.8965087
000230 1b 38 ff be 3d 78 9c bf cc ff d4 bd ec 59 a9 be
       -0.49847493 -1.2224194 -0.10400352 -0.33076417
000240 00 fd ee be 3d 94 f1 3e 92 75 cf bf f3 5c 26 bc
       -0.466774 0.4718341 -1.6207755 -0.010153997
000250 65 a3 8b bf 09 3e 95 be e5 21 a5 bf fd cc 88 bf
       -1.0909239 -0.29148892 -1.2900969 -1.0687557
000260 16 d8 3a bf 50 5f 7d bf 06 10 06 bf 72 6b e6 bf
       -0.7298597 -0.9897356 -0.523682 -1.800154
000270 e1 6b a3 bf d7 95 5a bf f8 7d 28 bf 41 8b a6 bf
       -1.2767297 -0.8538489 -0.65817213 -1.3011247
000280 8d 7f a2 bf e2 17 87 bf bc ab 15 3f ae cf 97 bf
       -1.2695175 -1.0554163 0.5846517 -1.1860254
000290 28 61 6d bf 30 f4 34 bf 7e 86 23 bf d6 49 54 bf
       -0.92726374 -0.706851 -0.63877094 -0.82925165
0002a0 52 37 2a bf 26 f1 83 bf 74 6d 4c bf 77 b4 0a 3f
       -0.6649066 -1.0307968 -0.7985451 0.5418162
0002b0 1c 86 d7 bd 7a 4c 45 bf eb f4 34 bf 95 2a b4 bf
       -0.10523626 -0.7706982 -0.70686215 -1.4075495
0002c0 d0 a2 92 be 9f 22 cf bf 2b c5 1b bd 7c 5b b0 bf
       -0.2863984 -1.618244 -0.03802983 -1.3777919
0002d0 64 83 3a bf d6 8a aa bf 59 32 7c bf 77 54 86 bf
       -0.72856736 -1.3323619 -0.98514324 -1.0494527
0002e0 68 de c8 be 6e a8 f0 be 1e a9 f0 be ab 6b 7a 3c
       -0.39232183 -0.47003502 -0.47004026 0.015284459
0002f0 97 0d 28 bf 8b 30 c6 bd e7 1d 84 bf 00 0c d2 3e
       -0.65645736 -0.096772276 -1.0321625 0.4102478
000300 7c 7f 95 bf 5b ef 3d bf 03 2d 71 be 5c 63 09 3e
       -1.167953 -0.7419335 -0.23552327 0.13416809
000310 24 d1 31 bf f2 5a 0b bf 24 ea 97 bf 9c 73 4c bf
       -0.6945975 -0.54435647 -1.1868329 -0.79863906
000320 29 53 8d bf 77 e5 e3 3e aa 51 90 3d 0d 43 d1 3e
       -1.1041003 0.44511005 0.07046826 0.40871468
000330 6c 37 7a be b1 1e cb be 76 ef 91 bf 5d ed 2e bf
       -0.24435204 -0.39671853 -1.1401203 -0.6833094
000340 3e 5d c5 3e 88 c4 aa be 0a 36 2a 3f ee 60 4b be
       0.385477 -0.33353066 0.6648871 -0.19861194
000350 32 7e 8d 3f 69 c5 92 bf 15 ed aa bf 3e 43 34 bf
       1.1054137 -1.1466495 -1.3353602 -0.70415103
000360 d3 b2 34 bf dd fe 56 bf a7 56 28 be ef 6f 37 3f
       -0.70585364 -0.8398264 -0.16439305 0.7165517
000370 e1 62 e2 bd 17 44 60 bf 2d d2 65 bf 23 62 6c be
       -0.11054016 -0.87603897 -0.8977383 -0.23084311
000380 d2 20 96 bf be e4 06 bf 6c 80 ab be fb eb d5 be
       -1.1728766 -0.5269278 -0.33496416 -0.417816
000390 1d 57 54 3e b5 64 22 bf f6 ef 67 bf 27 48 5a bf
       0.20736356 -0.63434917 -0.90600526 -0.85266346
0003a0 14 92 b1 bd 5b d7 11 bf 9d 37 9c bf 34 69 91 bf
       -0.0867044 -0.5696923 -1.2204472 -1.136023
0003b0 1c f2 01 bf 65 f9 44 be 3d 57 27 bf cf 3a 29 bf
       -0.50760055 -0.19235761 -0.6536749 -0.6610536
0003c0 c0 17 38 3e a6 0d 17 be 48 f9 0e bf 83 cf 9b 3e
       0.1797781 -0.147513 -0.55849123 0.30431756
0003d0 10 e0 86 3e 4f 1f a5 bf 2c 4e df bf 3e a1 3a bf
       0.2634282 -1.290018 -1.7445731 -0.72902286
0003e0 62 5f 6f bf 4a bd 01 3f 50 62 1a bf 62 28 81 3f
       -0.9350492 0.5067946 -0.6030626 1.0090449
0003f0 e6 52 9d 3e f6 df 03 c0 aa d7 a0 3e c3 8e e1 bf
       0.3072731 -2.0605445 0.3141454 -1.7621692

fc2.weight f4 [300, 400]
000000 94 0c 08 3f 52 2e ba be 4d 99 cf bd 69 6c 4a 3e
       0.5314419 -0.36363465 -0.10136662 0.19767918
000010 22 8a f0 bd f7 3e 41 3f 63 c0 85 3f 3a 07 17 bf
       -0.11745097 0.754867 1.0449337 -0.589954
000020 61 5d 99 bf eb 47 44 3d 08 94 fc 3d f3 1a a8 be
       -1.1981622 0.04792015 0.12332922 -0.3283306
000030 a7 2f 09 bf d6 4c 07 3e 54 1c ea be 07 90 a0 bf
       -0.53588337 0.13212904 -0.45724738 -1.2543954
000040 5d 1f 7d bf bd b1 9e bf a2 8d 24 bf 4a b7 4a 3f
       -0.9887598 -1.2397991 -0.64278615 0.79185927
000050 f1 5e 46 bf 89 67 0c 3f 49 bc c9 be 32 ae 43 bf
       -0.7748862 0.5484548 -0.39401463 -0.76437676
000060 eb 95 a5 be 62 71 82 3f 30 da 09 3f f5 6e 34 bf
       -0.3234094 1.0190852 0.5384855 -0.70481807
000070 34 e9 91 bf 7f 0c 9f bf da 76 85 3f 2c a0 4d 3c
       -1.1399293 -1.2425689 1.0426896 0.012550395
000080 08 81 65 bf ce 9d cc be 97 11 19 3f f0 1a ad be
       -0.8965001 -0.39964145 0.59792465 -0.33809614
000090 e1 63 51 3c 28 55 9b bd 1c aa 95 be 7c e4 66 bf
       0.012780161 -0.07584602 -0.29231346 -0.9019239
0000a0 f4 42 ed bd cf 34 51 3e 66 39 c9 3e 44 4b eb be
       -0.11585036 0.20430301 0.39301604 -0.4595586
0000b0 e1 cc 3f 3e 64 21 e0 3c e8 5e 43 bf ba 23 88 bd
       0.18730499 0.027359672 -0.7631669 -0.06647439
0000c0 df 44 db bc 12 b3 1b be 6e 72 61 bf 6d e0 73 3e
       -0.026766239 -0.15205029 -0.8806523 0.2381608
0000d0 8e 79 ac 3f f7 94 48 bf 10 ee 8b bd fd 29 4e be
       1.3474596 -0.783523 -0.06832516 -0.20133205
0000e0 58 d0 7a 3f b7 bb 8a be 40 d8 09 3f 84 54 07 3f
       0.9797416 -0.2709634 0.53845596 0.52863336
0000f0 3c f7 e7 be 93 55 8b be 82 45 92 bf da 97 1d 3e
       -0.45305812 -0.27213725 -1.1427462 0.15389958
000100 db 89 65 bf 35 49 9e be 05 5a aa bd 24 19 14 bf
       -0.89663476 -0.30915228 -0.08317951 -0.5785086
000110 a6 bd 0a be b5 e4 ac be 75 37 44 3f 85 26 28 3e
       -0.13548908 -0.3376824 0.7664712 0.16420944
000120 b0 04 0e bf 47 c8 cf bd e6 ce 54 3e 27 13 e5 be
       -0.554759 -0.10145622 0.2078205 -0.44741175
000130 09 35 e7 3c 15 cf d2 bd 21 7e 84 bd a3 65 87 bf
       0.028223531 -0.10293404 -0.0646937 -1.0577892
000140 f8 84 2f bf 65 bf 2b be 1b f6 99 bd 4d 10 6c 3d
       -0.6856227 -0.1677223 -0.07517644 0.057632733
000150 8f 1b 13 3f a9 60 21 bf 47 ab a6 bf 72 8e 0f c0
       0.57463926 -0.63038117 -1.302102 -2.2430692
000160 01 b3 1a 3d 1d 63 77 bc 00 5e 0f 3f ff b2 02 3e
       0.037768368 -0.015099314 0.5600281 0.12763594
000170 7e f5 98 bc d1 55 13 3f a0 3a 87 3e 11 40 d8 bf
       -0.018671747 0.5755282 0.26411915 -1.6894552
000180 e2 6b 94 3e a6 47 6a bf d2 9c 22 3f 0d 81 a8 be
       0.28988558 -0.91515577 0.6352054 -0.32910958
000190 2c 57 52 3f ab af ea be 46 c1 9f 3e e3 b0 45 3e
       0.82164264 -0.4583715 0.31202143 0.19305758
0001a0 3b 2f 78 3e e8 98 5a 3f 84 12 9b 3f f3 c1 aa bd
       0.24236767 0.85389566 1.2115026 -0.08337774
0001b0 94 49 b3 be f6 bd 0b be d1 c9 d0 3f a7 e4 28 be
       -0.35017073 -0.13646683 1.631159 -0.16493474
0001c0 71 eb 8b be 75 47 19 3f c1 ae 31 3f 02 11 9f 3f
       -0.27328065 0.5987466 0.6940728 1.2427065
0001d0 b9 26 22 3d 67 63 74 bf 65 df ae 3f fd 84 6f bf
       0.03958771 -0.95464176 1.3661925 -0.935623
0001e0 f4 16 13 bf c0 1c 27 bf dd b1 03 3f 63 95 13 bf
       -0.574569 -0.65278244 0.5144327 -0.5764982
0001f0 e6 69 8c 3d 7f af 72 be 9c 1e 2d bf dc ac dc 3e
       0.06856136 -0.23699759 -0.6762483 0.4310063
000200 86 1d ed 3d 7c ae ac bd b4 82 c2 bd 20 e7 42 3e
       0.11577897 -0.08431718 -0.09497586 0.1903348
000210 fa 7f 8f 3f f7 81 1b 3f 4f 0c 83 3e d6 83 1f 3f
       1.121093 0.60745186 0.25595328 0.6231054
000220 96 0e 3d bf 7c 6d 5d 3e 62 f4 2d be 66 8a 99 bd
       -0.7385038 0.21623796 -0.16987756 -0.074971005
000230 7b 94 1f be fe b8 1c bf 97 03 c4 bf b2 c5 3d 3f
       -0.15583985 -0.61219776 -1.5313596 0.74129784
000240 e4 18 4f 3f 27 3c 32 be 2c f3 40 be f1 d2 27 bb
       0.80897355 -0.17405759 -0.18842763 -0.0025607909
000250 bc 24 a8 3e b5 bc 7c bf 5b 92 c4 be 0e 16 20 3f
       0.32840526 -0.98725444 -0.3839291 0.6253365
000260 ee 96 ad 3d ff 86 43 bd 21 d3 aa be 94 03 eb bf
       0.08476053 -0.047736164 -0.33364204 -1.8360467
000270 e2 57 9a bd a4 59 6e be 4e fc bc be ef e3 b1 be
       -0.075362936 -0.23276383 -0.36911243 -0.34744212
000280 43 9d 83 3e 70 cf c1 3d e2 85 21 3f 82 4f 81 be
       0.2570592 0.09463394 0.63094914 -0.25255972
000290 4c 7c a8 bd 9f 06 29 bf 86 99 e9 bd f4 bf 6a be
       -0.08226833 -0.6602573 -0.114062354 -0.22924787
0002a0 87 7b 29 be 2c 4d 21 bf 8a 4d ab 3d af 87 08 bf
       -0.16551028 -0.6300838 0.08364399 -0.53332037
0002b0 2e b5 b4 3e 56 33 a3 bd 56 78 9c be b7 98 5f be
       0.3529448 -0.07968776 -0.3056056 -0.218356
0002c0 a8 cd f5 bb f6 74 f2 3d 1f dd 19 bf 8e c0 0d be
       -0.007501323 0.11838715 -0.6010303 -0.13842985
0002d0 2d c0 b9 bd 27 3b f0 3e c4 a3 39 bf 07 b0 f0 3e
       -0.09069858 0.4692013 -0.7251551 0.47009298
0002e0 6a b3 11 3f 1d 1a 8f 3e 4c 7d 92 3f 95 a0 e4 be
       0.5691439 0.2794961 1.1444488 -0.44653764
0002f0 85 56 03 bf 83 0c 4c be b2 b0 69 3f c9 67 26 bf
       -0.51303893 -0.19926648 0.9128524 -0.65002114
000300 95 d2 e3 be 95 93 5a 3e f5 ef e4 be d6 5d d7 bd
       -0.444966 0.2134536 -0.44714323 -0.10515945
000310 b0 e5 b6 be 89 24 2e bf 82 ee e0 3e b8 2d 64 3e
       -0.35722113 -0.680245 0.43931967 0.22283065
000320 52 71 c3 3e fd f8 a3 3e 95 8b b4 be 02 39 d5 be
       0.38172394 0.320259 -0.35262743 -0.41645056
000330 9b dd 09 bf cc 86 c2 3d 4c 06 e4 3e ab 8f 9f 3e
       -0.5385377 0.09498367 0.44536054 0.31164297
000340 c8 d5 6b bf 38 97 9a bc 4c 5f ed 3e 09 ca 7d 3f
       -0.9212308 -0.018870935 0.46361768 0.99136406
000350 47 3c 2e 3e 3d de 63 be 59 b8 23 bf 05 c6 b0 3f
       0.17015181 -0.22252746 -0.6395317 1.3810431
000360 70 a4 0c 3e 2c 92 54 bf 51 dd 25 bf cf ce 1e be
       0.13734603 -0.8303554 -0.6479083 -0.15508579
000370 52 ed c3 bd e7 75 bc 3e bc b8 e0 be 60 de 7f 3e
       -0.0956675 0.36808702 -0.4389094 0.24987173
000380 23 73 24 bf d0 7f 0c bf 90 d8 cd bf 0c b2 db 3e
       -0.64238185 -0.54882526 -1.6081715 0.42909276
000390 37 6e 63 3f 2e 59 2b be b7 bd 91 be 98 a5 81 3e
       0.8884005 -0.16733238 -0.28465053 0.2532165
0003a0 42 79 04 3f 44 89 01 3f 61 74 cc 3d 9b 53 5c be
       0.51747525 0.50600076 0.09983135 -0.21516268
0003b0 67 b3 2a be 87 a2 c6 bd 20 14 8c bf e5 44 25 be
       -0.16669999 -0.096989684 -1.0943642 -0.16139562
0003c0 d2 2e 0e 3f 20 11 1e 3f b1 ec 7c bd 4b 1a 51 bf
       0.5554019 0.6174488 -0.061749164 -0.81680745
0003d0 ee 7b af 3f 4b 87 92 be 74 8f 3c be 19 01 8d 3e
       1.3709695 -0.28618845 -0.18414098 0.275399
0003e0 5f 8e 14 bf f9 5b 40 be d0 ec bf bd ec f9 87 3f
       -0.5802974 -0.18785085 -0.0937134 1.0623145
0003f0 ee 09 c1 be 63 41 76 3e 84 a5 0a bf 74 5d 81 be
       -0.37702888 0.2404838 -0.54158807 -0.25266612

fc2.bias f4 [300]
000000 34 1e a1 3f 14 a9 e0 bd d8 88 9c be e0 bf 98 3e
       1.2587342 -0.10969749 -0.30573153 0.2983389
000010 02 0c 70 be 4b ff 0b bf f9 ac 84 bd 85 d1 09 be
       -0.2344208 -0.5468642 -0.064783044 -0.13458832
000020 b0 bb fd 3e 3f bf 34 bf 64 b4 a7 bf f6 ca ab bd
       0.49557257 -0.7060432 -1.3101926 -0.08388321
000030 29 84 08 3e 4d cd 55 be 4b ed f6 be 3d 34 16 3e
       0.13331665 -0.20879097 -0.48227915 0.14668365
000040 a5 a0 4e bd c2 e6 9e 3e 26 c7 5e be 5c fa 05 be
       -0.05044617 0.3103543 -0.21755657 -0.13083786
000050 37 20 1a 3f 14 55 51 3e a8 02 39 be b2 bc 84 bf
       0.60205406 0.20442611 -0.1806742 -1.0370085
000060 cd 57 0c 3f e3 4b 2e bf e7 7e 51 bf 07 2b 7e 3b
       0.54821473 -0.68084544 -0.8183426 0.003878297
000070 2e 4a a8 be 7f 97 3e be 37 1b 0b bf af c5 dc be
       -0.32869095 -0.18612479 -0.543384 -0.4311957
000080 79 07 b5 3d ae d9 1b bf e2 0e 03 bd c2 04 e5 be
       0.08839316 -0.6087903 -0.031996615 -0.44730192
000090 e8 84 aa bd fe 8d 8b bd db 0b 24 bf 3c 14 7e be
       -0.08326131 -0.06814192 -0.6408059 -0.24812406
0000a0 3c 32 97 be d8 da e0 be 53 2d 10 bf c8 95 c8 3e
       -0.29530513 -0.43916965 -0.5631916 0.39176774
0000b0 a6 45 24 bf 9c 21 1d bf 83 9d 52 3e 20 7e 81 be
       -0.64168775 -0.6137941 0.20567898 -0.25291538
0000c0 10 02 53 3f a3 b8 f6 3e da 5b 76 bc be 18 c7 be
       0.8242502 0.48187742 -0.015036548 -0.38886064
0000d0 10 9b fe bd be 16 db bd 74 ae 27 3d 90 92 f3 bc
       -0.124319196 -0.10697697 0.040937856 -0.029732972
0000e0 6b 43 1e 3f f2 42 33 be f1 ad 49 3f 59 a7 82 be
       0.6182162 -0.17506006 0.7878104 -0.255183
0000f0 7e 87 ff 3e f5 35 82 bc 6f 7d 89 bd 76 ed 15 3f
       0.4990806 -0.01589487 -0.06713378 0.5856546
000100 21 c7 df bf 6a 11 ca bf b2 e6 1f 3f af 27 8e be
       -1.7482644 -1.5786564 0.6246139 -0.2776465
000110 84 7c 98 be 49 af ad be 42 82 93 3d 9a 49 ad bf
       -0.29782498 -0.33922794 0.07202579 -1.3538086
000120 26 f2 d2 bf 3d a6 1c 3e fe 3b 9a 3e 91 37 3d 3e
       -1.6480148 0.1529779 0.30123895 0.18478228
000130 6e 39 63 be ca 1b 91 be 27 cf 0f bf 03 c5 21 be
       -0.22189876 -0.28341514 -0.56175464 -0.1579781
000140 56 16 5c bf dc 1c fc bd 76 41 f7 bc 2b c4 d5 bd
       -0.8597158 -0.12310192 -0.030182581 -0.10437807
000150 d7 6a 0d 3f aa 62 08 be 7e 87 93 3e e5 9c 24 be
       0.5524115 -0.13318887 0.2881431 -0.16075476
000160 6f a2 61 3e 2a 98 32 3f c2 53 90 bf 74 8b bd 3e
       0.2203462 0.69763434 -1.1275561 0.37020457
000170 02 4c ad 3e 6b 0a b0 be 2d d3 85 bf ce 43 93 be
       0.33847052 -0.34382948 -1.0455071 -0.28762668
000180 c7 ec 12 be f3 d4 e4 bf 66 14 65 be 1a 19 b3 bf
       -0.14348136 -1.7877487 -0.22371063 -1.3992035
000190 89 f3 cb bd 4f b4 c9 bf 59 b8 25 bd be 0f 90 3f
       -0.0995856 -1.5758151 -0.04045901 1.1254804
0001a0 a2 61 a1 bd 69 c6 27 be a3 01 01 be f3 e3 9c be
       -0.0787995 -0.16384281 -0.1259828 -0.3064266
0001b0 5e 58 77 bf d4 6a 9d bd 18 05 d9 3e 91 86 0c bf
       -0.9661921 -0.076863915 0.423867 -0.5489283
0001c0 38 16 76 bf 23 2d 4e bf 18 c8 3b bf 1d a8 9a be
       -0.96127653 -0.80537623 -0.73352194 -0.30206385
0001d0 0e 15 86 be ad cf 01 be 0d c1 eb 3e eb a6 be be
       -0.26187938 -0.12676878 0.46045724 -0.37236723
0001e0 c5 ea 50 3e e7 0b 22 be 96 88 33 be f8 db d3 bd
       0.20402057 -0.15824853 -0.17532572 -0.1034469
0001f0 94 43 14 bd d8 d6 6f be e8 d9 88 be 1c 2b ca bf
       -0.03619726 -0.234218 -0.2672875 -1.5794406
000200 19 f9 cf bd 42 0b 97 be ed 37 d8 be eb 81 16 bd
       -0.101549335 -0.29500777 -0.42230168 -0.036744993
000210 a6 7b 2b 3f 9a 40 40 bf 86 f0 ac bc 2f 53 7a bf
       0.6698555 -0.75098574 -0.021110784 -0.9778318
000220 52 19 cb bd b3 cb dd 3e cb 30 01 be bc 9c cd be
       -0.09916939 0.43319473 -0.1261627 -0.4015864
000230 e8 94 56 3f 55 c3 7c 3f 3e 23 f3 3e 48 5b cd bd
       0.8382096 0.98735553 0.47487825 -0.10027176
000240 8a 84 82 be 22 59 e6 3d 4a 49 9a 3f 59 04 23 be
       -0.25491744 0.112474695 1.2053616 -0.15919627
000250 f9 29 f1 be 6a 54 db be 2d 7a 7e bf 3d 34 0c bf
       -0.47102335 -0.4283784 -0.99405175 -0.5476721
000260 d2 12 42 3f 8c d4 32 be 79 d0 f1 bc 5b 91 3a 3d
       0.7580997 -0.17463893 -0.029518353 0.045548778
000270 9d 12 00 be b8 e8 18 be e2 d9 03 3f eb 8a fa be
       -0.125071 -0.14932525 0.5150434 -0.4893411
000280 a2 ba 5d 3f a8 0d a6 bd a6 f6 03 bf 25 fc 68 be
       0.86612904 -0.081080735 -0.5154823 -0.22752436
000290 4c 49 83 3f e3 29 1f 3d 21 ab a9 bd 5a ee c4 bc
       1.0256743 0.038858306 -0.082845934 -0.024039436
0002a0 00 1f b8 3f 20 00 11 be b8 c2 c8 be c2 c1 58 be
       1.438446 -0.14160204 -0.3921106 -0.21167663
0002b0 16 e2 89 3c 41 63 e3 be 08 63 4a 3f 2e 4f 4a be
       0.016831439 -0.44411662 0.7905736 -0.19756767
0002c0 6c ff 34 bf bf 8b 3b be ef c2 85 bd e3 ff 82 be
       -0.7070224 -0.18315028 -0.06531321 -0.2558585
0002d0 db 14 88 bf 25 56 e2 bd ef b9 54 bd 74 44 2a bf
       -1.0631365 -0.11051587 -0.051935133 -0.665107
0002e0 e8 cb 01 bf 4a b6 23 3e a1 6a 26 3d 4e c4 37 bd
       -0.5070176 0.15987507 0.040629033 -0.044864945
0002f0 37 54 22 bf bf 77 57 be 14 64 95 be 29 5e 7f be
       -0.6340975 -0.21041773 -0.29177916 -0.24938263
000300 0a 2d 26 be 94 56 32 be e2 2e c6 bc 2b 59 d5 be
       -0.16228119 -0.1741584 -0.024192277 -0.41669592
000310 2c 0c 97 be 37 d7 8c be 99 29 03 3e 0a 65 7d be
       -0.29501474 -0.27507946 0.12808837 -0.24745575
000320 26 b8 84 bd eb 91 f7 3e 06 3b 96 3f 1c 18 cb be
       -0.06480436 0.48353514 1.1736763 -0.39666831
000330 64 4d ba bc 47 34 3f bf ab 5c 0f be 69 5f d0 be
       -0.02274198 -0.74689144 -0.14000194 -0.40697792
000340 3a 35 2a be fc dd 37 be a3 fc 6f bf c1 b8 bd be
       -0.16621867 -0.17955774 -0.9374487 -0.3705502
000350 87 84 ae be 6e ff f0 3e ff 2f 0b be e8 a2 5f bf
       -0.34085485 0.47069877 -0.13592528 -0.8735795
000360 83 87 2c be f7 f6 78 bf 64 95 53 3e 7f 01 80 bd
       -0.16848569 -0.9725184 0.20662457 -0.06250285
000370 85 32 26 bf 48 4f 08 be 2b bc 44 bd b9 a6 8c be
       -0.64920837 -0.13311493 -0.048031013 -0.2747095
000380 d1 08 8f be a7 ca 3a bf 09 a6 25 be 48 c5 85 bf
       -0.27936414 -0.7296547 -0.16176619 -1.045083
000390 48 58 38 bd 0d a9 5a bd 0c 4a 07 bf cd 31 a0 3e
       -0.045006067 -0.053383876 -0.5284736 0.31287995
0003a0 a8 a7 2c 3e d3 52 60 bd d5 6a b8 bd b7 63 19 bf
       0.16860831 -0.054766487 -0.090047516 -0.5991778
0003b0 00 b5 5e bf 32 c4 55 bd d9 f2 9e bd 32 a2 82 be
       -0.86994934 -0.05218906 -0.07761163 -0.2551437
0003c0 22 93 80 3e 35 ff 0a bf 49 e0 d5 be e0 7b 09 bf
       0.25112253 -0.54295665 -0.41772678 -0.53704643
0003d0 d8 02 7c bf 9c 15 0c 3f 26 cf cd be ab 8f a4 3f
       -0.9844184 0.54720473 -0.40197104 1.2856344
0003e0 f6 f0 13 bf c5 32 1d 3c 65 6f dd bc 7d bd f2 be
       -0.5778955 0.009594624 -0.027030656 -0.47410193
0003f0 f3 0f 60 bd b3 1e e7 bf 7f e8 f4 bd ff 22 82 be
       -0.05470271 -1.8056244 -0.119584076 -0.25417325

fc3.weight f4 [3, 300]
000000 15 66 0b 3e 6f 87 53 be a3 77 93 3e a8 56 fc 3c
       0.1361316 -0.20657133 0.28802213 0.03080304
000010 cd 0f 77 3d 0f c2 e7 3e 09 99 ba 3c 37 d4 3b 3d
       0.060317803 0.45265242 0.022778051 0.04585668
000020 a7 db 83 3f 30 8f 28 3e b4 58 80 3d b1 e5 4f 3b
       1.0301408 0.16460872 0.06266919 0.00317226
000030 bc 9d d0 bc 5c b8 fe 3e 68 3e 86 3e ad 96 b8 3f
       -0.025465839 0.4975003 0.26219487 1.4420983
000040 f9 e6 1d bd 2c f6 13 be 06 d7 87 3e 31 6a c6 bc
       -0.03855035 -0.14449376 0.26531237 -0.024220558
000050 82 54 d2 3f 34 47 2e 3f 7d 40 3e bd b1 4a 50 3e
       1.643204 0.680774 -0.04644822 0.20340993
000060 bb fc b8 bb 76 0b 54 be 9d e0 ba bd 2e 9b 58 3c
       -0.005645362 -0.20707497 -0.09124873 0.0132205915
000070 79 d9 41 3e 12 84 28 bc 94 0b 87 be 9b 15 a8 be
       0.18930615 -0.010285394 -0.2637602 -0.32828984
000080 99 f5 04 be c0 e6 eb 3e 8d 6b 4d 3b 63 b7 38 bd
       -0.12984313 0.46074486 0.0031344623 -0.045096766
000090 b8 87 6a bc 35 77 62 be 7b 3b 96 3f f0 bb eb bd
       -0.014314584 -0.22115786 1.1736902 -0.115104556
0000a0 75 55 2d bc 85 1a c6 3d 12 89 fc be e1 17 31 40
       -0.010579457 0.09673027 -0.49323326 2.7670825
0000b0 70 87 8e 3c 49 70 5f 3e 68 8d 3c be 5b 56 60 bc
       0.017398566 0.21820177 -0.18413317 -0.013692464
0000c0 f6 bf 85 bd 90 4f 10 bb 39 8c 61 3d 16 9d 88 3e
       -0.06530754 -0.002202008 0.055065367 0.26682347
0000d0 53 9e 82 bd ac f2 57 3d 97 f2 16 3f 68 e7 c1 bd
       -0.06377854 0.052721664 0.5896391 -0.09467965
0000e0 30 b6 db bd dc 63 7b 3d 66 c2 07 c0 ea 0c 9f bd
       -0.10728109 0.06137453 -2.1212401 -0.07766135
0000f0 d3 94 eb bf a8 e5 27 be 1e 91 c7 be 95 80 eb bd
       -1.8404793 -0.163962 -0.38977903 -0.114991345
000100 fc 79 70 3d fc d2 2f 3f e5 5b f5 3c e4 31 38 bf
       0.058710083 0.6868131 0.029951045 -0.7195113
000110 34 be 64 bf 39 26 0b 3f cf 18 99 3f 6a a6 82 3c
       -0.89352727 0.543552 1.1960696 0.015948493
000120 5b 69 10 3e d9 04 a3 ba 74 76 fa 3c c7 cc fd 3d
       0.1410269 -0.0012437358 0.030574061 0.12392574
000130 be aa f9 3d 93 0d 29 be fd 7e b1 be ba df 5c be
       0.121907696 -0.16509084 -0.34667197 -0.2156972
000140 c3 21 d2 3d 1f 23 a6 bd 09 65 e6 3b f7 e3 91 bf
       0.10260346 -0.081121676 0.0070310873 -1.1397694
000150 cb 74 79 be 67 34 dc 3d d3 57 8d be dc 35 6a 3c
       -0.24360959 0.107521825 -0.27606067 0.014295068
000160 58 4a b8 bf cd 6d fe 3e 28 a5 ca bd 9c f2 b3 3e
       -1.4397688 0.49693146 -0.09894782 0.35146034
000170 7d be 0a be 51 06 58 3e 70 d9 73 3d 8e 0e 1d 3f
       -0.13549228 0.2109616 0.059533536 0.61350334
000180 c3 53 34 3e 6a 9a fa 3e b8 c3 82 3e 88 22 8d 3e
       0.17610078 0.48945934 0.25539947 0.27565408
000190 87 5b d5 3d 75 df ae 3e 88 6d 87 bd 21 09 23 be
       0.10417848 0.3415486 -0.06612688 -0.15921451
0001a0 28 ae 31 3e 13 77 aa 3d 17 db 34 3d 03 52 93 3c
       0.17351592 0.08323493 0.044154253 0.017983442
0001b0 8a 87 7f 3f 20 aa 6a 3c 68 72 df be 32 f7 fa 3c
       0.9981619 0.0143227875 -0.43641973 0.03063545
0001c0 4e 3e b4 bd 12 d2 67 3f 32 92 7d 3e bc c3 2d 3d
       -0.08800946 0.90554917 0.247628 0.042422995
0001d0 35 7c 27 3f c0 c3 f2 3b 2d c7 5f be 7c 2d 1f bf
       0.654239 0.007408589 -0.21853323 -0.6217878
0001e0 a7 3f 1a be 4e d1 c2 bf fe ec 8f 3b c7 d6 9a bd
       -0.15063344 -1.5220125 0.0043922653 -0.07560497
0001f0 e1 21 17 3d 2b 1e 0b 3f 73 38 40 bd e2 aa 82 be
       0.036897544 0.5434291 -0.046928834 -0.25520998
000200 03 cb cd 3c 25 45 b1 be 31 da fc 3e fc 70 5d 3f
       0.025121218 -0.34623066 0.49385217 0.86500525
000210 7b cc 76 3f fa 61 d2 bd 4a 4c af bc be 73 af 3d
       0.9640576 -0.10272594 -0.021398682 0.08566998
000220 55 ed 83 3c c3 41 02 3f d1 ad 15 bb 6e 5c b3 3c
       0.01610438 0.50881594 -0.0022839198 0.02189466
000230 bb 86 92 bd 84 bf 4d 3e 36 81 eb 3f ed eb 52 be
       -0.07154604 0.20092589 1.8398807 -0.20597811
000240 a0 6f a2 bc c1 f0 2f 3c 9b e1 c2 be cb d7 88 3b
       -0.019828618 0.010738553 -0.38062748 0.004176115
000250 f2 8f fc be 60 2c 0b bf 78 b4 02 bf 8f c7 f9 3e
       -0.49328572 -0.54364586 -0.51056623 0.48785064
000260 11 0c 24 bf 69 22 28 bb 65 a4 b8 3c e4 d1 46 3d
       -0.6408091 -0.0025655276 0.022539327 0.04854001
000270 7c 6e f5 3e db 22 e8 bd cf b7 3e bf 6a f4 dd bf
       0.47935855 -0.11334773 -0.7449922 -1.7340214
000280 61 db 4c be f0 95 8b bd 9b 9b ad 3e bf 7e c7 3e
       -0.20005561 -0.06815708 0.3390778 0.38963887
000290 49 24 8f 3e 9a 3b 64 3e dd 0a c9 3d f5 f4 21 bc
       0.2795737 0.22288361 0.09816525 -0.009885062
0002a0 64 45 17 3d b0 cc 37 bc e2 e4 87 3c 46 c6 04 3e
       0.03693141 -0.011218235 0.016588632 0.1296626
0002b0 26 4e 05 3f fb 41 0f 3f b2 2c 12 be 4d 34 e1 3d
       0.5207237 0.55960053 -0.14274862 0.10996304
0002c0 87 f5 fe bd c0 c0 76 bd f4 c9 2f bd 1c 5a ae be
       -0.124491744 -0.060242414 -0.042917207 -0.34053123
0002d0 4a d2 e6 3e ec e0 bf 3d 34 03 a8 b9 d8 8f 4f be
       0.45082313 0.09369072 -0.00032045844 -0.20269716
0002e0 0c f8 d5 bd a6 d8 ac be 0a 4d 1b 3e 8d c1 36 3e
       -0.10447702 -0.3375904 0.15166107 0.17847271
0002f0 91 26 22 be 12 3e 07 bf 3d 4d 83 bd 73 65 39 bd
       -0.15835024 -0.52829087 -0.064112164 -0.045262765
000300 40 c2 00 bc 29 ff 59 3d 4d 49 08 bd a1 89 96 3f
       -0.007858813 0.053221855 -0.03327303 1.1760751
000310 ac a5 6a be cc bf 09 3e 1a 0c de bd 99 1c 58 3d
       -0.22914761 0.13452071 -0.10842152 0.052761648
000320 0b 1a 6e bb 02 18 0a be 86 ac c3 3e f5 4d c1 be
       -0.003633144 -0.13485721 0.38217562 -0.3775479
000330 76 b5 cf 3c 9e f6 92 3e 71 c5 8b bb 95 b5 ca 3d
       0.025355082 0.2870378 -0.00426548 0.09897915
000340 e1 95 6e 3d 17 eb 12 3d a8 69 c0 3e fe 13 99 3e
       0.058248404 0.03586873 0.3758061 0.29898065
000350 32 6c 87 3e 9c 95 04 bd 45 c7 b9 3c 04 ab a4 3e
       0.26449734 -0.03236924 0.022678027 0.32161725
000360 e1 c7 14 3c 6d d4 81 3e ea 51 01 3d a8 16 3a 3b
       0.009080858 0.2535738 0.03157226 0.0028394852
000370 45 29 72 bf 9c 6a 37 3e e0 74 2d 3d 08 42 6c 3d
       -0.9459422 0.17911762 0.04234779 0.05768016
000380 3a 5d 44 3e 74 6b c0 3e 31 12 0a 3c 6f b4 26 be
       0.19176188 0.3758198 0.008427189 -0.16279767
000390 02 be b4 3f d1 ee ff 3a 96 d5 44 3c bf 04 81 bd
       1.4120486 0.0019526129 0.0120138135 -0.06299733
0003a0 81 e5 0c 3e 19 3a 49 3d 7d 1e e2 3c 17 b8 19 3e
       0.13759424 0.049127672 0.027602429 0.15011631
0003b0 64 a0 e0 3d bd 63 bd bc ce 88 d0 b8 d2 c2 49 be
       0.10968092 -0.023118848 -9.943695e-05 -0.19703224
0003c0 4d 5e db be 0a df a5 bd a4 cb 95 bf 76 a1 b0 3f
       -0.42845383 -0.08099182 -1.1702771 1.3799274
0003d0 f1 e9 08 40 ef c2 17 bf b8 08 5a bf a6 85 b1 3e
       2.1392787 -0.5928182 -0.85169554 0.34672278
0003e0 7b e1 72 3e e3 c1 61 3e c1 3b cc bc b1 53 91 3d
       0.23718826 0.22046618 -0.024930837 0.07096041
0003f0 96 24 9b 3d e8 cb 73 3d 7d 1e 0a bc cf 0f b1 3d
       0.075753376 0.059520632 -0.008430121 0.086455934

fc3.bias f4 [3]
000000 50 aa 50 be 29 9b 18 3f a0 f9 f0 3e
       -0.20377469 0.59611756 0.4706545
