DataShared/Hopper-v2/actor_target_td3.pt (torch_old, 505037 bytes, 6 tensors)

fc1.weight f4 [400, 11]
00000000: cb7e 16be 6b6f 7540 dc68 d4be b4ad 0c3f
00000010: aabe b2bf 8eb2 d0bf 02de 31bf 5855 fc3e
00000020: 4186 2fbf bc19 31be f960 0dbf cfaf fdbf
00000030: 8962 8c40 79e5 bebf f194 cc3f 218f 993e
00000040: 90eb bd3e 4b91 3c3f 77ad ac3e 8c9b 6cbf
00000050: f3a5 0dbf 778d cd3e 49f7 cfbf 70c6 e6be
00000060: 877f 36bf 8534 d83f 06d5 b4bf 50ac 92bf
00000070: c4d5 99bf 4db1 d1be a65b 2d3e b1fb 81be
00000080: 24e9 4abe 6c63 79bf 8765 2a3f 6134 563f
00000090: 6e7d 963f 9867 c5bf c344 f2bf 977a ad3d
000000a0: 95c0 99be 7673 9d3d 5f41 263e 99d7 5c3d
000000b0: d728 abbf bca2 0f3f fdd3 8c3e baa7 583e
000000c0: b9f1 54bf 7075 c1bf d58e 9abe dee4 aa3e
000000d0: 91c0 4ebe 8c7b 2abc 4e41 2cbe fe0e 653f
000000e0: a00e 1bc0 45af 2540 cf6a 4e40 ccb3 453f
000000f0: 4fb1 33bf b240 46bd d464 1fbe 97d4 093e
00000100: 809a c03c 0ffa f8be 24c9 83bf 16b5 9d40
00000110: 9692 2940 9368 e53d 35b7 003f 47a6 33be
00000120: a867 bf3e f689 133f de09 a9be 1421 73be
00000130: 91db 56bd d265 b8bf ceb8 d0be c84b 30bf
00000140: 7ff7 033f c87c 72c0 107b 003f aa9d e23d
00000150: af65 a4be f140 1f3e f86b 86bc 474d 743d
00000160: 3e20 3dbf c329 4540 afd4 b3bf 5f91 e3bf
00000170: 35af 0bbe d258 bdbe 178e 5c3f 31bb d53e
00000180: c78d b9be bf41 edbd df02 bebc 6147 c1be
00000190: 47a5 af3f 179d e53f 2a9e e0bd 5b24 bfbe
000001a0: d438 fabe dabf 0940 0185 c53e e38d 3abe
000001b0: 5352 403d dab4 a83e 5214 15bf cdba 5a3f
000001c0: 6dbe 0c40 d868 563f f10d 09c0 3f0c f0be
000001d0: 6ab8 613f 6cfd 00bf 7fab f63e bdb3 70bd
000001e0: 656a 0bbe 34dd fcbf a8cb de40 9e72 c6bf
000001f0: cce3 a6bf b5d4 2cbd fb6c 8a3f 04d3 c7be
00000200: 0547 4abe 9397 053e d8dc 8d3d a33b 0fbe
00000210: e75a 36bf 25e2 64bf 781d 253d 762f ca3d
00000220: 9826 49c0 ecc5 b1be 6085 bfbe 1b82 0ebd
00000230: 9c48 813d 0990 153e 2a37 00bf ad09 09bf
00000240: f589 93bf 9d05 983e e985 54bf d6b1 a93e
00000250: 120a 62be f109 553e da8c 5dbd f317 f4bb
00000260: f4bf 8a3d d834 423d 96a5 7cbf 0b41 ac40
00000270: 8148 76be 89c3 1240 4d26 eb3f 874e 2f3f
00000280: 687a 803f 95cd e13e 5c87 4abe 0a3c a4be
00000290: d3b2 3b3e f0dc f8be 28b7 3140 542f 9840
000002a0: a095 2340 6e60 123f 46d0 86bf aff5 c23e
000002b0: fa2c f43b 235f e5be 3635 a4bc 8206 c83e
000002c0: 84bd 373e cec0 0640 066b 9ebe 093f 46be
000002d0: c271 a73f 5777 dbbf fa36 8abd 596f 123f
000002e0: fd94 9abe 6d81 593c 3aef d03d 2586 823f
000002f0: f06d 963f e703 0640 dea3 3e3f 108f 5a3f
00000300: 9573 c7bf eac5 a1bd 19e9 6d3f aa01 24bf
00000310: 7c8b e0be bfd2 1c3d 2ae0 b53f c62b 6a40
00000320: 5bac ff3f 27b5 1a40 5cac b4bf 3833 e6be
00000330: 65c4 c8be 81ad 43bf 5905 683f df53 063f
00000340: 6ab8 a1bc 2d04 0cbf 6b18 f93f 0eb4 1c3f
00000350: 8e6d 95bb ff36 22be 3e92 98be 06cc 9b3e
00000360: b762 a5be 1991 d53e d8d5 bc3d fcc1 0f3e
00000370: 4249 13bf 059a bd3e 15c0 a73f 1120 d13c
00000380: a36e 3abf b2d9 00c0 f943 1bbf dd5e c7bd
00000390: 263a 6f3f 4ce0 ccbd 1e89 343e 1e60 4ebf
000003a0: bac8 8f40 5cf5 a03f f684 57be da5a a33f
000003b0: f992 9ebf 199f aebd c127 103f 3d77 f93e
000003c0: 6ed6 6c3e 47cb a3be b67f 543f 841e 49c0
000003d0: eebd 3240 fb0d 91be 4115 ad3f 4550 d53d
000003e0: 8f49 ad3e bf77 94bf e2e7 733f 2b9a ee3e
000003f0: 7f98 b1bd ba08 58be 3cf7 26c0 881a debe
-0.14696805 3.8349254 -0.4148625 0.5495255 -1.3964436 -1.630449 -0.6947938 0.49283862
-0.6856423 -0.17294973 -0.55226094 -1.9819278 4.387028 -1.491378 1.5982953 0.2999201
0.37093782 0.736592 0.33726093 -0.92424846 -0.55331343 0.40146992 -1.624734 -0.4507327
-0.7128834 1.6891028 -1.412751 -1.1458836 -1.2018361 -0.40955582 0.16929492 -0.25387338
-0.19815499 -0.9741733 0.6656117 0.83673674 1.1757028 -1.5422239 -1.8927234 0.08470648
-0.3002974 0.07688038 0.16235875 0.053916547 -1.3371838 0.5610769 0.27505484 0.21157733
-0.8318134 -1.5113964 -0.30187097 0.33377737 -0.20190646 -0.010405432 -0.16821787 0.89476
-2.4227676 2.5888226 3.225269 0.77227473 -0.70192426 -0.048401542 -0.15565807 0.13460003
0.023511171 -0.4862828 -1.0295758 4.928355 2.649572 0.112015866 0.5027955 -0.17543899
0.3738377 0.57632387 -0.3301534 -0.23743087 -0.05245549 -1.4406073 -0.40765995 -0.68865633
0.51549524 -3.788866 0.5018778 0.11065228 -0.32108828 0.15552117 -0.016408905 0.05964401
-0.7387732 3.080674 -1.4049281 -1.7778739 -0.13641055 -0.36981827 0.8615431 0.41744378
-0.3624098 -0.11584806 -0.023194728 -0.3774977 1.3722314 1.7938565 -0.109676674 -0.37332425
-0.4887148 2.1523347 0.38578036 -0.18218188 0.04695351 0.3295048 -0.5823413 0.85441285
2.1991227 0.8375373 -2.141476 -0.46884343 0.8817202 -0.5038669 0.48177716 -0.05876516
-0.13614805 -1.9755006 6.9623604 -1.5503728 -1.3038268 -0.04219504 1.0814508 -0.3902818
-0.19753654 0.13046102 0.06926888 -0.13987593 -0.71232456 -0.8940757 0.040311307 0.09872334
-3.1429806 -0.34721315 -0.37406445 -0.034792047 0.06312677 0.14605726 -0.50084174 -0.5353039
-1.1526476 0.29691783 -0.8301683 0.3314349 -0.22074154 0.20804574 -0.054089405 -0.007449144
0.067748934 0.047413677 -0.98690164 5.38294 -0.24051096 2.2931845 1.8371063 0.684792
1.0037355 0.4410216 -0.19778198 -0.32077056 0.18329935 -0.48606062 2.776804 4.7557774
2.5560074 0.5717839 -1.053231 0.38078067 0.0074516507 -0.44799146 -0.020044904 0.39067465
0.17943388 2.1055179 -0.30941027 -0.19359984 1.3081591 -1.7145795 -0.06748767 0.57201153
-0.30191794 0.013275486 0.10201879 1.0197188 1.17523 2.0939882 0.7446879 0.85374546
-1.5582148 -0.07899077 0.92933804 -0.6406504 -0.43856418 0.03828692 1.4209034 3.6589217
1.9974474 2.4173067 -1.41151 -0.44960952 -0.39212337 -0.7643662 0.9063316 0.5247173
-0.019741256 -0.5469387 1.9460577 0.6121224 -0.004560179 -0.15841292 -0.29799074 0.30429095
-0.32301876 0.41712263 0.09220475 0.14038843 -0.5753366 0.3703157 1.3105494 0.025527986
-0.7282507 -2.013287 -0.60650593 -0.097348906 0.934481 -0.10003719 0.17630431 -0.80615413
4.4932528 1.2574878 -0.21046814 1.2762101 -1.2388602 -0.08526439 0.5631066 0.48723784
0.23128673 -0.31991026 0.8300737 -3.1424875 2.7928424 -0.2833098 1.3522111 0.10415701
0.33845183 -1.1599044 0.952757 0.46601996 -0.086716644 -0.21097079 -2.60884 -0.43379617

fc1.bias f4 [400]
00000000: 5e5e 81bf 69a1 abbf cc7c 5cbe 988b 3fbf
00000010: 9d97 88bf ff87 b4be c566 96bf 9936 bdbf
00000020: f406 c23e 045a 52bf 98ea 6abf 19e3 73bf
00000030: 5a88 bebf 0c93 fcbe 67c3 9bbf 21e0 78bd
00000040: 9e84 ec3e 728f e63e 6306 da3e 8e47 93bf
00000050: 34b8 37bf e783 15bf 88ab dfbe 1655 eabf
00000060: 977c e03e aefe 2fbf 3553 26bf df3c 2dbf
00000070: caf9 d5bf 67d1 093f a3af af3f 8cae 10bd
00000080: ff64 573e 585b e5be bf03 d7bd c442 7ebf
00000090: 1239 96be d316 a3bf c26a 5bbf 577d 8e3c
000000a0: 82db a4be 5069 ffbe 3fff 99bf c4cb 2dbe
000000b0: d322 1fbf bd0b 8f3d 2818 89bf d950 4ebf
000000c0: 61a7 47bf cc95 cebe 2b55 493f 4342 abbf
000000d0: cf6c 43bf 8751 2ebf f448 17bf 2c01 0ebe
000000e0: 9915 38bf b6f1 b13e 3465 963e 14fc 06bf
000000f0: 55e7 05be 797c 41bf 3832 18be 3183 a3be
00000100: 8d8f 87bf 67a4 68bf ad85 11bf 55a5 30be
00000110: 9036 00bf ba1e 503f 9107 26bf 300d abbe
00000120: 99c9 f2be 37c7 1ebf f334 35bf 9b01 27bf
00000130: 00cc 35bf d546 0dbf 1135 17bf 3af2 0c3f
00000140: 2cec d9be c702 afbf 0e66 10bf f9b7 51bf
00000150: 238d d3bf 253a 24bf 162c 89bf a1ca e7bd
00000160: 6b42 b8be 1a62 61bf 71be 85be d721 1bbf
00000170: a76e 63bf f03a d4be 69fd 0e3f 5093 ecbf
00000180: b229 a3bf 2d60 5b3e d082 93be d945 9fbf
00000190: 6261 62be 8649 9ebf d61d efbe 7b5f 63bf
000001a0: ffb9 10be e8fb 1fbf 91ce cd3d 81ef 22bf
000001b0: 47bc 8cbe 82b3 493c 12b0 7e3f 11bf 8b3e
000001c0: 9f09 a8bf d166 86bf 3e14 9e3e b99d ee3e
000001d0: ff0b 25bf 1c1b a03e b0b1 bb3f 8092 90bf
000001e0: 21a9 88bf a07f a2bf d1b8 adbe ec8e 063f
000001f0: 60f9 cabe c974 4a3f 2c9a ccbf 8a62 b4bd
00000200: fbd2 88bf 7270 983f af5c 29bf 4b2c 3ebf
00000210: 3323 35bf 6e5f 0f3e 51e2 9fbf 26fa 363f
00000220: 62bc 3dbf 3f72 2e3d c3a5 5bbf 9381 65bf
00000230: 9c37 ffbe 6f41 9ebf 1df0 e7bd 84e8 a3be
00000240: d76b e7be e97e ef3e 4a7a cfbf 0759 26bb
00000250: 4da3 8bbf dc8c 93be 42eb a4bf 6034 89bf
00000260: 7c41 3dbf bb5f 7dbf f50f 06bf 3921 e6bf
00000270: 976b a3bf be11 59bf 2db8 2abf 751f a6bf
00000280: 4367 a3bf 3d17 87bf 8ca5 163f 88f5 95bf
00000290: 6085 6abf 07d9 32bf 6bab 22bf c249 54bf
000002a0: e4cb 2abf 7c51 84bf 416d 4cbf b98b 0b3f
000002b0: 56fc cdbd 414c 45bf 1c44 34bf 502a b4bf
000002c0: 4142 90be 0ca6 cebf fa5b 58bd 505b b0bf
000002d0: 5083 3abf 8d49 a9bf 524e 7ebf 1605 86bf
000002e0: 3545 cabe 4189 f2be dc10 ecbe a36f 7a3c
000002f0: efa6 29bf 549d c7bd 0585 83bf c190 d23e
00000300: be7e 95bf 8b70 3cbf 26d4 6fbe 99c0 f33d
00000310: 4f68 2ebf af32 0abf 3245 98bf 5a7d 4bbf
00000320: 401e 8dbf e659 e53e b405 733d a431 d23e
00000330: 95ba 79be 191e cbbe 315b 91bf e7ec 2ebf
00000340: 4aa0 bd3e 0fc4 aabe 3581 283f e9c3 4cbe
00000350: 75d8 8b3f cf83 93bf 565a abbf be2b 35bf
00000360: 9c74 31bf 323c 56bf 2f56 28be 419f 343f
00000370: 5b62 e2bd 6343 60bf 363f 64bf cb98 6dbe
00000380: 8789 97bf 75e4 06bf fea1 aebe de3d d6be
00000390: c572 4f3e 4f64 22bf 73ef 67bf ac14 5abf
000003a0: e9d5 a9bd 833c 13bf 342b 9abf a668 91bf
000003b0: 5064 03bf 88d7 55be b20c 28bf 4f3a 29bf
000003c0: 7a76 2f3e 2a0c 16be b591 0fbf 1098 9e3e
000003d0: 6b11 8a3e 861f a5bf 207c dfbf 20b7 36bf
000003e0: 37b3 6fbf 2621 fa3e 54c9 18bf 484b 823f
000003f0: ab58 a23e c759 04c0 7598 9e3e 036f e0bf
-1.0106924 -1.3408633 -0.21531981 -0.7482238 -1.0671269 -0.35260007 -1.1750113 -1.4782287
0.3789593 -0.821686 -0.9176421 -0.952684 -1.4885361 -0.49330938 -1.2169007 -0.06076062
0.4619493 0.45031315 0.42582998 -1.1506212 -0.71765447 -0.5840439 -0.43685555 -1.8307216
0.43845055 -0.68747985 -0.64970714 -0.67671007 -1.6716855 0.5383515 1.3725475 -0.03532271
0.2103462 -0.44796252 -0.104987614 -0.99320626 -0.29340416 -1.274134 -0.85709774 0.017393751
-0.3219872 -0.49885035 -1.203102 -0.16972262 -0.6216251 0.06984661 -1.0710497 -0.80592114
-0.77989775 -0.4034866 0.7864558 -1.3379596 -0.76337904 -0.6809315 -0.5909569 -0.13867635
-0.71907955 0.34754723 0.29374087 -0.5272839 -0.13076527 -0.75580555 -0.14862907 -0.3193603
-1.0590683 -0.9087586 -0.568446 -0.17250569 -0.50083256 0.81296885 -0.64855295 -0.334085
-0.47419432 -0.6202273 -0.7078392 -0.65236825 -0.71014404 -0.55186206 -0.5906535 0.5505711
-0.42562997 -1.3672723 -0.56405723 -0.81921345 -1.6527447 -0.6415122 -1.0716579 -0.11317945
-0.35988173 -0.88040316 -0.26121858 -0.6059851 -0.8884072 -0.41451216 0.55855423 -1.8482456
-1.2747099 0.21423407 -0.2881074 -1.2443191 -0.22107461 -1.2366188 -0.4670245 -0.88817567
-0.14133452 -0.62493753 0.10049165 -0.63646704 -0.27487394 0.012310864 0.9948741 0.2729421
-1.3127936 -1.0500127 0.3087482 0.46604708 -0.6447143 0.31270683 1.4663601 -1.1294708
-1.0676614 -1.2695198 -0.33930066 0.5256183 -0.39643383 0.7908445 -1.598455 -0.08807857
-1.0689386 1.1909316 -0.6615705 -0.74286336 -0.70756835 0.14001247 -1.2490941 0.71475446
-0.74115574 0.042589422 -0.8579981 -0.8965084 -0.49847114 -1.2363719 -0.11325095 -0.32013333
-0.45199463 0.46776512 -1.6209195 -0.0025382654 -1.090921 -0.28818405 -1.2884295 -1.0719109
-0.73928046 -0.989742 -0.523681 -1.7978889 -1.2767209 -0.847927 -0.6668728 -1.297835
-1.2765888 -1.0553967 0.58846354 -1.1715555 -0.91609764 -0.6986241 -0.63542813 -0.82925045
-0.6671736 -1.0337367 -0.7985421 0.54510075 -0.10057895 -0.7706948 -0.70416427 -1.4075413
-0.28175548 -1.6144423 -0.05282209 -1.3777866 -0.72856617 -1.3225571 -0.9933826 -1.0470302
-0.39505926 -0.4737034 -0.46106613 0.015285405 -0.66270345 -0.09746805 -1.0274969 0.41126063
-1.1679304 -0.73609227 -0.23420772 0.119019695 -0.6812791 -0.5398359 -1.1896117 -0.79488146
-1.1024857 0.4479515 0.05933161 0.41053498 -0.24387582 -0.396714 -1.1355954 -0.68330234
0.37036353 -0.33352706 0.65822154 -0.19996609 1.0925432 -1.15246 -1.3386943 -0.7076987
-0.69318557 -0.836856 -0.16439126 0.705555 -0.11053916 -0.87602824 -0.8915895 -0.23202817
-1.1838845 -0.5269235 -0.34107965 -0.41844076 0.20258625 -0.6343431 -0.90599746 -0.8518779
-0.08292753 -0.5751421 -1.2044435 -1.1360061 -0.5132494 -0.20883 -0.6564437 -0.66104597
0.17135039 -0.14653078 -0.56081706 0.3097539 0.26966414 -1.2900245 -1.7459755 -0.71373177
-0.93632835 0.48853415 -0.596822 1.0179224 0.31708273 -2.0679796 0.3097569 -1.7533878

fc2.weight f4 [300, 400]
00000000: c2eb 073f 6cea afbe b3bd cbbd f96b 4a3e
00000010: 938a f0bd 8372 413f 45c0 853f ee06 17bf
00000020: 78bc 9cbf b0b4 0e3d 9b94 fc3d 3aa9 a7be
00000030: 43f4 07bf 244d 073e 86c6 f1be 5690 a0bf
00000040: 0c1c 7cbf 6413 9ebf de2e 22bf c0b7 4a3f
00000050: 405f 46bf eb17 0e3f 6b34 cfbe c4dc 41bf
00000060: fba5 a1be 7ef5 7e3f 2b30 073f 0f6f 34bf
00000070: 8de9 91bf f812 9fbf 9ef1 843f 86c7 3c3c
00000080: 2eb4 68bf c700 d0be e42a 183f 461b adbe
00000090: b6c2 073c c3eb 9abd b6a9 95be 9884 66bf
000000a0: d0a5 e0bd 6d8f 363e 3784 ca3e 01c7 e8be
000000b0: 4f68 3f3e e9ec d73c 485f 43bf 3523 88bd
000000c0: 7a44 dbbc 5919 28be 813d 63bf 6c47 703e
000000d0: 37d3 ac3f e194 48bf 4cee 8bbd 902a 4ebe
000000e0: f740 7b3f 1e5f 94be 2793 0b3f 64e3 073f
000000f0: 43f7 e7be 2d55 8bbe 264b 92bf 9566 113e
00000100: 6389 65bf 093d 9cbe ff69 aabd 2fe0 12bf
00000110: 745d 0abe 2369 a9be e75f 453f 278f 1e3e
00000120: 988d 0ebf 6189 f4bd 8678 463e e774 e4be
00000130: bb34 e73c a1cf d2bd 8979 85bd 5d8c 85bf
00000140: 1682 2ebf 9ebf 2bbe 7df6 99bd 3079 0a3d
00000150: 95bf 133f c98b 23bf 8ba3 a5bf d891 10c0
00000160: 7fce 0a3d ec62 77bc c45e 0f3f 7aba ef3d
00000170: 9662 ebbc 710a 133f b529 883e 26ce d7bf
00000180: 8da8 a33e 1547 6bbf adb8 1f3f 5f80 a8be
00000190: 3050 503f 5baf eabe 2521 a13e 41b0 453e
000001a0: b95c 753e 5857 583f edd4 9a3f 9dca b8bd
000001b0: aa48 b3be 3c9a 17be 4fd4 d03f 7649 29be
000001c0: 2deb 8bbe 2423 1b3f f02b 363f 0bae 9e3f
000001d0: 9726 223d e018 77bf 6482 b03f 2169 70bf
000001e0: 5bc7 15bf cc92 26bf b5b1 033f f599 15bf
000001f0: 846a 8c3d b435 6fbe 1963 30bf 7aff e03e
00000200: 3bbb e53d 2333 cbbd 3182 c2bd aee2 4b3e
00000210: 6879 8c3f 1f38 183f e461 703e 55ac 1f3f
00000220: 180e 3dbf 996d 5d3e d8f5 2dbe ad8a 99bd
00000230: c594 1fbe a330 17bf adb0 c5bf b5ee 3c3f
00000240: 4e5f 4b3f be1c 28be 86d5 3fbe 984f 223c
00000250: f624 a83e 4109 81bf 5192 c4be 7616 203f
00000260: 7e97 ad3d 5986 43bd aed3 aabe c020 ebbf
00000270: 5e57 9abd 2f3a 76be e7fc bcbe 47e4 b1be
00000280: 1f23 833e 10d0 c13d 6e86 213f 1cea 7bbe
00000290: 816a a9bd 4323 2abf 9f8c e6bd 8ac0 6abe
000002a0: f2b7 26be e564 21bf 564e ab3d 22db 06bf
000002b0: d683 b73e 5733 a3bd e3de 99be 4a98 5fbe
000002c0: 92ab 38bc bfac e93d 76d7 19bf b4c0 0dbe
000002d0: c7c0 b9bd 070b ee3e 36db 39bf 14b0 f03e
000002e0: e725 103f bf5d 8e3e c460 913f dc0a e3be
000002f0: 7625 03bf 9b49 53be 72b1 693f 9108 28bf
00000300: 1ad3 e3be 2293 5a3e 42f0 e4be eeed c9bd
00000310: 1267 abbe 5646 2cbf 42ef e03e 6b50 603e
00000320: 9801 c53e 40b7 a53e f78b b4be d238 d5be
00000330: 65dd 09bf e086 c23d 1358 e43e 1590 9f3e
00000340: bfd4 6bbf a696 9abc fd91 ed3e 6f42 7e3f
00000350: 2aba 2d3e 6eee 63be b136 26bf cf9f ae3f
00000360: f5e6 0c3e d53d 51bf 5edd 25bf 56ce 1ebe
00000370: 78ed c3bd 8776 bc3e cabd e0be 04de 7f3e
00000380: a673 24bf 9d7f 0cbf ab79 cdbf f190 dc3e
00000390: 767f 623f 7f58 2bbe 06bd 91be f399 803e
000003a0: 5a66 043f eb24 013f 4974 cc3d 5954 5cbe
000003b0: 9ca9 2dbe 6702 c4bd 7e0f 8cbf 3f44 25be
000003c0: be93 063f a145 1f3f 2b5f 7ebd 1e5e 50bf
000003d0: f0d0 af3f 9686 92be 8358 3cbe 0706 8f3e
000003e0: a647 15bf 5043 43be 78ec bfbd f3ff 873f
000003f0: 59c3 c2be a264 823e f351 0dbf 02a2 7cbe
0.5309411 -0.34358537 -0.09948292 0.19767751 -0.11745181 0.75565356 1.0449301 -0.5899495
-1.2245016 0.034840286 0.12333032 -0.32746297 -0.5310709 0.1321302 -0.47221774 -1.2544048
-0.98480296 -1.2349668 -0.63352764 0.7918663 -0.7748909 0.55505246 -0.4046968 -0.75727487
-0.31571946 0.9959334 0.52807873 -0.7048196 -1.1399399 -1.2427664 1.0386236 0.0115221795
-0.9089993 -0.40625593 0.59440446 -0.3380987 0.008286169 -0.07564499 -0.29231042 -0.9004607
-0.10969126 0.1782815 0.39553997 -0.45464328 0.18692134 0.026358085 -0.7631726 -0.0664734
-0.02676605 -0.1641592 -0.8876572 0.23464745 1.3501958 -0.7835217 -0.06832561 -0.20133424
0.98146003 -0.2897882 0.5452141 0.53081346 -0.45305833 -0.2721342 -1.1429183 0.14199288
-0.8966276 -0.30515316 -0.083209984 -0.57373327 -0.13512212 -0.33088025 0.7709946 0.15484296
-0.55684805 -0.119402654 0.19381914 -0.4462044 0.028223386 -0.10293508 -0.065173216 -1.043346
-0.68167245 -0.16772315 -0.07517717 0.03380698 0.57714206 -0.6388517 -1.2940534 -2.2589016
0.033888336 -0.015099268 0.56003976 0.117054895 -0.028733533 0.5743781 0.2659432 -1.6859787
0.31964532 -0.9190534 0.6239117 -0.3291044 0.81372356 -0.4583691 0.314706 0.19305517
0.23961152 0.84508276 1.209623 -0.090230204 -0.35016376 -0.1480493 1.6314791 -0.1653193
-0.27327862 0.60600495 0.71160793 1.2396864 0.039587583 -0.9652233 1.3789792 -0.93910414
-0.5850732 -0.65067744 0.51443034 -0.58438045 0.06856254 -0.2336033 -0.6890121 0.43944913
0.11217352 -0.09921863 -0.09497488 0.1991069 1.097455 0.59460634 0.23474842 0.6237233
-0.7384963 0.2162384 -0.16988313 -0.074971534 -0.15584095 -0.5905859 -1.5444542 0.7380174
0.794423 -0.16417214 -0.18733796 0.009906672 0.328407 -1.0080949 -0.3839288 0.6253427
0.084761605 -0.047735546 -0.33364624 -1.836937 -0.07536195 -0.24045633 -0.369117 -0.34744474
0.25612733 0.09463513 0.6309575 -0.24601024 -0.08272267 -0.66460055 -0.1125729 -0.2292501
-0.16281107 -0.6304458 0.08364551 -0.5267812 0.3584277 -0.07968777 -0.30052862 -0.21835437
-0.011271374 0.11409902 -0.6009439 -0.13843042 -0.090699725 0.46492788 -0.72600114 0.47009337
0.56307834 0.27805898 1.1357656 -0.44344223 -0.51229036 -0.20633547 0.91286385 -0.6563807
-0.44496995 0.21345189 -0.44714552 -0.098598346 -0.33477074 -0.67294824 0.4393254 0.21905677
0.38477778 0.3236637 -0.35263035 -0.41644913 -0.53853446 0.094983816 0.44598445 0.31164613
-0.921215 -0.018870663 0.46400443 0.9932012 0.16965547 -0.22258922 -0.649272 1.364252
0.13759978 -0.81734973 -0.64790905 -0.15508398 -0.09566778 0.3680918 -0.43894798 0.24987036
-0.64238966 -0.5488222 -1.6052755 0.43079332 0.8847574 -0.16732977 -0.28464526 0.25117454
0.51718676 0.5044696 0.09983117 -0.21516551 -0.16959232 -0.09570771 -1.0942228 -0.16139315
0.52569187 0.6221562 -0.062102478 -0.8139361 1.3735638 -0.28618306 -0.1839314 0.27934286
-0.5831245 -0.19068646 -0.09371275 1.0624985 -0.38039663 0.25467402 -0.5520317 -0.24671176

fc2.bias f4 [300]
00000000: 4354 a03f 947a dfbd 4e88 9cbe 3a56 953e
00000010: 040c 70be 0e86 0cbf 7dac 84bd e5d0 09be
00000020: 1e3b fa3e b85b 36bf 6b12 a8bf 8fca abbd
00000030: 4d36 063e 09ce 55be 2d65 f3be a0f9 fa3d
00000040: 89a0 4ebd 6aef 983e 6d12 5bbe 15fa 05be
00000050: b1ff 163f 3e68 543e 2802 39be 17cc 84bf
00000060: e8d6 073f 2ce9 2bbf defe 4ebf 10cf 743b
00000070: 3ed8 a8be 1097 3ebe 951a 0bbf 14ae d9be
00000080: 5826 a93d 4ed9 1bbf 6d0e 03bd 985e e5be
00000090: c784 aabd 94d1 9fbd 6600 24bf 3414 7ebe
000000a0: e631 97be af3e e4be 391d 12bf 4aa4 cb3e
000000b0: 8f45 24bf d43c 1bbf 8470 453e a57d 81be
000000c0: 204f 513f 4cf8 fd3e a45b 76bc 7283 c2be
000000d0: 949a febd 6216 dbbd a9e4 593d 5c92 f3bc
000000e0: df03 1d3f 4842 33be 6fb4 4f3f 4da7 82be
000000f0: 59f1 ff3e 703b 80bc 40a5 88bd 95b6 163f
00000100: 802d dfbf 2012 cabf 298e 1f3f 15a7 8dbe
00000110: 5e7c 98be efae adbe 14ef 923d 2053 adbf
00000120: 14b2 d3bf a38c 1a3e 327a 973e ccea 3b3e
00000130: 3339 63be ae79 98be 898c 12bf bcd9 1cbe
00000140: 031b 59bf 4c1c fcbd 5441 f7bc 8572 dcbd
00000150: 9160 0c3f 7d62 08be b451 963e 479c 24be
00000160: 7f9b 533e 15cf 303f a539 90bf 0971 bf3e
00000170: c659 ac3e 100a b0be a495 84bf a643 93be
00000180: 26ec 12be 8c0e e5bf 2f8f 61be 4d45 b0bf
00000190: 61f3 cbbd 90fe ccbf dfb7 25bd 2df4 8f3f
000001a0: ef60 a1bd a79b 2ebe 6d01 01be bac2 9cbe
000001b0: 6e71 79bf 166a 9dbd 4261 d43e 1c9e 0ebf
000001c0: d999 77bf 6571 4cbf 24f0 36bf ef49 9cbe
000001d0: a514 86be adcf 01be 1529 e43e 77a7 bebe
000001e0: 2488 473e f471 32be 9888 33be 9adb d3bd
000001f0: 1e43 14bd e3d6 6fbe 04da 88be bba7 c9bf
00000200: 11f9 cfbd d60a 97be 3e08 d3be 44b1 2ebd
00000210: ca00 2f3f 253f 42bf 4ff0 acbc 115f 79bf
00000220: a118 cbbd 995c e43e 4026 16be 619c cdbe
00000230: 93b3 563f e5e2 7f3f 4648 ee3e 1a80 c9bd
00000240: 2584 82be b06c c73d d51e 983f af03 23be
00000250: 861b f4be 3752 dcbe 93ff 7bbf d533 0cbf
00000260: c04c 433f 20d4 32be 5cd0 f1bc 1095 2a3d
00000270: 4eb4 ffbd 2ee8 18be 76f3 053f 9ecb f6be
00000280: 0166 5c3f 070d a6bd 75f6 03bf e0ac 5dbe
00000290: 214b 813f 1940 243d cfaa a9bd b9ed c4bc
000002a0: 9721 b93f f6ff 10be 384b cbbe 82c1 58be
000002b0: fb2d 493c b38e e0be e045 493f b000 44be
000002c0: 9119 35bf 608b 3bbe 9dc2 85bd 4448 7dbe
000002d0: 9727 87bf db55 e2bd 7ab9 54bd b45f 2cbf
000002e0: b60e 01bf 2cee 173e 6959 2c3d e28d 68bd
000002f0: 2a57 22bf 0a77 57be 6663 95be e45d 7fbe
00000300: 0f2d 26be 5856 32be d12e c6bc 6020 d4be
00000310: 864d 93be 1dd7 8cbe ce73 ea3d 6c64 7dbe
00000320: 6db7 84bd 5478 f93e 1529 973f 0082 cfbe
00000330: 684d babc 23bb 3ebf 345d 0fbe 6a5f d0be
00000340: 1735 2abe f8dd 37be 39f6 6ebf 51a1 b8be
00000350: 3784 aebe 51fd f13e ad2f 0bbe 72a2 5fbf
00000360: d786 2cbe d4f6 78bf e426 583e fb00 80bd
00000370: eeb3 24bf 84d0 f1bd b9bb 44bd ada6 8cbe
00000380: d508 8fbe 68ca 3abf e7a5 25be a0cc 85bf
00000390: 9a94 16bd 02a9 5abd b436 06bf 5432 9c3e
000003a0: 6ea8 2c3e 3b52 60bd 986a b8bd dc95 15bf
000003b0: b557 5dbf e2c3 55bd 46f2 9ebd 977b 85be
000003c0: 1bad 833e da69 0fbf c9e0 d5be bd7b 09bf
000003d0: 8402 7cbf c071 0a3f 0402 ccbe 76fb a53f
000003e0: bc75 13bf 6533 1d3c 2a6f ddbc 8be7 e6be
000003f0: d30f 60bd d5ac e7bf 8ce8 f4bd 7d22 82be
1.2525715 -0.10912052 -0.30572742 0.29167348 -0.23442084 -0.5489205 -0.06478212 -0.13458593
0.48873228 -0.712337 -1.3130621 -0.08388244 0.13106652 -0.20879377 -0.47538128 0.122546434
-0.050446067 0.29870158 -0.21393748 -0.1308368 0.58983904 0.2074289 -0.18067229 -1.0374783
0.53062296 -0.6715267 -0.80857646 0.0037354864 -0.3297748 -0.18612313 -0.54337436 -0.42515624
0.082592666 -0.60878456 -0.03199618 -0.44798732 -0.083261065 -0.07803646 -0.6406311 -0.24812394
-0.29530257 -0.44579074 -0.5707584 0.3977378 -0.6416864 -0.6063969 0.19281203 -0.25291172
0.8176136 0.49603498 -0.015036497 -0.3799091 -0.12431827 -0.106976286 0.053196583 -0.029732876
0.6133403 -0.17505753 0.81134695 -0.25518265 0.4998882 -0.015653342 -0.06672144 0.5887235
-1.743576 -1.5786781 0.62326294 -0.27666536 -0.29782385 -0.33922526 0.07174507 -1.3540993
-1.653872 0.15092711 0.29585415 0.18351287 -0.22189789 -0.29780334 -0.5724569 -0.15317434
-0.8480684 -0.12310085 -0.030182518 -0.1076403 0.5483485 -0.1331882 0.2935921 -0.1607524
0.20664786 0.6906598 -1.1267592 0.37390926 0.33662242 -0.34382677 -1.0358167 -0.2876255
-0.14347896 -1.7895064 -0.22027276 -1.3771149 -0.0995853 -1.6015186 -0.040458556 1.1246392
-0.07879817 -0.17051564 -0.125982 -0.30617315 -0.97438705 -0.0768625 0.41480452 -0.55710006
-0.9671913 -0.79860526 -0.71460176 -0.30525157 -0.26187626 -0.12676878 0.44562593 -0.3723714
0.19485527 -0.17426282 -0.17532575 -0.1034462 -0.03619682 -0.23421817 -0.26728833 -1.5754312
-0.101549275 -0.29500455 -0.41217226 -0.042649522 0.6836058 -0.758776 -0.021110682 -0.97410685
-0.09916807 0.44601896 -0.14663029 -0.4015837 0.8386776 0.9995559 0.46539515 -0.098388866
-0.25491443 0.09737527 1.1884409 -0.15919374 -0.4767725 -0.43031475 -0.9843685 -0.5476659
0.76288986 -0.17463732 -0.029518299 0.041646063 -0.12485562 -0.1493232 0.52324617 -0.48202223
0.86093146 -0.081079535 -0.5154794 -0.21647978 1.0101053 0.04010019 -0.08284532 -0.024039136
1.4463376 -0.14160141 -0.39705825 -0.21167567 0.012279029 -0.4385887 0.78622246 -0.19140887
-0.70742136 -0.18314886 -0.0653126 -0.24734598 -1.0558957 -0.11051532 -0.051934697 -0.6733353
-0.5041307 0.14836949 0.042077456 -0.056775935 -0.6341425 -0.21041504 -0.29177397 -0.2493816
-0.16228126 -0.1741575 -0.024192246 -0.4143095 -0.28770083 -0.27507868 0.11447869 -0.24745339
-0.06480298 0.48724616 1.1809412 -0.4052887 -0.022741988 -0.745043 -0.14000398 -0.40697795
-0.16621815 -0.17955768 -0.93344456 -0.36060575 -0.34085247 0.47263578 -0.13592406 -0.87357247
-0.16848312 -0.9725163 0.21108586 -0.06250187 -0.6433705 -0.11807349 -0.04803059 -0.27470914
-0.27936426 -0.729651 -0.16176568 -1.0453072 -0.03676281 -0.053383835 -0.5242722 0.30507147
0.16861126 -0.05476592 -0.09004706 -0.5843179 -0.86461955 -0.05218876 -0.07761054 -0.26070854
0.25718006 -0.5602089 -0.4177306 -0.53704435 -0.9844134 0.5407982 -0.39845288 1.2967365
-0.57601523 0.009594773 -0.027030546 -0.45098528 -0.05470259 -1.8099619 -0.11958417 -0.25416937

fc3.weight f4 [3, 300]
00000000: bc71 143e 20b7 55be fd77 933e da7a 0c3d
00000010: 540f 773d dfab e83e 6898 ba3c cfd4 3b3d
00000020: 5ea6 813f 3a7c 1e3e 81f4 923d 89e5 4f3b
00000030: 4c0b 92bc 44b8 fe3e 0d2e 8a3e b56d b63f
00000040: 4ee6 1dbd d70b f4bd 1f14 8f3e f86a c6bc
00000050: 5ddb d03f 5058 2d3f 1f41 3ebd a61b 513e
00000060: fee5 3a3b be91 43be a338 8ebd 34a4 e03c
00000070: 4206 473e 7f83 28bc 850b 87be 3858 a6be
00000080: 720a 0cbe 4be6 eb3e f06b 4d3b 0564 84bd
00000090: 8387 6abc f51c 5dbe 4a0b 963f 1abc ebbd
000000a0: 1755 2dbc 3af4 cc3d 9907 f3be 4c88 3040
000000b0: ec87 8e3c e3fb 453e 8f49 3abe ea56 60bc
000000c0: d8ca 90bd 282d 4abb 838b 613d 70b2 843e
000000d0: ed9d 82bd 7af2 573d 229b 173f b9e6 c1bd
000000e0: d667 e6bd b264 7b3d 1b50 08c0 9d0d 9fbd
000000f0: 4b1a ecbf e725 17be 5ee7 c8be 360d c4bd
00000100: df63 8b3d 97d2 2f3f a88c 203d bb13 39bf
00000110: 0abf 64bf 4c26 0b3f f510 993f e597 f23b
00000120: 940d 153e d480 c93b 1d00 c53c 76ec ed3d
00000130: 84aa f93d ad23 28be 1cdd adbe 8263 51be
00000140: 6569 d13d e722 a6bd b265 e63b 1d58 91bf
00000150: b4c2 63be 5234 dc3d 86e8 8abe 7b35 6a3c
00000160: 1360 b5bf df9f f93e 7e28 c9bd f6d0 b33e
00000170: f55f f5bd c906 583e 8f28 803d ad0e 1d3f
00000180: 7f54 343e 4cc3 f93e 9e16 7c3e 2c1d 8d3e
00000190: f95b d53d a73b a63e f46d 87bd 68c1 20be
000001a0: 5fae 313e 1449 c13d e0da 343d d3cc da3c
000001b0: 40c1 7c3f e3a9 6a3c 23d9 d9be 6d6a fb3c
000001c0: 7072 b4bd 1d15 693f 0921 853e 6c00 693d
000001d0: 377c 273f 1bc4 f23b 168a 56be a52d 1fbf
000001e0: 4b66 15be 4b4f c2bf bced 8f3b 7dd7 9abd
000001f0: 7e21 173d b51d 0b3f 0839 40bd 19e0 81be
00000200: 79ca cd3c af45 b1be 07d7 ff3e bd6e 5a3f
00000210: fe14 793f 32bc d7bd fe4c afbc e33d af3d
00000220: 15ed 833c 258e 063f 90f2 783b d75c b33c
00000230: 9632 a6bd 29ef 4f3e 7ac0 eb3f f223 4ebe
00000240: 0670 a2bc d611 003d da66 babe add7 883b
00000250: 0a17 f8be c52b 0bbf 3a47 01bf 33c8 f93e
00000260: d9e9 27bf d721 28bb 68a4 b83c 3d9f 2e3d
00000270: 1e47 f43e 0223 e8bd 73df 3fbf 5e34 dfbf
00000280: c50a 46be 3d95 8bbd 2e9c ad3e 2d01 ce3e
00000290: e816 8c3e da8f 893e a00b c93d 5ef5 21bc
000002a0: 3870 2e3d 00cc 37bc f7be 1f3c 0cc7 043e
000002b0: 1991 063f ef4e 0b3f 87cb 01be ff0e e03d
000002c0: b7b7 02be 33c1 76bd 38c9 2fbd 2f68 b0be
000002d0: 62ae e63e c0e0 bf3d 9702 a8b9 41e7 4ebe
000002e0: 5d1f e0bd 1fca a0be 7437 193e ccdd 3c3e
000002f0: f5a2 17be 853d 07bf ed4c 83bd 2766 39bd
00000300: 25c2 00bc 79ff 593d 7c49 08bd 0289 963f
00000310: 24a8 7bbe b5bf 093e cf45 b5bd a91c 583d
00000320: 9319 6ebb eda1 0cbe 19a4 b93e f0dc c1be
00000330: 19b5 cf3c 9eb5 953e e5c4 8bbb 30b6 ca3d
00000340: 9296 6e3d 96ea 123d 9c61 bd3e 2993 983e
00000350: 9d6b 873e e63a 90bc 08c7 b93c 1eab a43e
00000360: edc7 143c 5dd4 813e 19dd a83c f015 3a3b
00000370: cb60 74bf e1e7 4a3e 1e75 2d3d 7a42 6c3d
00000380: f85d 443e d06b c03e 8412 0a3c 2581 25be
00000390: a7fe b43f 6cee ff3a b858 323c 570c 6dbd
000003a0: 2de5 0c3e b939 493d 631e e23c 07de 213e
000003b0: 0b9d e63d 4063 bdbc 9989 d0b8 f922 46be
000003c0: 945d d7be 9802 94bd 15cc 95bf 9fa1 b03f
000003d0: a5e9 0840 b5b1 17bf 0295 59bf 7e95 bb3e
000003e0: 7ab9 663e 32c2 613e 413b ccbc 9d48 653d
000003f0: d524 9b3d 881f 7b3d 041f 0abc c80f b13d
0.14496511 -0.20870638 0.2880248 0.034296848 0.060317352 0.45443627 0.022777751 0.045857247
1.0128896 0.15477076 0.07175542 0.0031722507 -0.017827652 0.4974996 0.2698826 1.425223
-0.038549714 -0.11916321 0.2794504 -0.024220929 1.6316944 0.6771288 -0.046448823 0.20420703
0.0028518434 -0.19098565 -0.06944396 0.027422048 0.19435981 -0.010285257 -0.26375976 -0.3248918
-0.1367586 0.46074137 0.0031344853 -0.0646439 -0.014314535 -0.21593077 1.1722195 -0.11510487
-0.010579369 0.1000752 -0.47466734 2.758319 0.017398797 0.19334368 -0.18192123 -0.013692597
-0.070699394 -0.003084967 0.05506469 0.25917387 -0.06377778 0.052721478 0.5922109 -0.09467835
-0.11250274 0.061375327 -2.1298892 -0.077662684 -1.8445524 -0.14760552 -0.3923902 -0.09572832
0.06806158 0.6868071 0.03919664 -0.7229573 -0.89354 0.5435531 1.19583 0.007403361
0.14555961 0.0061493907 0.024047906 0.11617367 0.121907264 -0.16419859 -0.33957756 -0.20448115
0.102251805 -0.08112126 0.007031166 -1.1355015 -0.22242242 0.10752167 -0.27130526 0.014294977
-1.4169945 0.48754784 -0.098221764 0.35120362 -0.11981193 0.21096338 0.06257736 0.6135052
0.17610358 0.48781812 0.24618003 0.2756132 0.10417933 0.32467386 -0.06612769 -0.15698779
0.17351674 0.09437767 0.044154048 0.026708996 0.98732376 0.014322731 -0.42548475 0.030690396
-0.0881089 0.9104784 0.26001766 0.056885168 0.6542391 0.0074086315 -0.20951113 -0.62179023
-0.14589803 -1.5180448 0.004392354 -0.075606324 0.036897175 0.54342204 -0.04692939 -0.25366285
0.02512096 -0.34623477 0.4996874 0.85325223 0.97297657 -0.10533942 -0.021399017 0.08556726
0.01610426 0.52560645 0.0037986375 0.021894855 -0.08115117 0.20306076 1.8418114 -0.201309
-0.019828808 0.03126701 -0.36406595 0.004176101 -0.48455077 -0.5436366 -0.5049931 0.48785552
-0.655912 -0.0025654936 0.022539333 0.04263233 0.47710508 -0.11334802 -0.7495033 -1.7437856
-0.19340046 -0.06815574 0.33908218 0.40235272 0.27361226 0.26867563 0.098166704 -0.00988516
0.04258749 -0.011218071 0.009750119 0.12966555 0.5256515 0.5441732 -0.12675296 0.1094036
-0.12765394 -0.060242843 -0.042916507 -0.34454486 0.4505492 0.093690395 -0.00032045387 -0.20205404
-0.10943482 -0.31404206 0.1496256 0.18443984 -0.14808257 -0.52828246 -0.06411157 -0.045263436
-0.007858788 0.053222153 -0.033273205 1.1760561 -0.2457586 0.13452037 -0.088512056 0.052761707
-0.0036331161 -0.13733645 0.3625801 -0.37863874 0.025354909 0.29240125 -0.004265415 0.09898031
0.058249064 0.03586825 0.36988533 0.29799774 0.2644929 -0.01760621 0.022677913 0.32161802
0.009080869 0.25357333 0.02061324 0.0028394423 -0.95460194 0.19815017 0.04234802 0.057680584
0.19176471 0.37582254 0.008427266 -0.16162546 1.4140214 0.0019526011 0.01088541 -0.057873096
0.13759299 0.049127314 0.02760238 0.15807353 0.11260422 -0.023118615 -9.9438425e-05 -0.19349279
-0.42063582 -0.07227057 -1.1702906 1.3799323 2.1392605 -0.59255534 -0.8499299 0.3663749
0.22531691 0.22046736 -0.024930598 0.055977453 0.075753845 0.061309367 -0.008430246 0.08645588

fc3.bias f4 [3]
00000000: a7a2 43be 57dd 163f ca24 f33e
-0.19105016 0.5893149 0.47489005
