BCQ/results/bcq.pt (torch_old, 502224 bytes, 6 tensors)

l1.weight f4 [400, 10]
000000 34 95 29 bf f4 18 fb be 8d 86 45 bf db b8 22 3e
       -0.6624329 -0.49042475 -0.77158433 0.1589083
000010 35 05 90 be f1 82 c3 be 73 55 48 3d 38 c8 97 be
       -0.28128973 -0.38185838 0.048909616 -0.29644942
000020 0d ee ba be 97 0d 52 3d d3 6f fe be c7 54 ed be
       -0.36509743 0.05128249 -0.4969469 -0.46353742
000030 f1 2e 51 bf 98 1e 39 bf 72 80 e2 be 01 2e 0a 3f
       -0.8171225 -0.7231231 -0.4423862 0.53976446
000040 88 4b b0 be bd 86 24 3f d7 fc 4f be dd 2f 8f 3e
       -0.34432626 0.64268094 -0.20311294 0.27966204
000050 55 f8 24 be c1 0e 5b bc 8f 54 3f be b5 b4 4a 3f
       -0.16110356 -0.013370217 -0.186846 0.7918199
000060 85 bf be be 7a 70 38 3f 01 8a b0 3f 39 02 86 3e
       -0.37255493 0.72046626 1.3792115 0.2617357
000070 ca e1 51 3d ac f6 7d bf 69 ea fc be 91 a8 c7 bd
       0.05124072 -0.99204516 -0.4939759 -0.09748948
000080 a3 b7 99 3d 25 92 51 3e 7f de ac bd da 4f f7 bd
       0.07505729 0.20465906 -0.08440875 -0.12075777
000090 76 7d 9f be 41 dd 88 3d f5 15 7d 3c df 63 01 3f
       -0.31150407 0.06682826 0.0154471295 0.50543016
0000a0 f2 5c e1 3d 08 ba 8c bd 16 d8 a6 3f ee 29 95 3e
       0.11004056 -0.0687142 1.3034694 0.29133552
0000b0 d4 85 c5 3d 7b cf e7 be a0 b4 8b bf ce ec 85 bf
       0.09644666 -0.45275483 -1.0914497 -1.0462892
0000c0 79 6d c3 3d 73 25 04 bf 7a 5d e1 be 0b f5 a7 be
       0.095423646 -0.5161964 -0.4401663 -0.3280414
0000d0 19 88 7e 3f 7c 05 e1 bd ec 5a 30 3e 24 bc 4a be
       0.9942642 -0.10987374 0.17222184 -0.19798332
0000e0 6c b1 04 be ad 36 be 3e 13 e0 8e bf 0d 6b fa bd
       -0.12958306 0.3715109 -1.1162132 -0.122274496
0000f0 69 8d 0f bf 14 a0 13 bf 5e 89 e6 3d 02 35 d1 bc
       -0.5607515 -0.57666135 0.112566695 -0.025537971
000100 65 9d 29 be 59 09 1d 3e 07 a2 94 be ad 93 b7 bd
       -0.16563947 0.15335597 -0.29029867 -0.08963714
000110 df f1 0c 3f 02 00 d6 3e c8 fa b9 be d4 16 71 be
       0.55056566 0.4179688 -0.36324143 -0.23543864
000120 d3 5d 87 3f fc 51 10 3f 95 c1 10 3f ac 34 9b 3f
       1.0575508 0.563751 0.5654538 1.2125449
000130 2d 04 3e 3e c1 fc f9 bd 85 d7 67 3f 55 3a 6e bf
       0.1855628 -0.12206412 0.9056323 -0.9305776
000140 7e 4b 88 bd ae 55 02 3f 22 d6 e5 3f 71 75 9f 3c
       -0.06655024 0.50911987 1.7955973 0.01946518
000150 7b 9a 6b 3d 90 d2 2d bf 52 89 37 bf 30 21 94 bf
       0.05752037 -0.6789942 -0.7169391 -1.1572628
000160 a7 5a 5d 3d 83 32 0c be 6f e7 58 3d 63 8c c6 3d
       0.05404153 -0.13691144 0.052955087 0.096947454
000170 e6 56 6a 3f ea b7 89 3d cd 44 87 be aa c3 91 bf
       0.91538846 0.06724532 -0.26419678 -1.1387837
000180 87 27 1d 40 f9 d6 12 3e 6e 8d 4f bf 48 9b 0e 3f
       2.4555376 0.14339818 -0.8107518 0.5570569
000190 79 b9 70 be 62 94 a3 be 63 36 0f bf aa 58 16 be
       -0.23508252 -0.31949145 -0.5594236 -0.1468226
0001a0 88 92 31 3e c6 2c 88 bf 33 b0 32 bf 91 27 cd be
       0.17341053 -1.0638664 -0.6980011 -0.4006925
0001b0 51 5b 56 be f7 c1 91 be 63 ab cc be 8c 28 a9 bd
       -0.20933272 -0.28468296 -0.39974508 -0.08259687
0001c0 51 20 af be a7 53 ad 3f 43 d5 1b 3f 99 b0 3a 3f
       -0.34204343 1.3541154 0.60872287 0.72925717
0001d0 65 5c 4d bf 44 be c1 3d 8a be 34 bf d5 cf be 3e
       -0.8021911 0.094601184 -0.7060324 0.37267938
0001e0 0c 89 05 be d7 36 71 be 2a ee 6e be c0 b9 3b 3f
       -0.1304056 -0.23556076 -0.2333304 0.73330307
0001f0 75 82 19 bf 54 ba 4d 3e 7d 3c a6 bf db e1 c3 be
       -0.59964687 0.2009061 -1.298721 -0.38258252
000200 9d 15 08 be 0f c7 ec be c2 6f 20 bf f8 d2 fb be
       -0.13289495 -0.4624562 -0.6267053 -0.49184394
000210 08 fe eb be c8 52 94 3e 0a a9 c0 3b 59 f9 e7 bd
       -0.46092248 0.28969407 0.005879526 -0.11326856
000220 2f 26 44 3e bf 8a 04 be 75 e0 28 3d d4 4c be 3c
       0.19155191 -0.12943552 0.041229684 0.023229994
000230 40 e9 16 3d 2e 73 7d bd 00 61 02 40 69 27 11 be
       0.03684354 -0.061877422 2.0371704 -0.1417519
000240 ea 96 26 bf eb c9 6d bf b3 6c 7e 3f 3e c0 b9 be
       -0.65074027 -0.9288623 0.9938461 -0.36279482
000250 1c bf 4b be cd f3 38 3f 12 d7 38 bf c5 67 31 bf
       -0.19897121 0.7224701 -0.7220317 -0.69298965
000260 5f 2d 84 bc 35 dd 49 3e 9b 6c 3b bd d7 43 c4 3d
       -0.016134916 0.1971329 -0.04575787 0.09583252
000270 1f 1d cc be 55 84 c6 be 80 0a b0 be f4 3c 61 bf
       -0.39865968 -0.38772836 -0.3438301 -0.8798363
000280 f6 16 04 bf 1b 64 04 bf 58 f4 44 bf 7b 43 8d be
       -0.51597536 -0.5171525 -0.7693534 -0.27590546
000290 bb b6 7c 3e 73 24 fe 3d 16 d5 ab bf a8 9e 6e 3e
       0.24679081 0.12409296 -1.3424404 0.2330271
0002a0 85 15 04 bf 95 8f 90 bd 1f 16 fb bb 7a 59 d4 be
       -0.51595336 -0.07058636 -0.007662549 -0.41474515
0002b0 8d 12 54 3f c6 47 78 3f 50 97 18 3e 3e 6b e3 3e
       0.82840806 0.9698452 0.14901471 0.44417757
0002c0 37 5d 2d bf 51 f7 de be 7e 7c 79 3f 09 71 2f bf
       -0.6772036 -0.43548062 0.97455585 -0.6853185
0002d0 ae ff 17 be 32 8b 7e be 13 12 66 3f 01 d5 2a be
       -0.14843628 -0.24857786 0.8987133 -0.16682817
0002e0 fa 9d 83 bd 3f 63 76 3f d9 fd 2a 3f 1a 75 0f 3f
       -0.06426616 0.9624519 0.6679359 0.5603806
0002f0 93 47 68 bf 22 b9 10 bf 4a 99 74 bd e8 60 c1 bd
       -0.90734214 -0.5653249 -0.0597165 -0.094423115
000300 39 ec 03 be 56 5e 1d 3f 19 39 fa bd 5f 8e 3b be
       -0.1288308 0.6147207 -0.12217922 -0.18316029
000310 ce 5c 25 3f 9d 39 11 be 2f 8e ac bf 70 67 8a be
       0.64594734 -0.14182134 -1.3480891 -0.27032042
000320 bb 35 aa be 75 4e 11 be 39 90 67 be 51 64 49 3c
       -0.33244118 -0.14190085 -0.2261361 0.012291984
000330 64 e6 c1 be e3 36 8b be dd df 8b bf 15 6a 43 3e
       -0.37871087 -0.27190313 -1.0927693 0.19083436
000340 c8 0d 0d bf 6e 2d 9a 3e 3d 86 b8 be 84 53 d7 be
       -0.55099154 0.30112785 -0.36039916 -0.42055905
000350 9f 9e 01 be 15 cd 3e be bf 9f 81 bd 80 bf 7f bf
       -0.12658165 -0.1863292 -0.06329297 -0.9990158
000360 49 61 7d bf 36 8e 43 3e 09 c8 3a 3f ef 50 0f bf
       -0.9897657 0.19097218 0.7296148 -0.5598287
000370 ad 2d 01 bf ac 21 2d be c1 62 36 3f db 84 80 3f
       -0.5046032 -0.16907376 0.71244437 1.0040544
000380 f6 4e d1 3e 26 84 17 3f 17 eb 9e bf ba 3b 3d bf
       0.40880555 0.5918602 -1.2415494 -0.7391926
000390 cd e0 92 be e8 67 1f bf aa 11 c9 be eb 96 0a be
       -0.28687134 -0.62267923 -0.3927129 -0.13534133
0003a0 60 ee 8b 3e 2c ce 16 40 86 d7 db 3e 36 34 9f bf
       0.27330303 2.3563337 0.4293787 -1.2437809
0003b0 06 91 16 3e 33 a2 dd be 2c d6 7f be b8 64 28 bf
       0.1470376 -0.4328781 -0.24984044 -0.65778685
0003c0 50 08 e2 be 23 06 9e be 25 ea 14 3f 9e 94 f5 be
       -0.44146967 -0.30864057 0.58169776 -0.47964948
0003d0 1e 18 df bd 25 26 00 bf 33 ad 82 3f b3 f0 58 bf
       -0.10893272 -0.50058204 1.0209106 -0.8474228
0003e0 0e f5 46 be 14 07 cf be 2b 81 5f 3b 80 d6 58 3e
       -0.19429418 -0.40435088 0.003410409 0.21175575
0003f0 01 b4 a4 3f f3 3e 73 bf f5 1d 16 3e 56 8e 59 be
       1.2867433 -0.9501793 0.14659865 -0.21245703

l1.bias f4 [400]
000000 c9 e3 00 bf 2d 6e f8 be 6b 03 19 bd ff 04 26 bf
       -0.5034757 -0.48521557 -0.037356775 -0.64851373
000010 48 5a ba 3e 70 70 ee be b9 16 71 bf 25 d4 c0 be
       0.36397004 -0.46570158 -0.941753 -0.37661853
000020 7e 65 f3 3e 0a c4 7e 3e 33 5b 01 bf 35 bc c9 be
       0.4753837 0.2487947 -0.50529784 -0.39401403
000030 2a a1 98 bd a2 bd d8 be 57 c8 9a be 49 d4 30 be
       -0.074526146 -0.42332178 -0.30230972 -0.1726848
000040 bc 25 80 be 30 ed 53 be 91 e8 94 bc f4 73 1b bf
       -0.2502879 -0.20695949 -0.018177303 -0.60723805
000050 9d 7d fc be 0b 8a a5 be fb e1 ca be f2 0d e1 be
       -0.49314585 -0.3233188 -0.39625534 -0.43955952
000060 08 8d da be 95 62 88 3e bd 00 d3 be 44 06 c7 be
       -0.42685723 0.26637712 -0.412115 -0.38871968
000070 dc e0 4a be 6e b1 e4 be 54 b7 e8 be d1 e1 08 bf
       -0.1981234 -0.44666618 -0.45452368 -0.5346957
000080 2e 8b c0 be 57 32 05 bf 69 90 f6 3d 6e ff 66 be
       -0.37606186 -0.5202994 0.12039263 -0.22558376
000090 c4 62 f5 be 16 33 bb 3d bb 03 ad bd 36 fa 3a bf
       -0.47926915 0.09140603 -0.08447977 -0.7303804
0000a0 71 35 1c bf 3a 8e f7 bd dd c4 25 bf 99 58 b5 be
       -0.61019045 -0.120876744 -0.64753515 -0.35419157
0000b0 0b 6e 54 3e 01 55 2e bd 70 e0 3d be f9 a6 0f bf
       0.20745103 -0.042561535 -0.18542647 -0.56114155
0000c0 34 68 00 bf 3f 64 53 bf d3 58 da be 99 f9 21 bf
       -0.50159 -0.8257484 -0.42645893 -0.6327148
0000d0 9e 7e 64 be 14 08 08 bf 3d da d4 be 49 75 0d bf
       -0.22313926 -0.53137326 -0.41572753 -0.5525709
0000e0 70 f6 32 bf ec a8 4b bf 4f 81 c7 be 2a f6 3e 3b
       -0.69907284 -0.7955463 -0.38965842 0.0029138424
0000f0 76 43 2f bf a1 54 8a be e5 a4 ab be a8 22 45 be
       -0.6846231 -0.27017692 -0.33524242 -0.19251502
000100 15 61 e4 be e0 60 51 3e a4 1d 0c bf f9 1b 2c bf
       -0.44605318 0.20447111 -0.5473273 -0.6723018
000110 1c af 2a bf b2 e5 db bd 13 b6 0e bf be d0 0c bf
       -0.66673446 -0.1073717 -0.55746573 -0.55006015
000120 31 e8 95 be f4 ba 17 bf b9 97 06 bf 98 31 3c 3e
       -0.2927871 -0.5926964 -0.5257526 0.18378294
000130 7e d7 8f be dd 8f 8f 3e 2c 16 05 bf 98 14 ff 3d
       -0.28094095 0.28039446 -0.51986957 0.124551
000140 e8 9d 63 be 81 6b ec be 31 d2 0f bf 12 46 81 be
       -0.22228205 -0.4617577 -0.561801 -0.25248772
000150 49 20 21 3d 1c 81 9a 3e 7a b8 bb be db 7b 5e bd
       0.03933743 0.30176628 -0.36664182 -0.054317337
000160 b1 45 a3 be 4c 60 e2 be 98 50 20 3e 6d a3 fb be
       -0.31889108 -0.44214094 0.15655744 -0.4914812
000170 d7 39 b5 be 92 fd 72 bd e9 e3 a3 bd 58 8d 2b bf
       -0.3539569 -0.059323855 -0.08002455 -0.6701255
000180 97 5c 91 3e 38 03 9c be b2 a5 59 be e2 13 69 be
       0.28390953 -0.30471206 -0.21254614 -0.22761491
000190 6e 4a ad be 99 cf f2 be 00 a9 66 be b9 ab 55 bf
       -0.33845848 -0.4742401 -0.22525406 -0.8346515
0001a0 87 2a ce be da 34 e0 3e 8e f4 4d be fe c8 2a be
       -0.4026682 0.43790323 -0.20112821 -0.16678235
0001b0 30 1c 3e bf b4 a6 aa be 3a b6 41 bf c1 e6 1f bf
       -0.7426176 -0.3333031 -0.7566868 -0.6246148
0001c0 f2 be 30 bf 09 c0 a7 be ae 70 29 be a8 09 a0 be
       -0.6904136 -0.327637 -0.1654689 -0.31257367
0001d0 3b b9 f9 3d 23 8d 04 bf e7 8c d7 be e4 cf 00 be
       0.12193533 -0.5177786 -0.42099687 -0.12579304
0001e0 fa 32 5d 3e 8f b6 fc bd f6 9d 24 bf b9 91 e9 be
       0.21601477 -0.12339508 -0.6430353 -0.4561899
0001f0 55 c9 25 be f6 e3 ee be 6d 69 4a bf 76 8c d8 be
       -0.16190083 -0.46658295 -0.79067117 -0.42294663
000200 59 af 17 bf 90 b1 1a bf 3e 1f 5f be 3c e7 2c bf
       -0.59251934 -0.6042719 -0.21789262 -0.67540336
000210 a9 f4 13 bf e6 7e a6 be 88 ad 38 be 54 99 09 3e
       -0.57795197 -0.3251869 -0.18034947 0.13437396
000220 e5 d7 44 bf e9 2f 1a bf 4a a2 a7 be fe 4e 0c bd
       -0.7689193 -0.60229355 -0.32741004 -0.03425502
000230 73 59 9c be e7 2a a7 3c 0b 61 07 bf d4 e0 a2 be
       -0.30536994 0.0204062 -0.5288245 -0.31812155
000240 33 cd 01 bf 8e d5 6b be 29 de 2e bf d9 59 42 3e
       -0.50703734 -0.23030683 -0.6830774 0.18979587
000250 8a 13 e5 bc 36 94 19 bf 40 36 45 bf 7b 7a 03 bf
       -0.027963419 -0.59991777 -0.77035904 -0.51358765
000260 07 06 8c be e6 ad 6c 3e b7 7d 8b be 4f 3d 95 bd
       -0.27348348 0.23113212 -0.2724435 -0.07287084
000270 3d 40 33 bf ed 4d 7c be cc 25 b6 be 6b a5 7d be
       -0.70019895 -0.24639101 -0.35575712 -0.24770133
000280 59 a9 b4 be ba ab b8 be e7 62 b3 be 15 a5 86 be
       -0.35285452 -0.36068517 -0.35036394 -0.26297823
000290 d2 74 fc be c6 a0 ee be c1 f9 86 be 66 1e ff be
       -0.49307877 -0.46607035 -0.26362422 -0.4982788
0002a0 4c 22 eb be 08 c8 d2 be fb bd 3a be f5 8e da be
       -0.45924604 -0.41168237 -0.18236534 -0.42687193
0002b0 96 25 c2 be 40 86 9f 3d b4 50 9f be a9 07 ea bd
       -0.379193 0.07789278 -0.3111626 -0.11427242
0002c0 24 9c 27 bf c3 46 cb be a3 37 1d bf 74 9f d0 be
       -0.65472627 -0.39702424 -0.6141302 -0.40746653
0002d0 03 cd dc be ff 10 0c be be 12 d5 be 8a c2 c5 be
       -0.43125162 -0.13678358 -0.41615862 -0.38624984
0002e0 7a ed fa be 40 62 2f bf f6 e8 4a be 7b b4 e3 be
       -0.49009305 -0.6850929 -0.1981543 -0.44473633
0002f0 49 75 bf bc 24 42 14 bf 91 f6 76 be 9f 8e de bd
       -0.023371356 -0.5791342 -0.24117495 -0.108670466
000300 f7 d8 5f be f4 61 92 bd 7a 9d 61 bf a1 36 24 bf
       -0.2186011 -0.07147589 -0.88130915 -0.6414586
000310 e9 da 11 be 5e 16 ab be 76 5c ed be 0f 35 0a bf
       -0.14243664 -0.33415502 -0.46359605 -0.5398721
000320 a2 f3 31 bd d1 57 2e be 51 3f e6 be dc bd e0 be
       -0.043445237 -0.17025687 -0.44970182 -0.4389485
000330 07 15 b7 be 5f d7 8e be 38 8f 1f 3e 53 12 98 be
       -0.3575823 -0.2789869 0.15581977 -0.2970148
000340 75 01 b6 be 00 b4 d9 be 69 34 e4 be c0 8b 01 bd
       -0.35547987 -0.42520142 -0.44571236 -0.031627417
000350 2f 96 12 bf 42 7c 4b bf 60 8b 15 bf 32 9e 05 bf
       -0.5726041 -0.7948648 -0.58415794 -0.5219451
000360 64 17 f1 be 1f 4a 07 be 09 c8 4d 3d a2 b5 74 be
       -0.47088158 -0.13211869 0.050239597 -0.23897412
000370 c8 76 76 be 00 53 90 be 98 c9 36 be 32 5e a8 be
       -0.24068749 -0.28188324 -0.1785034 -0.32884365
000380 2f 4f d9 be c8 9e 9b be fe 7d 74 3e 5a 15 be be
       -0.42443225 -0.30394578 0.23876187 -0.37125665
000390 6b dd a2 be c0 55 96 be 91 67 eb be 90 d3 1b bf
       -0.31809554 -0.29362297 -0.45977452 -0.60869694
0003a0 dc 0d 22 bd 95 09 bd be a0 1c 50 bf 34 cc 02 bf
       -0.039564 -0.36921373 -0.8129368 -0.5109284
0003b0 31 3c b5 be 98 02 9b be 27 5a 17 bf 4a b2 1c bf
       -0.35397485 -0.30275416 -0.59121937 -0.6120955
0003c0 11 7c 37 bf 38 ef 1c be 2d fa 06 3d 41 b5 c9 3d
       -0.71673685 -0.1532563 0.03295343 0.098490246
0003d0 43 e6 d9 bd 59 bf d9 be 2d 4c b4 be 79 8f 4a be
       -0.10639622 -0.425288 -0.35214368 -0.19781293
0003e0 c4 22 14 bf dc 42 b3 bc 19 0c 50 be 08 06 75 be
       -0.5786555 -0.021882467 -0.20317115 -0.23928082
0003f0 5b e9 06 bf ed db 10 bf 5b ad 13 bf 4c 3e ae be
       -0.5269982 -0.5658558 -0.57686394 -0.34031904

l2.weight f4 [300, 400]
000000 b8 3c 4c bd 06 ce 2e bd 95 b2 99 3c c6 c0 67 bb
       -0.049862593 -0.042676948 0.018761912 -0.0035362705
000010 98 68 41 bd 46 65 f6 3c 09 33 cd bd 0d fc 88 bd
       -0.04721889 0.030077588 -0.100195 -0.066887
000020 fb e2 5e bd c6 0b 9f bd 20 fd 8c bc ac 66 e6 bd
       -0.054415684 -0.077659175 -0.017210543 -0.11250052
000030 7e a0 1d be 26 e2 ea bc 2b 92 8d bd 51 ed d6 bc
       -0.15393254 -0.02867229 -0.06912645 -0.026236208
000040 d4 bf a6 3c 9d a3 4e bc af 95 12 be 19 f8 33 bc
       0.020355143 -0.012612251 -0.14314912 -0.010984444
000050 cc 1d c6 bd 1a 6f 4f bd ad 72 b7 bd db 83 04 be
       -0.09673652 -0.050643064 -0.089574195 -0.12940924
000060 19 16 d9 bc 48 55 6a be 0d 49 b4 bd e9 ea 8f 3d
       -0.026499795 -0.22884095 -0.08802996 0.070272274
000070 69 ee c3 bd bd a0 bd b9 7f 31 7d 3d 71 1d be 3c
       -0.095669575 -0.00036168649 0.06181478 0.023207398
000080 27 c1 30 bd ef cc 08 be 54 62 d3 bc 80 37 ff bc
       -0.043152954 -0.13359426 -0.025803722 -0.031154394
000090 6d a7 8c bd 4e cf 07 3c d4 99 1c bd 02 09 12 bb
       -0.068678714 0.008289171 -0.03823264 -0.00222832
0000a0 47 a8 38 3d 89 a7 69 3d 3e 93 7f 3d 41 b3 05 bd
       0.045082357 0.05704454 0.06239628 -0.032641653
0000b0 90 91 83 bd 28 a6 cb bd 46 24 24 be ba cc 4a 3d
       -0.06424248 -0.09943801 -0.16029462 0.04951165
0000c0 ad 86 a2 bd be e2 74 bd 4e bf bf 3c 58 6e 30 bd
       -0.079358436 -0.05978655 0.02340665 -0.043073982
0000d0 4c b8 82 bd a0 ef cb bd 35 b7 37 3b f6 dd 25 3b
       -0.06382808 -0.09957814 0.0028032784 0.00253093
0000e0 6c b2 88 bd a3 1d 64 bc 6a e5 33 bd a0 92 3d bc
       -0.06674656 -0.013923082 -0.04391996 -0.011570603
0000f0 dc cf 6e 3d d8 46 bf 3c 8d e3 2c 3b 8d 42 15 bd
       0.0583037 0.02334921 0.0026380748 -0.03644042
000100 dc 8a 2c bd 93 a0 55 bd 2c 6d 37 bb 96 36 46 bd
       -0.042124614 -0.05215509 -0.0027988655 -0.0483919
000110 be 15 30 3d 36 77 32 3d 27 1e cf bc 85 16 03 be
       0.042989485 0.04357072 -0.025282932 -0.1280156
000120 c4 38 a5 3c 18 34 91 bc f4 04 04 3d f0 d5 4a bd
       0.02016867 -0.017725036 0.032231286 -0.049520433
000130 8d 2d 61 bd f0 e3 a1 bd 13 bf cc 3b 7a 3b 82 bd
       -0.05497508 -0.07904804 0.0062483638 -0.063590005
000140 ed 20 48 3c 32 79 8b bd cf 6d 85 bd 78 1b 76 bd
       0.012214881 -0.068102255 -0.06515085 -0.06008479
000150 b1 30 99 3c ed 33 ce ba 88 52 61 bc 8c 45 bc bd
       0.018699976 -0.0015732028 -0.013752587 -0.091929525
000160 89 02 41 3c ad 51 20 be 29 df d6 bd e2 8b f2 bd
       0.01178039 -0.15656157 -0.10491783 -0.11843087
000170 11 90 01 bd ee 02 28 bd 0a 09 d3 bc 5c f4 44 3a
       -0.031631533 -0.04101842 -0.025761146 0.0007513219
000180 0f e5 f6 3b d4 bd c8 bd 04 95 89 3d 02 17 3a bd
       0.00753463 -0.09801832 0.067178756 -0.0454321
000190 6a 1a 29 bd 68 1e 1b bd 60 65 13 3c a5 35 3a bc
       -0.041284956 -0.037870795 0.008996338 -0.011365329
0001a0 40 43 22 bd e5 eb a8 bd 73 35 a7 3c 5e d1 d1 bd
       -0.039614916 -0.08248118 0.020411229 -0.10245012
0001b0 1c 7e e6 3b a2 93 7c 3d ca 3f d9 bb 89 74 c7 3d
       0.0070340764 0.06166423 -0.0066299187 0.09739024
0001c0 6b 12 9c 3c d7 5a 12 bd be a6 f8 3c df cf ce 3c
       0.019051751 -0.035731163 0.030352946 0.025245605
0001d0 27 e0 a1 bd bf 25 ee ba 79 97 9f 3a 5e af 12 bc
       -0.07904082 -0.0018169208 0.001217588 -0.008952944
0001e0 0a b4 27 be 20 7a bb bd 67 3f 2c bd 24 59 16 3b
       -0.16377273 -0.09154153 -0.042052653 0.0022941316
0001f0 01 0f 5d bc 8f 54 30 3d a9 99 7f bd a1 58 57 bd
       -0.013492347 0.04304939 -0.0624024 -0.052574757
000200 67 3b 44 bd 83 71 e9 bc a4 a3 ea bd 14 15 f6 bd
       -0.047908213 -0.02849651 -0.11456993 -0.12015739
000210 c0 d5 c5 bd 85 a3 c3 3c a5 e7 00 3d 7c 8a 72 bd
       -0.0965991 0.023881683 0.031470913 -0.0592141
000220 6b f4 3c 38 17 dc 00 3c 00 e5 d3 bd 00 6c 4b be
       4.5050325e-05 0.0078649735 -0.10346413 -0.19865417
000230 03 3f 9d bd f4 e9 b8 bd d3 cb 9e bd b2 6c da 3c
       -0.07678034 -0.09028998 -0.0775372 0.026663158
000240 dc 6a 95 bc ae ec 0b 3d 8e ed 8f bd 56 8b b4 bd
       -0.018239431 0.034161262 -0.07027732 -0.08815639
000250 2c bc 6a bd f6 59 89 bd db 9f 1f 3d df 78 18 bd
       -0.05730836 -0.06706612 0.03897081 -0.037224647
000260 33 cd e2 bd d7 c7 ea bd 04 8e 32 bd 05 a8 04 be
       -0.11074295 -0.11463898 -0.043592468 -0.1295472
000270 02 d7 ff bc fa 76 93 bd 6f ac f2 bc 8a 7f 15 be
       -0.031230453 -0.07200427 -0.029623238 -0.14599434
000280 33 d0 e9 bc f8 24 8c 3c 88 64 4d 3d cd 2b d9 bd
       -0.02854166 0.017107472 0.050144702 -0.106040575
000290 bb 56 86 bc 9d e0 79 bc 19 54 1d bd 43 01 45 bd
       -0.016398778 -0.015251306 -0.03841028 -0.048096906
0002a0 e4 d7 fc ba dc 6c 2f be 1a d3 95 bd 9d 3d 8d bc
       -0.0019290415 -0.1713137 -0.07315655 -0.017241294
0002b0 23 11 fe 3c 66 07 9c bd 42 cb 9f bc 74 80 75 bd
       0.03101403 -0.07618599 -0.0195061 -0.059936956
0002c0 44 17 48 bc fc 91 5d bd e1 5d 9b 3d 94 6e 38 bd
       -0.012212578 -0.0540943 0.07586265 -0.04502733
0002d0 75 7f ad 3a 03 b9 75 bd 3d f8 e0 bd 03 33 a5 bb
       0.0013236838 -0.059990894 -0.10984848 -0.0050414815
0002e0 bc 0c 8c bd e5 58 6f bd 3b ad 71 bb 4e b6 2d bc
       -0.068383664 -0.058434386 -0.0036876935 -0.010602547
0002f0 e4 05 83 bd c7 1a 14 3d 05 96 2e 3c 4d 81 eb bc
       -0.06397608 0.03615835 0.010655885 -0.028748179
000300 9d 71 ff bc 0a a9 55 bd 81 68 16 bd 1f 8c 08 3d
       -0.031182105 -0.05216316 -0.036720756 0.033336755
000310 63 c5 70 bd 3f 4e 10 bd 43 77 0e bd b1 73 60 bd
       -0.058781993 -0.03523087 -0.034781706 -0.054797832
000320 c6 2c 38 bd cc d7 04 be 02 25 7d bd c0 77 93 bd
       -0.044964574 -0.12972945 -0.06180287 -0.07200575
000330 06 f3 4c 3c ab 26 3d bd 32 50 13 be 97 54 de b9
       0.012509113 -0.046179455 -0.14386061 -0.00042406164
000340 7f 1a ee 3c 3f f5 35 3b 8a 17 75 bd 0d 6d 09 bd
       0.029065369 0.0027764586 -0.0598369 -0.033551265
000350 1d 60 82 bc 7f 50 a9 bd 31 14 d6 bd 0c f3 dc bc
       -0.015914971 -0.082673065 -0.1045307 -0.026971363
000360 0b 20 62 bd f5 9e 08 be 43 da 84 3b 4f 70 bc 3c
       -0.05520634 -0.13341887 0.004054339 0.023002772
000370 37 d4 41 bd cf 61 fa bd f4 5b d0 bc f8 10 a5 bd
       -0.047321524 -0.12225687 -0.025434472 -0.08059877
000380 7d cd 83 bc fd bc 1c bd d6 67 87 bd 6b 89 fa bc
       -0.016089195 -0.03826617 -0.06611602 -0.030583104
000390 19 aa 84 bd ee 28 e5 bc 0c 74 20 bd 36 54 1b 3c
       -0.06477756 -0.027973618 -0.03917317 0.009480527
0003a0 af 70 2e bb fc a7 59 3d cd fc 03 bd dd 63 30 be
       -0.0026617458 0.053138718 -0.03222351 -0.17225595
0003b0 51 99 bc bd 39 52 b9 bb 6f 28 8e bd 86 9d 21 3c
       -0.0920893 -0.0056555537 -0.06941306 0.009864217
0003c0 a1 40 35 3b b5 3e 00 3d b2 f0 36 bd 02 81 c2 bd
       0.002765693 0.031309802 -0.04466314 -0.094972625
0003d0 79 59 a1 bd 3a 44 57 be 2d 14 aa bd 7f 97 0d bd
       -0.07878394 -0.2102212 -0.083046295 -0.034568306
0003e0 bc c5 40 3d 00 a2 37 3d 9c f3 ed 3c 9a 56 8c bb
       0.047063574 0.04483223 0.029046826 -0.0042827846
0003f0 49 50 12 bc 0b 6b 14 be 74 8c d2 bc 7e 72 12 be
       -0.008930274 -0.14493959 -0.025701739 -0.14301488

l2.bias f4 [300]
000000 9a 07 2d bd 50 6d f9 be cd f4 39 3c fd 9f 47 3e
       -0.042243578 -0.4871621 0.011349869 0.19494624
000010 14 96 31 bd 99 25 dd be 35 0f 5a bd d5 cc de be
       -0.043356016 -0.43192747 -0.05323716 -0.4351565
000020 83 02 98 bc bb 6f ba 3e bd 5b ae bc 0a d0 a6 be
       -0.018555885 0.3641337 -0.021283979 -0.32580596
000030 d1 70 32 bf cf 85 15 bf da 05 18 bf e2 58 d1 bc
       -0.69703394 -0.584073 -0.5938393 -0.025555078
000040 ed 82 96 be 27 09 9d bc 38 84 55 bd b4 63 81 3b
       -0.29396763 -0.019169403 -0.052128047 0.003948653
000050 18 6c 94 be 63 77 e6 3e 6d b7 fb bb b5 de 8a be
       -0.2898872 0.4501296 -0.007681778 -0.27123037
000060 83 6d ba bd 36 16 fa 3e 95 23 17 3f e9 3e 65 bd
       -0.09102919 0.4884507 0.5903867 -0.0559682
000070 bb 95 09 bf 75 61 15 3e ec 03 e7 bd c2 da 48 3f
       -0.53744096 0.14587958 -0.11280045 0.784588
000080 c5 de 49 bc ba c9 c7 be 06 29 88 bb f9 02 7f bd
       -0.012321179 -0.39021093 -0.004155281 -0.062258694
000090 8a 1c 39 3e 91 76 88 be 74 17 29 bf 62 57 3b bf
       0.18077293 -0.2665296 -0.6605141 -0.7318021
0000a0 79 f5 d4 bd 90 93 3d bd 0f db af be 7b 6c a6 bd
       -0.10398383 -0.046283305 -0.34346816 -0.0812616
0000b0 25 38 ea bd 81 29 16 3f a6 0a b1 bb 77 a0 20 3f
       -0.1143649 0.5865708 -0.0054028807 0.6274485
0000c0 2d c9 ff bd f4 24 30 3e 77 78 41 be 02 7c 17 be
       -0.12489543 0.17201596 -0.1889361 -0.14793399
0000d0 8b fd 63 bd 50 9a 26 bf 88 da b7 bd d4 d8 66 bf
       -0.05566172 -0.6507921 -0.089772284 -0.90174603
0000e0 c0 ee 1b 3d a1 c7 0c 3f 97 57 1f bf bd de 9a be
       0.038069487 0.5499211 -0.62243026 -0.3024806
0000f0 3a 70 87 bf cd aa 45 3f 33 b2 f3 be 8c 98 b2 be
       -1.0581124 0.77213746 -0.47596893 -0.3488201
000100 6b bf ed 3e 47 f8 dc be a8 10 45 bd c3 30 ef bd
       0.46435103 -0.4315817 -0.048111588 -0.116792224
000110 1b 98 b1 be 27 7b 17 bf 8f 5f 9b 3e 2f 7c 8e be
       -0.3468636 -0.5917229 0.30346343 -0.2782912
000120 71 03 2a bf 48 0f 9f bf 83 18 09 bf 3b 35 39 bd
       -0.664115 -1.2426538 -0.53553027 -0.04521678
000130 9b 60 0c 3f 81 e0 91 bd cc 75 70 bf 75 f6 93 be
       0.5483491 -0.07122899 -0.93929744 -0.2889897
000140 42 66 35 be f2 90 35 be 97 97 dd bd 5b c5 0b 3e
       -0.1771479 -0.17731073 -0.10819929 0.13649504
000150 41 08 da be f2 f6 2a bf 25 22 95 bd 4b 2a 81 be
       -0.42584422 -0.6678306 -0.07281903 -0.2522758
000160 6e 07 a4 be 72 95 03 bd b3 6a 36 bf f4 c6 c0 bd
       -0.32036918 -0.032124944 -0.7125656 -0.09412947
000170 59 8d 42 3e fd 0a dd 3d 85 f6 0e 3f 44 98 c0 be
       0.18999232 0.107931115 0.5584491 -0.3761617
000180 e8 04 05 bf 57 4f 2c bf 78 2c 16 bd ca 81 0f 3f
       -0.5196061 -0.67308563 -0.036663502 0.5605742
000190 df c9 0d 3c 94 17 b6 be 64 53 c6 bd 74 fd a4 bd
       0.008654087 -0.35564864 -0.09683874 -0.08056155
0001a0 67 95 e9 be c4 74 37 bf 15 87 3d bf a1 cc 10 bf
       -0.45621797 -0.71662545 -0.74034244 -0.5656224
0001b0 0d 11 9e 3d 83 c5 82 be 09 97 7b bd d8 f6 d2 be
       0.07718096 -0.25541314 -0.061423335 -0.41203952
0001c0 56 94 85 bd ab 4f 29 3f e6 23 b5 bd 02 fa 0b bd
       -0.065224335 0.6613719 -0.08844738 -0.034173973
0001d0 c9 b8 e9 be a5 dc 71 bd f9 89 10 be a6 85 65 3e
       -0.45648792 -0.059048314 -0.14115132 0.22414264
0001e0 21 0f e3 bc 2b 20 e9 3e 4d f4 fb bd c8 05 6a bf
       -0.027717175 0.45532355 -0.12302456 -0.9141507
0001f0 81 8e 9b bd 3f 9d af bd ab cb 4d bc c7 ad 2e bf
       -0.0759554 -0.08574914 -0.012560765 -0.68233913
000200 dc 6d 71 bc ee e1 28 bf f9 60 fd be 25 d0 25 be
       -0.014735665 -0.6596974 -0.49488047 -0.16192682
000210 4f 2a 32 3e 31 49 47 bf 99 d7 1b bc 8b 3d 56 bf
       0.17398952 -0.77846056 -0.009511852 -0.8368766
000220 c0 08 ce be 62 89 fa 3e 67 2e f0 bd 4b 5e 0d 3f
       -0.4024105 0.4893294 -0.117276005 0.55222005
000230 ff 66 79 be 05 d9 f7 3e 3e 7e 7a bd 75 b7 94 be
       -0.24355696 0.4840776 -0.06115555 -0.29046217
000240 aa 8f 1c be b1 62 f4 3d 10 c2 5c bf b4 9b e1 3e
       -0.15289178 0.119328864 -0.86233616 0.44064105
000250 5b 26 e1 3e 46 ae 88 bd cf 6d 16 3e 4e ac cf bd
       0.43974575 -0.06673865 0.14690326 -0.101402864
000260 2a e7 b6 be f3 7d ba bd c7 04 a9 bd ca 29 1f bf
       -0.3572324 -0.09106054 -0.08252864 -0.6217314
000270 23 17 a1 bd 9e 54 b7 3e 3f 38 7b bf 74 57 37 bf
       -0.07865741 0.35806745 -0.981327 -0.7161782
000280 f9 90 f7 be 84 af 24 bf 85 24 a5 bd 16 a7 bb be
       -0.48352793 -0.64330316 -0.08063606 -0.36650914
000290 b8 9f c3 3e 0f 84 15 3f 65 23 d4 be 44 b0 aa be
       0.38207793 0.5840463 -0.41433254 -0.33337605
0002a0 10 4e 69 bd b1 43 c4 bd e6 9c 54 bf 8c 3f aa bd
       -0.05695921 -0.095832236 -0.8305191 -0.08312902
0002b0 fe 32 ae 3e 69 12 b5 3a d8 5f 7d bd 3b c4 80 3e
       0.3402328 0.0013814691 -0.06185898 0.25149712
0002c0 ad b1 87 bd 5e 56 ad bd 9e 77 76 bd ef cd 81 be
       -0.06625686 -0.08463739 -0.06017267 -0.25352427
0002d0 75 86 09 3c 6d 29 1b bf 44 90 e4 3e 1c e6 69 3d
       0.008393873 -0.60610086 0.44641316 0.057104215
0002e0 19 31 02 bf dd 42 d7 bc 1e cb 9d be 10 e7 37 3e
       -0.5085617 -0.026277 -0.3081903 0.17959237
0002f0 21 e9 5d bd 78 8c 1b bd 2c 49 04 bf 5d 19 0e be
       -0.054177407 -0.03797576 -0.5167415 -0.13876863
000300 8e 8a 03 be be 79 97 bd a3 25 60 bd fe f1 99 3e
       -0.12845823 -0.07396267 -0.054723393 0.30067438
000310 79 52 04 3f d6 e2 fe bd db 81 e1 bc cc 80 a6 bd
       0.51688343 -0.12445609 -0.02752774 -0.08130035
000320 b4 c2 23 bd 1c 77 7a 3d e4 f7 2e 3d cc d8 95 bd
       -0.039980605 0.061148748 0.042716876 -0.07316741
000330 c9 e5 02 be 80 54 92 bd cd 65 ba be a3 11 52 3e
       -0.12782969 -0.07145023 -0.36405793 0.2051454
000340 68 56 0c bf 52 8e 1d bf 39 97 34 be 72 42 a5 3e
       -0.54819345 -0.6154529 -0.17635812 0.32277256
000350 47 25 66 be 64 6b 34 3e 94 ae 1e be 27 2a 8e be
       -0.22475158 0.17619091 -0.15496284 -0.27766535
000360 39 e1 9c bc 8e b0 c0 be 4d 77 12 3e d9 ae b2 bd
       -0.019150363 -0.376347 0.14303322 -0.08724756
000370 26 26 97 3d 9c 11 55 bd 76 98 7a be db dc d0 be
       0.07380323 -0.052018747 -0.24472222 -0.407935
000380 cf 4f 6f 3e ee eb c4 3e 4c 17 ba 3d ca 20 59 be
       0.23370288 0.3846125 0.09086475 -0.21203914
000390 b8 a8 8d 3e 88 40 49 3e d3 f7 24 bd c2 bf 01 bd
       0.27667785 0.19653523 -0.040275406 -0.031677015
0003a0 6c ec e4 bb 0a 0f ef 3d fb 33 b0 3c 9e 60 02 3f
       -0.0069861915 0.1167279 0.021509161 0.50928676
0003b0 ca 04 0e be 84 99 4b bc 16 22 75 bf 18 a0 b8 bd
       -0.13869014 -0.012426738 -0.95755136 -0.090149105
0003c0 a5 49 95 bd 6a 3e b5 3e 43 29 b4 be 01 8e 8c 3e
       -0.07289437 0.3539918 -0.3518773 0.2745209
0003d0 78 b3 2c bf 1c 16 db bc b7 95 f7 bd 55 12 5b bd
       -0.6746135 -0.026743941 -0.12089103 -0.05348428
0003e0 ea 2d 4b bd 9c a0 02 bf 99 82 dc bc 95 a3 77 bd
       -0.049604334 -0.5102632 -0.026917743 -0.06045874
0003f0 0d 85 1b be 20 85 07 be 75 44 62 bd 7a 1b e8 be
       -0.15187474 -0.13234377 -0.055241067 -0.45333463

l3.weight f4 [2, 300]
000000 70 96 2b 3d ba d5 89 bf 72 44 05 3f 9c 8b 65 3f
       0.041891515 -1.0768349 0.52057564 0.8966615
000010 89 95 e6 bb ad ce 78 3f 92 61 d6 3c f0 68 12 be
       -0.007036869 0.9719036 0.026169572 -0.14297843
000020 83 97 a1 bd cd 8b a7 bf d2 a2 01 bf 72 24 38 bf
       -0.07890227 -1.3089539 -0.5063907 -0.7193061
000030 4b 91 ab bd d7 f1 c1 be c0 4b 30 3f 4c cc a0 bc
       -0.08377322 -0.37879822 0.68865585 -0.019628666
000040 3d 3c 06 3e 18 26 bc bc 0a 78 5a 3e 62 c0 8e be
       0.13108917 -0.022967383 0.21334854 -0.2788115
000050 47 72 71 3f b1 8e 5e be fe c6 08 bf f6 30 82 3e
       0.94315 -0.2173412 -0.5342864 0.2542798
000060 6a 66 ea bc 71 f9 e5 3f cc f3 a7 bf 58 57 84 bc
       -0.028613288 1.7966748 -1.3121276 -0.01615493
000070 cb de 52 be 9f 3e fd 3e 7b d7 85 bd 6a 40 f6 3f
       -0.20592801 0.4946184 -0.0653524 1.9238408
000080 c3 05 4f bd c9 c7 98 3e bf 54 05 bd 28 78 ff 3c
       -0.050542604 0.29839924 -0.032551523 0.031185225
000090 7b 43 2f be ce 24 c2 3d 68 16 52 3f d8 08 ac bf
       -0.17115586 0.09479676 0.8206544 -1.3440199
0000a0 2c 43 17 be 70 29 bf 3c 12 89 e9 3e 09 54 ee bb
       -0.14771718 0.023335189 0.4561239 -0.0072732014
0000b0 8e fc d9 bf 27 a3 d3 bd 10 f9 12 3d 25 cb 52 bf
       -1.7030199 -0.10333853 0.035882056 -0.82341224
0000c0 42 ed 6d bc 96 61 45 bf f6 9c af bc 56 5f c0 bf
       -0.014521899 -0.7710203 -0.02143715 -1.5029094
0000d0 04 67 0e bd 08 59 97 bc 74 5a d9 3c 72 bf e0 be
       -0.034766212 -0.01847507 0.02653239 -0.4389606
0000e0 32 74 93 3f f6 00 80 bf b6 2a 47 be 38 f3 c7 3f
       1.1519835 -1.0000293 -0.19449887 1.56211
0000f0 e8 b4 c2 3d 5e ad 13 3f 72 c4 8d 3f b4 3b 4b 3b
       0.095071614 0.5768641 1.1075575 0.0031010928
000100 b4 3e 02 bf 88 7b f1 3e 31 a7 04 3d d1 36 85 bd
       -0.5087693 0.4716456 0.03238601 -0.06504596
000110 c5 8d 0b 3f e6 78 56 bf 20 30 1a 3f c9 12 b3 3e
       0.545132 -0.83778226 0.6022968 0.3497527
000120 ff ec 3d 3f 08 46 73 3f 5c 97 24 bf d6 e6 b5 3c
       0.7418975 0.95028734 -0.64293456 0.022204798
000130 a9 b2 3a be e4 68 85 3b ac 55 26 bf 0e af 4d bf
       -0.18232216 0.004071342 -0.64974475 -0.8034524
000140 3a b9 bb bd 4e a6 5e bb 25 bc 06 bf f2 14 70 bf
       -0.091661885 -0.0033973637 -0.52630836 -0.9378196
000150 5a 3b 61 3f 84 b8 cb bd 6e 92 d4 3b c9 5b 95 bf
       0.8798119 -0.09947303 0.0064871823 -1.1668636
000160 27 7f 01 bf cf 47 93 3b 94 d4 f7 3d 0c 4e 39 bb
       -0.50584644 0.0044946442 0.12101093 -0.002827528
000170 29 10 ad be 67 14 f4 bf 2b 43 81 bd 85 47 33 bf
       -0.33801392 -1.9068726 -0.063116394 -0.70031005
000180 78 22 3c 3f 8c d0 25 bf 07 43 c9 bd c5 dd d2 be
       0.73490095 -0.6477134 -0.098272376 -0.41184822
000190 19 e2 22 3d 4a d7 7a bd c6 ac c9 3c b6 14 20 3d
       0.039766405 -0.061240472 0.024618518 0.03908225
0001a0 60 37 de 3f 52 9c dd bd 8b 25 e7 3d 1b 69 9f 3e
       1.7360649 -0.10820831 0.11286458 0.31134877
0001b0 23 a5 3c bf e4 5b 85 3e b1 35 f9 bb 36 b8 2c bf
       -0.7368948 0.2604667 -0.0076052775 -0.67468584
0001c0 38 7a e4 bc cd 5d 8e 3f 59 24 f2 3b 4f 4c 43 3d
       -0.02789031 1.1122376 0.007389587 0.047680195
0001d0 7c 66 64 3f df a5 aa 3c 70 0a bc 3a af 9b a0 bf
       0.8921888 0.020831047 0.0014346372 -1.2547511
0001e0 91 0a f7 3d d7 44 cf 3f f9 f2 5c 3f f8 c5 aa bf
       0.12062562 1.6192883 0.86308247 -1.3341665
0001f0 49 e1 dc 3b d1 4f cc bc 2b d6 73 bb d1 1c b1 3f
       0.0067407233 -0.024940403 -0.0037206511 1.3836919
000200 69 ac 1c 3d 90 f3 94 bf 06 6e 67 3f 04 28 05 3e
       0.03825036 -1.1636829 0.9040226 0.13003546
000210 62 4b ba be de d1 72 3f aa b3 90 bc 24 6b 60 bf
       -0.36385638 0.9485148 -0.017663796 -0.87663484
000220 06 e7 8a 3f 4d e3 d9 3f bb 7f 1a 3f 35 ba 0a 3f
       1.0851753 1.7022492 0.6035115 0.5419038
000230 ac 39 bb bd be e2 46 be ed 33 89 3c 44 22 06 be
       -0.091418594 -0.19422433 0.016748393 -0.13099009
000240 6c 7c 34 bf 9b ad 35 3c bb 9b fd be 53 3d 98 bf
       -0.7050235 0.011088754 -0.49532875 -1.1893715
000250 dc 6b c1 3e 31 03 87 bd 63 da 99 3f 6c f5 34 3c
       0.37777603 -0.065924056 1.2019771 0.011044841
000260 f4 f5 2e bf fd a4 94 3c 64 46 8e 3b f8 01 e0 3e
       -0.68344045 0.018145079 0.0043418873 0.43751502
000270 78 a7 fc 38 c1 2c fd 3e 56 87 2b bf 09 e4 de be
       0.0001204749 0.49448207 -0.6700338 -0.43533352
000280 7d 0d d1 3f 7d c3 a5 bf 05 8a e8 3c c6 47 53 bd
       1.6332241 -1.2950283 0.028386125 -0.05158212
000290 83 a7 5b 3e c1 75 46 be 8a ea 50 bf a7 05 88 be
       0.2145062 -0.19380857 -0.8160788 -0.26566812
0002a0 1f 0c 78 bc de 12 21 3c 08 d2 c9 3e 9b 41 51 3c
       -0.015139609 0.009831158 0.39418054 0.012771989
0002b0 13 d1 97 bf 41 0b 2f 3d 5c 3d d1 3c b0 9e ca be
       -1.1860679 0.042735342 0.025541954 -0.39574194
0002c0 45 64 0d bd 0f e2 03 bc 92 0f 67 3d 4b 20 b9 bf
       -0.034519453 -0.008049502 0.056411333 -1.446298
0002d0 67 3d b5 bf 3e ef 80 3f 64 ac 15 3f c1 05 94 bd
       -1.4159364 1.0073011 0.5846617 -0.0722766
0002e0 ee 60 38 bf d7 e4 c1 3c ee 11 99 bf c2 a1 e5 3d
       -0.720229 0.02366869 -1.1958597 0.112124935
0002f0 ce f2 2b 3d 3e 5a f0 3c a9 2c 14 bf 87 c5 81 3d
       0.041979603 0.029339906 -0.57880646 0.063365035
000300 13 9b 8f 3d d1 5a bb ba 27 d3 1e 3d 1a f1 37 3e
       0.07012 -0.0014294033 0.03877559 0.17963067
000310 87 8d 01 be 76 8b 5e bd 46 06 b0 ba 2e 36 ab bd
       -0.12651645 -0.05433222 -0.0013429604 -0.08359943
000320 56 2e d6 3c 0a 9b 7e bf 4e 33 0a 3f 80 47 80 3d
       0.026145142 -0.9945532 0.53984535 0.062636375
000330 9e 16 79 3f c2 4a 22 bc 76 b7 85 bf ba 8a 32 be
       0.97300136 -0.009905519 -1.0446613 -0.17435732
000340 dc 0d 8c bb 41 7e e4 3d 2f 1f 11 3f 7b fd 1b 3f
       -0.004274113 0.111568935 0.5668821 0.60933656
000350 4b 1c ee 3e 71 ce bf 3d 6a 6d 25 bd b7 c5 98 be
       0.4650596 0.093655474 -0.04038755 -0.29838344
000360 4d 64 b7 3e 6c 71 b6 3e 3c 75 7a 3f 93 ae fe 3b
       0.3581871 0.3563341 0.97835135 0.0077722757
000370 cd 1c 2d 3f 7c 61 8d 3f 0a 16 b4 be 17 25 f8 bd
       0.6762207 1.1045375 -0.35173064 -0.12116449
000380 2d f9 7f 3e d0 d7 d9 be d3 7f 37 3f 30 ff 1f bf
       0.24997397 -0.42547464 0.7167942 -0.6249876
000390 75 28 95 bf e9 b2 b9 bf d0 39 27 bc 19 3b 0d 3d
       -1.1652972 -1.4507724 -0.010206655 0.034480188
0003a0 5d a5 89 bc af a9 30 be a5 93 92 3e f7 5c c8 3f
       -0.016802484 -0.17252229 0.2862827 1.5653371
0003b0 8b a5 c7 bf 82 26 24 bd f9 cb 0f 3f 2e 4c ee be
       -1.5597395 -0.040075786 0.5617061 -0.46542495
0003c0 e7 56 ae bc 02 cd de 3e bb 6a 95 3f eb ce 8c bf
       -0.021281673 0.43515784 1.1673197 -1.1000646
0003d0 14 ec 42 bf dc f2 cb 3c 17 95 33 bf c9 35 16 3d
       -0.76141477 0.024896078 -0.7014937 0.036672387
0003e0 a3 d4 bf bc b5 ef 1f 3e 72 95 7c 3e 79 c3 be 3c
       -0.023416823 0.15618785 0.24666384 0.023286568
0003f0 fa ee 53 3e ef 07 af bd bb 5d 28 3a 17 8c 9e bf
       0.20696631 -0.08546435 0.00064226583 -1.2386502

l3.bias f4 [2]
000000 90 57 08 3d 2a d6 33 3f
       0.03328663 0.70248663
