BCQ/results/bcq.pt (torch_old, 502224 bytes, 6 tensors)

l1.weight f4 [400, 10]
00000000: 8028 1bbb aeb5 2d3e 1342 85be 4b4f 6ebe
00000010: 7270 f9bd 00ab ad3d c04e cdbb 2960 803e
00000020: 10e5 e5bc 485f ab3d 3eb9 c3bd e09a 7ebd
00000030: ddad 9abe 5775 56be 257c 05be 00ed 3f3c
00000040: 3004 003e 364c 423e 6d87 5bbe a702 0dbe
00000050: 603b eb3d 6d72 863e 8448 85bd f650 723e
00000060: 98c6 50bd c80e 093d b99a 923e a532 96be
00000070: f0da 4bbe 62f5 a3bd a872 fcbd a1e3 8b3e
00000080: 49e4 51be 5010 15be 583b 62be 26a3 97be
00000090: 7506 3dbe 232d 8b3e 427e 103e 00f2 1c3e
000000a0: 903d 883c 0804 26be c023 5b3d 582c 97be
000000b0: bafa 69be 00f0 26be fe4e 4c3e 66dc 3d3e
000000c0: 809c 0fbe 20f2 3abc ce19 4f3e 6ff5 a03e
000000d0: 6c84 003e 48fb 2e3d 721d 593e 12aa 3ebe
000000e0: 985d 713d aa0e 7bbe e86e 60be 5647 27be
000000f0: c084 123e fa39 023e 5fd0 3fbe aca7 c33d
00000100: 40c4 313e 487c 23bd 40d2 453c 580f 963d
00000110: 7ee3 483e b576 9b3e 8c8a 79be a456 edbd
00000120: d886 fe3d 3726 863e e1e4 8c3e 75dc 8e3e
00000130: 80e3 803d fdca 8cbe 604f ee3c f094 4abe
00000140: 33e4 96be c7da 8f3e b637 763e 2582 a1be
00000150: 2870 723d 7833 5abd a826 55bd c53a 14be
00000160: 440d f93d 4fcc 3fbe cc6a ed3d cac1 233e
00000170: c2cf 673e 6028 f23d 253f a0be 2a0f 52be
00000180: d2af 213e 008d 873d ca9a 7cbe d475 3abe
00000190: bf50 983e 9e31 5a3e 4531 0dbe eeff a2bd
000001a0: dd3b 9abe 4040 babb 7cda 73be 52c7 79be
000001b0: d0bc 8ebc 707a 423d eb9c 04be 5a25 403e
000001c0: 320e 45be 39e9 923e 72e9 5d3e e788 88be
000001d0: a22f a1bd a0c8 693c 28fb 3c3d 2c9a 993d
000001e0: 6c26 fe3d 702c 9b3c efff 1dbe 0c3a 193e
000001f0: 874f 9bbe bbed 3fbe 4c1f a2bd 57bc 1dbe
00000200: 6c90 e2bd 2db4 84be fcc2 89bd a06f 8a3d
00000210: b2f4 52be e0f1 84bc 0ace 673e 6827 05bd
00000220: 60fe 0f3c a07b dfbc b411 833d 52e5 4d3e
00000230: 095e 993e 5ea4 4d3e ddb7 993e 205a bbbc
00000240: 2c72 91be ae83 19be 267d 5c3e 8058 06bb
00000250: c2f3 20be 1c25 78be c385 97be f7a6 88be
00000260: 345d 83bd 5495 313e a411 2f3e 5b26 9cbe
00000270: cafd 493e da63 7dbe a6ea 88bd 8d4c 03be
00000280: 107d 79bd 1051 7ebd e849 91be 4ccc 8bbe
00000290: d8ae 4abd 4001 863b 1f1a 13be a0f6 f33d
000002a0: 2aba 91be 10d4 aebc b562 8e3e 1c15 04be
000002b0: 3934 923e 148b ea3d bf1d 92be dae0 4c3e
000002c0: 8877 15bd e28d 10be 8378 813e 6cd6 82be
000002d0: 20fd 0a3d 2898 87bd f23d 673e 9cc8 b43d
000002e0: 8e98 1b3e c8b7 e43d 5ebd 9bbd 7833 88bd
000002f0: 076d 85be 5e75 2f3e 498d 803e 5690 5d3e
00000300: e469 64be 4013 673c 1245 64be 9a41 32be
00000310: a9b0 3cbe 6c53 dd3d 8af7 40be c012 e2bb
00000320: 40f5 593c 72bd 503e aac7 74be f34d 5ebe
00000330: 3907 3cbe 86a6 623e 4acd e8bd 6f91 883e
00000340: 8430 ea3d c803 243d 8045 1abb 8006 80bd
00000350: 4083 223d 46e2 93bd 009e 11bb 7044 253d
00000360: 9f4a 7dbe 08b9 29be 73bd 823e 7a65 83be
00000370: 4004 babc 912a a03e 18f3 e93d 20b1 123c
00000380: c64f 8cbe 7269 203e 16a6 66be 1cd7 b7bd
00000390: bc4a d9bd 20d0 3fbd 00b0 623b 1f8b 853e
000003a0: 28b3 213d 3705 913e 4215 463e c6b8 4cbe
000003b0: bc3b 113e b6e7 64be ec3d 09be e87b be3d
000003c0: 00d8 d53d d2ef 723e da7b d0bd 00b4 043a
000003d0: 70b5 263e 9f94 9cbe 121d 6a3e c8e2 85be
000003e0: 00d1 8e3b a837 5cbd b88b 2abe 7032 2b3d
000003f0: a1e2 853e f250 bdbd 963f 40be 3885 efbd
-0.0023675263 0.16963837 -0.26026973 -0.23272435 -0.1217965 0.08479881 -0.0062654912 0.25073364
-0.028063327 0.08367783 -0.095568165 -0.06215942 -0.30210772 -0.20943199 -0.13035639 0.01171422
0.12501597 0.18974385 -0.2143838 -0.13770543 0.11485934 0.26259175 -0.06507972 0.23663697
-0.050970644 0.033461362 0.2863367 -0.29335514 -0.19907737 -0.080057874 -0.123265564 0.27322105
-0.2049724 -0.14557004 -0.2209295 -0.2961666 -0.18459494 0.27182874 0.14110664 0.1532669
0.016630918 -0.16212475 0.05350089 -0.2952602 -0.22849551 -0.1630249 0.19952008 0.18541107
-0.14024544 -0.011410266 0.20224687 0.3143725 0.12550515 0.04272011 0.21202639 -0.18619564
0.05892715 -0.24517313 -0.21917307 -0.16335806 0.14308453 0.12717429 -0.18731831 0.09553465
0.1736002 -0.039913446 0.012074053 0.07327145 0.19618031 0.30364004 -0.24369258 -0.11588791
0.12428063 0.2620103 0.2751837 0.2790257 0.06293392 -0.27498618 0.029090583 -0.19783378
-0.29470977 0.280966 0.2404469 -0.31544605 0.05918899 -0.05327174 -0.05203882 -0.14475544
0.12160733 -0.18730281 0.115926355 0.15991893 0.22637847 0.11824107 -0.31298175 -0.20513597
0.15789726 0.066186905 -0.24668422 -0.1820901 0.29749104 0.2130799 -0.13788326 -0.07958971
-0.30123797 -0.0056839287 -0.23813814 -0.24392441 -0.017424017 0.047480047 -0.12950484 0.18764248
-0.19243696 0.2869356 0.21671084 -0.26666948 -0.07870413 0.014269024 0.04613796 0.07500109
0.12409672 0.018942088 -0.15429662 0.1496355 -0.30334112 -0.1874303 -0.07916126 -0.15403877
-0.110627025 -0.25918713 -0.067266434 0.06759572 -0.20601156 -0.016228616 0.22637191 -0.032508284
0.008788675 -0.027280629 0.06399861 0.2010701 0.29954556 0.20082232 0.3002309 -0.022870123
-0.2840742 -0.14991638 0.21532115 -0.0020499527 -0.15717986 -0.24232906 -0.2959424 -0.26689884
-0.064142615 0.1734212 0.17096573 -0.30498013 0.19725719 -0.24745122 -0.06685381 -0.1282217
-0.060910285 -0.062089026 -0.28376698 -0.27304304 -0.04948315 0.0040895045 -0.14365433 0.11912274
-0.28462344 -0.021341354 0.27809682 -0.12898678 0.28555468 0.11452308 -0.2853832 0.20007649
-0.036490947 -0.14116624 0.25287256 -0.25554216 0.033932805 -0.066208184 0.22582224 0.08827326
0.15194914 0.11167866 -0.07604478 -0.06650442 -0.26059744 0.17134616 0.25107792 0.21637091
-0.22306019 0.014103711 -0.22291973 -0.17407838 -0.18426766 0.10806927 -0.18844429 -0.006899208
0.013303101 0.20384768 -0.23904291 -0.21709423 -0.1836213 0.22133836 -0.11367281 0.26673457
0.11435035 0.04004267 -0.002353996 -0.0625124 0.03967595 -0.072208926 -0.002221942 0.04034847
-0.24735497 -0.1657449 0.25535163 -0.25663358 -0.022707105 0.31282476 0.114233196 0.008953363
-0.27404612 0.15665224 -0.22524294 -0.08976576 -0.106099576 -0.046829343 0.0034589767 0.26082703
0.039477497 0.2832429 0.19344047 -0.1999236 0.14182943 -0.22354016 -0.13402528 0.09300977
0.10441589 0.23724297 -0.10179873 0.00050622225 0.1628015 -0.3058214 0.22862652 -0.26149583
0.004358411 -0.053764015 -0.16654861 0.041796148 0.26149467 -0.09243955 -0.18774256 -0.11695331

l1.bias f4 [400]
00000000: f215 213e 76bf abbd 527b 743e f77e 8dbe
00000010: 8992 8a3e 7c2d 353e e481 6dbe 060e 84be
00000020: c23b 7d3e 93b9 9f3e f00e e23c c00d fdbd
00000030: bc62 383e 8e16 123e 00a7 21bd 77a0 813e
00000040: dee3 513e b074 a13d 9422 283e c3a8 97be
00000050: c6ad 17be 40fc 0d3d 9c1e b03d b813 31bd
00000060: e489 f43d d849 c53d f7a2 95be 9446 cc3d
00000070: d09f d2bc 56d5 5ebe e0d9 2e3c 5c47 9fbd
00000080: bbf5 2bbe 8189 93be 5d72 873e 2fa7 44be
00000090: 18f8 2d3d 79b4 813e 682e 23bd fe3b 54be
000000a0: c5a3 9cbe a836 573d af7a 22be e0ea bc3c
000000b0: 40de ce3d 427f b7bd 5a90 5b3e c88d 28bd
000000c0: 323b 01be 741b 56be 507e c43d 9e33 48be
000000d0: 6823 883d c879 23bd 868b 5e3e cebf 1ebe
000000e0: 0385 1fbe c864 27bd 19c8 45be 20e8 f63d
000000f0: 5c3a edbd aeda 043e 48ef 3b3e 9216 3d3e
00000100: 80c9 6dbd 02b8 303e 6578 2bbe 4a51 a1be
00000110: 908a f6bc 01ca 6abe ccde 7abe 50a0 a43d
00000120: d55a 8a3e a2dd febd 808a 92bc 929a 6abe
00000130: 3062 623d 80a3 b83d a0d4 46bd a25e 763e
00000140: fa4e 82be d0c8 2dbd cabd 33be 5d2a 8e3e
00000150: 9123 893e 1543 9f3e 8df6 943e fe3f 003e
00000160: 99f3 77be 7ea6 5bbe cc40 9b3d 728d 90be
00000170: da00 4d3e f4c6 0c3e a485 9a3d 4251 8dbe
00000180: 6a8f 6b3e e015 09bd cee2 07be 7411 293e
00000190: 40ea da3c 050c 10be b094 973d aaf0 57be
000001a0: eb7a 963e 97e9 8d3e b256 153e ec4e 2b3e
000001b0: 47f2 a0be 8501 34be a2cc 9bbe 84c6 28be
000001c0: f63b 86be 465a 6e3e 10b4 2e3e 42b3 3e3e
000001d0: f7c0 0fbe 2ecf 763e 802a 3bbd 74cb a7bd
000001e0: 8c5a 2e3e 2271 563e c2bc 68be 4b24 9a3e
000001f0: 18bb 02bd b47d ac3d e537 a1be 4832 103d
00000200: 2c43 20be 52c1 4abe c033 07be 0012 c1ba
00000210: b87f b8bd 786f 4fbe 1ed9 673e b4ab c03d
00000220: ebad 96be 4cda 873d 4017 9f3d a061 3e3c
00000230: 2443 9d3d 20e4 d8bc 7c9e 0d3e f2f5 63be
00000240: db11 0abe ce92 723e 309e 48be fadf 1e3e
00000250: 3fcf 953e 0c0d 94be a7dd 0dbe 2d2b 8a3e
00000260: 60a4 9cbc 20b4 7f3d 9857 383d de71 053e
00000270: 466c 05be a027 283d 0294 5c3e 708b dabc
00000280: 478b 94be b8db df3d fe54 a5bd 66a1 88bd
00000290: d2e1 283e 1800 633d d8e4 43be 9b6e 15be
000002a0: b0e4 44bd 0802 a0bd a21a 89bd fd54 5dbe
000002b0: ea94 6a3e 4ef0 273e b89d 7f3d 64a3 923d
000002c0: 80a2 173d 1221 723e 248c 923d a04f 453d
000002d0: 8201 32be 9c0b d83d 1a79 97be a441 cc3d
000002e0: 3657 8cbe d104 06be a4f4 2a3e 94de 40be
000002f0: 6bec 803e 66ea 32be bd5b 993e d89b c73d
00000300: d953 0cbe 427d 453e 9562 8fbe 9f22 4dbe
00000310: ecdf 4abe 5882 2a3d 9080 fe3c 3e42 8bbe
00000320: 473c 9c3e 0074 9eb9 d6ea 2cbe 4083 f73b
00000330: e8ff 0abe 5cad b23d 2073 ea3d 6eb5 b7bd
00000340: 0006 973c 82ac 403e f09e 52be 2c6a 90bd
00000350: 8015 3fbd dc3d 56be 00fe d23c 006b 3e3c
00000360: 3ac7 82be 8cda 843d 4d89 9a3e 823c 2c3e
00000370: 9aa6 2fbe ab34 943e 0c97 5ebe bca4 24be
00000380: 62d5 0e3e 15ce 803e d381 9a3e 1f64 8b3e
00000390: fe4e 32be 3032 943d 5454 4bbe 80d4 e43b
000003a0: 5f24 863e e671 1f3e 8f80 95be b05c 0bbe
000003b0: e49b 88be 808a 183e 906d 24bd c4b7 6cbe
000003c0: 9cf2 cebd d087 d43d c0d4 ef3c 87eb 973e
000003d0: 8092 89bb c4b7 cb3d 9c2f c4bd d88f 1a3d
000003e0: a09a 393c 9313 8b3e ceae 073e 768a 38be
000003f0: 77dd 8fbe d10b 9abe 9c31 ebbd e86e 273d
0.15731028 -0.08386128 0.23875168 -0.2763593 0.27064922 0.17693132 -0.2319408 -0.2579195
0.24729827 0.3119627 0.027595013 -0.12356138 0.18006414 0.14266416 -0.039465904 0.25317737
0.2049708 0.078835845 0.1641944 -0.29620942 -0.14812383 0.034664392 0.08599588 -0.043231696
0.11940363 0.09633225 -0.29225895 0.09974399 -0.02571097 -0.21761069 0.010672063 -0.077772826
-0.16792957 -0.28815845 0.2645444 -0.192044 0.04247293 0.25333002 -0.03983918 -0.2072601
-0.30593696 0.05254236 -0.15867113 0.023061216 0.101009846 -0.089598194 0.21441785 -0.041150838
-0.12620237 -0.2090891 0.09594405 -0.1955094 0.06647378 -0.03991106 0.21732911 -0.15502855
-0.15578084 -0.040867597 -0.19314612 0.12055993 -0.11583397 0.12974045 0.18352997 0.18465641
-0.058053493 0.17257693 -0.16745146 -0.3150733 -0.030095369 -0.22928621 -0.24499053 0.0803839
0.27022424 -0.12444617 -0.017888308 -0.22910526 0.05526942 0.0901556 -0.04854262 0.24059537
-0.2545088 -0.042427838 -0.17552868 0.27766696 0.26784948 0.31105867 0.29094353 0.12524411
-0.24214019 -0.2145023 0.075807184 -0.28232914 0.20019856 0.1374777 0.07545021 -0.27601057
0.23003927 -0.033468127 -0.13270113 0.16510564 0.026723027 -0.14067085 0.07401407 -0.210879
0.29390654 0.27717277 0.14583853 0.16729325 -0.31434843 -0.17578705 -0.3042956 -0.16481978
-0.26217622 0.23276624 0.17060876 0.18623069 -0.14038454 0.2410247 -0.045694828 -0.081931025
0.17026728 0.20941594 -0.22728255 0.30105814 -0.031916708 0.084224135 -0.31487957 0.035204202
-0.15650624 -0.19800308 -0.13203335 -0.0014730096 -0.090087354 -0.20257366 0.22641417 0.0940775
-0.29429564 0.06633434 0.077681065 0.011619955 0.07678822 -0.026475966 0.13829988 -0.2226179
-0.13483374 0.23688814 -0.19591594 0.15515128 0.2925968 -0.28916204 -0.13854085 0.26986066
-0.019121349 0.06242764 0.04500541 0.13031718 -0.13029584 0.041053414 0.21540835 -0.026677817
-0.2901251 0.1093058 -0.080728516 -0.06671409 0.16492394 0.05542001 -0.19130266 -0.14592974
-0.048069656 -0.078128874 -0.06694533 -0.21614452 0.22908369 0.16400263 0.06240627 0.071600705
0.037020206 0.23645428 0.07155636 0.04817164 -0.17383388 0.10549089 -0.2958458 0.099734575
-0.27410287 -0.13087775 0.16694885 -0.18834907 0.25180373 -0.17472228 0.29952803 0.09746522
-0.1370386 0.19286063 -0.280049 -0.20032738 -0.19811982 0.04162821 0.031067163 -0.27198976
0.30514738 -0.00030222535 -0.16886458 0.007553488 -0.13574183 0.08724472 0.114477396 -0.08970152
0.018435478 0.18815807 -0.20568442 -0.07051501 -0.046651363 -0.20922035 0.025755882 0.0116221905
-0.25542623 0.06486997 0.30182877 0.16819957 -0.17153397 0.28946432 -0.21737307 -0.16078466
0.13948587 0.25157228 0.30177173 0.27224824 -0.17412946 0.07236135 -0.19856387 0.00698334
0.26199624 0.15570793 -0.29199645 -0.13609576 -0.26681435 0.14896584 -0.04014355 -0.23116976
-0.10104868 0.10377467 0.029276252 0.2967188 -0.0041983724 0.0994716 -0.09579393 0.037734836
0.011328369 0.2716337 0.13250276 -0.18021569 -0.28098652 -0.3008714 -0.114840716 0.040877253

l2.weight f4 [300, 400]
00000000: 4367 17bd cd08 a1bc 76a4 e13c 422c 803c
00000010: 5797 383d c555 4b3d f07f 93bc 3d68 a0bc
00000020: f034 e03b 1e14 23bd 0aca de3c 1870 13bc
00000030: 267c 2bbd c89e 1abd 061f 0dbd ac28 613c
00000040: 5ffe 1c3d db40 223d 2092 61bc 2aeb edbc
00000050: 77cb b5bc 22e7 0bbd 2035 53bc aaf6 38bd
00000060: 22ee da3c bdc1 40bd 27cb febc fb70 093d
00000070: 3a31 19bd 80d7 433c 6966 193d c9df 493d
00000080: de40 cf3c 6cd8 5bbc 5a0f ea3c 6049 d8ba
00000090: a097 7cbc 00c0 2a39 08c1 373c 8d52 093d
000000a0: 76ef ab3c 8294 c33c c019 f53b 30ed 24bb
000000b0: 62fd ab3c 3409 453c 9bf8 43bd c071 043c
000000c0: 6ae6 b5bc c335 d9bc 9e67 9e3c 6084 273c
000000d0: e0b9 0a3c b74e c2bc fa43 bd3c d930 403d
000000e0: e86f c83b 3e5b a83c 42ad 33bd 5681 f33c
000000f0: 464a 8e3c 4a89 b83c eace aa3c 4078 57bc
00000100: b0b0 44bb af18 463d 09dc 153d 5bcc 12bd
00000110: 417e 223d cbd2 4b3d d877 d73b 03c8 1fbd
00000120: 54cb 1e3c 4072 25bc 9f3f 133d c2c4 44bd
00000130: dca2 513c 80bb 19ba c0fa 803b 59e1 0c3d
00000140: 40c7 6c3a 6be1 24bd 5def eebc 6301 a4bc
00000150: 68bc ae3b 8a10 9e3c c8e8 18bc 00a9 a1bc
00000160: 2ebc b33c f020 47bd 431c 0f3d 9875 bebb
00000170: 7f81 0e3d efbf 1a3d 7006 af3b 5291 813c
00000180: 23ac e7bc 67bc 123d a2bc ef3c a0a9 00bc
00000190: 1aa7 9f3c 508b 37bb 1902 203d 1a9c a83c
000001a0: 0f4f 153d ad28 3abd c98a 473d fe9b 983c
000001b0: e223 c73c ac8a 363c 8f82 063d 99cd 403d
000001c0: 7093 8bbb e50a 28bd 710f 3c3d 28c3 2cbc
000001d0: 538a c5bc d624 fc3c c696 e43c 405a db3b
000001e0: 30b1 4dbb b4b6 1cbc 79c8 3b3d 2290 f93c
000001f0: 76ee f33c b398 023d 335e d6bc 880b 2b3c
00000200: 9d2b 31bd 1af8 ed3c d5ff 4abd 90ad 4cbd
00000210: ed70 4abd 4696 fc3c 1882 aa3b 0074 ee38
00000220: 344c 023c 7d03 9bbc d4c2 78bc a0f3 09bd
00000230: 0010 48bc b70a fcbc c06d ac3a a3e9 203d
00000240: 7b4e 29bd f66d c93c 7054 18bd 03b5 a9bc
00000250: a030 203c 18f5 0c3c 99f3 273d 00e8 9cb7
00000260: f300 9cbc c765 a9bc 6023 c03a a090 19bd
00000270: 3d93 20bd b740 afbc c059 a83a 544f 0abd
00000280: 33d0 e9bc e939 123d 7142 3d3d 1a4d 80bc
00000290: a3b4 2fbd 1ad1 9cbc c250 a53c 02ef 843c
000002a0: a8f3 7dbc 105f 34bd d852 76bc 382b 37bc
000002b0: 96df eb3c bd1b cbbc dad3 f53c c046 e33b
000002c0: e84b 09bc 8083 36bd 3d31 4a3d c013 12bc
000002d0: 21dc 003d 87df d3bc c770 47bd 1a3f 23bd
000002e0: fae9 d1bc d071 82bc 305d e7bb 5fce 2a3d
000002f0: e8e0 3cbd 2e70 cc3c 1953 2c3d 00b9 a839
00000300: 9d71 ffbc a09c d13a 9858 423c 623b b53c
00000310: f402 79bc 2090 8cbc c03c c1bc e015 46bd
00000320: eada 8f3c f3d4 1abd c0c5 c4bc 00e2 06ba
00000330: 93e1 1d3d 5518 363d 9ef6 14bd d19e 313d
00000340: b974 373d e171 253d 80a4 8e3b f97b 243d
00000350: be02 c73c caf4 12bd 0de4 d7bc c080 763a
00000360: 3823 11bd b6df 86bc 491e 253d 8eb3 be3c
00000370: 295b 323d 00f7 c839 fada d0bc e58b 073d
00000380: b092 713b d4f4 093c f38b adbc 7240 a83c
00000390: 1841 17bd f36c 233d f52a 333d f2ca 933c
000003a0: ad7b 1f3d 3a9d f83c f06e 9cbc 40a1 31bd
000003b0: e898 d73b cb96 003d 589c a7bb 68db 893b
000003c0: dfcb 173d ea1e a93c 3d1b 193d 1094 f03b
000003d0: f0a7 b73b 58f3 43bc 283d 0abc 37b0 d9bc
000003e0: adec 083d a3c9 3a3d 3a02 983c 6036 ba3a
000003f0: 0636 87bc a034 4abd 08b0 17bc 8863 11bd
-0.036963712 -0.019657517 0.027544241 0.015646104 0.045066204 0.049642343 -0.018005341 -0.019580955
0.006842248 -0.039814107 0.02719595 -0.008998893 -0.041866444 -0.03774908 -0.034453414 0.013742607
0.038328525 0.039612632 -0.013767749 -0.029042799 -0.022191746 -0.034155972 -0.012891084 -0.045157112
0.026724879 -0.047059763 -0.03110273 0.033555012 -0.03740046 0.011953235 0.03745118 0.049285684
0.025299486 -0.013418298 0.028571773 -0.001650136 -0.01541701 0.00016283989 0.011215456 0.033525992
0.020988207 0.023874525 0.0074798763 -0.0025165789 0.020994846 0.01202612 -0.04784451 0.008083761
-0.022204597 -0.026514893 0.019336518 0.010224432 0.008467168 -0.023719175 0.023103703 0.046921585
0.006116856 0.02055132 -0.043866403 0.029724758 0.0173694 0.022526402 0.020850617 -0.013151228
-0.003001254 0.048363384 0.036586795 -0.03583942 0.039671186 0.049761575 0.006575566 -0.039009105
0.009692032 -0.01009804 0.035949346 -0.048039205 0.012795176 -0.00058644265 0.0039361417 0.034394596
0.0009032376 -0.040254038 -0.029166872 -0.020020192 0.0053325184 0.019294996 -0.009332843 -0.019733906
0.021940317 -0.048615396 0.03493906 -0.005812358 0.034791466 0.0377807 0.0053413436 0.015816364
-0.028280323 0.035824206 0.029264752 -0.007852942 0.01948886 -0.002800662 0.0390645 0.020582248
0.03645235 -0.045448948 0.04871634 0.01862907 0.024309102 0.01114146 0.032839354 0.047071073
-0.0042595193 -0.041026015 0.045913164 -0.010544576 -0.02411381 0.030779283 0.027903926 0.0066941082
-0.003138613 -0.009565044 0.045845482 0.030464236 0.029776793 0.031883907 -0.026167965 0.010439761
-0.043254483 0.029048968 -0.049560387 -0.04997021 -0.0494241 0.030833375 0.0052034967 0.00011370331
0.007952739 -0.018922562 -0.015183169 -0.033679605 -0.012210846 -0.030766828 0.0013155267 0.039285313
-0.04133461 0.024588566 -0.0371899 -0.020716196 0.009777218 0.008603357 0.041003797 -1.8704683e-05
-0.019043421 -0.020678414 0.001465898 -0.03749144 -0.039202917 -0.021393163 0.001284413 -0.03376706
-0.02854166 0.03569976 0.04620594 -0.015661765 -0.042896878 -0.019142676 0.02018011 0.016227249
-0.015499987 -0.04403597 -0.0150344 -0.011179738 0.028793138 -0.0247935 0.030008245 0.0069359243
-0.008379914 -0.044559002 0.049363364 -0.008915842 0.03145993 -0.025863422 -0.048691537 -0.0398551
-0.025624264 -0.01592341 -0.0070606694 0.041700717 -0.046112925 0.024955835 0.042071436 0.00032181293
-0.031182105 0.0015992112 0.011861943 0.022123042 -0.015198458 -0.017158568 -0.023588538 -0.048360705
0.017560441 -0.03780074 -0.024020076 -0.0005145371 0.038545202 0.0444568 -0.036368005 0.04336435
0.04478905 0.040391807 0.004353106 0.040157292 0.0242933 -0.03587798 -0.02635386 0.00094033405
-0.035433978 -0.016464096 0.040312085 0.023278978 0.04354397 0.00038331002 -0.025495041 0.0330924
0.0036861114 0.008420188 -0.021184897 0.020538542 -0.036927313 0.039898824 0.04374214 0.018041108
0.038936306 0.030348409 -0.019095868 -0.04336667 0.006579507 0.031393807 -0.005115073 0.0042070635
0.03705966 0.020644624 0.037379492 0.007341869 0.0056047365 -0.011959873 -0.008437432 -0.026573284
0.033428837 0.045602452 0.01855575 0.0014206879 -0.016505253 -0.049366593 -0.009258278 -0.03549531

l2.bias f4 [300]
00000000: f429 7d3c 0f33 093d ca9a 20bd 00e3 5c39
00000010: 74ef 19bc a7ea c9bc da1d 91bc c34e b5bc
00000020: 9ae2 ae3c eac4 0bbd eecf c03c c23f bb3c
00000030: ea22 9a3c 3867 2abc f5e1 43bd 2ff5 003d
00000040: 001a 8638 6294 ca3c 40ec a3bc 9acf 8cbc
00000050: bc0e 743c e34e 4c3d 40ca e8ba da65 ed3c
00000060: df8d 3dbd ec69 41bc 75ca 4b3d 2a0e 923c
00000070: b893 7abc 7307 19bd 2c54 59bc 5005 27bb
00000080: 5e2a e63c c00d a8bc cedb f63c 2a75 fbbc
00000090: 185b 353c 309d 3e3b a8fb 25bd 472c cebc
000000a0: 50b8 13bd 0c18 09bc a9fe 143d e7b2 4abd
000000b0: 6064 a73a e51c 323d 5fb4 113d 9c89 00bd
000000c0: dcec 89bc 8e72 a53c 5488 09bc de88 b13c
000000d0: 54e5 483c 8238 de3c e4c5 90bc baa3 dabc
000000e0: dfff 053d 9a39 d13c 4a41 c93c 5960 023d
000000f0: 0036 f6bb 593e 103d 5089 e6bc 43a3 d0bc
00000100: b38b 44bd 72f9 1dbd a7b4 a3bc e821 22bd
00000110: dbb8 163d c058 e9ba 37f9 443d 6230 b63c
00000120: 3388 16bd e073 bebc 42e0 3ebd 4e6a a43c
00000130: 1022 a73b c74c d8bc e07f 613b 40aa c4bb
00000140: 4fee 2e3d c5d7 23bd 4d09 0c3d 30ba 16bb
00000150: 0add df3c 1036 aabc ea60 2dbd 3378 c5bc
00000160: bebb 09bd 990d 093d f26e a63c 60eb 39bd
00000170: 306c 9dbb 8a80 82bc 349a 0f3c ebdb 013d
00000180: 01f0 3d3d 9ab5 ba3c 501b 20bb 6df5 11bd
00000190: 69a6 3e3d 1831 16bd 4030 103c 80c3 e4bc
000001a0: c0d0 fcbc d022 353b 4292 38bd c819 41bc
000001b0: 83f2 1a3d 3a4e ddbc 20ef 9dbc 3acc e8bc
000001c0: 0a40 aebc 62ca c03c fc26 94bc 6c02 0d3c
000001d0: 284b 1ebc 404b 8cbc b8e5 6cbc 2c0d 50bc
000001e0: fc83 623c 4a4a bb3c 6ab3 d73c d531 023d
000001f0: b815 5ebc ae0d 27bd 26d2 903c 7f26 2dbd
00000200: 5298 d93c 12b8 c73c a961 303d f4dc 613c
00000210: 3d3a 203d 487f 473c 6887 da3b baab 81bc
00000220: 1dc0 2c3d be99 843c fd46 1abd 577e 133d
00000230: 2813 53bc b5d2 08bd 2045 afbc 561f f03c
00000240: b29a fc3c 462f fa3c e055 3abd 7bca 353d
00000250: 25e1 4abd 70a1 893b 8e3e 24bd aa1c bcbc
00000260: 80b4 443a d058 dcbc f4fe 01bd 192e 303d
00000270: c4ac 02bd 5196 133d 0cba 8bbc 8e26 993c
00000280: 6869 fcbb 5482 063c 82ca 1dbd 48f7 0ebc
00000290: b776 163d d6cb d83c 7eac 893c 80e6 c53b
000002a0: c79a e1bc 4a52 24bd 285e 3cbc d768 48bd
000002b0: 00f6 58bb 2d8a 113d 80de 8e39 d411 12bc
000002c0: 3829 1abd 6021 c6bc e883 fcbb 5b4e 103d
000002d0: 630d b0bc 7397 f9bc 37b8 2d3d 88e2 71bc
000002e0: 02d5 b23c 132e 463d 0af4 15bd 1453 443c
000002f0: 3000 853b 914f 103d cd00 2fbd 382b 37bc
00000300: adb3 40bd 9a64 11bd cd83 b6bc e842 b4bb
00000310: 3a51 a03c 6853 39bc 325e fe3c 3080 a4bb
00000320: e873 cf3b 00c1 e93a a3f8 183d 4853 31bd
00000330: db2f 40bd dee5 e03c b76e a2bc 5d01 4c3d
00000340: 3953 2e3d 2725 9dbc 9dcc cabc 968e 10bd
00000350: 037d b9bc 6deb 40bd 2097 60bc 1dd3 f3bc
00000360: e60f f53c 50fc 33bd 6304 4bbd aa0f 48bd
00000370: 6d8d d2bc d0b8 b3bb 854a 37bd fac8 d1bc
00000380: 5017 013b 5776 39bd 1fae 3b3d 32f1 893c
00000390: 5adf ec3c 6846 143c ca1c f43c 9ec9 b53c
000003a0: 1b7f 233d e9cf 333d 316d 1c3d aae7 ebbc
000003b0: 7634 23bd 44b6 683c 1b77 4a3d 70c4 33bd
000003c0: e5a6 46bd f8a0 22bd 35d6 2e3d b0d3 d6bc
000003d0: 273d dabc c9fc 393d f363 49bd 6cc3 38bc
000003e0: caa7 fd3c 10b0 b83b 026b ab3c 4823 3abc
000003f0: 7f9d 353d 3437 69bc 5a03 cebc 8a3e 09bd
0.015451897 0.03349596 -0.03921012 0.00021065399 -0.009395469 -0.024648024 -0.01771443 -0.022132283
0.021348286 -0.03412334 0.023536649 0.02285755 0.018815476 -0.010400586 -0.04782291 0.031483825
6.394461e-05 0.024728958 -0.020010114 -0.017188836 0.014896091 0.04987992 -0.001776047 0.02897923
-0.046277877 -0.011805039 0.049753625 0.01782902 -0.015294008 -0.03736062 -0.013264697 -0.0025485344
0.028096374 -0.020514369 0.030134108 -0.030695517 0.011069082 0.002908539 -0.0405232 -0.025167597
-0.036064446 -0.00836755 0.036375675 -0.04948702 0.0012771003 0.043484587 0.035572406 -0.031381235
-0.016836576 0.020196225 -0.00839432 0.021671709 0.012261707 0.027126554 -0.017672487 -0.026689399
0.03271472 0.025540162 0.024567265 0.031830166 -0.0075137615 0.03521571 -0.028141648 -0.025468474
-0.04798479 -0.038567968 -0.019983603 -0.039583117 0.036797386 -0.0017802939 0.048089232 0.022239868
-0.036750983 -0.023248613 -0.046600588 0.020070221 0.005100496 -0.026403798 0.0034408495 -0.0060017407
0.042707738 -0.040000696 0.034188557 -0.002299916 0.02732708 -0.020777732 -0.042328753 -0.024105167
-0.03362631 0.033460233 0.020316575 -0.045390487 -0.0048041567 -0.015930433 0.008764792 0.03170387
0.046371464 0.022791672 -0.0024430342 -0.035634447 0.04654542 -0.036667913 0.008800566 -0.027925253
-0.030861259 0.0027639158 -0.045061357 -0.011785932 0.037828933 -0.02701484 -0.019279063 -0.028417695
-0.02127077 0.023534004 -0.018084995 0.008606534 -0.009661473 -0.017125726 -0.014459066 -0.012698453
0.013825413 0.022862572 0.026330668 0.031785805 -0.013554983 -0.04078453 0.017678332 -0.04227304
0.02656189 0.024379764 0.043061886 0.0137855895 0.03911804 0.012176342 0.0066689737 -0.015828956
0.0421754 0.016186591 -0.037665356 0.03600916 -0.012882985 -0.03340407 -0.021395266 0.029311817
0.030835483 0.03054012 -0.045492053 0.044382554 -0.04953112 0.004200153 -0.04009872 -0.022962887
0.0007503703 -0.026897818 -0.031737283 0.043012712 -0.031903043 0.036032025 -0.017056488 0.018695142
-0.007702995 0.008209784 -0.038523205 -0.008725949 0.03673431 0.026464384 0.016805883 0.0060394406
-0.027539624 -0.04011754 -0.011497058 -0.048928108 -0.0033105612 0.035532165 0.00027250126 -0.008915383
-0.037636966 -0.024185836 -0.007706154 0.035230976 -0.021490758 -0.030467724 0.04241201 -0.014763482
0.021830086 0.048383784 -0.036609687 0.011982698 0.0040588602 0.03523213 -0.042725373 -0.011179738
-0.047046352 -0.03549633 -0.022279644 -0.00550114 0.019569982 -0.0113113895 0.031050775 -0.005020164
0.006330956 0.0017834008 0.037346493 -0.043292314 -0.04692064 0.02745336 -0.019828184 0.049805988
0.042559836 -0.019182755 -0.02475577 -0.03529223 -0.022642618 -0.04709952 -0.013707906 -0.029763753
0.029914808 -0.043941796 -0.04956473 -0.048843063 -0.025702203 -0.005484678 -0.0447488 -0.025608528
0.0019697733 -0.045278873 0.04582035 0.016838644 0.028915096 0.009049989 0.029798884 0.022190865
0.03991614 0.04389945 0.03819007 -0.02879699 -0.039844953 0.014203612 0.049429994 -0.04388851
-0.048499007 -0.039704293 0.042684752 -0.026223987 -0.026640488 0.04540709 -0.049167585 -0.011277061
0.030963797 0.0056362227 0.020925049 -0.011360951 0.044339653 -0.014234353 -0.025148083 -0.033506908

l3.weight f4 [2, 300]
00000000: cccb 093d b0b8 d5bc c0f3 6cbb cef9 683d
00000010: 8cc3 093d d2f7 3dbd 740f 0b3d fad6 0bbd
00000020: 4050 113c 3c46 9fbc 34dd 53bc d486 7dbc
00000030: 10d2 093d 6c7c 563d 10ea c1bc a0cf ae3b
00000040: 4828 d03c a80b 0a3c a22d b2bc d2c7 1fbd
00000050: e8ee dcbb d82a 133c 5cbd 4bbd 3065 42bb
00000060: 848b 8d3c b8d5 903c 02be ccbc 6054 203d
00000070: 6028 033c 5c27 12bc 00f4 663a 0eb2 1c3d
00000080: 9c3e c3bc 2e7c d0bc 6471 c93c c059 563d
00000090: 0457 43bc 5aa1 263d 4087 d23b 745a 12bd
000000a0: 34cb b2bc 7040 1f3d 1811 6f3c 689f f23c
000000b0: 1c01 d1bc 08c7 113c c2ef 033d f04c 36bd
000000c0: 726f 583d 324e 2abd 4c1a aa3c 6453 66bd
000000d0: 5977 e7bc b8ce 053c 10fc 663d 1038 90bb
000000e0: 484c 5f3c fd5d 21bd 2689 153d 88ee 903c
000000f0: 08ba 15bd 609e 2bbb d2cb 213d 06a6 cbbc
00000100: 400a f5ba 2600 513d 7c04 323d d0de af3c
00000110: d00c 0f3c 30ec 02bd 5083 7b3c 34bd 663d
00000120: 40ed 0bbd 2090 5e3d 5469 00bd 9edc cdbc
00000130: 0c5f 1e3d 82c3 463d f21b 133d f8fb 1a3c
00000140: c07a 69bd 1133 18bd f07b 6abc 8c59 29bd
00000150: 46d2 8fbc 3048 433b deaf 433d 84e4 65bd
00000160: 00fa b539 245d 23bc 89b3 1dbd 68a8 0b3c
00000170: e022 00bd fe11 adbc 7888 bcbb 00ef d6b9
00000180: 88ae e0bb 160d 1dbd 108e 103c c14d 63bd
00000190: 02ad 513d bb6c 56bd 2c49 d23c a2a3 163d
000001a0: 005d f33c 5ccb bebc 3095 0abd f686 0a3d
000001b0: bbc1 f4bc c257 043d 1c33 5ebd 7487 33bd
000001c0: c8b0 a43c ee34 083d 04a9 ab3c 3e40 6a3d
000001d0: 90b3 423c a053 d53c 4c0f 573d 7016 17bd
000001e0: 942f d5bc 0c85 a53c e496 b13c d7d8 60bd
000001f0: 622b 0d3d 04d1 23bc 3c61 9a3c e411 df3c
00000200: 6ea2 473d f209 3fbd 600e c4bc 46b1 5fbd
00000210: c918 4cbd d81a bc3c c0b4 523a a4ff 2fbc
00000220: 3a35 bfbc 28b6 e13c f82f 19bd e070 e5ba
00000230: 45cf efbc f03a 08bb 7892 023c 03c5 0fbd
00000240: 8c24 a9bc aadb 4e3d decd 9bbc 7498 9dbc
00000250: f00d 233c 40f8 c13a accf 3c3d 68c7 403d
00000260: 9056 823b 9052 463d d4a9 e33c b00e 113d
00000270: 1827 3c3c 8097 30bc 18ef 44bc 4a24 8cbc
00000280: bc1b 293d f88b 683c ce16 0c3d 1e10 29bd
00000290: 0053 703a f0e4 55bb bc86 b1bc 2c7b 0bbc
000002a0: 4485 813c c0ba d7ba b97d 19bd 442b 043d
000002b0: 1575 67bd 5066 5e3d 5a69 613d 4cb3 cdbc
000002c0: 8b98 57bd 2828 693d 3649 183d a8f1 40bd
000002d0: b887 21bd 0036 beb8 8667 503d 402a 133c
000002e0: 9a10 46bd 542e df3c 5845 e4bc a47d 923c
000002f0: 009b 663d aace 3f3d baa5 63bd 58eb 663d
00000300: 1468 483d 1892 173c ce11 543d 3053 0e3d
00000310: 2033 e7ba 2806 92bb b0db 523c 800c 403c
00000320: 1ef2 3d3d aaf8 4abd 8446 133d 2689 173d
00000330: 704d db3c 46f7 44bd 8680 1bbd 2ca6 5abd
00000340: 1086 4e3d f50f 51bd 8026 bd39 385c 0f3c
00000350: b4d6 f83c b094 c33b aa23 193d 06ae 1dbd
00000360: 105c 3abc d050 5b3c 204f c83a 4875 933c
00000370: 78ac 0d3c 34e6 4f3d 00c1 4cbd b6f6 12bd
00000380: 50e5 c8bb 105d 463b 9ce1 31bc ec71 1b3d
00000390: 16ce 2cbd 9cb8 b73c 00bc f8b8 6cd4 ad3c
000003a0: c042 ff3b da71 e6bc 4ea4 6b3d d0e4 363b
000003b0: 9caa 4ebd 7c30 74bc 902d ee3c 9c97 b4bc
000003c0: 30a7 533b 18b2 13bc 5c91 353d 8c22 59bd
000003d0: 108a 86bb 9aa2 143d 05cb 5bbd a019 723b
000003e0: c404 95bc f0d6 1bbc f460 8abc e851 683d
000003f0: 801c 39bd 9836 01bc 109f 30bb ca23 e8bc
0.03364162 -0.026089042 -0.0036156029 0.056878857 0.033633754 -0.046378918 0.033950284 -0.034140565
0.008869231 -0.01944267 -0.012931157 -0.01547404 0.033647597 0.05236475 -0.02367118 0.0053348094
0.025409833 0.008425631 -0.021750275 -0.039008923 -0.006742347 0.008982383 -0.049741134 -0.0029662363
0.01727844 0.017680034 -0.024992947 0.039142966 0.008005232 -0.008920517 0.00088101625 0.038255744
-0.023833565 -0.025449838 0.024590202 0.052331686 -0.011922602 0.04068122 0.0064248145 -0.035730794
-0.02182541 0.03887981 0.014591478 0.029617026 -0.025513224 0.00889755 0.032211073 -0.044506967
0.052840658 -0.04157848 0.020764492 -0.05623187 -0.028255152 0.008166961 0.05639273 -0.0044012144
0.013629027 -0.039396275 0.036507748 0.017691866 -0.036554366 -0.0026186928 0.03950102 -0.02485944
-0.0018695071 0.051025532 0.043461308 0.02146855 0.008731082 -0.031963527 0.015351132 0.056332782
-0.034161806 0.054336667 -0.03135045 -0.025129613 0.038664863 0.048526295 0.035915323 0.009459488
-0.05700183 -0.037158076 -0.014311776 -0.041345164 -0.01755632 0.0029797666 0.047775142 -0.056126133
0.00034709275 -0.009970937 -0.038501296 0.008524038 -0.03128326 -0.021126743 -0.005753573 -0.0004099533
-0.0068567432 -0.038342558 0.008822933 -0.055494074 0.051190384 -0.052349787 0.025669657 0.036777146
0.029707432 -0.023290329 -0.033833683 0.033820115 -0.029877534 0.032310255 -0.05424796 -0.04383035
0.020103827 0.033253603 0.020954616 0.057190172 0.011883631 0.026040852 0.052504823 -0.036886632
-0.026023664 0.020205043 0.021678396 -0.054894295 0.0344652 -0.009998564 0.018845193 0.02723021
0.04873889 -0.046640344 -0.023932636 -0.05461242 -0.049828324 0.022962019 0.0008037798 -0.010742102
-0.02334081 0.02755268 -0.037399262 -0.0017504953 -0.029273639 -0.0020787083 0.007969491 -0.035099994
-0.02064731 0.050502457 -0.019019064 -0.019237734 0.009952053 0.0014798716 0.04609649 0.04706517
0.003977604 0.04841858 0.027790941 0.035414398 0.01148393 -0.010778308 -0.012019895 -0.017107148
0.041286215 0.014193527 0.034201436 -0.041275136 0.00091676414 -0.0032637678 -0.021670692 -0.008513253
0.015810616 -0.0016458854 -0.037473414 0.032267824 -0.056508143 0.05429679 0.05503211 -0.02510991
-0.05263571 0.05692306 0.037179194 -0.04710546 -0.039436072 -9.069964e-05 0.050879978 0.008982241
-0.048355676 0.02724377 -0.027865097 0.017882176 0.056300163 0.04682795 -0.05557797 0.056376785
0.04892738 0.00925114 0.051774792 0.034747303 -0.0017639138 -0.0044563003 0.01286976 0.01172173
0.04637348 -0.04955355 0.03595592 0.03699603 0.026770324 -0.04808738 -0.037964366 -0.05338113
0.05042082 -0.05104061 0.00036077574 0.008750014 0.030375816 0.0059686527 0.037387528 -0.03849604
-0.0113744885 0.013385966 0.001528237 0.01800026 0.008647077 0.05075665 -0.049988747 -0.035879813
-0.006130852 0.0030267872 -0.010857012 0.03795044 -0.042188726 0.022426896 -0.00011860579 0.021219455
0.0077899396 -0.02813046 0.05752974 0.002790738 -0.050455675 -0.014904138 0.02907446 -0.02204495
0.0032295696 -0.009014629 0.04432808 -0.053011462 -0.004105814 0.03628788 -0.05366041 0.0036941543
-0.018190749 -0.009511694 -0.016891934 0.056718737 -0.045193195 -0.007886551 -0.0026950277 -0.028337378

l3.bias f4 [2]
00000000: 84a5 c93c ee0e 98bc
0.024615057 -0.018561807
