BCQ/results/bcq_actor.pt (torch_old, 502224 bytes, 6 tensors)

l1.weight f4 [400, 10]
000000 7f ad cc be fa 38 69 be a1 02 06 bf d5 e9 81 3d
       -0.39976117 -0.22775641 -0.5234776 0.06343428
000010 3b 94 4e be 0d 9a 92 3e 43 9e 5f 3c 65 05 32 be
       -0.20173733 0.28633156 0.013648572 -0.1738487
000020 46 31 8c bd 53 41 14 3e 6a 3c 7b be 9c 06 59 be
       -0.06845336 0.14478044 -0.24534765 -0.21193928
000030 b5 c5 8e be 54 79 ef be 9f 50 51 be ae 04 1a 3e
       -0.27885213 -0.46772254 -0.20440911 0.15040848
000040 27 c2 7c 3e 52 39 d5 3e bb 14 17 be a8 46 ec bd
       0.24683438 0.41645294 -0.14754002 -0.11536914
000050 49 5d 2a be b0 ae 98 bc 81 4c 16 bd b1 71 e4 3e
       -0.16637148 -0.018637985 -0.036694054 0.4461799
000060 9e 74 78 be e8 ee 93 3e b4 2b 09 3f 2d 28 97 3a
       -0.24263236 0.28893209 0.5358231 0.0011532359
000070 3e 29 a1 be df b6 07 bf af 27 da be f7 75 f2 bc
       -0.31476778 -0.53013414 -0.426084 -0.029597266
000080 d0 98 98 3b 94 41 0f 3e e8 36 3c bd 0f 3d 54 be
       0.0046568885 0.1398986 -0.0459508 -0.20726417
000090 cc 0f 82 be ca d3 18 3e 72 8a 59 bd d3 0c 11 3f
       -0.25402677 0.14924541 -0.053110547 0.56660193
0000a0 95 f5 3c bd 4c 49 66 be a5 e5 85 3f 97 b7 a0 be
       -0.046132643 -0.22488898 1.0460707 -0.31390068
0000b0 99 91 97 bc 50 7f 2c bd cf 99 03 bf 44 98 84 be
       -0.018502044 -0.042113602 -0.5140657 -0.2589742
0000c0 a9 c3 30 be 54 03 2e 3f 3c 37 3f bd 4b 06 86 3d
       -0.17262138 0.6797383 -0.046683535 0.06544169
0000d0 7b 67 24 3f 8f 52 f8 3d c8 5a 43 3e 76 53 94 be
       0.642204 0.12125122 0.19077599 -0.28969926
0000e0 88 fe 9a 3b 4c 56 3b 3e 6c 7f 00 bf e2 4a 69 3c
       0.0047300495 0.18294638 -0.5019443 0.014239045
0000f0 e8 5d cb bd 62 f3 eb bd f6 49 90 be f6 71 a7 bc
       -0.099300206 -0.11521031 -0.28181428 -0.020440083
000100 b7 25 90 bd 77 47 3c 3e 53 7c 81 be 22 7a 8d be
       -0.070384435 0.18386637 -0.25290164 -0.27632242
000110 25 ae 9b 3e 2d 23 23 3f 20 b5 b4 bd 28 13 22 3d
       0.304063 0.6372555 -0.08823609 0.03956905
000120 85 56 03 3f 39 5f 6f 3e 9f ee bc 3e 11 44 39 3f
       0.51303893 0.23376168 0.36900803 0.72369486
000130 ac c8 25 bd 5d 42 0e bf 73 7b cb 3e ea 21 e2 be
       -0.04047458 -0.5557001 0.39742622 -0.441665
000140 84 27 d5 be a8 2e 23 3e b6 4b b8 3f bd dc 38 be
       -0.4163171 0.15935767 1.4398105 -0.18052955
000150 91 99 79 3d e1 38 be be 00 55 b3 be 3d 10 af be
       0.060937468 -0.3715277 -0.35025787 -0.34192076
000160 78 21 5f 3e 50 c3 83 3e 12 f8 06 bd 87 e5 34 3c
       0.21790111 0.2573495 -0.032951422 0.011041052
000170 52 b2 48 3f f2 07 a0 3e 7d bf c4 be f5 20 d4 be
       0.78397095 0.31256062 -0.38427344 -0.41431394
000180 b7 ea 99 3f 61 c7 dc 3d 30 3d e2 be d5 e6 a1 3e
       1.2024754 0.10780216 -0.44187307 0.31621423
000190 47 4e 0a 3c cf 95 9b bd a9 ba 0d bf 2c 4a 7d be
       0.008441514 -0.07596933 -0.55362946 -0.24735326
0001a0 ef 3d 00 be d5 fe be be 43 fc 49 be 29 28 e2 bd
       -0.12523626 -0.37303796 -0.19725136 -0.11042816
0001b0 a3 50 01 3d 43 93 67 bd ad 99 81 be 15 1e 83 3d
       0.03157104 -0.056536924 -0.25312558 0.06402222
0001c0 95 22 34 3d 86 79 65 3f bd 96 19 3f 21 f5 8e 3e
       0.043978292 0.89638555 0.59995633 0.27921394
0001d0 bf db 18 bf b2 70 14 3e 7c 11 d3 3b 78 5d 26 3e
       -0.59710306 0.14496115 0.0064412933 0.16246593
0001e0 23 13 fe bd 5c b7 6a be 63 35 41 be a5 1f 96 3e
       -0.12405994 -0.22921509 -0.18868022 0.29321018
0001f0 95 17 be be 1f 13 ae 3d 6a 5c ab be 11 aa 1e 3e
       -0.37127367 0.08499741 -0.33468944 0.15494563
000200 f3 34 67 be f9 a9 8d be d9 83 a0 be 53 ee 36 be
       -0.22578792 -0.2766874 -0.31350592 -0.17864351
000210 00 bb ca be 41 1a f5 bc 33 2b d0 3d 20 45 23 be
       -0.39595795 -0.029919745 0.101644896 -0.15944338
000220 ef 34 e3 be 20 4b 44 be 1e 69 aa bd 6f 78 5a 3e
       -0.44376323 -0.19169283 -0.08320831 0.21335004
000230 aa 39 82 3d d0 e9 0f bd df e7 8c 3f 5c d9 46 be
       0.06358655 -0.03513509 1.1008261 -0.19418854
000240 d8 dc 9f be aa a0 c9 3d 83 c6 cc 3e 5d 53 a5 3d
       -0.31223178 0.09845097 0.39995202 0.08072541
000250 9e 03 e3 bd 42 ae b0 bb 88 9d 06 bf 6d 5c fe be
       -0.11084674 -0.005391867 -0.52584124 -0.4967989
000260 e4 5d 73 3c 15 7d 7d 3e 27 5b 57 3c b3 92 9a be
       0.014853928 0.24754746 0.013144291 -0.30190048
000270 a2 30 73 3e c4 e2 5f be 02 32 34 be 1f 1f 1a bf
       0.2374902 -0.21863848 -0.17597201 -0.6020374
000280 43 3a 9f be c2 d4 9f be a0 40 74 be 9a f0 b2 be
       -0.31099138 -0.3121701 -0.23852777 -0.3494919
000290 3d 5a 95 3c 04 e3 32 3e 26 36 03 bf 88 66 f5 bc
       0.018231506 0.17469412 -0.512545 -0.029956117
0002a0 2a 83 f6 be 6b d0 2a 3e 04 17 1b 3e ce e1 82 be
       -0.48146945 0.16681068 0.15145499 -0.255629
0002b0 5d 50 16 3f da 37 c9 3e 06 8b a2 bb 60 e2 4b 3d
       0.58716375 0.39300424 -0.0049604205 0.049776435
0002c0 62 99 9f be 42 ed 99 be d1 de 27 3f cb 6b 7a be
       -0.3117171 -0.30063826 0.65574366 -0.24455182
0002d0 d1 a2 46 be 11 97 96 be 82 36 40 3f 24 b5 68 be
       -0.19398047 -0.2941213 0.7508317 -0.2272535
0002e0 55 20 74 3d 2f 11 b8 3e a9 db 84 3e 06 74 90 3d
       0.059601147 0.3595061 0.25948837 0.0705338
0002f0 c1 d0 da be d4 df fc 3b 05 53 e9 3c 69 fa cb bb
       -0.42737392 0.007717112 0.02848197 -0.0062249196
000300 ee f0 75 be 4d 82 c7 3e 0a 79 10 be 44 79 f4 bd
       -0.24017689 0.389666 -0.14108673 -0.11937192
000310 f9 09 81 bd a1 02 6e be fc 96 09 bf 3f 78 d2 3c
       -0.0630073 -0.2324319 -0.5374601 0.025692103
000320 9b 40 28 be 0d ec d6 3c ee 20 91 be dc fd 0b be
       -0.16430895 0.026235605 -0.28345436 -0.13671058
000330 11 7d f1 be f2 03 64 be ad ac a8 be 4e 00 e7 3e
       -0.4716573 -0.2226713 -0.3294424 0.4511742
000340 1b c8 f4 3c 4a de 74 3e 47 1e 33 be 72 b8 70 be
       0.029880574 0.23912922 -0.17492019 -0.2350786
000350 f1 9a 01 3e ee cb 3a 3c 95 02 8f bd 32 0a b1 be
       0.12656762 0.01140116 -0.06982914 -0.3457809
000360 0a 1d 11 bf 84 3c 2f 3c 41 6e 34 3f b6 96 bb be
       -0.56684935 0.01069558 0.70480734 -0.3663842
000370 a6 90 97 be f9 d2 21 3d a4 5d 23 3f 5c eb a3 3e
       -0.29602545 0.03950784 0.6381476 0.32015502
000380 05 93 d7 3d 52 ff 49 3e c8 54 ff be ea 03 f2 be
       0.105260886 0.19726303 -0.4986937 -0.4726861
000390 cc fe a1 3c 65 2e 0a 3e f6 d6 ec bc bb f0 69 3e
       0.019774817 0.1349426 -0.028911095 0.22845738
0003a0 fd cb d1 3e e1 2e c3 3f 9e 2c c0 3e a5 18 8e be
       0.40975943 1.5248681 0.3753404 -0.27753177
0003b0 2c 6c a3 bd fa 28 ba be a9 f4 a1 3d 25 ad a6 be
       -0.079796165 -0.36359388 0.07907993 -0.32553974
0003c0 ad 17 5f be f1 27 ae bd ce 3d 7f 3e 68 d8 07 be
       -0.21786375 -0.08503712 0.2492592 -0.13266146
0003d0 90 ae 38 be a9 e9 bb be fd 8f 02 3f 9d 63 de be
       -0.1803534 -0.36701706 0.5100096 -0.43435374
0003e0 3f 4b f9 3d a9 b0 93 be a8 d5 9c bd 39 ed 06 3e
       0.12172555 -0.28845719 -0.07657939 0.13176431
0003f0 44 fe 23 3f a4 a3 99 be bb 97 5a 3d ec cd 3f be
       0.64059854 -0.3000766 0.053367358 -0.18730897

l1.bias f4 [400]
000000 88 8c 76 be 1d 36 6f be b6 b8 2e bd fb 71 14 bf
       -0.24077046 -0.23360486 -0.042656623 -0.5798642
000010 76 be 54 3e e1 dc 93 bd 6e de f2 be ca 13 d0 bd
       0.2077578 -0.07219864 -0.47435325 -0.101600245
000020 9f 9b 00 3e cc c9 26 3e 6b 0f 86 be 12 54 7d be
       0.12559365 0.16287917 -0.26183638 -0.24739102
000030 99 b3 8b bd 69 b8 d4 bd 00 17 8d be 50 59 bd 3c
       -0.06821365 -0.10386736 -0.2755661 0.023113877
000040 75 6a 39 bd 95 22 44 bd fe a3 82 bd 51 e4 04 bf
       -0.04526754 -0.047884542 -0.06378935 -0.51910883
000050 c8 cb a6 be b5 20 0d be 8d 2b 40 be 00 1c 9b bd
       -0.32577348 -0.13782008 -0.18766613 -0.075737
000060 cd 1e 50 be 32 d9 3e 3e 2a cf 64 be 14 72 76 be
       -0.2032425 0.18637541 -0.22344652 -0.24066955
000070 b2 28 39 bd dc 0e 6b be 09 97 5b be 01 34 84 be
       -0.045204826 -0.22954887 -0.21444334 -0.25820926
000080 84 1a 59 be 71 e8 43 be da 6b 3c 3e 06 98 7c be
       -0.21201521 -0.19131638 0.18400517 -0.24667367
000090 61 a9 56 be 9f 81 df 3d 26 f5 ad bc 2a ea aa be
       -0.2096305 0.10913395 -0.02123506 -0.33381778
0000a0 a5 51 bb be 0b 87 3d bd 07 6e 84 be d5 bf 6d be
       -0.36585727 -0.046271365 -0.25865194 -0.2321771
0000b0 76 92 e0 3d 05 4a e8 ba ec a7 5c 3d 9e 0c 91 be
       0.10965435 -0.0017722255 0.05387108 -0.2832994
0000c0 ff 4a c6 bd fb 98 e3 be cd 82 0a be aa 0f 9a be
       -0.09682273 -0.44452652 -0.13526459 -0.30090076
0000d0 93 3b 0f bd 0f df 92 be 60 3a 15 be 60 da 91 be
       -0.034968924 -0.28685805 -0.1457305 -0.2848692
0000e0 92 e0 82 be 18 29 8b be e9 4d a0 be 85 71 7c 3d
       -0.2556196 -0.2717979 -0.3130944 0.0616317
0000f0 d6 fb 7c be 80 78 16 bd c7 64 b9 bd 24 df 3a be
       -0.24705443 -0.03673601 -0.09052425 -0.18249184
000100 6c 37 77 be 81 75 17 3d 43 57 b4 be 50 44 cc be
       -0.24142236 0.036977295 -0.35222825 -0.39895868
000110 e8 32 33 be 52 31 24 bc 35 0a 8f be 95 9a 83 be
       -0.17499888 -0.0100215245 -0.27937475 -0.25703874
000120 22 85 a7 3c 7e 4a c0 be 53 26 6f be 6d da f4 bd
       0.020449225 -0.37556833 -0.23354463 -0.11955724
000130 1b 4a fc bd f1 18 81 3d 98 ca 06 be ac 81 d5 3d
       -0.12318822 0.06303585 -0.13163221 0.104251236
000140 71 fc cb bd a0 88 75 be a5 39 72 be 57 5e 63 bd
       -0.09960259 -0.239779 -0.23654802 -0.05550989
000150 61 4f f9 3c 5d ba c0 3d b1 90 34 be 8d c6 83 bd
       0.030433359 0.09410546 -0.1763332 -0.06434355
000160 13 4c 4f be 65 70 ba be 97 02 ea bc b5 dc 44 be
       -0.20243864 -0.36413875 -0.028565688 -0.19224818
000170 22 60 cc 3c 50 2a d8 3c f0 58 76 3d 00 c7 f7 be
       0.024948183 0.026387364 0.06014341 -0.48394012
000180 0d 0e 9b 3d 04 43 a9 bd d5 06 5d be f0 d9 d5 bc
       0.07571039 -0.08264735 -0.21584637 -0.026104897
000190 e8 f0 45 bc 71 b7 be bd 1c d2 34 be ff e8 a5 be
       -0.012081362 -0.093123324 -0.17658275 -0.32404324
0001a0 a3 29 e3 bd c4 04 58 3e a0 91 10 be bb 25 d7 bc
       -0.11091926 0.21095568 -0.14118052 -0.026263108
0001b0 e7 9b da be ae 01 8a be aa 4b a0 be 98 1f 82 be
       -0.4269707 -0.26954406 -0.31307727 -0.2541473
0001c0 7d 40 ac be 56 2e af bc 10 1c 47 3d 22 54 67 bd
       -0.3364295 -0.0213844 0.048610747 -0.05647672
0001d0 b8 53 3a 3d d9 db 2c be be ca 50 be ca 6d 21 be
       0.045489997 -0.1688074 -0.2038984 -0.15764537
0001e0 74 9f 33 3d 77 ac f9 3d 9a 39 7c be 30 36 08 be
       0.04385324 0.12191098 -0.24631348 -0.13301921
0001f0 3d d8 3d 3c 7e dd 58 be 93 19 b3 be 85 1d 6d be
       0.0115872 -0.21178243 -0.3498045 -0.23155792
000200 44 58 8e be 3a 8d c5 be d0 de 35 be 7a 10 76 be
       -0.27801716 -0.3858431 -0.17760777 -0.24029723
000210 2a e3 23 be 04 0e c3 bd 43 44 db 3c 3c b4 41 3c
       -0.16004625 -0.09524158 0.026765948 0.011822756
000220 3a 58 eb be bf 69 03 be 89 0b 58 bd 5d 62 4b bc
       -0.4596575 -0.12833308 -0.052745376 -0.012413588
000230 a0 bb 98 bd 1c 7a ae bd 8e 5b 87 bd b5 08 48 3d
       -0.07457662 -0.08519384 -0.066092595 0.04883643
000240 bd 83 7e be 30 e4 a9 bd 34 93 cf be 67 75 53 bc
       -0.24854942 -0.082954764 -0.40541995 -0.012906409
000250 15 e9 c0 bc 05 e9 e6 be cb 8e 52 be 34 56 de bd
       -0.023548642 -0.45099655 -0.20562284 -0.10856286
000260 6c 36 50 be 8d 38 fd bb 84 61 92 bd f0 7e 98 3d
       -0.2033326 -0.0077276886 -0.07147506 0.074460864
000270 f8 65 aa be d3 a3 81 bb 49 35 05 be c2 e3 28 be
       -0.3328092 -0.003956297 -0.13008608 -0.16493133
000280 08 bc 94 be c3 9f 78 3c 43 1f 86 be 66 a7 92 bd
       -0.29049706 0.015174809 -0.26195726 -0.07160835
000290 64 02 57 bd 2f f3 5f bc c1 56 26 be 33 ba b1 be
       -0.052492514 -0.013668819 -0.16244031 -0.3471237
0002a0 ea d6 48 be 20 78 b1 bd a1 28 ec bd d3 b2 ad be
       -0.19613233 -0.0866549 -0.11531187 -0.33925495
0002b0 f9 19 2a bc b9 f6 00 bd 74 36 0c be aa 3a 91 bd
       -0.010382169 -0.031485293 -0.13692647 -0.070912674
0002c0 2b 9c 74 be 03 dd ba 3d e0 5d 9e be c2 01 8d be
       -0.23887698 0.09124186 -0.30930996 -0.27540404
0002d0 f9 50 a4 be 2c 7b 0a be 1d 88 ae be 0b 40 11 bc
       -0.32093027 -0.13523549 -0.3408822 -0.008865367
0002e0 ea 14 a8 be 3f e0 6e be 23 af 00 bc e5 29 d8 bd
       -0.32828456 -0.2332773 -0.007854256 -0.10554866
0002f0 c8 6a ac 3d 52 e2 91 be 86 ec 41 3e 2c af 6e 3d
       0.084188044 -0.2849298 0.18937883 0.058272526
000300 f7 d8 5f be b3 4f 4a 3d ff 78 cd be f5 90 82 be
       -0.2186011 0.049392413 -0.40131375 -0.25501218
000310 46 e6 4f bd 51 8a e6 bd 8e 16 d1 bd 37 fa ce be
       -0.050756715 -0.112568505 -0.1020938 -0.40425274
000320 ed d7 98 3d c7 01 49 be 27 90 45 be 62 fb 44 be
       0.074630596 -0.19629584 -0.19293271 -0.1923652
000330 7a 47 40 be 22 e3 66 bd 90 ad 53 3d 95 fa f2 bd
       -0.18777266 -0.056368954 0.051679194 -0.11864201
000340 30 25 6a bd c3 8d ac 3c c2 7c 49 be cb 9b c7 bc
       -0.05716437 0.021063691 -0.19676498 -0.02436628
000350 4d a4 a3 be f1 72 b0 be 5e e8 53 be 37 b2 95 be
       -0.3196129 -0.34462693 -0.2069411 -0.2923753
000360 f6 0b 8c be aa 60 c2 3d b8 20 20 bd 60 d8 12 be
       -0.27352875 0.094910935 -0.039093703 -0.14340353
000370 c0 0b 6e be 3a 4c 20 3d 6d 7a 07 be 70 15 49 be
       -0.2324667 0.039135195 -0.13230295 -0.19637084
000380 86 57 a4 bd d8 ce c9 bb 7d 89 b5 3d 73 02 05 3d
       -0.08024506 -0.006158691 0.088641144 0.03247304
000390 09 ad c3 bd c6 04 28 be e7 4a 87 be 23 58 6d be
       -0.09554488 -0.16408071 -0.26424333 -0.23178153
0003a0 3f e3 af ba 57 82 0f bd 1c 3c cf be 4b c7 6d be
       -0.0013419165 -0.03503641 -0.40475547 -0.23220555
0003b0 64 85 61 be b0 ae b6 bd 88 e7 53 be 29 64 92 be
       -0.2202354 -0.08920038 -0.20693791 -0.2859204
0003c0 44 a4 8e be 55 0a a8 bd 04 f7 c0 3d a6 cb a9 3d
       -0.278597 -0.08205096 0.094221145 0.08290796
0003d0 2b c7 af 3c 27 99 3d be 55 b1 1d be af 16 94 3d
       0.021457275 -0.18515454 -0.15399678 0.07230889
0003e0 0a df 53 be 13 31 8a 3d d6 71 2b bc 38 2b 2b be
       -0.20690551 0.067476414 -0.010464152 -0.16715705
0003f0 06 14 d9 be d0 ab 7f be 06 d6 71 be aa eb 03 be
       -0.4239809 -0.24967885 -0.236168 -0.12882867

l2.weight f4 [300, 400]
000000 b8 3c 4c bd b8 f8 24 bd 27 a9 c8 3c c6 c0 67 bb
       -0.049862593 -0.04027626 0.02449472 -0.0035362705
000010 98 68 41 bd 02 cb f5 3c 09 33 cd bd 74 fc 88 bd
       -0.04721889 0.030004028 -0.100195 -0.066887766
000020 fb e2 5e bd 60 3a 99 bd 7d c4 8d bc ac 66 e6 bd
       -0.054415684 -0.07481837 -0.017305607 -0.11250052
000030 7e a0 1d be 26 e2 ea bc 2b 92 8d bd 6c ed d6 bc
       -0.15393254 -0.02867229 -0.06912645 -0.026236258
000040 ef 7a a6 3c 9d a3 4e bc af 95 12 be 19 f8 33 bc
       0.020322291 -0.012612251 -0.14314912 -0.010984444
000050 cc 1d c6 bd 1a 6f 4f bd ad 72 b7 bd db 83 04 be
       -0.09673652 -0.050643064 -0.089574195 -0.12940924
000060 ee bc da bc 48 55 6a be 0d 49 b4 bd e9 ea 8f 3d
       -0.026701417 -0.22884095 -0.08802996 0.070272274
000070 69 ee c3 bd bd a0 bd b9 b0 98 7c 3d 71 1d be 3c
       -0.095669575 -0.00036168649 0.06166905 0.023207398
000080 89 53 30 bd ef cc 08 be 54 62 d3 bc 80 37 ff bc
       -0.043048415 -0.13359426 -0.025803722 -0.031154394
000090 6d a7 8c bd 54 d1 83 3c d4 99 1c bd 22 13 12 bb
       -0.068678714 0.016091026 -0.03823264 -0.0022289236
0000a0 1d 31 45 3d 89 a7 69 3d 3e 93 7f 3d 41 b3 05 bd
       0.04814254 0.05704454 0.06239628 -0.032641653
0000b0 90 91 83 bd 28 a6 cb bd 46 24 24 be e1 b6 5a 3d
       -0.06424248 -0.09943801 -0.16029462 0.053397063
0000c0 ad 86 a2 bd be e2 74 bd 8f ca c3 3c 58 6e 30 bd
       -0.079358436 -0.05978655 0.023900298 -0.043073982
0000d0 4c b8 82 bd a0 ef cb bd 35 b7 37 3b f6 dd 25 3b
       -0.06382808 -0.09957814 0.0028032784 0.00253093
0000e0 6c b2 88 bd a3 1d 64 bc 6a e5 33 bd a0 92 3d bc
       -0.06674656 -0.013923082 -0.04391996 -0.011570603
0000f0 0a 11 6e 3d d8 46 bf 3c 92 4b 1b 3c 8d 42 15 bd
       0.05812172 0.02334921 0.009478467 -0.03644042
000100 dc 8a 2c bd 93 a0 55 bd 2c 6d 37 bb cb 40 46 bd
       -0.042124614 -0.05215509 -0.0027988655 -0.048401635
000110 a3 15 30 3d 02 61 32 3d a7 a5 b9 bc 85 16 03 be
       0.042989384 0.043549545 -0.022661997 -0.1280156
000120 c0 72 a2 3c 18 34 91 bc f4 04 04 3d f0 d5 4a bd
       0.019830108 -0.017725036 0.032231286 -0.049520433
000130 e6 27 59 bd b2 e4 a1 bd 50 e8 f3 3b 7a 3b 82 bd
       -0.053016566 -0.07904948 0.0074434653 -0.063590005
000140 4b 7c 41 3c 32 79 8b bd cf 6d 85 bd 9a 1b 76 bd
       0.011809419 -0.068102255 -0.06515085 -0.060084917
000150 dd 74 bf 3c 81 b1 7e ba 88 52 61 bc 8c 45 bc bd
       0.023371154 -0.0009715781 -0.013752587 -0.091929525
000160 89 02 41 3c ad 51 20 be 29 df d6 bd e2 8b f2 bd
       0.01178039 -0.15656157 -0.10491783 -0.11843087
000170 fe 48 ec bc 3b 1f 0f bd e3 a0 bd bc 5c f4 44 3a
       -0.0288434 -0.034941893 -0.023148006 0.0007513219
000180 0f e5 f6 3b d4 bd c8 bd 04 95 89 3d 02 17 3a bd
       0.00753463 -0.09801832 0.067178756 -0.0454321
000190 6a 1a 29 bd 39 11 1c bd 61 c6 12 3c a5 35 3a bc
       -0.041284956 -0.038102362 0.00895843 -0.011365329
0001a0 40 43 22 bd a8 b7 93 bd 73 35 a7 3c 19 d5 d1 bd
       -0.039614916 -0.07212764 0.020411229 -0.10245723
0001b0 1c 7e e6 3b 79 5b 8a 3d ca 3f d9 bb d4 32 d3 3d
       0.0070340764 0.06755728 -0.0066299187 0.10312429
0001c0 6b 12 9c 3c b6 01 0b bd b5 59 20 3d 69 2f ce 3c
       0.019051751 -0.03393718 0.03914805 0.025169091
0001d0 6f 78 8f bd 82 6c f2 3a 79 97 9f 3a 5e af 12 bc
       -0.07005393 0.0018495473 0.001217588 -0.008952944
0001e0 0a b4 27 be 20 7a bb bd 67 3f 2c bd 60 9f 15 3b
       -0.16377273 -0.09154153 -0.042052653 0.002283059
0001f0 6b 3d 19 bc 8f 54 30 3d a9 99 7f bd a1 58 57 bd
       -0.009353022 0.04304939 -0.0624024 -0.052574757
000200 67 3b 44 bd 83 71 e9 bc a4 a3 ea bd 14 15 f6 bd
       -0.047908213 -0.02849651 -0.11456993 -0.12015739
000210 c0 d5 c5 bd 1e a4 cc 3c 9f bd 0c 3d 7c 8a 72 bd
       -0.0965991 0.0249806 0.034360524 -0.0592141
000220 6b f4 3c 38 78 d9 32 3c 07 e5 d3 bd 00 6c 4b be
       4.5050325e-05 0.010916106 -0.10346418 -0.19865417
000230 03 3f 9d bd f4 e9 b8 bd d3 cb 9e bd 45 25 fd 3c
       -0.07678034 -0.09028998 -0.0775372 0.03090156
000240 dc 6a 95 bc ae ec 0b 3d 8e ed 8f bd 56 8b b4 bd
       -0.018239431 0.034161262 -0.07027732 -0.08815639
000250 2c bc 6a bd f6 59 89 bd db 9f 1f 3d df 78 18 bd
       -0.05730836 -0.06706612 0.03897081 -0.037224647
000260 33 cd e2 bd d7 c7 ea bd 04 8e 32 bd 05 a8 04 be
       -0.11074295 -0.11463898 -0.043592468 -0.1295472
000270 02 d7 ff bc fa 76 93 bd 6f ac f2 bc 81 90 14 be
       -0.031230453 -0.07200427 -0.029623238 -0.14508249
000280 33 d0 e9 bc 53 7c bb 3c 6a 26 4d 3d cd 2b d9 bd
       -0.02854166 0.02288643 0.050085463 -0.106040575
000290 bb 56 86 bc c8 28 7f bc 19 54 1d bd 41 0e 45 bd
       -0.016398778 -0.015573688 -0.03841028 -0.048109297
0002a0 05 f4 0b 39 dc 6c 2f be 20 d3 95 bd 76 de 80 bc
       0.00013346977 -0.1713137 -0.073156595 -0.015731078
0002b0 b5 43 fb 3c f4 aa 8b bd 42 cb 9f bc 74 80 75 bd
       0.030671934 -0.06819716 -0.0195061 -0.059936956
0002c0 fd 21 48 bc fc 91 5d bd e1 5d 9b 3d ca aa 38 bd
       -0.012215135 -0.0540943 0.07586265 -0.045084752
0002d0 75 7f ad 3a 03 b9 75 bd 3d f8 e0 bd 78 16 a7 bb
       0.0013236838 -0.059990894 -0.10984848 -0.005099114
0002e0 bc 0c 8c bd e5 58 6f bd 63 a4 7c bb f4 ee a1 bb
       -0.068383664 -0.058434386 -0.003855013 -0.0049418155
0002f0 b7 df 6d bd c7 1a 14 3d 59 f2 96 3c 4d 81 eb bc
       -0.05807468 0.03615835 0.018426107 -0.028748179
000300 9d 71 ff bc a3 c8 55 bd 81 68 16 bd 12 cd 07 3d
       -0.031182105 -0.052193295 -0.036720756 0.033154555
000310 a5 fc 53 bd 68 ab 0a bd 43 77 0e bd b1 73 60 bd
       -0.051754612 -0.033854872 -0.034781706 -0.054797832
000320 c6 2c 38 bd cc d7 04 be 32 26 7d bd c0 77 93 bd
       -0.044964574 -0.12972945 -0.061804004 -0.07200575
000330 06 f3 4c 3c ab 26 3d bd 32 50 13 be 2d 58 f7 3b
       0.012509113 -0.046179455 -0.14386061 0.007548353
000340 74 0a 21 3d 3f f5 35 3b c4 18 75 bd ff e5 e3 bc
       0.03931661 0.0027764586 -0.05983807 -0.027819632
000350 1d 60 82 bc 7f 50 a9 bd 31 14 d6 bd 0c f3 dc bc
       -0.015914971 -0.082673065 -0.1045307 -0.026971363
000360 0b 20 62 bd f5 9e 08 be 43 da 84 3b 4f 70 bc 3c
       -0.05520634 -0.13341887 0.004054339 0.023002772
000370 37 d4 41 bd cf 61 fa bd 86 f2 d4 bc f8 10 a5 bd
       -0.047321524 -0.12225687 -0.02599455 -0.08059877
000380 7d cd 83 bc fd bc 1c bd d6 67 87 bd 6b 89 fa bc
       -0.016089195 -0.03826617 -0.06611602 -0.030583104
000390 28 17 62 bd ee 28 e5 bc 0c 74 20 bd 36 54 1b 3c
       -0.055197865 -0.027973618 -0.03917317 0.009480527
0003a0 af 70 2e bb 11 7d 59 3d 47 ff 03 bd fa 05 2d be
       -0.0026617458 0.05309779 -0.032225873 -0.16896811
0003b0 51 99 bc bd 39 52 b9 bb 6f 28 8e bd ce e3 a8 3c
       -0.0920893 -0.0056555537 -0.06941306 0.020616438
0003c0 a1 40 35 3b 72 21 00 3d d1 50 24 bd 02 81 c2 bd
       0.002765693 0.031281896 -0.040116135 -0.094972625
0003d0 79 59 a1 bd 86 4a 57 be 2d 14 aa bd d8 1d d3 bc
       -0.07878394 -0.21024522 -0.083046295 -0.025771067
0003e0 35 de 5e 3d 76 3f 37 3d bb 18 ec 3c 20 e3 93 bb
       0.054411132 0.044738255 0.028820386 -0.0045131594
0003f0 72 50 d9 bb 0b 6b 14 be 74 8c d2 bc 7e 72 12 be
       -0.0066319043 -0.14493959 -0.025701739 -0.14301488

l2.bias f4 [300]
000000 38 30 e6 bc 4c cd 5d 3b 13 0c 40 3e ce b8 c4 3d
       -0.028099164 0.003384429 0.18754606 0.09605561
000010 69 c8 af bc 10 ec 13 be 5f 60 0c bd 3b 1c 59 be
       -0.021457868 -0.1444552 -0.034271594 -0.21202175
000020 36 ce 27 be 72 32 26 bd d7 12 31 bd 3c 1d 1e be
       -0.16387257 -0.040575452 -0.043230858 -0.1544084
000030 5b 6d 2e be 09 ea d7 bd 78 8f 48 be a2 59 6e 3b
       -0.17033903 -0.105426855 -0.19585979 0.0036369343
000040 e3 4c c4 bc 8e 9a c6 bb 65 eb 5a 3d 18 ab f9 bd
       -0.023962444 -0.006060905 0.053447146 -0.12190837
000050 22 df 47 be 8f 34 83 3e d2 32 24 3e 53 85 23 be
       -0.19518712 0.25626037 0.16035011 -0.15968828
000060 dd 46 86 bd 03 20 1d 3e 59 1d 99 3e a2 83 44 bb
       -0.06556485 0.15344243 0.29905203 -0.0029985686
000070 cf 3a 3d 3e 92 ed b2 3d ec 03 e7 bd 59 5f 4e 3e
       0.18479465 0.08736719 -0.11280045 0.2015356
000080 98 47 e0 ba 86 e9 8c be 51 df 9d 3c bb 50 23 bd
       -0.001711118 -0.27521914 0.019271525 -0.039871912
000090 7a 33 85 3e 44 70 e6 bb d5 53 87 bc e2 62 e8 bc
       0.26015836 -0.007032426 -0.016519466 -0.028367463
0000a0 10 c1 30 be 10 d0 af bc b5 f6 66 bb 7b 6c a6 bd
       -0.17261147 -0.021461517 -0.0035242264 -0.0812616
0000b0 76 16 80 bb b9 60 52 3e 27 b1 b6 3a 57 04 5c 3e
       -0.0039089276 0.2054471 0.0013938294 0.2148603
0000c0 24 40 d5 bc 97 15 3c 3d 16 cc a9 bc 6a 1d 1e be
       -0.026031561 0.045919027 -0.020727199 -0.15440908
0000d0 f3 62 f9 bc 33 c5 1c be 2c 8e 8c bd cf ba 46 be
       -0.03044269 -0.153096 -0.06863055 -0.194072
0000e0 f6 30 34 3d 97 4b 50 3d 8b 52 c0 bd e0 18 63 3e
       0.043992005 0.050853338 -0.09390744 0.22177458
0000f0 01 ee 14 be e4 ae 92 3e 11 fb 4b be a9 8c 94 be
       -0.14543916 0.28649056 -0.19919993 -0.29013565
000100 30 67 84 bd fa 25 65 be 53 51 fa bc 98 15 83 bd
       -0.06464994 -0.22377768 -0.030556357 -0.06400603
000110 9e 1a 94 3d b4 6c 09 be db 69 33 3e da 34 39 3c
       0.07231639 -0.13420373 0.1752085 0.011304105
000120 5d e4 a7 be da a7 79 bc 2f 35 8d be 73 15 81 bc
       -0.32791415 -0.015237773 -0.27579638 -0.015757298
000130 ba ec 65 3e 7f 95 4e bd 1e 96 48 bd 27 22 59 bd
       0.22453585 -0.05043554 -0.048971288 -0.053011086
000140 63 30 01 be c6 5a 57 bd 03 fc 20 be 3b 44 04 3e
       -0.12616114 -0.052576803 -0.15721135 0.12916653
000150 46 ec 24 be e4 ee ec bc 91 ea 53 bd f2 a8 0e 3c
       -0.16105756 -0.028922506 -0.05173737 0.008707272
000160 db 53 7d 3c 54 44 9c b9 4c 23 47 be f4 c6 c0 bd
       0.015461887 -0.00029805547 -0.19447058 -0.09412947
000170 2c 1a f4 3d af 96 4d bd 27 82 58 3e 8c 11 94 3c
       0.119190544 -0.05019253 0.21143399 0.018074773
000180 af 9c d8 bd 52 02 bd bd 69 97 21 bc 31 8a 46 bc
       -0.1057676 -0.09228958 -0.009862759 -0.012117908
000190 df c9 0d 3c 1d 3e 69 bd 64 53 c6 bd ad 6a 84 bd
       0.008654087 -0.056944 -0.09683874 -0.06465659
0001a0 da fd 4b be e7 38 09 be 27 d5 34 be eb 2c f9 bd
       -0.19921055 -0.13400613 -0.17659436 -0.121667705
0001b0 00 8e 79 3d eb 77 c7 bd 09 97 7b bd f6 18 b4 3b
       0.060926437 -0.097396694 -0.061423335 0.0054961396
0001c0 19 d0 2e bd b0 d1 8b 3e 54 6b d6 bc 7b 9f 1b bc
       -0.042678926 0.27308416 -0.026174225 -0.009498472
0001d0 5f bd c9 bd ad 1b 1c bd af e2 fa bd 92 ff 51 bd
       -0.09850573 -0.03811233 -0.12250268 -0.05126912
0001e0 34 21 15 3e 80 93 11 3e 8d d1 b6 bd 5b 04 96 be
       0.14563447 0.14216423 -0.089266874 -0.29300198
0001f0 76 1b 58 bd 34 b2 93 bd ab cb 4d bc 2a 5c 8d be
       -0.052760564 -0.07211724 -0.012560765 -0.27609378
000200 90 80 a6 3b c2 4d b5 bd cd 4d 6a bb b8 ae 96 bc
       0.005081244 -0.08852722 -0.003575194 -0.01839386
000210 43 9a d6 3d c6 ec 55 be a1 73 3a bc 2c 75 4f bd
       0.10478642 -0.20891103 -0.011380107 -0.050648853
000220 bf ca ea bd 99 b7 11 3e e2 8d b4 bd e8 25 70 3e
       -0.11464452 0.14230193 -0.088161245 0.2345196
000230 47 a6 3e bd 4e 7f 47 3e 06 0d 41 bd eb 96 98 3d
       -0.046545293 0.19482157 -0.04713156 0.0745066
000240 35 cb df bb bb 3e 2a 3e 5a ba 9f be c2 6e f2 3d
       -0.006829644 0.16625492 -0.31196862 0.118375316
000250 8e c3 44 3e b8 e8 86 bd c4 5b d3 3c 12 e7 69 bd
       0.19215223 -0.06587356 0.025800593 -0.05710513
000260 22 55 e4 bc 1b cb 9a bd 0e 25 86 bd 35 a6 61 be
       -0.027872626 -0.075582705 -0.06550036 -0.22036059
000270 fd 84 91 bd 29 5b 4d 3e 96 8a 24 be 6c a3 81 be
       -0.071054436 0.20054306 -0.16068491 -0.25319993
000280 51 88 a0 be c7 da 04 3d 05 9d 4f bd 70 e3 64 be
       -0.31354 0.032435205 -0.050686855 -0.22352386
000290 c4 03 4a 3e bd b4 7e 3e 82 4d 87 3d 44 68 9b bd
       0.19727999 0.24873634 0.0660658 -0.075882465
0002a0 5c d7 14 bd 3a 84 48 bd 76 0e 65 be 24 1c 9f bd
       -0.036338195 -0.048954226 -0.22368798 -0.07769039
0002b0 b9 06 d6 3c 69 12 b5 3a 21 48 2c bc 3f 37 bb bc
       0.026126252 0.0013814691 -0.010515244 -0.022853492
0002c0 d8 e8 72 bd 5e 56 ad bd 9e 77 76 bd fa 97 3e bd
       -0.05930409 -0.08463739 -0.06017267 -0.046531655
0002d0 30 0b 00 3e c9 2c 10 be 67 32 2a 3e 22 8c f3 bd
       0.12504268 -0.14079584 0.1662079 -0.118919626
0002e0 fa d6 cb bd 46 fe cb 3a 4d 61 da 3c 1e 81 c3 bc
       -0.09953113 0.001556345 0.026657725 -0.023865279
0002f0 65 41 f6 bc 43 03 b3 bb 62 58 83 bb 1a e1 0a be
       -0.03006048 -0.0054630353 -0.004008339 -0.13562432
000300 8e 8a 03 be 8f 87 37 bd a3 25 60 bd ee d7 23 be
       -0.12845823 -0.044807013 -0.054723393 -0.1600034
000310 a4 0e 49 3e df 6d cd bc 75 3f 16 3a 02 12 06 bd
       0.19634491 -0.025076805 0.0005731502 -0.032732017
000320 f8 4e 4e bb 6f 49 6a 3d 41 a8 71 bd fb dc 59 bd
       -0.0031480175 0.057198938 -0.05899835 -0.05318926
000330 dd be 31 3c 49 b8 08 bc e2 58 4c be 7a b1 37 3d
       0.010848728 -0.008344718 -0.19955781 0.04484699
000340 aa 54 80 3c 41 0d 81 be 18 5f ee 3c 36 91 a8 3d
       0.015665371 -0.25205424 0.029098079 0.08230822
000350 4b 03 02 bd a3 78 05 3e 7f a9 9c bd 3d 63 3c be
       -0.03174142 0.130343 -0.07649516 -0.18397231
000360 9b e5 16 3e cd 00 8e be f1 40 0f 3e 3f 8e 95 bd
       0.14736025 -0.27734986 0.13989617 -0.07302522
000370 6b af 71 bd ac 13 25 bd 57 7a fd bd 81 a4 40 be
       -0.059005182 -0.040301964 -0.1237685 -0.18812753
000380 8d 6b 59 3e 13 d1 68 3e 86 83 1b 3e 20 3b 07 bd
       0.21232434 0.22736005 0.15186891 -0.03301537
000390 57 d7 34 3e 33 c7 c7 bb a6 6e 9f bb 2a a7 22 bc
       0.1766027 -0.0060967444 -0.0048654852 -0.00992755
0003a0 e2 9b c4 3c d8 55 ca 3d b6 88 df 3d 73 24 1d 3e
       0.024000112 0.09879655 0.109147474 0.15345936
0003b0 a4 12 5a be 84 99 4b bc 6f b2 4d be 04 b4 96 bd
       -0.21296173 -0.012426738 -0.20087598 -0.07358554
0003c0 ee 35 67 bd eb f5 2b 3e 70 c0 a1 bd 41 c7 c9 3d
       -0.056447916 0.16793029 -0.07898033 0.09852458
0003d0 26 8d 8b bc 5e 52 65 3c 0c 7a 5a be 55 12 5b bd
       -0.017035078 0.013996689 -0.2133562 -0.05348428
0003e0 76 52 57 bc 9f d2 16 be 68 58 1e be 42 c1 0e bd
       -0.013142219 -0.14728783 -0.15463412 -0.034852274
0003f0 08 f0 c4 3d ef a0 2f bd e2 47 48 bd 87 f5 d6 bd
       0.09616095 -0.042878088 -0.048896678 -0.104960494

l3.weight f4 [2, 300]
000000 86 44 34 3d a4 59 ae be 4a 60 1b 3d 57 ff 27 3f
       0.04401066 -0.34052765 0.037933625 0.6562399
000010 81 9f d7 3c 23 4c 91 3e 6c 66 d6 3c 2a 4e 80 3e
       0.026321175 0.283784 0.026171885 0.25059634
000020 57 fc 66 3e 25 58 c1 be 8c f2 35 be ea 34 e4 be
       0.22557198 -0.3776256 -0.17768306 -0.4457162
000030 52 cc af 3d 35 e9 b0 3d a5 51 be 3e 87 30 c3 bc
       0.08583893 0.08638231 0.37171665 -0.02382685
000040 a1 55 84 3c 29 39 b1 bc 96 0a c0 be 4a 73 88 be
       0.016154112 -0.021633701 -0.37508076 -0.2665046
000050 0a d4 ab 3e fd 44 bb be 57 a5 c8 be ea d2 b4 3c
       0.3356021 -0.3657607 -0.39188644 0.022073228
000060 8a 90 19 3c 0e 69 df 3e 45 3a d2 be f1 80 de 3c
       0.00937284 0.43634838 -0.4106008 0.027161093
000070 ee e9 e0 bc 4a 73 65 3e 7b d7 85 bd a4 53 0c 3f
       -0.027455296 0.2240726 -0.0653524 0.54815125
000080 fa 6b 4d bd af e8 73 3e c6 dd 07 bd e8 dd 37 3d
       -0.050151803 0.2381923 -0.033170484 0.04488936
000090 73 16 66 be 61 7a 00 3d 1f 5a 40 3e 8e cc 4a be
       -0.22469501 0.03136671 0.18784378 -0.19804594
0000a0 f3 cc c5 bd 3c f5 04 3d ab a0 1d 3e 09 54 ee bb
       -0.096582316 0.032460436 0.15393321 -0.0072732014
0000b0 c4 1c 05 bf 6b ca b7 b9 4e f9 22 3d d1 82 c1 be
       -0.5199702 -0.00035055293 0.039788537 -0.37795117
0000c0 f5 bf 37 3d ea 80 39 be ae 63 37 3c bf d3 e0 be
       0.0448608 -0.18115583 0.011193199 -0.4391155
0000d0 c5 47 0e bd b7 d9 8e 3d 74 5a d9 3c 41 0a a3 be
       -0.034736414 0.069751196 0.02653239 -0.3184376
0000e0 49 d5 eb 3e 1f ff d2 be a8 96 1a 3e c7 6e e0 3e
       0.4606116 -0.41210267 0.15096533 0.43834516
0000f0 f6 30 cb bd 4e 6c c0 3d bf bf fa 3e 3a 96 33 bd
       -0.09921448 0.093956575 0.48974416 -0.04384444
000100 00 d8 4c be 3e 48 ea 3d 2d 00 0b 3d 92 37 43 3c
       -0.20004272 0.1143956 0.033935715 0.011915104
000110 bb 51 84 3e 1d 87 85 be 53 03 5a 3e 51 9f 48 3d
       0.25843605 -0.26079646 0.2129033 0.04898006
000120 83 bf 42 3e 7c 81 46 3e f8 e4 66 3e 69 99 bf ba
       0.19018368 0.19385332 0.22548282 -0.0014617863
000130 6b 95 cf bc e4 68 85 3b fc fd 0e bf 53 45 fd bd
       -0.025339803 0.004071342 -0.558563 -0.12366738
000140 1f 23 d0 bd b7 46 2f bd 8f 01 71 be fa 81 6d be
       -0.10162949 -0.04279205 -0.23535751 -0.23194113
000150 b8 2f ea bc d2 d4 b2 bb df 93 1b 3d 50 eb fa bd
       -0.028587207 -0.005457499 0.037982818 -0.122519135
000160 0d 88 de bd f2 9d 06 bb 70 c9 71 bd 0c 4e 39 bb
       -0.108657934 -0.002054092 -0.059029996 -0.002827528
000170 3a 57 07 bf 6f d4 37 be 29 09 ba 3d d8 12 2e bf
       -0.5286747 -0.1795213 0.090837784 -0.67997503
000180 db ba 65 3d e8 12 06 be 2f 62 40 3a 64 c6 60 be
       0.056086402 -0.1309315 0.0007338849 -0.2195068
000190 19 e2 22 3d bb 47 2c bd c6 ac c9 3c ad f4 20 3d
       0.039766405 -0.042060595 0.024618518 0.03929584
0001a0 07 ba d8 3e 0a ac 4b bd 3d 69 63 be 07 8d 55 bd
       0.42329428 -0.049724616 -0.22208114 -0.052136447
0001b0 c8 2d b5 be c8 ec 55 3e b1 35 f9 bb b1 5f ae be
       -0.3538649 0.20891106 -0.0076052775 -0.34057382
0001c0 64 ea f2 bc ff de 02 3f 89 c8 4f 3c 67 4c 43 3d
       -0.029652782 0.51121515 0.012682089 0.047680285
0001d0 da 2b b6 3e bf 1b dd 3a b5 49 10 bd 69 e4 45 be
       0.3558033 0.0016869231 -0.035226543 -0.19325413
0001e0 19 dd 8e 3d ee 9a 13 3f 1c 55 f1 3e 44 33 87 be
       0.06975765 0.5765828 0.47135246 -0.264063
0001f0 67 da bb 3b d5 a3 ca bc 2b d6 73 bb af 6d 82 3e
       0.0057328227 -0.024736324 -0.0037206511 0.25474307
000200 a8 bf 20 3d 59 8c bc be d8 d6 01 3f b6 f9 e8 bd
       0.039245278 -0.36825827 0.5071845 -0.113757536
000210 14 a1 9e be 66 e4 a6 3e 8a f6 3d bc a0 95 ce be
       -0.30982268 0.3259613 -0.011594424 -0.4034853
000220 85 86 cf 3e dd 50 fb 3e d3 2f 98 bb d2 4f 22 3c
       0.40532318 0.4908513 -0.004644373 0.009906726
000230 d6 01 94 bb 24 d2 83 3d 4a fe 8a 3c 61 ab 93 bd
       -0.0045168204 0.064365655 0.016966958 -0.07210422
000240 63 ee c9 bd 14 b0 95 3e fe 48 13 be 10 4c 4c bf
       -0.09859922 0.292359 -0.14383313 -0.7980356
000250 0b 8f 6a 3e 76 48 87 bd 70 c2 6c 3e 5b f0 1f 3d
       0.22906129 -0.06605618 0.23121047 0.03904758
000260 3a 79 08 bb de d0 a9 3c 64 46 8e 3b fa bc 90 3e
       -0.002082421 0.020729478 0.0043418873 0.28269178
000270 78 1b 5b bb ab f6 f9 bc 22 97 27 be a4 d8 ce be
       -0.003343312 -0.030513128 -0.16366246 -0.4039966
000280 a0 f6 c3 3e 38 4f 30 bf ea 17 0c 3d 0e 39 e1 bd
       0.38274097 -0.6887088 0.034202494 -0.109972104
000290 ed 7b bd bc d6 fd ad 3c cd e9 be be 0e e9 92 bd
       -0.023130381 0.021239202 -0.3728775 -0.07173358
0002a0 eb e8 f2 3b 73 a1 26 bc ee f6 98 3e 6b 38 c1 3c
       0.00741302 -0.010170328 0.29875892 0.023586472
0002b0 ca 7c e5 be 41 0b 2f 3d ed fa 35 3d a0 16 fa bc
       -0.4482177 0.042735342 0.044428755 -0.030528367
0002c0 4e fb 0e bd 0f e2 03 bc 92 0f 67 3d 24 56 e6 be
       -0.03490763 -0.008049502 0.056411333 -0.44987595
0002d0 0d 0a 97 be a7 be 23 3f 80 1e ca 3e e9 7e a4 bd
       -0.29499856 0.6396279 0.39476395 -0.08032019
0002e0 5a 85 0b bf 9b 3e c4 3c b5 ce 5e be 62 f7 3b bc
       -0.54500353 0.023955634 -0.2175854 -0.011472555
0002f0 28 1b 3e 3d 6b 30 11 3d 1e 98 10 be 8d 2c 83 3d
       0.046412617 0.035446566 -0.14120528 0.06404982
000300 13 9b 8f 3d 07 37 bb ba 27 d3 1e 3d 9c c7 80 bd
       0.07012 -0.0014283367 0.03877559 -0.062880725
000310 9f f2 37 3c 77 a2 6e bc 03 9a 32 3b ff 62 68 bb
       0.011227279 -0.014565102 0.0027252443 -0.0035459397
000320 fb 5c 19 3d 4d 6c c0 be bb 8a 09 3e 00 82 de 3c
       0.03744219 -0.37582627 0.13431828 0.027161598
000330 9d 70 11 3f 57 e3 09 bd 64 9f 8e be 22 7f 3a be
       0.5681246 -0.033664074 -0.2785598 -0.1821256
000340 b8 bc 00 3e 73 d9 5b 3e 64 b5 89 3e a9 8d 11 3f
       0.1257199 0.21469669 0.26896203 0.5685678
000350 a0 b9 b3 3c eb 52 79 3d 42 0d e7 ba a5 60 be bd
       0.021939099 0.060870092 -0.0017627853 -0.09295777
000360 ce fd 0d 3d 99 b6 26 3e 34 27 96 3d 93 ae fe 3b
       0.034665875 0.16280593 0.07331696 0.0077722757
000370 4e 64 43 3e 8f 46 23 3d 75 8f 66 be 06 1f ad bd
       0.19081232 0.03986221 -0.22515662 -0.08453183
000380 81 ad 3c 3d 8a e6 c1 3c 4e 55 f2 3e 81 a5 83 3e
       0.046063904 0.0236695 0.47330707 0.25712207
000390 18 20 95 be 29 93 85 3c ed 96 09 3c fb 2f 12 3d
       -0.29126048 0.016305523 0.0083978 0.03569029
0003a0 3f 68 4c bb c9 d7 83 3d ed 02 64 3e 83 3d 4c 3d
       -0.0031190065 0.06437642 0.22266741 0.04986335
0003b0 bf c1 8a be 82 26 24 bd ef 60 bd 3e d9 9d e6 bd
       -0.27100942 -0.040075786 0.36988017 -0.11260576
0003c0 0f 65 86 bb 7e 78 26 3d 16 67 f7 3e 51 bc 8d be
       -0.0041014026 0.040642254 0.48320836 -0.27682737
0003d0 d2 81 97 be b5 ea cb 3c 20 12 93 bd c9 35 16 3d
       -0.29591233 0.02489219 -0.071811914 0.036672387
0003e0 75 bc f7 bc c7 87 5c 3e 09 9d 7a 3e 4c 2c c7 3c
       -0.03024123 0.2153617 0.24473967 0.024313115
0003f0 82 6e 83 bd 86 ba 5f 3c bb 5d 28 3a 3d 23 0b bf
       -0.06417562 0.0136553105 0.00064226583 -0.54350644

l3.bias f4 [2]
000000 27 b7 36 bd 1c 1d 8f 3e
       -0.04460826 0.27951896
